…
        max_scale: 0.5
        min_aspect_ratio: 0.5
        max_aspect_ratio: 2
      }
      sample_constraint {
        min_jaccard_overlap: 0.9
      }
      max_sample: 1
      max_trials: 50
    }
    batch_sampler {
      sampler {
        min_scale: 0.1
        max_scale: 0.5
        min_aspect_ratio: 0.5
        max_aspect_ratio: 2
      }
      sample_constraint {
        max_jaccard_overlap: 1
      }
      max_sample: 1
      max_trials: 50
    }
    label_map_file: "/home/work/wwl/code/vision-detector/data/KITTI/labelmap.prototxt"
  }
}
layer {
  name: "conv1_1"
  type: "Convolution"
  bottom: "data"
  top: "conv1_1"
  param {
    lr_mult: 1
    decay_mult: 1
  }
  param {
    lr_mult: 2
    decay_mult: 0
  }
  convolution_param {
    num_output: 16
    pad: 1
    kernel_size: 3
    weight_filler {
      type: "xavier"
    }
    bias_filler {
      type: "constant"
      value: 0
    }
  }
}
layer {
  name: "relu1_1"
  type: "ReLU"
  bottom: "conv1_1"
  top: "conv1_1"
}
layer {
  name: "conv1_2"
  type: "Convolution"
  bottom: "conv1_1"
  top: "conv1_2"
  param {
    lr_mult: 1
    decay_mult: 1
  }
  param {
    lr_mult: 2
    decay_mult: 0
  }
  convolution_param {
    num_output: 16
    pad: 1
    kernel_size: 3
    stride: 2
    weight_filler {
      type: "xavier"
    }
    bias_filler {
      type: "constant"
      value: 0
    }
  }
}
layer {
  name: "relu1_2"
  type: "ReLU"
  bottom: "conv1_2"
  top: "conv1_2"
}
layer {
  name: "conv2_1"
  type: "Convolution"
  bottom: "conv1_2"
  top: "conv2_1"
  param {
    lr_mult: 1
    decay_mult: 1
  }
  param {
    lr_mult: 2
    decay_mult: 0
  }
  convolution_param {
    num_output: 32
    pad: 1
    kernel_size: 3
    weight_filler {
      type: "xavier"
    }
    bias_filler {
      type: "constant"
      value: 0
    }
  }
}
layer {
  name: "relu2_1"
  type: "ReLU"
  bottom: "conv2_1"
  top: "conv2_1"
}
layer {
  name: "conv2_2"
  type: "Convolution"
  bottom: "conv2_1"
  top: "conv2_2"
  param {
    lr_mult: 1
    decay_mult: 1
  }
  param {
    lr_mult: 2
    decay_mult: 0
  }
  convolution_param {
    num_output: 32
    pad: 1
    kernel_size: 3
    stride: 2
    weight_filler {
      type: "xavier"
    }
    bias_filler {
      type: "constant"
      value: 0
    }
  }
}
layer {
  name: "relu2_2"
  type: "ReLU"
  bottom: "conv2_2"
  top: "conv2_2"
}
layer {
  name: "conv3_1"
  type: "Convolution"
  bottom: "conv2_2"
  top: "conv3_1"
  param {
    lr_mult: 1
    decay_mult: 1
  }
  param {
    lr_mult: 2
    decay_mult: 0
  }
  convolution_param {
    num_output: 64
    pad: 1
    kernel_size: 3
    weight_filler {
      type: "xavier"
    }
    bias_filler {
      type: "constant"
      value: 0
    }
  }
}
layer {
  name: "relu3_1"
  type: "ReLU"
  bottom: "conv3_1"
  top: "conv3_1"
}
layer {
  name: "conv3_2"
  type: "Convolution"
  bottom: "conv3_1"
  top: "conv3_2"
  param {
    lr_mult: 1
    decay_mult: 1
  }
  param {
    lr_mult: 2
    decay_mult: 0
  }
  convolution_param {
    num_output: 64
    pad: 1
    kernel_size: 3
    weight_filler {
      type: "xavier"
    }
    bias_filler {
      type: "constant"
      value: 0
    }
  }
}
layer {
  name: "relu3_2"
  type: "ReLU"
  bottom: "conv3_2"
  top: "conv3_2"
}
layer {
  name: "conv3_3"
  type: "Convolution"
  bottom: "conv3_2"
  top: "conv3_3"
  param {
    lr_mult: 1
    decay_mult: 1
  }
  param {
    lr_mult: 2
    decay_mult: 0
  }
  convolution_param {
    num_output: 64
    pad: 1
    kernel_size: 3
    weight_filler {
      type: "xavier"
    }
    bias_filler {
      type: "constant"
      value: 0
    }
  }
}
layer {
  name: "relu3_3"
  type: "ReLU"
  bottom: "conv3_3"
  top: "conv3_3"
}
layer {
  name: "pool3"
  type: "Pooling"
  bottom: "conv3_3"
  top: "pool3"
  pooling_param {
    pool: MAX
    kernel_size: 2
    stride: 2
  }
}
layer {
  name: "conv4_1"
  type: "Convolution"
  bottom: "pool3"
  top: "conv4_1"
  param {
    lr_mult: 1
    decay_mult: 1
  }
  param {
    lr_mult: 2
    decay_mult: 0
  }
  convolution_param {
    num_output: 128
    pad: 1
    kernel_size: 3
    weight_filler {
      type: "xavier"
    }
    bias_filler {
      type: "constant"
      value: 0
    }
  }
}
layer {
  name: "relu4_1"
  type: "ReLU"
  bottom: "conv4_1"
  top: "conv4_1"
}
layer {
  name: "conv4_2"
  type: "Convolution"
  bottom: "conv4_1"
  top: "conv4_2"
  param {
    lr_mult: 1
    decay_mult: 1
  }
  param {
    lr_mult: 2
    decay_mult: 0
  }
  convolution_param {
    num_output: 128
    pad: 1
    kernel_size: 3
    weight_filler {
      type: "xavier"
    }
    bias_filler {
      type: "constant"
      value: 0
    }
  }
}
layer {
  name: "relu4_2"
  type: "ReLU"
  bottom: "conv4_2"
  top: "conv4_2"
}
layer {
  name: "conv4_3"
  type: "Convolution"
  bottom: "conv4_2"
  top: "conv4_3"
  param {
    lr_mult: 1
    decay_mult: 1
  }
  param {
    lr_mult: 2
    decay_mult: 0
  }
  convolution_param {
    num_output: 128
    pad: 1
    kernel_size: 3
    weight_filler {
      type: "xavier"
    }
    bias_filler {
      type: "constant"
      value: 0
    }
  }
}
layer {
  name: "relu4_3"
  type: "ReLU"
  bottom: "conv4_3"
  top: "conv4_3"
}
layer {
  name: "pool4"
  type: "Pooling"
  bottom: "conv4_3"
  top: "pool4"
  pooling_param {
    pool: MAX
    kernel_size: 2
    stride: 2
  }
}
layer {
  name: "conv5_1"
  type: "Convolution"
  bottom: "pool4"
  top: "conv5_1"
  param {
    lr_mult: 1
    decay_mult: 1
  }
  param {
    lr_mult: 2
    decay_mult: 0
  }
  convolution_param {
    num_output: 128
    pad: 1
    kernel_size: 3
    weight_filler {
      type: "xavier"
    }
    bias_filler {
      type: "constant"
      value: 0
    }
    dilation: 1
  }
}
layer {
  name: "relu5_1"
  type: "ReLU"
  bottom: "conv5_1"
  top: "conv5_1"
}
layer {
  name: "conv5_2"
  type: "Convolution"
  bottom: "conv5_1"
  top: "conv5_2"
  param {
    lr_mult: 1
    decay_mult: 1
  }
  param {
    lr_mult: 2
    decay_mult: 0
  }
  convolution_param {
    num_output: 128
    pad: 1
    kernel_size: 3
    weight_filler {
      type: "xavier"
    }
    bias_filler {
      type: "constant"
      value: 0
    }
    dilation: 1
  }
}
layer {
  name: "relu5_2"
  type: "ReLU"
  bottom: "conv5_2"
  top: "conv5_2"
}
layer {
  name: "conv5_3"
  type: "Convolution"
  bottom: "conv5_2"
  top: "conv5_3"
  param {
    lr_mult: 1
    decay_mult: 1
  }
  param {
    lr_mult: 2
    decay_mult: 0
  }
  convolution_param {
    num_output: 128
    pad: 1
    kernel_size: 3
    weight_filler {
      type: "xavier"
    }
    bias_filler {
      type: "constant"
      value: 0
    }
    dilation: 1
  }
}
layer {
  name: "relu5_3"
  type: "ReLU"
  bottom: "conv5_3"
  top: "conv5_3"
}
layer {
  name: "pool5"
  type: "Pooling"
  bottom: "conv5_3"
  top: "pool5"
  pooling_param {
    pool: MAX
    kernel_size: 3
    stride: 1
    pad: 1
  }
}
layer {
  name: "fc6_conv"
  type: "Convolution"
  bottom: "pool5"
  top: "fc6_conv"
  param {
    lr_mult: 1
    decay_mult: 1
  }
  param {
    lr_mult: 2
    decay_mult: 0
  }
  convolution_param {
    num_output: 256
    pad: 6
    kernel_size: 3
    weight_filler {
      type: "xavier"
    }
    bias_filler {
      type: "constant"
      value: 0
    }
    dilation: 6
  }
}
layer {
  name: "relu6"
  type: "ReLU"
  bottom: "fc6_conv"
  top: "fc6_conv"
}
layer {
  name: "fc7_conv"
  type: "Convolution"
  bottom: "fc6_conv"
  top: "fc7_conv"
  param {
    lr_mult: 1
    decay_mult: 1
  }
  param {
    lr_mult: 2
    decay_mult: 0
  }
  convolution_param {
    num_output: 256
    kernel_size: 1
    weight_filler {
      type: "xavier"
    }
    bias_filler {
      type: "constant"
      value: 0
    }
  }
}
layer {
  name: "relu7"
  type: "ReLU"
  bottom: "fc7_conv"
  top: "fc7_conv"
}
layer {
  name: "conv6_1"
  type: "Convolution"
  bottom: "fc7_conv"
  top: "conv6_1"
  param {
    lr_mult: 1
    decay_mult: 1
  }
  param {
    lr_mult: 2
    decay_mult: 0
  }
  convolution_param {
    num_output: 32
    pad: 0
    kernel_size: 1
    stride: 1
    weight_filler {
      type: "xavier"
    }
    bias_filler {
      type: "constant"
      value: 0
    }
  }
}
layer {
  name: "conv6_1_relu"
  type: "ReLU"
  bottom: "conv6_1"
  top: "conv6_1"
}
layer {
  name: "conv6_2"
  type: "Convolution"
  bottom: "conv6_1"
  top: "conv6_2"
  param {
    lr_mult: 1
    decay_mult: 1
  }
  param {
    lr_mult: 2
    decay_mult: 0
  }
  convolution_param {
    num_output: 64
    pad: 1
    kernel_size: 3
    stride: 2
    weight_filler {
      type: "xavier"
    }
    bias_filler {
      type: "constant"
      value: 0
    }
  }
}
layer {
  name: "conv6_2_relu"
  type: "ReLU"
  bottom: "conv6_2"
  top: "conv6_2"
}
layer {
  name: "conv7_1"
  type: "Convolution"
  bottom: "conv6_2"
  top: "conv7_1"
  param {
    lr_mult: 1
    decay_mult: 1
  }
  param {
    lr_mult: 2
    decay_mult: 0
  }
  convolution_param {
    num_output: 16
    pad: 0
    kernel_size: 1
    stride: 1
    weight_filler {
      type: "xavier"
    }
    bias_filler {
      type: "constant"
      value: 0
    }
  }
}
layer {
  name: "conv7_1_relu"
  type: "ReLU"
  bottom: "conv7_1"
  top: "conv7_1"
}
layer {
  name: "conv7_2"
  type: "Convolution"
  bottom: "conv7_1"
  top: "conv7_2"
  param {
    lr_mult: 1
    decay_mult: 1
  }
  param {
    lr_mult: 2
    decay_mult: 0
  }
  convolution_param {
    num_output: 32
    pad: 1
    kernel_size: 3
    stride: 2
    weight_filler {
      type: "xavier"
    }
    bias_filler {
      type: "constant"
      value: 0
    }
  }
}
layer {
  name: "conv7_2_relu"
  type: "ReLU"
  bottom: "conv7_2"
  top: "conv7_2"
}
layer {
  name: "pool6"
  type: "Pooling"
  bottom: "conv7_2"
  top: "pool6"
  pooling_param {
    pool: AVE
    global_pooling: true
  }
}
layer {
  name: "conv4_3_norm"
  type: "Normalize"
  bottom: "conv4_3"
  top: "conv4_3_norm"
  norm_param {
    across_spatial: false
    scale_filler {
      type: "constant"
      value: 20
    }
    channel_shared: false
  }
}
layer {
  name: "conv4_3_norm_mbox_loc_conf"
  type: "Convolution"
  bottom: "conv4_3_norm"
  top: "conv4_3_norm_mbox_loc_conf"
  param {
    lr_mult: 1
    decay_mult: 1
  }
  param {
    lr_mult: 2
    decay_mult: 0
  }
  convolution_param {
    num_output: 48
    pad: 1
    kernel_size: 3
    stride: 1
    weight_filler {
      type: "xavier"
    }
    bias_filler {
      type: "constant"
      value: 0
    }
  }
}
layer {
  name: "conv4_3_norm_mbox_loc_conf_perm"
  type: "Permute"
  bottom: "conv4_3_norm_mbox_loc_conf"
  top: "conv4_3_norm_mbox_loc_conf_perm"
  permute_param {
    order: 0
    order: 2
    order: 3
    order: 1
  }
}
layer {
  name: "conv4_3_norm_mbox_loc_perm"
  type: "Slice"
  bottom: "conv4_3_norm_mbox_loc_conf_perm"
  top: "conv4_3_norm_mbox_loc_perm"
  top: "conv4_3_norm_mbox_conf_perm"
  slice_param {
    slice_point: 24
    axis: 3
  }
}
layer {
  name: "conv4_3_norm_mbox_loc_flat"
  type: "Flatten"
  bottom: "conv4_3_norm_mbox_loc_perm"
  top: "conv4_3_norm_mbox_loc_flat"
  flatten_param {
    axis: 1
  }
}
layer {
  name: "conv4_3_norm_mbox_conf_flat"
  type: "Flatten"
  bottom: "conv4_3_norm_mbox_conf_perm"
  top: "conv4_3_norm_mbox_conf_flat"
  flatten_param {
    axis: 1
  }
}
layer {
  name: "conv4_3_norm_mbox_priorbox"
  type: "PriorBox"
  bottom: "conv4_3_norm"
  bottom: "data"
  top: "conv4_3_norm_mbox_priorbox"
  prior_box_param {
    min_size: 19.2
    max_size: 32
    aspect_ratio: 2
    aspect_ratio: 3
    flip: true
    clip: true
    variance: 0.1
    variance: 0.1
    variance: 0.2
    variance: 0.2
    offset: 0.5
  }
}
layer {
  name: "fc7_conv_mbox_loc_conf"
  type: "Convolution"
  bottom: "fc7_conv"
  top: "fc7_conv_mbox_loc_conf"
  param {
    lr_mult: 1
    decay_mult: 1
  }
  param {
    lr_mult: 2
    decay_mult: 0
  }
  convolution_param {
    num_output: 48
    pad: 1
    kernel_size: 3
    stride: 1
    weight_filler {
      type: "xavier"
    }
    bias_filler {
      type: "constant"
      value: 0
    }
  }
}
layer {
  name: "fc7_conv_mbox_loc_conf_perm"
  type: "Permute"
  bottom: "fc7_conv_mbox_loc_conf"
  top: "fc7_conv_mbox_loc_conf_perm"
  permute_param {
    order: 0
    order: 2
    order: 3
    order: 1
  }
}
layer {
  name: "fc7_conv_mbox_loc_perm"
  type: "Slice"
  bottom: "fc7_conv_mbox_loc_conf_perm"
  top: "fc7_conv_mbox_loc_perm"
  top: "fc7_conv_mbox_conf_perm"
  slice_param {
    slice_point: 24
    axis: 3
  }
}
layer {
  name: "fc7_conv_mbox_loc_flat"
  type: "Flatten"
  bottom: "fc7_conv_mbox_loc_perm"
  top: "fc7_conv_mbox_loc_flat"
  flatten_param {
    axis: 1
  }
}
layer {
  name: "fc7_conv_mbox_conf_flat"
  type: "Flatten"
  bottom: "fc7_conv_mbox_conf_perm"
  top: "fc7_conv_mbox_conf_flat"
  flatten_param {
    axis: 1
  }
}
layer {
  name: "fc7_conv_mbox_priorbox"
  type: "PriorBox"
  bottom: "fc7_conv"
  bottom: "data"
  top: "fc7_conv_mbox_priorbox"
  prior_box_param {
    min_size: 32
    max_size: 61.44
    aspect_ratio: 2
    aspect_ratio: 3
    flip: true
    clip: true
    variance: 0.1
    variance: 0.1
    variance: 0.2
    variance: 0.2
    offset: 0.5
  }
}
layer {
  name: "conv6_2_mbox_loc_conf"
  type: "Convolution"
  bottom: "conv6_2"
  top: "conv6_2_mbox_loc_conf"
  param {
    lr_mult: 1
    decay_mult: 1
  }
  param {
    lr_mult: 2
    decay_mult: 0
  }
  convolution_param {
    num_output: 48
    pad: 1
    kernel_size: 3
    stride: 1
    weight_filler {
      type: "xavier"
    }
    bias_filler {
      type: "constant"
      value: 0
    }
  }
}
layer {
  name: "conv6_2_mbox_loc_conf_perm"
  type: "Permute"
  bottom: "conv6_2_mbox_loc_conf"
  top: "conv6_2_mbox_loc_conf_perm"
  permute_param {
    order: 0
    order: 2
    order: 3
    order: 1
  }
}
layer {
  name: "conv6_2_mbox_loc_perm"
  type: "Slice"
  bottom: "conv6_2_mbox_loc_conf_perm"
  top: "conv6_2_mbox_loc_perm"
  top: "conv6_2_mbox_conf_perm"
  slice_param {
    slice_point: 24
    axis: 3
  }
}
layer {
  name: "conv6_2_mbox_loc_flat"
  type: "Flatten"
  bottom: "conv6_2_mbox_loc_perm"
  top: "conv6_2_mbox_loc_flat"
  flatten_param {
    axis: 1
  }
}
layer {
  name: "conv6_2_mbox_conf_flat"
  type: "Flatten"
  bottom: "conv6_2_mbox_conf_perm"
  top: "conv6_2_mbox_conf_flat"
  flatten_param {
    axis: 1
  }
}
layer {
  name: "conv6_2_mbox_priorbox"
  type: "PriorBox"
  bottom: "conv6_2"
  bottom: "data"
  top: "conv6_2_mbox_priorbox"
  prior_box_param {
    min_size: 61.44
    max_size: 90.88
    aspect_ratio: 2
    aspect_ratio: 3
    flip: true
    clip: true
    variance: 0.1
    variance: 0.1
    variance: 0.2
    variance: 0.2
    offset: 0.5
  }
}
layer {
  name: "conv7_2_mbox_loc_conf"
  type: "Convolution"
  bottom: "conv7_2"
  top: "conv7_2_mbox_loc_conf"
  param {
    lr_mult: 1
    decay_mult: 1
  }
  param {
    lr_mult: 2
    decay_mult: 0
  }
  convolution_param {
    num_output: 48
    pad: 1
    kernel_size: 3
    stride: 1
    weight_filler {
      type: "xavier"
    }
    bias_filler {
      type: "constant"
      value: 0
    }
  }
}
layer {
  name: "conv7_2_mbox_loc_conf_perm"
  type: "Permute"
  bottom: "conv7_2_mbox_loc_conf"
  top: "conv7_2_mbox_loc_conf_perm"
  permute_param {
    order: 0
    order: 2
    order: 3
    order: 1
  }
}
layer {
  name: "conv7_2_mbox_loc_perm"
  type: "Slice"
  bottom: "conv7_2_mbox_loc_conf_perm"
  top: "conv7_2_mbox_loc_perm"
  top: "conv7_2_mbox_conf_perm"
  slice_param {
    slice_point: 24
    axis: 3
  }
}
layer {
  name: "conv7_2_mbox_loc_flat"
  type: "Flatten"
  bottom: "conv7_2_mbox_loc_perm"
  top: "conv7_2_mbox_loc_flat"
  flatten_param {
    axis: 1
  }
}
layer {
  name: "conv7_2_mbox_conf_flat"
  type: "Flatten"
  bottom: "conv7_2_mbox_conf_perm"
  top: "conv7_2_mbox_conf_flat"
  flatten_param {
    axis: 1
  }
}
layer {
  name: "conv7_2_mbox_priorbox"
  type: "PriorBox"
  bottom: "conv7_2"
  bottom: "data"
  top: "conv7_2_mbox_priorbox"
  prior_box_param {
    min_size: 90.88
    max_size: 120.32
    aspect_ratio: 2
    aspect_ratio: 3
    flip: true
    clip: true
    variance: 0.1
    variance: 0.1
    variance: 0.2
    variance: 0.2
    offset: 0.5
  }
}
layer {
  name: "pool6_mbox_loc_conf"
  type: "Convolution"
  bottom: "pool6"
  top: "pool6_mbox_loc_conf"
  param {
    lr_mult: 1
    decay_mult: 1
  }
  param {
    lr_mult: 2
    decay_mult: 0
  }
  convolution_param {
    num_output: 48
    pad: 1
    kernel_size: 3
    stride: 1
    weight_filler {
      type: "xavier"
    }
    bias_filler {
      type: "constant"
      value: 0
    }
  }
}
layer {
  name: "pool6_mbox_loc_conf_perm"
  type: "Permute"
  bottom: "pool6_mbox_loc_conf"
  top: "pool6_mbox_loc_conf_perm"
  permute_param {
    order: 0
    order: 2
    order: 3
    order: 1
  }
}
layer {
  name: "pool6_mbox_loc_perm"
  type: "Slice"
  bottom: "pool6_mbox_loc_conf_perm"
  top: "pool6_mbox_loc_perm"
  top: "pool6_mbox_conf_perm"
  slice_param {
    slice_point: 24
    axis: 3
  }
}
layer {
  name: "pool6_mbox_loc_flat"
  type: "Flatten"
  bottom: "pool6_mbox_loc_perm"
  top: "pool6_mbox_loc_flat"
  flatten_param {
    axis: 1
  }
}
layer {
  name: "pool6_mbox_conf_flat"
  type: "Flatten"
  bottom: "pool6_mbox_conf_perm"
  top: "pool6_mbox_conf_flat"
  flatten_param {
    axis: 1
  }
}
layer {
  name: "pool6_mbox_priorbox"
  type: "PriorBox"
  bottom: "pool6"
  bottom: "data"
  top: "pool6_mbox_priorbox"
  prior_box_param {
    min_size: 120.32
    max_size: 149.76
    aspect_ratio: 2
    aspect_ratio: 3
    flip: true
    clip: true
    variance: 0.1
    variance: 0.1
    variance: 0.2
    variance: 0.2
    offset: 0.5
  }
}
layer {
  name: "mbox_loc"
  type: "Concat"
  bottom: "conv4_3_norm_mbox_loc_flat"
  bottom: "fc7_conv_mbox_loc_flat"
  bottom: "conv6_2_mbox_loc_flat"
  bottom: "conv7_2_mbox_loc_flat"
  bottom: "pool6_mbox_loc_flat"
  top: "mbox_loc"
  concat_param {
    axis: 1
  }
}
layer {
  name: "mbox_conf"
  type: "Concat"
  bottom: "conv4_3_norm_mbox_conf_flat"
  bottom: "fc7_conv_mbox_conf_flat"
  bottom: "conv6_2_mbox_conf_flat"
  bottom: "conv7_2_mbox_conf_flat"
  bottom: "pool6_mbox_conf_flat"
  top: "mbox_conf"
  concat_param {
    axis: 1
  }
}
layer {
  name: "mbox_priorbox"
  type: "Concat"
  bottom: "conv4_3_norm_mbox_priorbox"
  bottom: "fc7_conv_mbox_priorbox"
  bottom: "conv6_2_mbox_priorbox"
  bottom: "conv7_2_mbox_priorbox"
  bottom: "pool6_mbox_priorbox"
  top: "mbox_priorbox"
  concat_param {
    axis: 2
  }
}
layer {
  name: "mbox_loss"
  type: "MultiBoxLoss"
  bottom: "mbox_loc"
  bottom: "mbox_conf"
  bottom: "mbox_priorbox"
  bottom: "label"
  top: "mbox_loss"
  include {
    phase: TRAIN
  }
  propagate_down: true
  propagate_down: true
  propagate_down: false
  propagate_down: false
  loss_param {
    normalization: VALID
  }
  multibox_loss_param {
    loc_loss_type: SMOOTH_L1
    conf_loss_type: SOFTMAX
    loc_weight: 1
    num_classes: 4
    share_location: true
    match_type: PER_PREDICTION
    overlap_threshold: 0.3
    use_prior_for_matching: true
    background_label_id: 0
    use_difficult_gt: true
    neg_pos_ratio: 3
    neg_overlap: 0.3
    code_type: CENTER_SIZE
    mining_type: MAX_NEGATIVE
  }
}
I0401 18:31:32.828003  3205 layer_factory.hpp:77] Creating layer data
I0401 18:31:32.828317  3205 net.cpp:100] Creating Layer data
I0401 18:31:32.828325  3205 net.cpp:408] data -> data
I0401 18:31:32.828346  3205 net.cpp:408] data -> label
I0401 18:31:32.829109  3249 db_lmdb.cpp:35] Opened lmdb /home/work/wwl/data/kitti/data_object_image_2/training/train_lmdb
I0401 18:31:32.851613  3205 annotated_data_layer.cpp:62] output data size: 32,3,64,256
I0401 18:31:32.870654  3205 net.cpp:150] Setting up data
I0401 18:31:32.870679  3205 net.cpp:157] Top shape: 32 3 64 256 (1572864)
I0401 18:31:32.870684  3205 net.cpp:157] Top shape: 1 1 11 8 (88)
I0401 18:31:32.870687  3205 net.cpp:165] Memory required for data: 6291808
I0401 18:31:32.870692  3205 layer_factory.hpp:77] Creating layer data_data_0_split
I0401 18:31:32.870702  3205 net.cpp:100] Creating Layer data_data_0_split
I0401 18:31:32.870704  3205 net.cpp:434] data_data_0_split <- data
I0401 18:31:32.870710  3205 net.cpp:408] data_data_0_split -> data_data_0_split_0
I0401 18:31:32.870718  3205 net.cpp:408] data_data_0_split -> data_data_0_split_1
I0401 18:31:32.870723  3205 net.cpp:408] data_data_0_split -> data_data_0_split_2
I0401 18:31:32.870728  3205 net.cpp:408] data_data_0_split -> data_data_0_split_3
I0401 18:31:32.870731  3205 net.cpp:408] data_data_0_split -> data_data_0_split_4
I0401 18:31:32.870735  3205 net.cpp:408] data_data_0_split -> data_data_0_split_5
I0401 18:31:32.870831  3205 net.cpp:150] Setting up data_data_0_split
I0401 18:31:32.870836  3205 net.cpp:157] Top shape: 32 3 64 256 (1572864)
I0401 18:31:32.870838  3205 net.cpp:157] Top shape: 32 3 64 256 (1572864)
I0401 18:31:32.870841  3205 net.cpp:157] Top shape: 32 3 64 256 (1572864)
I0401 18:31:32.870844  3205 net.cpp:157] Top shape: 32 3 64 256 (1572864)
I0401 18:31:32.870847  3205 net.cpp:157] Top shape: 32 3 64 256 (1572864)
I0401 18:31:32.870851  3205 net.cpp:157] Top shape: 32 3 64 256 (1572864)
I0401 18:31:32.870852  3205 net.cpp:165] Memory required for data: 44040544
I0401 18:31:32.870856  3205 layer_factory.hpp:77] Creating layer conv1_1
I0401 18:31:32.870867  3205 net.cpp:100] Creating Layer conv1_1
I0401 18:31:32.870869  3205 net.cpp:434] conv1_1 <- data_data_0_split_0
I0401 18:31:32.870880  3205 net.cpp:408] conv1_1 -> conv1_1
I0401 18:31:32.872577  3205 net.cpp:150] Setting up conv1_1
I0401 18:31:32.872591  3205 net.cpp:157] Top shape: 32 16 64 256 (8388608)
I0401 18:31:32.872593  3205 net.cpp:165] Memory required for data: 77594976
I0401 18:31:32.872601  3205 layer_factory.hpp:77] Creating layer relu1_1
I0401 18:31:32.872607  3205 net.cpp:100] Creating Layer relu1_1
I0401 18:31:32.872611  3205 net.cpp:434] relu1_1 <- conv1_1
I0401 18:31:32.872614  3205 net.cpp:395] relu1_1 -> conv1_1 (in-place)
I0401 18:31:32.872619  3205 net.cpp:150] Setting up relu1_1
I0401 18:31:32.872622  3205 net.cpp:157] Top shape: 32 16 64 256 (8388608)
I0401 18:31:32.872625  3205 net.cpp:165] Memory required for data: 111149408
I0401 18:31:32.872627  3205 layer_factory.hpp:77] Creating layer conv1_2
I0401 18:31:32.872635  3205 net.cpp:100] Creating Layer conv1_2
I0401 18:31:32.872638  3205 net.cpp:434] conv1_2 <- conv1_1
I0401 18:31:32.872642  3205 net.cpp:408] conv1_2 -> conv1_2
I0401 18:31:32.873543  3205 net.cpp:150] Setting up conv1_2
I0401 18:31:32.873553  3205 net.cpp:157] Top shape: 32 16 32 128 (2097152)
I0401 18:31:32.873555  3205 net.cpp:165] Memory required for data: 119538016
I0401 18:31:32.873561  3205 layer_factory.hpp:77] Creating layer relu1_2
I0401 18:31:32.873565  3205 net.cpp:100] Creating Layer relu1_2
I0401 18:31:32.873569  3205 net.cpp:434] relu1_2 <- conv1_2
I0401 18:31:32.873572  3205 net.cpp:395] relu1_2 -> conv1_2 (in-place)
I0401 18:31:32.873577  3205 net.cpp:150] Setting up relu1_2
I0401 18:31:32.873580  3205 net.cpp:157] Top shape: 32 16 32 128 (2097152)
I0401 18:31:32.873584  3205 net.cpp:165] Memory required for data: 127926624
I0401 18:31:32.873585  3205 layer_factory.hpp:77] Creating layer conv2_1
I0401 18:31:32.873591  3205 net.cpp:100] Creating Layer conv2_1
I0401 18:31:32.873594  3205 net.cpp:434] conv2_1 <- conv1_2
I0401 18:31:32.873598  3205 net.cpp:408] conv2_1 -> conv2_1
I0401 18:31:32.873811  3205 net.cpp:150] Setting up conv2_1
I0401 18:31:32.873817  3205 net.cpp:157] Top shape: 32 32 32 128 (4194304)
I0401 18:31:32.873821  3205 net.cpp:165] Memory required for data: 144703840
I0401 18:31:32.873826  3205 layer_factory.hpp:77] Creating layer relu2_1
I0401 18:31:32.873829  3205 net.cpp:100] Creating Layer relu2_1
I0401 18:31:32.873832  3205 net.cpp:434] relu2_1 <- conv2_1
I0401 18:31:32.873836  3205 net.cpp:395] relu2_1 -> conv2_1 (in-place)
I0401 18:31:32.873839  3205 net.cpp:150] Setting up relu2_1
I0401 18:31:32.873842  3205 net.cpp:157] Top shape: 32 32 32 128 (4194304)
I0401 18:31:32.873845  3205 net.cpp:165] Memory required for data: 161481056
I0401 18:31:32.873847  3205 layer_factory.hpp:77] Creating layer conv2_2
I0401 18:31:32.873854  3205 net.cpp:100] Creating Layer conv2_2
I0401 18:31:32.873857  3205 net.cpp:434] conv2_2 <- conv2_1
I0401 18:31:32.873862  3205 net.cpp:408] conv2_2 -> conv2_2
I0401 18:31:32.874091  3205 net.cpp:150] Setting up conv2_2
I0401 18:31:32.874096  3205 net.cpp:157] Top shape: 32 32 16 64 (1048576)
I0401 18:31:32.874099  3205 net.cpp:165] Memory required for data: 165675360
I0401 18:31:32.874104  3205 layer_factory.hpp:77] Creating layer relu2_2
I0401 18:31:32.874107  3205 net.cpp:100] Creating Layer relu2_2
I0401 18:31:32.874110  3205 net.cpp:434] relu2_2 <- conv2_2
I0401 18:31:32.874114  3205 net.cpp:395] relu2_2 -> conv2_2 (in-place)
I0401 18:31:32.874119  3205 net.cpp:150] Setting up relu2_2
I0401 18:31:32.874121  3205 net.cpp:157] Top shape: 32 32 16 64 (1048576)
I0401 18:31:32.874125  3205 net.cpp:165] Memory required for data: 169869664
I0401 18:31:32.874126  3205 layer_factory.hpp:77] Creating layer conv3_1
I0401 18:31:32.874132  3205 net.cpp:100] Creating Layer conv3_1
I0401 18:31:32.874135  3205 net.cpp:434] conv3_1 <- conv2_2
I0401 18:31:32.874138  3205 net.cpp:408] conv3_1 -> conv3_1
I0401 18:31:32.875100  3205 net.cpp:150] Setting up conv3_1
I0401 18:31:32.875111  3205 net.cpp:157] Top shape: 32 64 16 64 (2097152)
I0401 18:31:32.875114  3205 net.cpp:165] Memory required for data: 178258272
I0401 18:31:32.875125  3205 layer_factory.hpp:77] Creating layer relu3_1
I0401 18:31:32.875130  3205 net.cpp:100] Creating Layer relu3_1
I0401 18:31:32.875133  3205 net.cpp:434] relu3_1 <- conv3_1
I0401 18:31:32.875138  3205 net.cpp:395] relu3_1 -> conv3_1 (in-place)
I0401 18:31:32.875144  3205 net.cpp:150] Setting up relu3_1
I0401 18:31:32.875146  3205 net.cpp:157] Top shape: 32 64 16 64 (2097152)
I0401 18:31:32.875149  3205 net.cpp:165] Memory required for data: 186646880
I0401 18:31:32.875151  3205 layer_factory.hpp:77] Creating layer conv3_2
I0401 18:31:32.875157  3205 net.cpp:100] Creating Layer conv3_2
I0401 18:31:32.875160  3205 net.cpp:434] conv3_2 <- conv3_1
I0401 18:31:32.875164  3205 net.cpp:408] conv3_2 -> conv3_2
I0401 18:31:32.875476  3205 net.cpp:150] Setting up conv3_2
I0401 18:31:32.875483  3205 net.cpp:157] Top shape: 32 64 16 64 (2097152)
I0401 18:31:32.875484  3205 net.cpp:165] Memory required for data: 195035488
I0401 18:31:32.875488  3205 layer_factory.hpp:77] Creating layer relu3_2
I0401 18:31:32.875493  3205 net.cpp:100] Creating Layer relu3_2
I0401 18:31:32.875495  3205 net.cpp:434] relu3_2 <- conv3_2
I0401 18:31:32.875499  3205 net.cpp:395] relu3_2 -> conv3_2 (in-place)
I0401 18:31:32.875502  3205 net.cpp:150] Setting up relu3_2
I0401 18:31:32.875505  3205 net.cpp:157] Top shape: 32 64 16 64 (2097152)
I0401 18:31:32.875507  3205 net.cpp:165] Memory required for data: 203424096
I0401 18:31:32.875510  3205 layer_factory.hpp:77] Creating layer conv3_3
I0401 18:31:32.875516  3205 net.cpp:100] Creating Layer conv3_3
I0401 18:31:32.875519  3205 net.cpp:434] conv3_3 <- conv3_2
I0401 18:31:32.875524  3205 net.cpp:408] conv3_3 -> conv3_3
I0401 18:31:32.875833  3205 net.cpp:150] Setting up conv3_3
I0401 18:31:32.875839  3205 net.cpp:157] Top shape: 32 64 16 64 (2097152)
I0401 18:31:32.875841  3205 net.cpp:165] Memory required for data: 211812704
I0401 18:31:32.875845  3205 layer_factory.hpp:77] Creating layer relu3_3
I0401 18:31:32.875849  3205 net.cpp:100] Creating Layer relu3_3
I0401 18:31:32.875851  3205 net.cpp:434] relu3_3 <- conv3_3
I0401 18:31:32.875855  3205 net.cpp:395] relu3_3 -> conv3_3 (in-place)
I0401 18:31:32.875859  3205 net.cpp:150] Setting up relu3_3
I0401 18:31:32.875862  3205 net.cpp:157] Top shape: 32 64 16 64 (2097152)
I0401 18:31:32.875864  3205 net.cpp:165] Memory required for data: 220201312
I0401 18:31:32.875867  3205 layer_factory.hpp:77] Creating layer pool3
I0401 18:31:32.875874  3205 net.cpp:100] Creating Layer pool3
I0401 18:31:32.875875  3205 net.cpp:434] pool3 <- conv3_3
I0401 18:31:32.875880  3205 net.cpp:408] pool3 -> pool3
I0401 18:31:32.875912  3205 net.cpp:150] Setting up pool3
I0401 18:31:32.875916  3205 net.cpp:157] Top shape: 32 64 8 32 (524288)
I0401 18:31:32.875919  3205 net.cpp:165] Memory required for data: 222298464
I0401 18:31:32.875921  3205 layer_factory.hpp:77] Creating layer conv4_1
I0401 18:31:32.875927  3205 net.cpp:100] Creating Layer conv4_1
I0401 18:31:32.875931  3205 net.cpp:434] conv4_1 <- pool3
I0401 18:31:32.875936  3205 net.cpp:408] conv4_1 -> conv4_1
I0401 18:31:32.877079  3205 net.cpp:150] Setting up conv4_1
I0401 18:31:32.877089  3205 net.cpp:157] Top shape: 32 128 8 32 (1048576)
I0401 18:31:32.877091  3205 net.cpp:165] Memory required for data: 226492768
I0401 18:31:32.877096  3205 layer_factory.hpp:77] Creating layer relu4_1
I0401 18:31:32.877100  3205 net.cpp:100] Creating Layer relu4_1
I0401 18:31:32.877104  3205 net.cpp:434] relu4_1 <- conv4_1
I0401 18:31:32.877106  3205 net.cpp:395] relu4_1 -> conv4_1 (in-place)
I0401 18:31:32.877111  3205 net.cpp:150] Setting up relu4_1
I0401 18:31:32.877115  3205 net.cpp:157] Top shape: 32 128 8 32 (1048576)
I0401 18:31:32.877116  3205 net.cpp:165] Memory required for data: 230687072
I0401 18:31:32.877120  3205 layer_factory.hpp:77] Creating layer conv4_2
I0401 18:31:32.877126  3205 net.cpp:100] Creating Layer conv4_2
I0401 18:31:32.877130  3205 net.cpp:434] conv4_2 <- conv4_1
I0401 18:31:32.877132  3205 net.cpp:408] conv4_2 -> conv4_2
I0401 18:31:32.877765  3205 net.cpp:150] Setting up conv4_2
I0401 18:31:32.877771  3205 net.cpp:157] Top shape: 32 128 8 32 (1048576)
I0401 18:31:32.877776  3205 net.cpp:165] Memory required for data: 234881376
I0401 18:31:32.877784  3205 layer_factory.hpp:77] Creating layer relu4_2
I0401 18:31:32.877787  3205 net.cpp:100] Creating Layer relu4_2
I0401 18:31:32.877790  3205 net.cpp:434] relu4_2 <- conv4_2
I0401 18:31:32.877794  3205 net.cpp:395] relu4_2 -> conv4_2 (in-place)
I0401 18:31:32.877797  3205 net.cpp:150] Setting up relu4_2
I0401 18:31:32.877800  3205 net.cpp:157] Top shape: 32 128 8 32 (1048576)
I0401 18:31:32.877804  3205 net.cpp:165] Memory required for data: 239075680
I0401 18:31:32.877805  3205 layer_factory.hpp:77] Creating layer conv4_3
I0401 18:31:32.877811  3205 net.cpp:100] Creating Layer conv4_3
I0401 18:31:32.877813  3205 net.cpp:434] conv4_3 <- conv4_2
I0401 18:31:32.877818  3205 net.cpp:408] conv4_3 -> conv4_3
I0401 18:31:32.878455  3205 net.cpp:150] Setting up conv4_3
I0401 18:31:32.878461  3205 net.cpp:157] Top shape: 32 128 8 32 (1048576)
I0401 18:31:32.878463  3205 net.cpp:165] Memory required for data: 243269984
I0401 18:31:32.878468  3205 layer_factory.hpp:77] Creating layer relu4_3
I0401 18:31:32.878473  3205 net.cpp:100] Creating Layer relu4_3
I0401 18:31:32.878474  3205 net.cpp:434] relu4_3 <- conv4_3
I0401 18:31:32.878479  3205 net.cpp:395] relu4_3 -> conv4_3 (in-place)
I0401 18:31:32.878482  3205 net.cpp:150] Setting up relu4_3
I0401 18:31:32.878485  3205 net.cpp:157] Top shape: 32 128 8 32 (1048576)
I0401 18:31:32.878487  3205 net.cpp:165] Memory required for data: 247464288
I0401 18:31:32.878490  3205 layer_factory.hpp:77] Creating layer conv4_3_relu4_3_0_split
I0401 18:31:32.878494  3205 net.cpp:100] Creating Layer conv4_3_relu4_3_0_split
I0401 18:31:32.878497  3205 net.cpp:434] conv4_3_relu4_3_0_split <- conv4_3
I0401 18:31:32.878500  3205 net.cpp:408] conv4_3_relu4_3_0_split -> conv4_3_relu4_3_0_split_0
I0401 18:31:32.878504  3205 net.cpp:408] conv4_3_relu4_3_0_split -> conv4_3_relu4_3_0_split_1
I0401 18:31:32.878530  3205 net.cpp:150] Setting up conv4_3_relu4_3_0_split
I0401 18:31:32.878535  3205 net.cpp:157] Top shape: 32 128 8 32 (1048576)
I0401 18:31:32.878537  3205 net.cpp:157] Top shape: 32 128 8 32 (1048576)
I0401 18:31:32.878540  3205 net.cpp:165] Memory required for data: 255852896
I0401 18:31:32.878542  3205 layer_factory.hpp:77] Creating layer pool4
I0401 18:31:32.878546  3205 net.cpp:100] Creating Layer pool4
I0401 18:31:32.878549  3205 net.cpp:434] pool4 <- conv4_3_relu4_3_0_split_0
I0401 18:31:32.878553  3205 net.cpp:408] pool4 -> pool4
I0401 18:31:32.878582  3205 net.cpp:150] Setting up pool4
I0401 18:31:32.878587  3205 net.cpp:157] Top shape: 32 128 4 16 (262144)
I0401 18:31:32.878588  3205 net.cpp:165] Memory required for data: 256901472
I0401 18:31:32.878590  3205 layer_factory.hpp:77] Creating layer conv5_1
I0401 18:31:32.878597  3205 net.cpp:100] Creating Layer conv5_1
I0401 18:31:32.878599  3205 net.cpp:434] conv5_1 <- pool4
I0401 18:31:32.878603  3205 net.cpp:408] conv5_1 -> conv5_1
I0401 18:31:32.879240  3205 net.cpp:150] Setting up conv5_1
I0401 18:31:32.879245  3205 net.cpp:157] Top shape: 32 128 4 16 (262144)
I0401 18:31:32.879248  3205 net.cpp:165] Memory required for data: 257950048
I0401 18:31:32.879252  3205 layer_factory.hpp:77] Creating layer relu5_1
I0401 18:31:32.879256  3205 net.cpp:100] Creating Layer relu5_1
I0401 18:31:32.879258  3205 net.cpp:434] relu5_1 <- conv5_1
I0401 18:31:32.879261  3205 net.cpp:395] relu5_1 -> conv5_1 (in-place)
I0401 18:31:32.879266  3205 net.cpp:150] Setting up relu5_1
I0401 18:31:32.879269  3205 net.cpp:157] Top shape: 32 128 4 16 (262144)
I0401 18:31:32.879271  3205 net.cpp:165] Memory required for data: 258998624
I0401 18:31:32.879273  3205 layer_factory.hpp:77] Creating layer conv5_2
I0401 18:31:32.879279  3205 net.cpp:100] Creating Layer conv5_2
I0401 18:31:32.879282  3205 net.cpp:434] conv5_2 <- conv5_1
I0401 18:31:32.879287  3205 net.cpp:408] conv5_2 -> conv5_2
I0401 18:31:32.884322  3205 net.cpp:150] Setting up conv5_2
I0401 18:31:32.884332  3205 net.cpp:157] Top shape: 32 128 4 16 (262144)
I0401 18:31:32.884342  3205 net.cpp:165] Memory required for data: 260047200
I0401 18:31:32.884348  3205 layer_factory.hpp:77] Creating layer relu5_2
I0401 18:31:32.884352  3205 net.cpp:100] Creating Layer relu5_2
I0401 18:31:32.884356  3205 net.cpp:434] relu5_2 <- conv5_2
I0401 18:31:32.884359  3205 net.cpp:395] relu5_2 -> conv5_2 (in-place)
I0401 18:31:32.884364  3205 net.cpp:150] Setting up relu5_2
I0401 18:31:32.884367  3205 net.cpp:157] Top shape: 32 128 4 16 (262144)
I0401 18:31:32.884371  3205 net.cpp:165] Memory required for data: 261095776
I0401 18:31:32.884376  3205 layer_factory.hpp:77] Creating layer conv5_3
I0401 18:31:32.884383  3205 net.cpp:100] Creating Layer conv5_3
I0401 18:31:32.884387  3205 net.cpp:434] conv5_3 <- conv5_2
I0401 18:31:32.884392  3205 net.cpp:408] conv5_3 -> conv5_3
I0401 18:31:32.885038  3205 net.cpp:150] Setting up conv5_3
I0401 18:31:32.885043  3205 net.cpp:157] Top shape: 32 128 4 16 (262144)
I0401 18:31:32.885046  3205 net.cpp:165] Memory required for data: 262144352
I0401 18:31:32.885051  3205 layer_factory.hpp:77] Creating layer relu5_3
I0401 18:31:32.885054  3205 net.cpp:100] Creating Layer relu5_3
I0401 18:31:32.885057  3205 net.cpp:434] relu5_3 <- conv5_3
I0401 18:31:32.885061  3205 net.cpp:395] relu5_3 -> conv5_3 (in-place)
I0401 18:31:32.885064  3205 net.cpp:150] Setting up relu5_3
I0401 18:31:32.885068  3205 net.cpp:157] Top shape: 32 128 4 16 (262144)
I0401 18:31:32.885071  3205 net.cpp:165] Memory required for data: 263192928
I0401 18:31:32.885072  3205 layer_factory.hpp:77] Creating layer pool5
I0401 18:31:32.885076  3205 net.cpp:100] Creating Layer pool5
I0401 18:31:32.885079  3205 net.cpp:434] pool5 <- conv5_3
I0401 18:31:32.885083  3205 net.cpp:408] pool5 -> pool5
I0401 18:31:32.885114  3205 net.cpp:150] Setting up pool5
I0401 18:31:32.885118  3205 net.cpp:157] Top shape: 32 128 4 16 (262144)
I0401 18:31:32.885121  3205 net.cpp:165] Memory required for data: 264241504
I0401 18:31:32.885123  3205 layer_factory.hpp:77] Creating layer fc6_conv
I0401 18:31:32.885131  3205 net.cpp:100] Creating Layer fc6_conv
I0401 18:31:32.885134  3205 net.cpp:434] fc6_conv <- pool5
I0401 18:31:32.885139  3205 net.cpp:408] fc6_conv -> fc6_conv
I0401 18:31:32.886951  3205 net.cpp:150] Setting up fc6_conv
I0401 18:31:32.886960  3205 net.cpp:157] Top shape: 32 256 4 16 (524288)
I0401 18:31:32.886963  3205 net.cpp:165] Memory required for data: 266338656
I0401 18:31:32.886968  3205 layer_factory.hpp:77] Creating layer relu6
I0401 18:31:32.886973  3205 net.cpp:100] Creating Layer relu6
I0401 18:31:32.886976  3205 net.cpp:434] relu6 <- fc6_conv
I0401 18:31:32.886981  3205 net.cpp:395] relu6 -> fc6_conv (in-place)
I0401 18:31:32.886984  3205 net.cpp:150] Setting up relu6
I0401 18:31:32.886988  3205 net.cpp:157] Top shape: 32 256 4 16 (524288)
I0401 18:31:32.886991  3205 net.cpp:165] Memory required for data: 268435808
I0401 18:31:32.886993  3205 layer_factory.hpp:77] Creating layer fc7_conv
I0401 18:31:32.886999  3205 net.cpp:100] Creating Layer fc7_conv
I0401 18:31:32.887001  3205 net.cpp:434] fc7_conv <- fc6_conv
I0401 18:31:32.887006  3205 net.cpp:408] fc7_conv -> fc7_conv
I0401 18:31:32.887418  3205 net.cpp:150] Setting up fc7_conv
I0401 18:31:32.887423  3205 net.cpp:157] Top shape: 32 256 4 16 (524288)
I0401 18:31:32.887425  3205 net.cpp:165] Memory required for data: 270532960
I0401 18:31:32.887429  3205 layer_factory.hpp:77] Creating layer relu7
I0401 18:31:32.887434  3205 net.cpp:100] Creating Layer relu7
I0401 18:31:32.887436  3205 net.cpp:434] relu7 <- fc7_conv
I0401 18:31:32.887439  3205 net.cpp:395] relu7 -> fc7_conv (in-place)
I0401 18:31:32.887444  3205 net.cpp:150] Setting up relu7
I0401 18:31:32.887446  3205 net.cpp:157] Top shape: 32 256 4 16 (524288)
I0401 18:31:32.887449  3205 net.cpp:165] Memory required for data: 272630112
I0401 18:31:32.887451  3205 layer_factory.hpp:77] Creating layer fc7_conv_relu7_0_split
I0401 18:31:32.887455  3205 net.cpp:100] Creating Layer fc7_conv_relu7_0_split
I0401 18:31:32.887457  3205 net.cpp:434] fc7_conv_relu7_0_split <- fc7_conv
I0401 18:31:32.887465  3205 net.cpp:408] fc7_conv_relu7_0_split -> fc7_conv_relu7_0_split_0
I0401 18:31:32.887470  3205 net.cpp:408] fc7_conv_relu7_0_split -> fc7_conv_relu7_0_split_1
I0401 18:31:32.887473  3205 net.cpp:408] fc7_conv_relu7_0_split -> fc7_conv_relu7_0_split_2
I0401 18:31:32.887516  3205 net.cpp:150] Setting up fc7_conv_relu7_0_split
I0401 18:31:32.887519  3205 net.cpp:157] Top shape: 32 256 4 16 (524288)
I0401 18:31:32.887522  3205 net.cpp:157] Top shape: 32 256 4 16 (524288)
I0401 18:31:32.887526  3205 net.cpp:157] Top shape: 32 256 4 16 (524288)
I0401 18:31:32.887527  3205 net.cpp:165] Memory required for data: 278921568
I0401 18:31:32.887531  3205 layer_factory.hpp:77] Creating layer conv6_1
I0401 18:31:32.887537  3205 net.cpp:100] Creating Layer conv6_1
I0401 18:31:32.887539  3205 net.cpp:434] conv6_1 <- fc7_conv_relu7_0_split_0
I0401 18:31:32.887544  3205 net.cpp:408] conv6_1 -> conv6_1
I0401 18:31:32.887785  3205 net.cpp:150] Setting up conv6_1
I0401 18:31:32.887791  3205 net.cpp:157] Top shape: 32 32 4 16 (65536)
I0401 18:31:32.887794  3205 net.cpp:165] Memory required for data: 279183712
I0401 18:31:32.887799  3205 layer_factory.hpp:77] Creating layer conv6_1_relu
I0401 18:31:32.887801  3205 net.cpp:100] Creating Layer conv6_1_relu
I0401 18:31:32.887804  3205 net.cpp:434] conv6_1_relu <- conv6_1
I0401 18:31:32.887809  3205 net.cpp:395] conv6_1_relu -> conv6_1 (in-place)
I0401 18:31:32.887814  3205 net.cpp:150] Setting up conv6_1_relu
I0401 18:31:32.887816  3205 net.cpp:157] Top shape: 32 32 4 16 (65536)
I0401 18:31:32.887818  3205 net.cpp:165] Memory required for data: 279445856
I0401 18:31:32.887821  3205 layer_factory.hpp:77] Creating layer conv6_2
I0401 18:31:32.887827  3205 net.cpp:100] Creating Layer conv6_2
I0401 18:31:32.887830  3205 net.cpp:434] conv6_2 <- conv6_1
I0401 18:31:32.887833  3205 net.cpp:408] conv6_2 -> conv6_2
I0401 18:31:32.888110  3205 net.cpp:150] Setting up conv6_2
I0401 18:31:32.888116  3205 net.cpp:157] Top shape: 32 64 2 8 (32768)
I0401 18:31:32.888119  3205 net.cpp:165] Memory required for data: 279576928
I0401 18:31:32.888125  3205 layer_factory.hpp:77] Creating layer conv6_2_relu
I0401 18:31:32.888130  3205 net.cpp:100] Creating Layer conv6_2_relu
I0401 18:31:32.888134  3205 net.cpp:434] conv6_2_relu <- conv6_2
I0401 18:31:32.888136  3205 net.cpp:395] conv6_2_relu -> conv6_2 (in-place)
I0401 18:31:32.888140  3205 net.cpp:150] Setting up conv6_2_relu
I0401 18:31:32.888144  3205 net.cpp:157] Top shape: 32 64 2 8 (32768)
I0401 18:31:32.888146  3205 net.cpp:165] Memory required for data: 279708000
I0401 18:31:32.888149  3205 layer_factory.hpp:77] Creating layer conv6_2_conv6_2_relu_0_split
I0401 18:31:32.888151  3205 net.cpp:100] Creating Layer conv6_2_conv6_2_relu_0_split
I0401 18:31:32.888155  3205 net.cpp:434] conv6_2_conv6_2_relu_0_split <- conv6_2
I0401 18:31:32.888159  3205 net.cpp:408] conv6_2_conv6_2_relu_0_split -> conv6_2_conv6_2_relu_0_split_0
I0401 18:31:32.888164  3205 net.cpp:408] conv6_2_conv6_2_relu_0_split -> conv6_2_conv6_2_relu_0_split_1
I0401 18:31:32.888167  3205 net.cpp:408] conv6_2_conv6_2_relu_0_split -> conv6_2_conv6_2_relu_0_split_2
I0401 18:31:32.888209  3205 net.cpp:150] Setting up conv6_2_conv6_2_relu_0_split
I0401 18:31:32.888213  3205 net.cpp:157] Top shape: 32 64 2 8 (32768)
I0401 18:31:32.888217  3205 net.cpp:157] Top shape: 32 64 2 8 (32768)
I0401 18:31:32.888219  3205 net.cpp:157] Top shape: 32 64 2 8 (32768)
I0401 18:31:32.888222  3205 net.cpp:165] Memory required for data: 280101216
I0401 18:31:32.888224  3205 layer_factory.hpp:77] Creating layer conv7_1
I0401 18:31:32.888231  3205 net.cpp:100] Creating Layer conv7_1
I0401 18:31:32.888233  3205 net.cpp:434] conv7_1 <- conv6_2_conv6_2_relu_0_split_0
I0401 18:31:32.888238  3205 net.cpp:408] conv7_1 -> conv7_1
I0401 18:31:32.888454  3205 net.cpp:150] Setting up conv7_1
I0401 18:31:32.888460  3205 net.cpp:157] Top shape: 32 16 2 8 (8192)
I0401 18:31:32.888463  3205 net.cpp:165] Memory required for data: 280133984
I0401 18:31:32.888468  3205 layer_factory.hpp:77] Creating layer conv7_1_relu
I0401 18:31:32.888473  3205 net.cpp:100] Creating Layer conv7_1_relu
I0401 18:31:32.888476  3205 net.cpp:434] conv7_1_relu <- conv7_1
I0401 18:31:32.888480  3205 net.cpp:395] conv7_1_relu -> conv7_1 (in-place)
I0401 18:31:32.888484  3205 net.cpp:150] Setting up conv7_1_relu
I0401 18:31:32.888487  3205 net.cpp:157] Top shape: 32 16 2 8 (8192)
I0401 18:31:32.888490  3205 net.cpp:165] Memory required for data: 280166752
I0401 18:31:32.888492  3205 layer_factory.hpp:77] Creating layer conv7_2
I0401 18:31:32.888497  3205 net.cpp:100] Creating Layer conv7_2
I0401 18:31:32.888500  3205 net.cpp:434] conv7_2 <- conv7_1
I0401 18:31:32.888504  3205 net.cpp:408] conv7_2 -> conv7_2
I0401 18:31:32.888731  3205 net.cpp:150] Setting up conv7_2
I0401 18:31:32.888736  3205 net.cpp:157] Top shape: 32 32 1 4 (4096)
I0401 18:31:32.888738  3205 net.cpp:165] Memory required for data: 280183136
I0401 18:31:32.888742  3205 layer_factory.hpp:77] Creating layer conv7_2_relu
I0401 18:31:32.888746  3205 net.cpp:100] Creating Layer conv7_2_relu
I0401 18:31:32.888749  3205 net.cpp:434] conv7_2_relu <- conv7_2
I0401 18:31:32.888752  3205 net.cpp:395] conv7_2_relu -> conv7_2 (in-place)
I0401 18:31:32.888756  3205 net.cpp:150] Setting up conv7_2_relu
I0401 18:31:32.888759  3205 net.cpp:157] Top shape: 32 32 1 4 (4096)
I0401 18:31:32.888762  3205 net.cpp:165] Memory required for data: 280199520
I0401 18:31:32.888764  3205 layer_factory.hpp:77] Creating layer conv7_2_conv7_2_relu_0_split
I0401 18:31:32.888768  3205 net.cpp:100] Creating Layer conv7_2_conv7_2_relu_0_split
I0401 18:31:32.888770  3205 net.cpp:434] conv7_2_conv7_2_relu_0_split <- conv7_2
I0401 18:31:32.888774  3205 net.cpp:408] conv7_2_conv7_2_relu_0_split -> conv7_2_conv7_2_relu_0_split_0
I0401 18:31:32.888778  3205 net.cpp:408] conv7_2_conv7_2_relu_0_split -> conv7_2_conv7_2_relu_0_split_1
I0401 18:31:32.888782  3205 net.cpp:408] conv7_2_conv7_2_relu_0_split -> conv7_2_conv7_2_relu_0_split_2
I0401 18:31:32.888823  3205 net.cpp:150] Setting up conv7_2_conv7_2_relu_0_split
I0401 18:31:32.888828  3205 net.cpp:157] Top shape: 32 32 1 4 (4096)
I0401 18:31:32.888831  3205 net.cpp:157] Top shape: 32 32 1 4 (4096)
I0401 18:31:32.888834  3205 net.cpp:157] Top shape: 32 32 1 4 (4096)
I0401 18:31:32.888836  3205 net.cpp:165] Memory required for data: 280248672
I0401 18:31:32.888839  3205 layer_factory.hpp:77] Creating layer pool6
I0401 18:31:32.888844  3205 net.cpp:100] Creating Layer pool6
I0401 18:31:32.888846  3205 net.cpp:434] pool6 <- conv7_2_conv7_2_relu_0_split_0
I0401 18:31:32.888850  3205 net.cpp:408] pool6 -> pool6
I0401 18:31:32.888870  3205 net.cpp:150] Setting up pool6
I0401 18:31:32.888873  3205 net.cpp:157] Top shape: 32 32 1 1 (1024)
I0401 18:31:32.888876  3205 net.cpp:165] Memory required for data: 280252768
I0401 18:31:32.888878  3205 layer_factory.hpp:77] Creating layer pool6_pool6_0_split
I0401 18:31:32.888881  3205 net.cpp:100] Creating Layer pool6_pool6_0_split
I0401 18:31:32.888885  3205 net.cpp:434] pool6_pool6_0_split <- pool6
I0401 18:31:32.888888  3205 net.cpp:408] pool6_pool6_0_split -> pool6_pool6_0_split_0
I0401 18:31:32.888892  3205 net.cpp:408] pool6_pool6_0_split -> pool6_pool6_0_split_1
I0401 18:31:32.888921  3205 net.cpp:150] Setting up pool6_pool6_0_split
I0401 18:31:32.888924  3205 net.cpp:157] Top shape: 32 32 1 1 (1024)
I0401 18:31:32.888927  3205 net.cpp:157] Top shape: 32 32 1 1 (1024)
I0401 18:31:32.888929  3205 net.cpp:165] Memory required for data: 280260960
I0401 18:31:32.888932  3205 layer_factory.hpp:77] Creating layer conv4_3_norm
I0401 18:31:32.888937  3205 net.cpp:100] Creating Layer conv4_3_norm
I0401 18:31:32.888941  3205 net.cpp:434] conv4_3_norm <- conv4_3_relu4_3_0_split_1
I0401 18:31:32.888943  3205 net.cpp:408] conv4_3_norm -> conv4_3_norm
I0401 18:31:32.889056  3205 net.cpp:150] Setting up conv4_3_norm
I0401 18:31:32.889060  3205 net.cpp:157] Top shape: 32 128 8 32 (1048576)
I0401 18:31:32.889063  3205 net.cpp:165] Memory required for data: 284455264
I0401 18:31:32.889066  3205 layer_factory.hpp:77] Creating layer conv4_3_norm_conv4_3_norm_0_split
I0401 18:31:32.889071  3205 net.cpp:100] Creating Layer conv4_3_norm_conv4_3_norm_0_split
I0401 18:31:32.889075  3205 net.cpp:434] conv4_3_norm_conv4_3_norm_0_split <- conv4_3_norm
I0401 18:31:32.889078  3205 net.cpp:408] conv4_3_norm_conv4_3_norm_0_split -> conv4_3_norm_conv4_3_norm_0_split_0
I0401 18:31:32.889083  3205 net.cpp:408] conv4_3_norm_conv4_3_norm_0_split -> conv4_3_norm_conv4_3_norm_0_split_1
I0401 18:31:32.889112  3205 net.cpp:150] Setting up conv4_3_norm_conv4_3_norm_0_split
I0401 18:31:32.889117  3205 net.cpp:157] Top shape: 32 128 8 32 (1048576)
I0401 18:31:32.889120  3205 net.cpp:157] Top shape: 32 128 8 32 (1048576)
I0401 18:31:32.889122  3205 net.cpp:165] Memory required for data: 292843872
I0401 18:31:32.889124  3205 layer_factory.hpp:77] Creating layer conv4_3_norm_mbox_loc_conf
I0401 18:31:32.889130  3205 net.cpp:100] Creating Layer conv4_3_norm_mbox_loc_conf
I0401 18:31:32.889133  3205 net.cpp:434] conv4_3_norm_mbox_loc_conf <- conv4_3_norm_conv4_3_norm_0_split_0
I0401 18:31:32.889138  3205 net.cpp:408] conv4_3_norm_mbox_loc_conf -> conv4_3_norm_mbox_loc_conf
I0401 18:31:32.889526  3205 net.cpp:150] Setting up conv4_3_norm_mbox_loc_conf
I0401 18:31:32.889531  3205 net.cpp:157] Top shape: 32 48 8 32 (393216)
I0401 18:31:32.889534  3205 net.cpp:165] Memory required for data: 294416736
I0401 18:31:32.889539  3205 layer_factory.hpp:77] Creating layer conv4_3_norm_mbox_loc_conf_perm
I0401 18:31:32.889544  3205 net.cpp:100] Creating Layer conv4_3_norm_mbox_loc_conf_perm
I0401 18:31:32.889546  3205 net.cpp:434] conv4_3_norm_mbox_loc_conf_perm <- conv4_3_norm_mbox_loc_conf
I0401 18:31:32.889550  3205 net.cpp:408] conv4_3_norm_mbox_loc_conf_perm -> conv4_3_norm_mbox_loc_conf_perm
I0401 18:31:32.889632  3205 net.cpp:150] Setting up conv4_3_norm_mbox_loc_conf_perm
I0401 18:31:32.889637  3205 net.cpp:157] Top shape: 32 8 32 48 (393216)
I0401 18:31:32.889639  3205 net.cpp:165] Memory required for data: 295989600
I0401 18:31:32.889642  3205 layer_factory.hpp:77] Creating layer conv4_3_norm_mbox_loc_perm
I0401 18:31:32.889647  3205 net.cpp:100] Creating Layer conv4_3_norm_mbox_loc_perm
I0401 18:31:32.889648  3205 net.cpp:434] conv4_3_norm_mbox_loc_perm <- conv4_3_norm_mbox_loc_conf_perm
I0401 18:31:32.889653  3205 net.cpp:408] conv4_3_norm_mbox_loc_perm -> conv4_3_norm_mbox_loc_perm
I0401 18:31:32.889657  3205 net.cpp:408] conv4_3_norm_mbox_loc_perm -> conv4_3_norm_mbox_conf_perm
I0401 18:31:32.889686  3205 net.cpp:150] Setting up conv4_3_norm_mbox_loc_perm
I0401 18:31:32.889690  3205 net.cpp:157] Top shape: 32 8 32 24 (196608)
I0401 18:31:32.889693  3205 net.cpp:157] Top shape: 32 8 32 24 (196608)
I0401 18:31:32.889696  3205 net.cpp:165] Memory required for data: 297562464
I0401 18:31:32.889698  3205 layer_factory.hpp:77] Creating layer conv4_3_norm_mbox_loc_flat
I0401 18:31:32.889703  3205 net.cpp:100] Creating Layer conv4_3_norm_mbox_loc_flat
I0401 18:31:32.889705  3205 net.cpp:434] conv4_3_norm_mbox_loc_flat <- conv4_3_norm_mbox_loc_perm
I0401 18:31:32.889708  3205 net.cpp:408] conv4_3_norm_mbox_loc_flat -> conv4_3_norm_mbox_loc_flat
I0401 18:31:32.889727  3205 net.cpp:150] Setting up conv4_3_norm_mbox_loc_flat
I0401 18:31:32.889731  3205 net.cpp:157] Top shape: 32 6144 (196608)
I0401 18:31:32.889734  3205 net.cpp:165] Memory required for data: 298348896
I0401 18:31:32.889736  3205 layer_factory.hpp:77] Creating layer conv4_3_norm_mbox_conf_flat
I0401 18:31:32.889740  3205 net.cpp:100] Creating Layer conv4_3_norm_mbox_conf_flat
I0401 18:31:32.889744  3205 net.cpp:434] conv4_3_norm_mbox_conf_flat <- conv4_3_norm_mbox_conf_perm
I0401 18:31:32.889746  3205 net.cpp:408] conv4_3_norm_mbox_conf_flat -> conv4_3_norm_mbox_conf_flat
I0401 18:31:32.889765  3205 net.cpp:150] Setting up conv4_3_norm_mbox_conf_flat
I0401 18:31:32.889770  3205 net.cpp:157] Top shape: 32 6144 (196608)
I0401 18:31:32.889771  3205 net.cpp:165] Memory required for data: 299135328
I0401 18:31:32.889775  3205 layer_factory.hpp:77] Creating layer conv4_3_norm_mbox_priorbox
I0401 18:31:32.889778  3205 net.cpp:100] Creating Layer conv4_3_norm_mbox_priorbox
I0401 18:31:32.889785  3205 net.cpp:434] conv4_3_norm_mbox_priorbox <- conv4_3_norm_conv4_3_norm_0_split_1
I0401 18:31:32.889787  3205 net.cpp:434] conv4_3_norm_mbox_priorbox <- data_data_0_split_1
I0401 18:31:32.889791  3205 net.cpp:408] conv4_3_norm_mbox_priorbox -> conv4_3_norm_mbox_priorbox
I0401 18:31:32.889812  3205 net.cpp:150] Setting up conv4_3_norm_mbox_priorbox
I0401 18:31:32.889816  3205 net.cpp:157] Top shape: 1 2 6144 (12288)
I0401 18:31:32.889818  3205 net.cpp:165] Memory required for data: 299184480
I0401 18:31:32.889822  3205 layer_factory.hpp:77] Creating layer fc7_conv_mbox_loc_conf
I0401 18:31:32.889827  3205 net.cpp:100] Creating Layer fc7_conv_mbox_loc_conf
I0401 18:31:32.889829  3205 net.cpp:434] fc7_conv_mbox_loc_conf <- fc7_conv_relu7_0_split_1
I0401 18:31:32.889833  3205 net.cpp:408] fc7_conv_mbox_loc_conf -> fc7_conv_mbox_loc_conf
I0401 18:31:32.890377  3205 net.cpp:150] Setting up fc7_conv_mbox_loc_conf
I0401 18:31:32.890382  3205 net.cpp:157] Top shape: 32 48 4 16 (98304)
I0401 18:31:32.890384  3205 net.cpp:165] Memory required for data: 299577696
I0401 18:31:32.890388  3205 layer_factory.hpp:77] Creating layer fc7_conv_mbox_loc_conf_perm
I0401 18:31:32.890393  3205 net.cpp:100] Creating Layer fc7_conv_mbox_loc_conf_perm
I0401 18:31:32.890395  3205 net.cpp:434] fc7_conv_mbox_loc_conf_perm <- fc7_conv_mbox_loc_conf
I0401 18:31:32.890398  3205 net.cpp:408] fc7_conv_mbox_loc_conf_perm -> fc7_conv_mbox_loc_conf_perm
I0401 18:31:32.890483  3205 net.cpp:150] Setting up fc7_conv_mbox_loc_conf_perm
I0401 18:31:32.890488  3205 net.cpp:157] Top shape: 32 4 16 48 (98304)
I0401 18:31:32.890491  3205 net.cpp:165] Memory required for data: 299970912
I0401 18:31:32.890493  3205 layer_factory.hpp:77] Creating layer fc7_conv_mbox_loc_perm
I0401 18:31:32.890497  3205 net.cpp:100] Creating Layer fc7_conv_mbox_loc_perm
I0401 18:31:32.890501  3205 net.cpp:434] fc7_conv_mbox_loc_perm <- fc7_conv_mbox_loc_conf_perm
I0401 18:31:32.890504  3205 net.cpp:408] fc7_conv_mbox_loc_perm -> fc7_conv_mbox_loc_perm
I0401 18:31:32.890508  3205 net.cpp:408] fc7_conv_mbox_loc_perm -> fc7_conv_mbox_conf_perm
I0401 18:31:32.890537  3205 net.cpp:150] Setting up fc7_conv_mbox_loc_perm
I0401 18:31:32.890540  3205 net.cpp:157] Top shape: 32 4 16 24 (49152)
I0401 18:31:32.890543  3205 net.cpp:157] Top shape: 32 4 16 24 (49152)
I0401 18:31:32.890545  3205 net.cpp:165] Memory required for data: 300364128
I0401 18:31:32.890547  3205 layer_factory.hpp:77] Creating layer fc7_conv_mbox_loc_flat
I0401 18:31:32.890552  3205 net.cpp:100] Creating Layer fc7_conv_mbox_loc_flat
I0401 18:31:32.890555  3205 net.cpp:434] fc7_conv_mbox_loc_flat <- fc7_conv_mbox_loc_perm
I0401 18:31:32.890559  3205 net.cpp:408] fc7_conv_mbox_loc_flat -> fc7_conv_mbox_loc_flat
I0401 18:31:32.890576  3205 net.cpp:150] Setting up fc7_conv_mbox_loc_flat
I0401 18:31:32.890580  3205 net.cpp:157] Top shape: 32 1536 (49152)
I0401 18:31:32.890583  3205 net.cpp:165] Memory required for data: 300560736
I0401 18:31:32.890585  3205 layer_factory.hpp:77] Creating layer fc7_conv_mbox_conf_flat
I0401 18:31:32.890588  3205 net.cpp:100] Creating Layer fc7_conv_mbox_conf_flat
I0401 18:31:32.890591  3205 net.cpp:434] fc7_conv_mbox_conf_flat <- fc7_conv_mbox_conf_perm
I0401 18:31:32.890596  3205 net.cpp:408] fc7_conv_mbox_conf_flat -> fc7_conv_mbox_conf_flat
I0401 18:31:32.890614  3205 net.cpp:150] Setting up fc7_conv_mbox_conf_flat
I0401 18:31:32.890617  3205 net.cpp:157] Top shape: 32 1536 (49152)
I0401 18:31:32.890620  3205 net.cpp:165] Memory required for data: 300757344
I0401 18:31:32.890622  3205 layer_factory.hpp:77] Creating layer fc7_conv_mbox_priorbox
I0401 18:31:32.890627  3205 net.cpp:100] Creating Layer fc7_conv_mbox_priorbox
I0401 18:31:32.890630  3205 net.cpp:434] fc7_conv_mbox_priorbox <- fc7_conv_relu7_0_split_2
I0401 18:31:32.890633  3205 net.cpp:434] fc7_conv_mbox_priorbox <- data_data_0_split_2
I0401 18:31:32.890636  3205 net.cpp:408] fc7_conv_mbox_priorbox -> fc7_conv_mbox_priorbox
I0401 18:31:32.890655  3205 net.cpp:150] Setting up fc7_conv_mbox_priorbox
I0401 18:31:32.890662  3205 net.cpp:157] Top shape: 1 2 1536 (3072)
I0401 18:31:32.890664  3205 net.cpp:165] Memory required for data: 300769632
I0401 18:31:32.890667  3205 layer_factory.hpp:77] Creating layer conv6_2_mbox_loc_conf
I0401 18:31:32.890673  3205 net.cpp:100] Creating Layer conv6_2_mbox_loc_conf
I0401 18:31:32.890676  3205 net.cpp:434] conv6_2_mbox_loc_conf <- conv6_2_conv6_2_relu_0_split_1
I0401 18:31:32.890681  3205 net.cpp:408] conv6_2_mbox_loc_conf -> conv6_2_mbox_loc_conf
I0401 18:31:32.890967  3205 net.cpp:150] Setting up conv6_2_mbox_loc_conf
I0401 18:31:32.890974  3205 net.cpp:157] Top shape: 32 48 2 8 (24576)
I0401 18:31:32.890975  3205 net.cpp:165] Memory required for data: 300867936
I0401 18:31:32.890980  3205 layer_factory.hpp:77] Creating layer conv6_2_mbox_loc_conf_perm
I0401 18:31:32.890987  3205 net.cpp:100] Creating Layer conv6_2_mbox_loc_conf_perm
I0401 18:31:32.890990  3205 net.cpp:434] conv6_2_mbox_loc_conf_perm <- conv6_2_mbox_loc_conf
I0401 18:31:32.890995  3205 net.cpp:408] conv6_2_mbox_loc_conf_perm -> conv6_2_mbox_loc_conf_perm
I0401 18:31:32.891080  3205 net.cpp:150] Setting up conv6_2_mbox_loc_conf_perm
I0401 18:31:32.891085  3205 net.cpp:157] Top shape: 32 2 8 48 (24576)
I0401 18:31:32.891088  3205 net.cpp:165] Memory required for data: 300966240
I0401 18:31:32.891090  3205 layer_factory.hpp:77] Creating layer conv6_2_mbox_loc_perm
I0401 18:31:32.891094  3205 net.cpp:100] Creating Layer conv6_2_mbox_loc_perm
I0401 18:31:32.891098  3205 net.cpp:434] conv6_2_mbox_loc_perm <- conv6_2_mbox_loc_conf_perm
I0401 18:31:32.891100  3205 net.cpp:408] conv6_2_mbox_loc_perm -> conv6_2_mbox_loc_perm
I0401 18:31:32.891105  3205 net.cpp:408] conv6_2_mbox_loc_perm -> conv6_2_mbox_conf_perm
I0401 18:31:32.891136  3205 net.cpp:150] Setting up conv6_2_mbox_loc_perm
I0401 18:31:32.891140  3205 net.cpp:157] Top shape: 32 2 8 24 (12288)
I0401 18:31:32.891144  3205 net.cpp:157] Top shape: 32 2 8 24 (12288)
I0401 18:31:32.891146  3205 net.cpp:165] Memory required for data: 301064544
I0401 18:31:32.891149  3205 layer_factory.hpp:77] Creating layer conv6_2_mbox_loc_flat
I0401 18:31:32.891152  3205 net.cpp:100] Creating Layer conv6_2_mbox_loc_flat
I0401 18:31:32.891155  3205 net.cpp:434] conv6_2_mbox_loc_flat <- conv6_2_mbox_loc_perm
I0401 18:31:32.891160  3205 net.cpp:408] conv6_2_mbox_loc_flat -> conv6_2_mbox_loc_flat
I0401 18:31:32.891178  3205 net.cpp:150] Setting up conv6_2_mbox_loc_flat
I0401 18:31:32.891182  3205 net.cpp:157] Top shape: 32 384 (12288)
I0401 18:31:32.891185  3205 net.cpp:165] Memory required for data: 301113696
I0401 18:31:32.891187  3205 layer_factory.hpp:77] Creating layer conv6_2_mbox_conf_flat
I0401 18:31:32.891191  3205 net.cpp:100] Creating Layer conv6_2_mbox_conf_flat
I0401 18:31:32.891193  3205 net.cpp:434] conv6_2_mbox_conf_flat <- conv6_2_mbox_conf_perm
I0401 18:31:32.891197  3205 net.cpp:408] conv6_2_mbox_conf_flat -> conv6_2_mbox_conf_flat
I0401 18:31:32.891216  3205 net.cpp:150] Setting up conv6_2_mbox_conf_flat
I0401 18:31:32.891219  3205 net.cpp:157] Top shape: 32 384 (12288)
I0401 18:31:32.891222  3205 net.cpp:165] Memory required for data: 301162848
I0401 18:31:32.891224  3205 layer_factory.hpp:77] Creating layer conv6_2_mbox_priorbox
I0401 18:31:32.891228  3205 net.cpp:100] Creating Layer conv6_2_mbox_priorbox
I0401 18:31:32.891232  3205 net.cpp:434] conv6_2_mbox_priorbox <- conv6_2_conv6_2_relu_0_split_2
I0401 18:31:32.891234  3205 net.cpp:434] conv6_2_mbox_priorbox <- data_data_0_split_3
I0401 18:31:32.891239  3205 net.cpp:408] conv6_2_mbox_priorbox -> conv6_2_mbox_priorbox
I0401 18:31:32.891258  3205 net.cpp:150] Setting up conv6_2_mbox_priorbox
I0401 18:31:32.891263  3205 net.cpp:157] Top shape: 1 2 384 (768)
I0401 18:31:32.891264  3205 net.cpp:165] Memory required for data: 301165920
I0401 18:31:32.891266  3205 layer_factory.hpp:77] Creating layer conv7_2_mbox_loc_conf
I0401 18:31:32.891273  3205 net.cpp:100] Creating Layer conv7_2_mbox_loc_conf
I0401 18:31:32.891275  3205 net.cpp:434] conv7_2_mbox_loc_conf <- conv7_2_conv7_2_relu_0_split_1
I0401 18:31:32.891280  3205 net.cpp:408] conv7_2_mbox_loc_conf -> conv7_2_mbox_loc_conf
I0401 18:31:32.891530  3205 net.cpp:150] Setting up conv7_2_mbox_loc_conf
I0401 18:31:32.891536  3205 net.cpp:157] Top shape: 32 48 1 4 (6144)
I0401 18:31:32.891538  3205 net.cpp:165] Memory required for data: 301190496
I0401 18:31:32.891542  3205 layer_factory.hpp:77] Creating layer conv7_2_mbox_loc_conf_perm
I0401 18:31:32.891547  3205 net.cpp:100] Creating Layer conv7_2_mbox_loc_conf_perm
I0401 18:31:32.891551  3205 net.cpp:434] conv7_2_mbox_loc_conf_perm <- conv7_2_mbox_loc_conf
I0401 18:31:32.891556  3205 net.cpp:408] conv7_2_mbox_loc_conf_perm -> conv7_2_mbox_loc_conf_perm
I0401 18:31:32.891638  3205 net.cpp:150] Setting up conv7_2_mbox_loc_conf_perm
I0401 18:31:32.891641  3205 net.cpp:157] Top shape: 32 1 4 48 (6144)
I0401 18:31:32.891644  3205 net.cpp:165] Memory required for data: 301215072
I0401 18:31:32.891646  3205 layer_factory.hpp:77] Creating layer conv7_2_mbox_loc_perm
I0401 18:31:32.891650  3205 net.cpp:100] Creating Layer conv7_2_mbox_loc_perm
I0401 18:31:32.891654  3205 net.cpp:434] conv7_2_mbox_loc_perm <- conv7_2_mbox_loc_conf_perm
I0401 18:31:32.891657  3205 net.cpp:408] conv7_2_mbox_loc_perm -> conv7_2_mbox_loc_perm
I0401 18:31:32.891661  3205 net.cpp:408] conv7_2_mbox_loc_perm -> conv7_2_mbox_conf_perm
I0401 18:31:32.891690  3205 net.cpp:150] Setting up conv7_2_mbox_loc_perm
I0401 18:31:32.891693  3205 net.cpp:157] Top shape: 32 1 4 24 (3072)
I0401 18:31:32.891696  3205 net.cpp:157] Top shape: 32 1 4 24 (3072)
I0401 18:31:32.891700  3205 net.cpp:165] Memory required for data: 301239648
I0401 18:31:32.891701  3205 layer_factory.hpp:77] Creating layer conv7_2_mbox_loc_flat
I0401 18:31:32.891705  3205 net.cpp:100] Creating Layer conv7_2_mbox_loc_flat
I0401 18:31:32.891707  3205 net.cpp:434] conv7_2_mbox_loc_flat <- conv7_2_mbox_loc_perm
I0401 18:31:32.891711  3205 net.cpp:408] conv7_2_mbox_loc_flat -> conv7_2_mbox_loc_flat
I0401 18:31:32.891729  3205 net.cpp:150] Setting up conv7_2_mbox_loc_flat
I0401 18:31:32.891733  3205 net.cpp:157] Top shape: 32 96 (3072)
I0401 18:31:32.891736  3205 net.cpp:165] Memory required for data: 301251936
I0401 18:31:32.891738  3205 layer_factory.hpp:77] Creating layer conv7_2_mbox_conf_flat
I0401 18:31:32.891742  3205 net.cpp:100] Creating Layer conv7_2_mbox_conf_flat
I0401 18:31:32.891744  3205 net.cpp:434] conv7_2_mbox_conf_flat <- conv7_2_mbox_conf_perm
I0401 18:31:32.891749  3205 net.cpp:408] conv7_2_mbox_conf_flat -> conv7_2_mbox_conf_flat
I0401 18:31:32.891767  3205 net.cpp:150] Setting up conv7_2_mbox_conf_flat
I0401 18:31:32.891772  3205 net.cpp:157] Top shape: 32 96 (3072)
I0401 18:31:32.891773  3205 net.cpp:165] Memory required for data: 301264224
I0401 18:31:32.891777  3205 layer_factory.hpp:77] Creating layer conv7_2_mbox_priorbox
I0401 18:31:32.891780  3205 net.cpp:100] Creating Layer conv7_2_mbox_priorbox
I0401 18:31:32.891783  3205 net.cpp:434] conv7_2_mbox_priorbox <- conv7_2_conv7_2_relu_0_split_2
I0401 18:31:32.891786  3205 net.cpp:434] conv7_2_mbox_priorbox <- data_data_0_split_4
I0401 18:31:32.891790  3205 net.cpp:408] conv7_2_mbox_priorbox -> conv7_2_mbox_priorbox
I0401 18:31:32.891809  3205 net.cpp:150] Setting up conv7_2_mbox_priorbox
I0401 18:31:32.891813  3205 net.cpp:157] Top shape: 1 2 96 (192)
I0401 18:31:32.891815  3205 net.cpp:165] Memory required for data: 301264992
I0401 18:31:32.891819  3205 layer_factory.hpp:77] Creating layer pool6_mbox_loc_conf
I0401 18:31:32.891824  3205 net.cpp:100] Creating Layer pool6_mbox_loc_conf
I0401 18:31:32.891826  3205 net.cpp:434] pool6_mbox_loc_conf <- pool6_pool6_0_split_0
I0401 18:31:32.891830  3205 net.cpp:408] pool6_mbox_loc_conf -> pool6_mbox_loc_conf
I0401 18:31:32.892081  3205 net.cpp:150] Setting up pool6_mbox_loc_conf
I0401 18:31:32.892086  3205 net.cpp:157] Top shape: 32 48 1 1 (1536)
I0401 18:31:32.892089  3205 net.cpp:165] Memory required for data: 301271136
I0401 18:31:32.892093  3205 layer_factory.hpp:77] Creating layer pool6_mbox_loc_conf_perm
I0401 18:31:32.892097  3205 net.cpp:100] Creating Layer pool6_mbox_loc_conf_perm
I0401 18:31:32.892102  3205 net.cpp:434] pool6_mbox_loc_conf_perm <- pool6_mbox_loc_conf
I0401 18:31:32.892107  3205 net.cpp:408] pool6_mbox_loc_conf_perm -> pool6_mbox_loc_conf_perm
I0401 18:31:32.892190  3205 net.cpp:150] Setting up pool6_mbox_loc_conf_perm
I0401 18:31:32.892195  3205 net.cpp:157] Top shape: 32 1 1 48 (1536)
I0401 18:31:32.892197  3205 net.cpp:165] Memory required for data: 301277280
I0401 18:31:32.892200  3205 layer_factory.hpp:77] Creating layer pool6_mbox_loc_perm
I0401 18:31:32.892204  3205 net.cpp:100] Creating Layer pool6_mbox_loc_perm
I0401 18:31:32.892206  3205 net.cpp:434] pool6_mbox_loc_perm <- pool6_mbox_loc_conf_perm
I0401 18:31:32.892210  3205 net.cpp:408] pool6_mbox_loc_perm -> pool6_mbox_loc_perm
I0401 18:31:32.892215  3205 net.cpp:408] pool6_mbox_loc_perm -> pool6_mbox_conf_perm
I0401 18:31:32.892242  3205 net.cpp:150] Setting up pool6_mbox_loc_perm
I0401 18:31:32.892246  3205 net.cpp:157] Top shape: 32 1 1 24 (768)
I0401 18:31:32.892249  3205 net.cpp:157] Top shape: 32 1 1 24 (768)
I0401 18:31:32.892251  3205 net.cpp:165] Memory required for data: 301283424
I0401 18:31:32.892254  3205 layer_factory.hpp:77] Creating layer pool6_mbox_loc_flat
I0401 18:31:32.892257  3205 net.cpp:100] Creating Layer pool6_mbox_loc_flat
I0401 18:31:32.892261  3205 net.cpp:434] pool6_mbox_loc_flat <- pool6_mbox_loc_perm
I0401 18:31:32.892263  3205 net.cpp:408] pool6_mbox_loc_flat -> pool6_mbox_loc_flat
I0401 18:31:32.892282  3205 net.cpp:150] Setting up pool6_mbox_loc_flat
I0401 18:31:32.892285  3205 net.cpp:157] Top shape: 32 24 (768)
I0401 18:31:32.892288  3205 net.cpp:165] Memory required for data: 301286496
I0401 18:31:32.892290  3205 layer_factory.hpp:77] Creating layer pool6_mbox_conf_flat
I0401 18:31:32.892294  3205 net.cpp:100] Creating Layer pool6_mbox_conf_flat
I0401 18:31:32.892297  3205 net.cpp:434] pool6_mbox_conf_flat <- pool6_mbox_conf_perm
I0401 18:31:32.892300  3205 net.cpp:408] pool6_mbox_conf_flat -> pool6_mbox_conf_flat
I0401 18:31:32.892319  3205 net.cpp:150] Setting up pool6_mbox_conf_flat
I0401 18:31:32.892323  3205 net.cpp:157] Top shape: 32 24 (768)
I0401 18:31:32.892325  3205 net.cpp:165] Memory required for data: 301289568
I0401 18:31:32.892328  3205 layer_factory.hpp:77] Creating layer pool6_mbox_priorbox
I0401 18:31:32.892331  3205 net.cpp:100] Creating Layer pool6_mbox_priorbox
I0401 18:31:32.892334  3205 net.cpp:434] pool6_mbox_priorbox <- pool6_pool6_0_split_1
I0401 18:31:32.892341  3205 net.cpp:434] pool6_mbox_priorbox <- data_data_0_split_5
I0401 18:31:32.892348  3205 net.cpp:408] pool6_mbox_priorbox -> pool6_mbox_priorbox
I0401 18:31:32.892371  3205 net.cpp:150] Setting up pool6_mbox_priorbox
I0401 18:31:32.892375  3205 net.cpp:157] Top shape: 1 2 24 (48)
I0401 18:31:32.892379  3205 net.cpp:165] Memory required for data: 301289760
I0401 18:31:32.892380  3205 layer_factory.hpp:77] Creating layer mbox_loc
I0401 18:31:32.892385  3205 net.cpp:100] Creating Layer mbox_loc
I0401 18:31:32.892388  3205 net.cpp:434] mbox_loc <- conv4_3_norm_mbox_loc_flat
I0401 18:31:32.892392  3205 net.cpp:434] mbox_loc <- fc7_conv_mbox_loc_flat
I0401 18:31:32.892395  3205 net.cpp:434] mbox_loc <- conv6_2_mbox_loc_flat
I0401 18:31:32.892398  3205 net.cpp:434] mbox_loc <- conv7_2_mbox_loc_flat
I0401 18:31:32.892401  3205 net.cpp:434] mbox_loc <- pool6_mbox_loc_flat
I0401 18:31:32.892405  3205 net.cpp:408] mbox_loc -> mbox_loc
I0401 18:31:32.892424  3205 net.cpp:150] Setting up mbox_loc
I0401 18:31:32.892429  3205 net.cpp:157] Top shape: 32 8184 (261888)
I0401 18:31:32.892432  3205 net.cpp:165] Memory required for data: 302337312
I0401 18:31:32.892434  3205 layer_factory.hpp:77] Creating layer mbox_conf
I0401 18:31:32.892438  3205 net.cpp:100] Creating Layer mbox_conf
I0401 18:31:32.892441  3205 net.cpp:434] mbox_conf <- conv4_3_norm_mbox_conf_flat
I0401 18:31:32.892444  3205 net.cpp:434] mbox_conf <- fc7_conv_mbox_conf_flat
I0401 18:31:32.892447  3205 net.cpp:434] mbox_conf <- conv6_2_mbox_conf_flat
I0401 18:31:32.892451  3205 net.cpp:434] mbox_conf <- conv7_2_mbox_conf_flat
I0401 18:31:32.892453  3205 net.cpp:434] mbox_conf <- pool6_mbox_conf_flat
I0401 18:31:32.892459  3205 net.cpp:408] mbox_conf -> mbox_conf
I0401 18:31:32.892478  3205 net.cpp:150] Setting up mbox_conf
I0401 18:31:32.892482  3205 net.cpp:157] Top shape: 32 8184 (261888)
I0401 18:31:32.892484  3205 net.cpp:165] Memory required for data: 303384864
I0401 18:31:32.892488  3205 layer_factory.hpp:77] Creating layer mbox_priorbox
I0401 18:31:32.892491  3205 net.cpp:100] Creating Layer mbox_priorbox
I0401 18:31:32.892494  3205 net.cpp:434] mbox_priorbox <- conv4_3_norm_mbox_priorbox
I0401 18:31:32.892498  3205 net.cpp:434] mbox_priorbox <- fc7_conv_mbox_priorbox
I0401 18:31:32.892500  3205 net.cpp:434] mbox_priorbox <- conv6_2_mbox_priorbox
I0401 18:31:32.892503  3205 net.cpp:434] mbox_priorbox <- conv7_2_mbox_priorbox
I0401 18:31:32.892506  3205 net.cpp:434] mbox_priorbox <- pool6_mbox_priorbox
I0401 18:31:32.892509  3205 net.cpp:408] mbox_priorbox -> mbox_priorbox
I0401 18:31:32.892527  3205 net.cpp:150] Setting up mbox_priorbox
I0401 18:31:32.892531  3205 net.cpp:157] Top shape: 1 2 8184 (16368)
I0401 18:31:32.892534  3205 net.cpp:165] Memory required for data: 303450336
I0401 18:31:32.892536  3205 layer_factory.hpp:77] Creating layer mbox_loss
I0401 18:31:32.892542  3205 net.cpp:100] Creating Layer mbox_loss
I0401 18:31:32.892544  3205 net.cpp:434] mbox_loss <- mbox_loc
I0401 18:31:32.892547  3205 net.cpp:434] mbox_loss <- mbox_conf
I0401 18:31:32.892550  3205 net.cpp:434] mbox_loss <- mbox_priorbox
…
  type: "AnnotatedData"
  top: "data"
  top: "label"
  include {
    phase: TEST
  }
  transform_param {
    mean_value: 114
    mean_value: 115
    mean_value: 108
    resize_param {
      prob: 1
      resize_mode: WARP
      height: 64
      width: 256
      interp_mode: LINEAR
    }
  }
  data_param {
    source: "/home/work/wwl/data/kitti/data_object_image_2/training/test_lmdb"
    batch_size: 32
    backend: LMDB
  }
  annotated_data_param {
    batch_sampler {
    }
    label_map_file: "/home/work/wwl/code/vision-detector/data/KITTI/labelmap.prototxt"
  }
}
layer {
  name: "conv1_1"
  type: "Convolution"
  bottom: "data"
  top: "conv1_1"
  param {
    lr_mult: 1
    decay_mult: 1
  }
  param {
    lr_mult: 2
    decay_mult: 0
  }
  convolution_param {
    num_output: 16
    pad: 1
    kernel_size: 3
    weight_filler {
      type: "xavier"
    }
    bias_filler {
      type: "constant"
      value: 0
    }
  }
}
layer {
  name: "relu1_1"
  type: "ReLU"
  bottom: "conv1_1"
  top: "conv1_1"
}
layer {
  name: "conv1_2"
  type: "Convolution"
  bottom: "conv1_1"
  top: "conv1_2"
  param {
    lr_mult: 1
    decay_mult: 1
  }
  param {
    lr_mult: 2
    decay_mult: 0
  }
  convolution_param {
    num_output: 16
    pad: 1
    kernel_size: 3
    stride: 2
    weight_filler {
      type: "xavier"
    }
    bias_filler {
      type: "constant"
      value: 0
    }
  }
}
layer {
  name: "relu1_2"
  type: "ReLU"
  bottom: "conv1_2"
  top: "conv1_2"
}
layer {
  name: "conv2_1"
  type: "Convolution"
  bottom: "conv1_2"
  top: "conv2_1"
  param {
    lr_mult: 1
    decay_mult: 1
  }
  param {
    lr_mult: 2
    decay_mult: 0
  }
  convolution_param {
    num_output: 32
    pad: 1
    kernel_size: 3
    weight_filler {
      type: "xavier"
    }
    bias_filler {
      type: "constant"
      value: 0
    }
  }
}
layer {
  name: "relu2_1"
  type: "ReLU"
  bottom: "conv2_1"
  top: "conv2_1"
}
layer {
  name: "conv2_2"
  type: "Convolution"
  bottom: "conv2_1"
  top: "conv2_2"
  param {
    lr_mult: 1
    decay_mult: 1
  }
  param {
    lr_mult: 2
    decay_mult: 0
  }
  convolution_param {
    num_output: 32
    pad: 1
    kernel_size: 3
    stride: 2
    weight_filler {
      type: "xavier"
    }
    bias_filler {
      type: "constant"
      value: 0
    }
  }
}
layer {
  name: "relu2_2"
  type: "ReLU"
  bottom: "conv2_2"
  top: "conv2_2"
}
layer {
  name: "conv3_1"
  type: "Convolution"
  bottom: "conv2_2"
  top: "conv3_1"
  param {
    lr_mult: 1
    decay_mult: 1
  }
  param {
    lr_mult: 2
    decay_mult: 0
  }
  convolution_param {
    num_output: 64
    pad: 1
    kernel_size: 3
    weight_filler {
      type: "xavier"
    }
    bias_filler {
      type: "constant"
      value: 0
    }
  }
}
layer {
  name: "relu3_1"
  type: "ReLU"
  bottom: "conv3_1"
  top: "conv3_1"
}
layer {
  name: "conv3_2"
  type: "Convolution"
  bottom: "conv3_1"
  top: "conv3_2"
  param {
    lr_mult: 1
    decay_mult: 1
  }
  param {
    lr_mult: 2
    decay_mult: 0
  }
  convolution_param {
    num_output: 64
    pad: 1
    kernel_size: 3
    weight_filler {
      type: "xavier"
    }
    bias_filler {
      type: "constant"
      value: 0
    }
  }
}
layer {
  name: "relu3_2"
  type: "ReLU"
  bottom: "conv3_2"
  top: "conv3_2"
}
layer {
  name: "conv3_3"
  type: "Convolution"
  bottom: "conv3_2"
  top: "conv3_3"
  param {
    lr_mult: 1
    decay_mult: 1
  }
  param {
    lr_mult: 2
    decay_mult: 0
  }
  convolution_param {
    num_output: 64
    pad: 1
    kernel_size: 3
    weight_filler {
      type: "xavier"
    }
    bias_filler {
      type: "constant"
      value: 0
    }
  }
}
layer {
  name: "relu3_3"
  type: "ReLU"
  bottom: "conv3_3"
  top: "conv3_3"
}
layer {
  name: "pool3"
  type: "Pooling"
  bottom: "conv3_3"
  top: "pool3"
  pooling_param {
    pool: MAX
    kernel_size: 2
    stride: 2
  }
}
layer {
  name: "conv4_1"
  type: "Convolution"
  bottom: "pool3"
  top: "conv4_1"
  param {
    lr_mult: 1
    decay_mult: 1
  }
  param {
    lr_mult: 2
    decay_mult: 0
  }
  convolution_param {
    num_output: 128
    pad: 1
    kernel_size: 3
    weight_filler {
      type: "xavier"
    }
    bias_filler {
      type: "constant"
      value: 0
    }
  }
}
layer {
  name: "relu4_1"
  type: "ReLU"
  bottom: "conv4_1"
  top: "conv4_1"
}
layer {
  name: "conv4_2"
  type: "Convolution"
  bottom: "conv4_1"
  top: "conv4_2"
  param {
    lr_mult: 1
    decay_mult: 1
  }
  param {
    lr_mult: 2
    decay_mult: 0
  }
  convolution_param {
    num_output: 128
    pad: 1
    kernel_size: 3
    weight_filler {
      type: "xavier"
    }
    bias_filler {
      type: "constant"
      value: 0
    }
  }
}
layer {
  name: "relu4_2"
  type: "ReLU"
  bottom: "conv4_2"
  top: "conv4_2"
}
layer {
  name: "conv4_3"
  type: "Convolution"
  bottom: "conv4_2"
  top: "conv4_3"
  param {
    lr_mult: 1
    decay_mult: 1
  }
  param {
    lr_mult: 2
    decay_mult: 0
  }
  convolution_param {
    num_output: 128
    pad: 1
    kernel_size: 3
    weight_filler {
      type: "xavier"
    }
    bias_filler {
      type: "constant"
      value: 0
    }
  }
}
layer {
  name: "relu4_3"
  type: "ReLU"
  bottom: "conv4_3"
  top: "conv4_3"
}
layer {
  name: "pool4"
  type: "Pooling"
  bottom: "conv4_3"
  top: "pool4"
  pooling_param {
    pool: MAX
    kernel_size: 2
    stride: 2
  }
}
layer {
  name: "conv5_1"
  type: "Convolution"
  bottom: "pool4"
  top: "conv5_1"
  param {
    lr_mult: 1
    decay_mult: 1
  }
  param {
    lr_mult: 2
    decay_mult: 0
  }
  convolution_param {
    num_output: 128
    pad: 1
    kernel_size: 3
    weight_filler {
      type: "xavier"
    }
    bias_filler {
      type: "constant"
      value: 0
    }
    dilation: 1
  }
}
layer {
  name: "relu5_1"
  type: "ReLU"
  bottom: "conv5_1"
  top: "conv5_1"
}
layer {
  name: "conv5_2"
  type: "Convolution"
  bottom: "conv5_1"
  top: "conv5_2"
  param {
    lr_mult: 1
    decay_mult: 1
  }
  param {
    lr_mult: 2
    decay_mult: 0
  }
  convolution_param {
    num_output: 128
    pad: 1
    kernel_size: 3
    weight_filler {
      type: "xavier"
    }
    bias_filler {
      type: "constant"
      value: 0
    }
    dilation: 1
  }
}
layer {
  name: "relu5_2"
  type: "ReLU"
  bottom: "conv5_2"
  top: "conv5_2"
}
layer {
  name: "conv5_3"
  type: "Convolution"
  bottom: "conv5_2"
  top: "conv5_3"
  param {
    lr_mult: 1
    decay_mult: 1
  }
  param {
    lr_mult: 2
    decay_mult: 0
  }
  convolution_param {
    num_output: 128
    pad: 1
    kernel_size: 3
    weight_filler {
      type: "xavier"
    }
    bias_filler {
      type: "constant"
      value: 0
    }
    dilation: 1
  }
}
layer {
  name: "relu5_3"
  type: "ReLU"
  bottom: "conv5_3"
  top: "conv5_3"
}
layer {
  name: "pool5"
  type: "Pooling"
  bottom: "conv5_3"
  top: "pool5"
  pooling_param {
    pool: MAX
    kernel_size: 3
    stride: 1
    pad: 1
  }
}
layer {
  name: "fc6_conv"
  type: "Convolution"
  bottom: "pool5"
  top: "fc6_conv"
  param {
    lr_mult: 1
    decay_mult: 1
  }
  param {
    lr_mult: 2
    decay_mult: 0
  }
  convolution_param {
    num_output: 256
    pad: 6
    kernel_size: 3
    weight_filler {
      type: "xavier"
    }
    bias_filler {
      type: "constant"
      value: 0
    }
    dilation: 6
  }
}
layer {
  name: "relu6"
  type: "ReLU"
  bottom: "fc6_conv"
  top: "fc6_conv"
}
layer {
  name: "fc7_conv"
  type: "Convolution"
  bottom: "fc6_conv"
  top: "fc7_conv"
  param {
    lr_mult: 1
    decay_mult: 1
  }
  param {
    lr_mult: 2
    decay_mult: 0
  }
  convolution_param {
    num_output: 256
    kernel_size: 1
    weight_filler {
      type: "xavier"
    }
    bias_filler {
      type: "constant"
      value: 0
    }
  }
}
layer {
  name: "relu7"
  type: "ReLU"
  bottom: "fc7_conv"
  top: "fc7_conv"
}
layer {
  name: "conv6_1"
  type: "Convolution"
  bottom: "fc7_conv"
  top: "conv6_1"
  param {
    lr_mult: 1
    decay_mult: 1
  }
  param {
    lr_mult: 2
    decay_mult: 0
  }
  convolution_param {
    num_output: 32
    pad: 0
    kernel_size: 1
    stride: 1
    weight_filler {
      type: "xavier"
    }
    bias_filler {
      type: "constant"
      value: 0
    }
  }
}
layer {
  name: "conv6_1_relu"
  type: "ReLU"
  bottom: "conv6_1"
  top: "conv6_1"
}
layer {
  name: "conv6_2"
  type: "Convolution"
  bottom: "conv6_1"
  top: "conv6_2"
  param {
    lr_mult: 1
    decay_mult: 1
  }
  param {
    lr_mult: 2
    decay_mult: 0
  }
  convolution_param {
    num_output: 64
    pad: 1
    kernel_size: 3
    stride: 2
    weight_filler {
      type: "xavier"
    }
    bias_filler {
      type: "constant"
      value: 0
    }
  }
}
layer {
  name: "conv6_2_relu"
  type: "ReLU"
  bottom: "conv6_2"
  top: "conv6_2"
}
layer {
  name: "conv7_1"
  type: "Convolution"
  bottom: "conv6_2"
  top: "conv7_1"
  param {
    lr_mult: 1
    decay_mult: 1
  }
  param {
    lr_mult: 2
    decay_mult: 0
  }
  convolution_param {
    num_output: 16
    pad: 0
    kernel_size: 1
    stride: 1
    weight_filler {
      type: "xavier"
    }
    bias_filler {
      type: "constant"
      value: 0
    }
  }
}
layer {
  name: "conv7_1_relu"
  type: "ReLU"
  bottom: "conv7_1"
  top: "conv7_1"
}
layer {
  name: "conv7_2"
  type: "Convolution"
  bottom: "conv7_1"
  top: "conv7_2"
  param {
    lr_mult: 1
    decay_mult: 1
  }
  param {
    lr_mult: 2
    decay_mult: 0
  }
  convolution_param {
    num_output: 32
    pad: 1
    kernel_size: 3
    stride: 2
    weight_filler {
      type: "xavier"
    }
    bias_filler {
      type: "constant"
      value: 0
    }
  }
}
layer {
  name: "conv7_2_relu"
  type: "ReLU"
  bottom: "conv7_2"
  top: "conv7_2"
}
layer {
  name: "pool6"
  type: "Pooling"
  bottom: "conv7_2"
  top: "pool6"
  pooling_param {
    pool: AVE
    global_pooling: true
  }
}
layer {
  name: "conv4_3_norm"
  type: "Normalize"
  bottom: "conv4_3"
  top: "conv4_3_norm"
  norm_param {
    across_spatial: false
    scale_filler {
      type: "constant"
      value: 20
    }
    channel_shared: false
  }
}
layer {
  name: "conv4_3_norm_mbox_loc_conf"
  type: "Convolution"
  bottom: "conv4_3_norm"
  top: "conv4_3_norm_mbox_loc_conf"
  param {
    lr_mult: 1
    decay_mult: 1
  }
  param {
    lr_mult: 2
    decay_mult: 0
  }
  convolution_param {
    num_output: 48
    pad: 1
    kernel_size: 3
    stride: 1
    weight_filler {
      type: "xavier"
    }
    bias_filler {
      type: "constant"
      value: 0
    }
  }
}
layer {
  name: "conv4_3_norm_mbox_loc_conf_perm"
  type: "Permute"
  bottom: "conv4_3_norm_mbox_loc_conf"
  top: "conv4_3_norm_mbox_loc_conf_perm"
  permute_param {
    order: 0
    order: 2
    order: 3
    order: 1
  }
}
layer {
  name: "conv4_3_norm_mbox_loc_perm"
  type: "Slice"
  bottom: "conv4_3_norm_mbox_loc_conf_perm"
  top: "conv4_3_norm_mbox_loc_perm"
  top: "conv4_3_norm_mbox_conf_perm"
  slice_param {
    slice_point: 24
    axis: 3
  }
}
layer {
  name: "conv4_3_norm_mbox_loc_flat"
  type: "Flatten"
  bottom: "conv4_3_norm_mbox_loc_perm"
  top: "conv4_3_norm_mbox_loc_flat"
  flatten_param {
    axis: 1
  }
}
layer {
  name: "conv4_3_norm_mbox_conf_flat"
  type: "Flatten"
  bottom: "conv4_3_norm_mbox_conf_perm"
  top: "conv4_3_norm_mbox_conf_flat"
  flatten_param {
    axis: 1
  }
}
layer {
  name: "conv4_3_norm_mbox_priorbox"
  type: "PriorBox"
  bottom: "conv4_3_norm"
  bottom: "data"
  top: "conv4_3_norm_mbox_priorbox"
  prior_box_param {
    min_size: 19.2
    max_size: 32
    aspect_ratio: 2
    aspect_ratio: 3
    flip: true
    clip: true
    variance: 0.1
    variance: 0.1
    variance: 0.2
    variance: 0.2
    offset: 0.5
  }
}
layer {
  name: "fc7_conv_mbox_loc_conf"
  type: "Convolution"
  bottom: "fc7_conv"
  top: "fc7_conv_mbox_loc_conf"
  param {
    lr_mult: 1
    decay_mult: 1
  }
  param {
    lr_mult: 2
    decay_mult: 0
  }
  convolution_param {
    num_output: 48
    pad: 1
    kernel_size: 3
    stride: 1
    weight_filler {
      type: "xavier"
    }
    bias_filler {
      type: "constant"
      value: 0
    }
  }
}
layer {
  name: "fc7_conv_mbox_loc_conf_perm"
  type: "Permute"
  bottom: "fc7_conv_mbox_loc_conf"
  top: "fc7_conv_mbox_loc_conf_perm"
  permute_param {
    order: 0
    order: 2
    order: 3
    order: 1
  }
}
layer {
  name: "fc7_conv_mbox_loc_perm"
  type: "Slice"
  bottom: "fc7_conv_mbox_loc_conf_perm"
  top: "fc7_conv_mbox_loc_perm"
  top: "fc7_conv_mbox_conf_perm"
  slice_param {
    slice_point: 24
    axis: 3
  }
}
layer {
  name: "fc7_conv_mbox_loc_flat"
  type: "Flatten"
  bottom: "fc7_conv_mbox_loc_perm"
  top: "fc7_conv_mbox_loc_flat"
  flatten_param {
    axis: 1
  }
}
layer {
  name: "fc7_conv_mbox_conf_flat"
  type: "Flatten"
  bottom: "fc7_conv_mbox_conf_perm"
  top: "fc7_conv_mbox_conf_flat"
  flatten_param {
    axis: 1
  }
}
layer {
  name: "fc7_conv_mbox_priorbox"
  type: "PriorBox"
  bottom: "fc7_conv"
  bottom: "data"
  top: "fc7_conv_mbox_priorbox"
  prior_box_param {
    min_size: 32
    max_size: 61.44
    aspect_ratio: 2
    aspect_ratio: 3
    flip: true
    clip: true
    variance: 0.1
    variance: 0.1
    variance: 0.2
    variance: 0.2
    offset: 0.5
  }
}
layer {
  name: "conv6_2_mbox_loc_conf"
  type: "Convolution"
  bottom: "conv6_2"
  top: "conv6_2_mbox_loc_conf"
  param {
    lr_mult: 1
    decay_mult: 1
  }
  param {
    lr_mult: 2
    decay_mult: 0
  }
  convolution_param {
    num_output: 48
    pad: 1
    kernel_size: 3
    stride: 1
    weight_filler {
      type: "xavier"
    }
    bias_filler {
      type: "constant"
      value: 0
    }
  }
}
layer {
  name: "conv6_2_mbox_loc_conf_perm"
  type: "Permute"
  bottom: "conv6_2_mbox_loc_conf"
  top: "conv6_2_mbox_loc_conf_perm"
  permute_param {
    order: 0
    order: 2
    order: 3
    order: 1
  }
}
layer {
  name: "conv6_2_mbox_loc_perm"
  type: "Slice"
  bottom: "conv6_2_mbox_loc_conf_perm"
  top: "conv6_2_mbox_loc_perm"
  top: "conv6_2_mbox_conf_perm"
  slice_param {
    slice_point: 24
    axis: 3
  }
}
layer {
  name: "conv6_2_mbox_loc_flat"
  type: "Flatten"
  bottom: "conv6_2_mbox_loc_perm"
  top: "conv6_2_mbox_loc_flat"
  flatten_param {
    axis: 1
  }
}
layer {
  name: "conv6_2_mbox_conf_flat"
  type: "Flatten"
  bottom: "conv6_2_mbox_conf_perm"
  top: "conv6_2_mbox_conf_flat"
  flatten_param {
    axis: 1
  }
}
layer {
  name: "conv6_2_mbox_priorbox"
  type: "PriorBox"
  bottom: "conv6_2"
  bottom: "data"
  top: "conv6_2_mbox_priorbox"
  prior_box_param {
    min_size: 61.44
    max_size: 90.88
    aspect_ratio: 2
    aspect_ratio: 3
    flip: true
    clip: true
    variance: 0.1
    variance: 0.1
    variance: 0.2
    variance: 0.2
    offset: 0.5
  }
}
layer {
  name: "conv7_2_mbox_loc_conf"
  type: "Convolution"
  bottom: "conv7_2"
  top: "conv7_2_mbox_loc_conf"
  param {
    lr_mult: 1
    decay_mult: 1
  }
  param {
    lr_mult: 2
    decay_mult: 0
  }
  convolution_param {
    num_output: 48
    pad: 1
    kernel_size: 3
    stride: 1
    weight_filler {
      type: "xavier"
    }
    bias_filler {
      type: "constant"
      value: 0
    }
  }
}
layer {
  name: "conv7_2_mbox_loc_conf_perm"
  type: "Permute"
  bottom: "conv7_2_mbox_loc_conf"
  top: "conv7_2_mbox_loc_conf_perm"
  permute_param {
    order: 0
    order: 2
    order: 3
    order: 1
  }
}
layer {
  name: "conv7_2_mbox_loc_perm"
  type: "Slice"
  bottom: "conv7_2_mbox_loc_conf_perm"
  top: "conv7_2_mbox_loc_perm"
  top: "conv7_2_mbox_conf_perm"
  slice_param {
    slice_point: 24
    axis: 3
  }
}
layer {
  name: "conv7_2_mbox_loc_flat"
  type: "Flatten"
  bottom: "conv7_2_mbox_loc_perm"
  top: "conv7_2_mbox_loc_flat"
  flatten_param {
    axis: 1
  }
}
layer {
  name: "conv7_2_mbox_conf_flat"
  type: "Flatten"
  bottom: "conv7_2_mbox_conf_perm"
  top: "conv7_2_mbox_conf_flat"
  flatten_param {
    axis: 1
  }
}
layer {
  name: "conv7_2_mbox_priorbox"
  type: "PriorBox"
  bottom: "conv7_2"
  bottom: "data"
  top: "conv7_2_mbox_priorbox"
  prior_box_param {
    min_size: 90.88
    max_size: 120.32
    aspect_ratio: 2
    aspect_ratio: 3
    flip: true
    clip: true
    variance: 0.1
    variance: 0.1
    variance: 0.2
    variance: 0.2
    offset: 0.5
  }
}
layer {
  name: "pool6_mbox_loc_conf"
  type: "Convolution"
  bottom: "pool6"
  top: "pool6_mbox_loc_conf"
  param {
    lr_mult: 1
    decay_mult: 1
  }
  param {
    lr_mult: 2
    decay_mult: 0
  }
  convolution_param {
    num_output: 48
    pad: 1
    kernel_size: 3
    stride: 1
    weight_filler {
      type: "xavier"
    }
    bias_filler {
      type: "constant"
      value: 0
    }
  }
}
layer {
  name: "pool6_mbox_loc_conf_perm"
  type: "Permute"
  bottom: "pool6_mbox_loc_conf"
  top: "pool6_mbox_loc_conf_perm"
  permute_param {
    order: 0
    order: 2
    order: 3
    order: 1
  }
}
layer {
  name: "pool6_mbox_loc_perm"
  type: "Slice"
  bottom: "pool6_mbox_loc_conf_perm"
  top: "pool6_mbox_loc_perm"
  top: "pool6_mbox_conf_perm"
  slice_param {
    slice_point: 24
    axis: 3
  }
}
layer {
  name: "pool6_mbox_loc_flat"
  type: "Flatten"
  bottom: "pool6_mbox_loc_perm"
  top: "pool6_mbox_loc_flat"
  flatten_param {
    axis: 1
  }
}
layer {
  name: "pool6_mbox_conf_flat"
  type: "Flatten"
  bottom: "pool6_mbox_conf_perm"
  top: "pool6_mbox_conf_flat"
  flatten_param {
    axis: 1
  }
}
layer {
  name: "pool6_mbox_priorbox"
  type: "PriorBox"
  bottom: "pool6"
  bottom: "data"
  top: "pool6_mbox_priorbox"
  prior_box_param {
    min_size: 120.32
    max_size: 149.76
    aspect_ratio: 2
    aspect_ratio: 3
    flip: true
    clip: true
    variance: 0.1
    variance: 0.1
    variance: 0.2
    variance: 0.2
    offset: 0.5
  }
}
layer {
  name: "mbox_loc"
  type: "Concat"
  bottom: "conv4_3_norm_mbox_loc_flat"
  bottom: "fc7_conv_mbox_loc_flat"
  bottom: "conv6_2_mbox_loc_flat"
  bottom: "conv7_2_mbox_loc_flat"
  bottom: "pool6_mbox_loc_flat"
  top: "mbox_loc"
  concat_param {
    axis: 1
  }
}
layer {
  name: "mbox_conf"
  type: "Concat"
  bottom: "conv4_3_norm_mbox_conf_flat"
  bottom: "fc7_conv_mbox_conf_flat"
  bottom: "conv6_2_mbox_conf_flat"
  bottom: "conv7_2_mbox_conf_flat"
  bottom: "pool6_mbox_conf_flat"
  top: "mbox_conf"
  concat_param {
    axis: 1
  }
}
layer {
  name: "mbox_priorbox"
  type: "Concat"
  bottom: "conv4_3_norm_mbox_priorbox"
  bottom: "fc7_conv_mbox_priorbox"
  bottom: "conv6_2_mbox_priorbox"
  bottom: "conv7_2_mbox_priorbox"
  bottom: "pool6_mbox_priorbox"
  top: "mbox_priorbox"
  concat_param {
    axis: 2
  }
}
layer {
  name: "mbox_conf_reshape"
  type: "Reshape"
  bottom: "mbox_conf"
  top: "mbox_conf_reshape"
  reshape_param {
    shape {
      dim: 0
      dim: -1
      dim: 4
    }
  }
}
layer {
  name: "mbox_conf_softmax"
  type: "Softmax"
  bottom: "mbox_conf_reshape"
  top: "mbox_conf_softmax"
  softmax_param {
    axis: 2
  }
}
layer {
  name: "mbox_conf_flatten"
  type: "Flatten"
  bottom: "mbox_conf_softmax"
  top: "mbox_conf_flatten"
  flatten_param {
    axis: 1
  }
}
layer {
  name: "detection_out"
  type: "DetectionOutput"
  bottom: "mbox_loc"
  bottom: "mbox_conf_flatten"
  bottom: "mbox_priorbox"
  top: "detection_out"
  include {
    phase: TEST
  }
  detection_output_param {
    num_classes: 4
    share_location: true
    background_label_id: 0
    nms_param {
      nms_threshold: 0.3
      top_k: 200
    }
    save_output_param {
      output_directory: "jobs/ssd/v0327_smallssd_kitti_64x256_vgg16-channel16-nopooling12_normal/output"
      output_name_prefix: "det_test_"
      output_format: "VOC"
      label_map_file: "/home/work/wwl/code/vision-detector/data/KITTI/labelmap.prototxt"
      name_size_file: "/home/work/wwl/code/vision-detector/data/KITTI/test_name_size.txt"
      num_test_image: 2245
    }
    code_type: CENTER_SIZE
    keep_top_k: 100
    confidence_threshold: 0.01
  }
}
layer {
  name: "detection_eval"
  type: "DetectionEvaluate"
  bottom: "detection_out"
  bottom: "label"
  top: "detection_eval"
  include {
    phase: TEST
  }
  detection_evaluate_param {
    num_classes: 4
    background_label_id: 0
    overlap_threshold: 0.5
    evaluate_difficult_gt: false
    name_size_file: "/home/work/wwl/code/vision-detector/data/KITTI/test_name_size.txt"
  }
}
I0401 18:31:32.894752  3205 layer_factory.hpp:77] Creating layer data
I0401 18:31:32.894800  3205 net.cpp:100] Creating Layer data
I0401 18:31:32.894806  3205 net.cpp:408] data -> data
I0401 18:31:32.894814  3205 net.cpp:408] data -> label
I0401 18:31:32.895624  3252 db_lmdb.cpp:35] Opened lmdb /home/work/wwl/data/kitti/data_object_image_2/training/test_lmdb
I0401 18:31:32.904567  3205 annotated_data_layer.cpp:62] output data size: 32,3,64,256
I0401 18:31:32.924449  3205 net.cpp:150] Setting up data
I0401 18:31:32.924477  3205 net.cpp:157] Top shape: 32 3 64 256 (1572864)
I0401 18:31:32.924481  3205 net.cpp:157] Top shape: 1 1 9 8 (72)
I0401 18:31:32.924484  3205 net.cpp:165] Memory required for data: 6291744
I0401 18:31:32.924489  3205 layer_factory.hpp:77] Creating layer data_data_0_split
I0401 18:31:32.924501  3205 net.cpp:100] Creating Layer data_data_0_split
I0401 18:31:32.924504  3205 net.cpp:434] data_data_0_split <- data
I0401 18:31:32.924510  3205 net.cpp:408] data_data_0_split -> data_data_0_split_0
I0401 18:31:32.924518  3205 net.cpp:408] data_data_0_split -> data_data_0_split_1
I0401 18:31:32.924522  3205 net.cpp:408] data_data_0_split -> data_data_0_split_2
I0401 18:31:32.924527  3205 net.cpp:408] data_data_0_split -> data_data_0_split_3
I0401 18:31:32.924530  3205 net.cpp:408] data_data_0_split -> data_data_0_split_4
I0401 18:31:32.924535  3205 net.cpp:408] data_data_0_split -> data_data_0_split_5
I0401 18:31:32.924675  3205 net.cpp:150] Setting up data_data_0_split
I0401 18:31:32.924681  3205 net.cpp:157] Top shape: 32 3 64 256 (1572864)
I0401 18:31:32.924685  3205 net.cpp:157] Top shape: 32 3 64 256 (1572864)
I0401 18:31:32.924688  3205 net.cpp:157] Top shape: 32 3 64 256 (1572864)
I0401 18:31:32.924691  3205 net.cpp:157] Top shape: 32 3 64 256 (1572864)
I0401 18:31:32.924695  3205 net.cpp:157] Top shape: 32 3 64 256 (1572864)
I0401 18:31:32.924697  3205 net.cpp:157] Top shape: 32 3 64 256 (1572864)
I0401 18:31:32.924700  3205 net.cpp:165] Memory required for data: 44040480
I0401 18:31:32.924702  3205 layer_factory.hpp:77] Creating layer conv1_1
I0401 18:31:32.924713  3205 net.cpp:100] Creating Layer conv1_1
I0401 18:31:32.924716  3205 net.cpp:434] conv1_1 <- data_data_0_split_0
I0401 18:31:32.924721  3205 net.cpp:408] conv1_1 -> conv1_1
I0401 18:31:32.924969  3205 net.cpp:150] Setting up conv1_1
I0401 18:31:32.924975  3205 net.cpp:157] Top shape: 32 16 64 256 (8388608)
I0401 18:31:32.924978  3205 net.cpp:165] Memory required for data: 77594912
I0401 18:31:32.924985  3205 layer_factory.hpp:77] Creating layer relu1_1
I0401 18:31:32.924990  3205 net.cpp:100] Creating Layer relu1_1
I0401 18:31:32.924993  3205 net.cpp:434] relu1_1 <- conv1_1
I0401 18:31:32.924996  3205 net.cpp:395] relu1_1 -> conv1_1 (in-place)
I0401 18:31:32.925005  3205 net.cpp:150] Setting up relu1_1
I0401 18:31:32.925009  3205 net.cpp:157] Top shape: 32 16 64 256 (8388608)
I0401 18:31:32.925011  3205 net.cpp:165] Memory required for data: 111149344
I0401 18:31:32.925014  3205 layer_factory.hpp:77] Creating layer conv1_2
I0401 18:31:32.925020  3205 net.cpp:100] Creating Layer conv1_2
I0401 18:31:32.925024  3205 net.cpp:434] conv1_2 <- conv1_1
I0401 18:31:32.925027  3205 net.cpp:408] conv1_2 -> conv1_2
I0401 18:31:32.925248  3205 net.cpp:150] Setting up conv1_2
I0401 18:31:32.925253  3205 net.cpp:157] Top shape: 32 16 32 128 (2097152)
I0401 18:31:32.925256  3205 net.cpp:165] Memory required for data: 119537952
I0401 18:31:32.925261  3205 layer_factory.hpp:77] Creating layer relu1_2
I0401 18:31:32.925266  3205 net.cpp:100] Creating Layer relu1_2
I0401 18:31:32.925268  3205 net.cpp:434] relu1_2 <- conv1_2
I0401 18:31:32.925271  3205 net.cpp:395] relu1_2 -> conv1_2 (in-place)
I0401 18:31:32.925276  3205 net.cpp:150] Setting up relu1_2
I0401 18:31:32.925278  3205 net.cpp:157] Top shape: 32 16 32 128 (2097152)
I0401 18:31:32.925282  3205 net.cpp:165] Memory required for data: 127926560
I0401 18:31:32.925283  3205 layer_factory.hpp:77] Creating layer conv2_1
I0401 18:31:32.925288  3205 net.cpp:100] Creating Layer conv2_1
I0401 18:31:32.925292  3205 net.cpp:434] conv2_1 <- conv1_2
I0401 18:31:32.925295  3205 net.cpp:408] conv2_1 -> conv2_1
I0401 18:31:32.925577  3205 net.cpp:150] Setting up conv2_1
I0401 18:31:32.925583  3205 net.cpp:157] Top shape: 32 32 32 128 (4194304)
I0401 18:31:32.925585  3205 net.cpp:165] Memory required for data: 144703776
I0401 18:31:32.925591  3205 layer_factory.hpp:77] Creating layer relu2_1
I0401 18:31:32.925595  3205 net.cpp:100] Creating Layer relu2_1
I0401 18:31:32.925598  3205 net.cpp:434] relu2_1 <- conv2_1
I0401 18:31:32.925601  3205 net.cpp:395] relu2_1 -> conv2_1 (in-place)
I0401 18:31:32.925606  3205 net.cpp:150] Setting up relu2_1
I0401 18:31:32.925608  3205 net.cpp:157] Top shape: 32 32 32 128 (4194304)
I0401 18:31:32.925611  3205 net.cpp:165] Memory required for data: 161480992
I0401 18:31:32.925613  3205 layer_factory.hpp:77] Creating layer conv2_2
I0401 18:31:32.925619  3205 net.cpp:100] Creating Layer conv2_2
I0401 18:31:32.925622  3205 net.cpp:434] conv2_2 <- conv2_1
I0401 18:31:32.925626  3205 net.cpp:408] conv2_2 -> conv2_2
I0401 18:31:32.925878  3205 net.cpp:150] Setting up conv2_2
I0401 18:31:32.925884  3205 net.cpp:157] Top shape: 32 32 16 64 (1048576)
I0401 18:31:32.925885  3205 net.cpp:165] Memory required for data: 165675296
I0401 18:31:32.925889  3205 layer_factory.hpp:77] Creating layer relu2_2
I0401 18:31:32.925894  3205 net.cpp:100] Creating Layer relu2_2
I0401 18:31:32.925896  3205 net.cpp:434] relu2_2 <- conv2_2
I0401 18:31:32.925899  3205 net.cpp:395] relu2_2 -> conv2_2 (in-place)
I0401 18:31:32.925904  3205 net.cpp:150] Setting up relu2_2
I0401 18:31:32.925906  3205 net.cpp:157] Top shape: 32 32 16 64 (1048576)
I0401 18:31:32.925909  3205 net.cpp:165] Memory required for data: 169869600
I0401 18:31:32.925911  3205 layer_factory.hpp:77] Creating layer conv3_1
I0401 18:31:32.925916  3205 net.cpp:100] Creating Layer conv3_1
I0401 18:31:32.925920  3205 net.cpp:434] conv3_1 <- conv2_2
I0401 18:31:32.925922  3205 net.cpp:408] conv3_1 -> conv3_1
I0401 18:31:32.926200  3205 net.cpp:150] Setting up conv3_1
I0401 18:31:32.926206  3205 net.cpp:157] Top shape: 32 64 16 64 (2097152)
I0401 18:31:32.926209  3205 net.cpp:165] Memory required for data: 178258208
I0401 18:31:32.926215  3205 layer_factory.hpp:77] Creating layer relu3_1
I0401 18:31:32.926219  3205 net.cpp:100] Creating Layer relu3_1
I0401 18:31:32.926221  3205 net.cpp:434] relu3_1 <- conv3_1
I0401 18:31:32.926225  3205 net.cpp:395] relu3_1 -> conv3_1 (in-place)
I0401 18:31:32.926229  3205 net.cpp:150] Setting up relu3_1
I0401 18:31:32.926232  3205 net.cpp:157] Top shape: 32 64 16 64 (2097152)
I0401 18:31:32.926234  3205 net.cpp:165] Memory required for data: 186646816
I0401 18:31:32.926237  3205 layer_factory.hpp:77] Creating layer conv3_2
I0401 18:31:32.926247  3205 net.cpp:100] Creating Layer conv3_2
I0401 18:31:32.926250  3205 net.cpp:434] conv3_2 <- conv3_1
I0401 18:31:32.926254  3205 net.cpp:408] conv3_2 -> conv3_2
I0401 18:31:32.926579  3205 net.cpp:150] Setting up conv3_2
I0401 18:31:32.926585  3205 net.cpp:157] Top shape: 32 64 16 64 (2097152)
I0401 18:31:32.926587  3205 net.cpp:165] Memory required for data: 195035424
I0401 18:31:32.926591  3205 layer_factory.hpp:77] Creating layer relu3_2
I0401 18:31:32.926595  3205 net.cpp:100] Creating Layer relu3_2
I0401 18:31:32.926597  3205 net.cpp:434] relu3_2 <- conv3_2
I0401 18:31:32.926601  3205 net.cpp:395] relu3_2 -> conv3_2 (in-place)
I0401 18:31:32.926604  3205 net.cpp:150] Setting up relu3_2
I0401 18:31:32.926609  3205 net.cpp:157] Top shape: 32 64 16 64 (2097152)
I0401 18:31:32.926610  3205 net.cpp:165] Memory required for data: 203424032
I0401 18:31:32.926614  3205 layer_factory.hpp:77] Creating layer conv3_3
I0401 18:31:32.926618  3205 net.cpp:100] Creating Layer conv3_3
I0401 18:31:32.926620  3205 net.cpp:434] conv3_3 <- conv3_2
I0401 18:31:32.926625  3205 net.cpp:408] conv3_3 -> conv3_3
I0401 18:31:32.926964  3205 net.cpp:150] Setting up conv3_3
I0401 18:31:32.926970  3205 net.cpp:157] Top shape: 32 64 16 64 (2097152)
I0401 18:31:32.926971  3205 net.cpp:165] Memory required for data: 211812640
I0401 18:31:32.926975  3205 layer_factory.hpp:77] Creating layer relu3_3
I0401 18:31:32.926980  3205 net.cpp:100] Creating Layer relu3_3
I0401 18:31:32.926982  3205 net.cpp:434] relu3_3 <- conv3_3
I0401 18:31:32.926985  3205 net.cpp:395] relu3_3 -> conv3_3 (in-place)
I0401 18:31:32.926990  3205 net.cpp:150] Setting up relu3_3
I0401 18:31:32.926992  3205 net.cpp:157] Top shape: 32 64 16 64 (2097152)
I0401 18:31:32.926995  3205 net.cpp:165] Memory required for data: 220201248
I0401 18:31:32.926997  3205 layer_factory.hpp:77] Creating layer pool3
I0401 18:31:32.927003  3205 net.cpp:100] Creating Layer pool3
I0401 18:31:32.927006  3205 net.cpp:434] pool3 <- conv3_3
I0401 18:31:32.927009  3205 net.cpp:408] pool3 -> pool3
I0401 18:31:32.927042  3205 net.cpp:150] Setting up pool3
I0401 18:31:32.927047  3205 net.cpp:157] Top shape: 32 64 8 32 (524288)
I0401 18:31:32.927048  3205 net.cpp:165] Memory required for data: 222298400
I0401 18:31:32.927052  3205 layer_factory.hpp:77] Creating layer conv4_1
I0401 18:31:32.927057  3205 net.cpp:100] Creating Layer conv4_1
I0401 18:31:32.927059  3205 net.cpp:434] conv4_1 <- pool3
I0401 18:31:32.927065  3205 net.cpp:408] conv4_1 -> conv4_1
I0401 18:31:32.927506  3205 net.cpp:150] Setting up conv4_1
I0401 18:31:32.927512  3205 net.cpp:157] Top shape: 32 128 8 32 (1048576)
I0401 18:31:32.927515  3205 net.cpp:165] Memory required for data: 226492704
I0401 18:31:32.927520  3205 layer_factory.hpp:77] Creating layer relu4_1
I0401 18:31:32.927523  3205 net.cpp:100] Creating Layer relu4_1
I0401 18:31:32.927526  3205 net.cpp:434] relu4_1 <- conv4_1
I0401 18:31:32.927530  3205 net.cpp:395] relu4_1 -> conv4_1 (in-place)
I0401 18:31:32.927533  3205 net.cpp:150] Setting up relu4_1
I0401 18:31:32.927536  3205 net.cpp:157] Top shape: 32 128 8 32 (1048576)
I0401 18:31:32.927539  3205 net.cpp:165] Memory required for data: 230687008
I0401 18:31:32.927541  3205 layer_factory.hpp:77] Creating layer conv4_2
I0401 18:31:32.927546  3205 net.cpp:100] Creating Layer conv4_2
I0401 18:31:32.927548  3205 net.cpp:434] conv4_2 <- conv4_1
I0401 18:31:32.927552  3205 net.cpp:408] conv4_2 -> conv4_2
I0401 18:31:32.928236  3205 net.cpp:150] Setting up conv4_2
I0401 18:31:32.928244  3205 net.cpp:157] Top shape: 32 128 8 32 (1048576)
I0401 18:31:32.928247  3205 net.cpp:165] Memory required for data: 234881312
I0401 18:31:32.928256  3205 layer_factory.hpp:77] Creating layer relu4_2
I0401 18:31:32.928261  3205 net.cpp:100] Creating Layer relu4_2
I0401 18:31:32.928264  3205 net.cpp:434] relu4_2 <- conv4_2
I0401 18:31:32.928268  3205 net.cpp:395] relu4_2 -> conv4_2 (in-place)
I0401 18:31:32.928272  3205 net.cpp:150] Setting up relu4_2
I0401 18:31:32.928275  3205 net.cpp:157] Top shape: 32 128 8 32 (1048576)
I0401 18:31:32.928282  3205 net.cpp:165] Memory required for data: 239075616
I0401 18:31:32.928285  3205 layer_factory.hpp:77] Creating layer conv4_3
I0401 18:31:32.928290  3205 net.cpp:100] Creating Layer conv4_3
I0401 18:31:32.928293  3205 net.cpp:434] conv4_3 <- conv4_2
I0401 18:31:32.928297  3205 net.cpp:408] conv4_3 -> conv4_3
I0401 18:31:32.929857  3205 net.cpp:150] Setting up conv4_3
I0401 18:31:32.929879  3205 net.cpp:157] Top shape: 32 128 8 32 (1048576)
I0401 18:31:32.929883  3205 net.cpp:165] Memory required for data: 243269920
I0401 18:31:32.929888  3205 layer_factory.hpp:77] Creating layer relu4_3
I0401 18:31:32.929894  3205 net.cpp:100] Creating Layer relu4_3
I0401 18:31:32.929898  3205 net.cpp:434] relu4_3 <- conv4_3
I0401 18:31:32.929903  3205 net.cpp:395] relu4_3 -> conv4_3 (in-place)
I0401 18:31:32.929909  3205 net.cpp:150] Setting up relu4_3
I0401 18:31:32.929913  3205 net.cpp:157] Top shape: 32 128 8 32 (1048576)
I0401 18:31:32.929915  3205 net.cpp:165] Memory required for data: 247464224
I0401 18:31:32.929918  3205 layer_factory.hpp:77] Creating layer conv4_3_relu4_3_0_split
I0401 18:31:32.929921  3205 net.cpp:100] Creating Layer conv4_3_relu4_3_0_split
I0401 18:31:32.929924  3205 net.cpp:434] conv4_3_relu4_3_0_split <- conv4_3
I0401 18:31:32.929927  3205 net.cpp:408] conv4_3_relu4_3_0_split -> conv4_3_relu4_3_0_split_0
I0401 18:31:32.929931  3205 net.cpp:408] conv4_3_relu4_3_0_split -> conv4_3_relu4_3_0_split_1
I0401 18:31:32.929961  3205 net.cpp:150] Setting up conv4_3_relu4_3_0_split
I0401 18:31:32.929966  3205 net.cpp:157] Top shape: 32 128 8 32 (1048576)
I0401 18:31:32.929970  3205 net.cpp:157] Top shape: 32 128 8 32 (1048576)
I0401 18:31:32.929971  3205 net.cpp:165] Memory required for data: 255852832
I0401 18:31:32.929975  3205 layer_factory.hpp:77] Creating layer pool4
I0401 18:31:32.929978  3205 net.cpp:100] Creating Layer pool4
I0401 18:31:32.929981  3205 net.cpp:434] pool4 <- conv4_3_relu4_3_0_split_0
I0401 18:31:32.929985  3205 net.cpp:408] pool4 -> pool4
I0401 18:31:32.930016  3205 net.cpp:150] Setting up pool4
I0401 18:31:32.930019  3205 net.cpp:157] Top shape: 32 128 4 16 (262144)
I0401 18:31:32.930022  3205 net.cpp:165] Memory required for data: 256901408
I0401 18:31:32.930024  3205 layer_factory.hpp:77] Creating layer conv5_1
I0401 18:31:32.930030  3205 net.cpp:100] Creating Layer conv5_1
I0401 18:31:32.930033  3205 net.cpp:434] conv5_1 <- pool4
I0401 18:31:32.930037  3205 net.cpp:408] conv5_1 -> conv5_1
I0401 18:31:32.930732  3205 net.cpp:150] Setting up conv5_1
I0401 18:31:32.930740  3205 net.cpp:157] Top shape: 32 128 4 16 (262144)
I0401 18:31:32.930742  3205 net.cpp:165] Memory required for data: 257949984
I0401 18:31:32.930747  3205 layer_factory.hpp:77] Creating layer relu5_1
I0401 18:31:32.930750  3205 net.cpp:100] Creating Layer relu5_1
I0401 18:31:32.930754  3205 net.cpp:434] relu5_1 <- conv5_1
I0401 18:31:32.930757  3205 net.cpp:395] relu5_1 -> conv5_1 (in-place)
I0401 18:31:32.930761  3205 net.cpp:150] Setting up relu5_1
I0401 18:31:32.930765  3205 net.cpp:157] Top shape: 32 128 4 16 (262144)
I0401 18:31:32.930768  3205 net.cpp:165] Memory required for data: 258998560
I0401 18:31:32.930770  3205 layer_factory.hpp:77] Creating layer conv5_2
I0401 18:31:32.930775  3205 net.cpp:100] Creating Layer conv5_2
I0401 18:31:32.930778  3205 net.cpp:434] conv5_2 <- conv5_1
I0401 18:31:32.930781  3205 net.cpp:408] conv5_2 -> conv5_2
I0401 18:31:32.931453  3205 net.cpp:150] Setting up conv5_2
I0401 18:31:32.931462  3205 net.cpp:157] Top shape: 32 128 4 16 (262144)
I0401 18:31:32.931464  3205 net.cpp:165] Memory required for data: 260047136
I0401 18:31:32.931468  3205 layer_factory.hpp:77] Creating layer relu5_2
I0401 18:31:32.931473  3205 net.cpp:100] Creating Layer relu5_2
I0401 18:31:32.931475  3205 net.cpp:434] relu5_2 <- conv5_2
I0401 18:31:32.931478  3205 net.cpp:395] relu5_2 -> conv5_2 (in-place)
I0401 18:31:32.931483  3205 net.cpp:150] Setting up relu5_2
I0401 18:31:32.931485  3205 net.cpp:157] Top shape: 32 128 4 16 (262144)
I0401 18:31:32.931488  3205 net.cpp:165] Memory required for data: 261095712
I0401 18:31:32.931496  3205 layer_factory.hpp:77] Creating layer conv5_3
I0401 18:31:32.931502  3205 net.cpp:100] Creating Layer conv5_3
I0401 18:31:32.931505  3205 net.cpp:434] conv5_3 <- conv5_2
I0401 18:31:32.931509  3205 net.cpp:408] conv5_3 -> conv5_3
I0401 18:31:32.933092  3205 net.cpp:150] Setting up conv5_3
I0401 18:31:32.933115  3205 net.cpp:157] Top shape: 32 128 4 16 (262144)
I0401 18:31:32.933117  3205 net.cpp:165] Memory required for data: 262144288
I0401 18:31:32.933125  3205 layer_factory.hpp:77] Creating layer relu5_3
I0401 18:31:32.933130  3205 net.cpp:100] Creating Layer relu5_3
I0401 18:31:32.933135  3205 net.cpp:434] relu5_3 <- conv5_3
I0401 18:31:32.933140  3205 net.cpp:395] relu5_3 -> conv5_3 (in-place)
I0401 18:31:32.933145  3205 net.cpp:150] Setting up relu5_3
I0401 18:31:32.933149  3205 net.cpp:157] Top shape: 32 128 4 16 (262144)
I0401 18:31:32.933151  3205 net.cpp:165] Memory required for data: 263192864
I0401 18:31:32.933154  3205 layer_factory.hpp:77] Creating layer pool5
I0401 18:31:32.933158  3205 net.cpp:100] Creating Layer pool5
I0401 18:31:32.933161  3205 net.cpp:434] pool5 <- conv5_3
I0401 18:31:32.933164  3205 net.cpp:408] pool5 -> pool5
I0401 18:31:32.933199  3205 net.cpp:150] Setting up pool5
I0401 18:31:32.933204  3205 net.cpp:157] Top shape: 32 128 4 16 (262144)
I0401 18:31:32.933207  3205 net.cpp:165] Memory required for data: 264241440
I0401 18:31:32.933209  3205 layer_factory.hpp:77] Creating layer fc6_conv
I0401 18:31:32.933218  3205 net.cpp:100] Creating Layer fc6_conv
I0401 18:31:32.933221  3205 net.cpp:434] fc6_conv <- pool5
I0401 18:31:32.933225  3205 net.cpp:408] fc6_conv -> fc6_conv
I0401 18:31:32.934384  3205 net.cpp:150] Setting up fc6_conv
I0401 18:31:32.934396  3205 net.cpp:157] Top shape: 32 256 4 16 (524288)
I0401 18:31:32.934398  3205 net.cpp:165] Memory required for data: 266338592
I0401 18:31:32.934402  3205 layer_factory.hpp:77] Creating layer relu6
I0401 18:31:32.934408  3205 net.cpp:100] Creating Layer relu6
I0401 18:31:32.934412  3205 net.cpp:434] relu6 <- fc6_conv
I0401 18:31:32.934417  3205 net.cpp:395] relu6 -> fc6_conv (in-place)
I0401 18:31:32.934422  3205 net.cpp:150] Setting up relu6
I0401 18:31:32.934425  3205 net.cpp:157] Top shape: 32 256 4 16 (524288)
I0401 18:31:32.934427  3205 net.cpp:165] Memory required for data: 268435744
I0401 18:31:32.934430  3205 layer_factory.hpp:77] Creating layer fc7_conv
I0401 18:31:32.934435  3205 net.cpp:100] Creating Layer fc7_conv
I0401 18:31:32.934438  3205 net.cpp:434] fc7_conv <- fc6_conv
I0401 18:31:32.934442  3205 net.cpp:408] fc7_conv -> fc7_conv
I0401 18:31:32.938761  3205 net.cpp:150] Setting up fc7_conv
I0401 18:31:32.938777  3205 net.cpp:157] Top shape: 32 256 4 16 (524288)
I0401 18:31:32.938781  3205 net.cpp:165] Memory required for data: 270532896
I0401 18:31:32.938786  3205 layer_factory.hpp:77] Creating layer relu7
I0401 18:31:32.938791  3205 net.cpp:100] Creating Layer relu7
I0401 18:31:32.938794  3205 net.cpp:434] relu7 <- fc7_conv
I0401 18:31:32.938798  3205 net.cpp:395] relu7 -> fc7_conv (in-place)
I0401 18:31:32.938803  3205 net.cpp:150] Setting up relu7
I0401 18:31:32.938807  3205 net.cpp:157] Top shape: 32 256 4 16 (524288)
I0401 18:31:32.938810  3205 net.cpp:165] Memory required for data: 272630048
I0401 18:31:32.938812  3205 layer_factory.hpp:77] Creating layer fc7_conv_relu7_0_split
I0401 18:31:32.938817  3205 net.cpp:100] Creating Layer fc7_conv_relu7_0_split
I0401 18:31:32.938818  3205 net.cpp:434] fc7_conv_relu7_0_split <- fc7_conv
I0401 18:31:32.938822  3205 net.cpp:408] fc7_conv_relu7_0_split -> fc7_conv_relu7_0_split_0
I0401 18:31:32.938827  3205 net.cpp:408] fc7_conv_relu7_0_split -> fc7_conv_relu7_0_split_1
I0401 18:31:32.938832  3205 net.cpp:408] fc7_conv_relu7_0_split -> fc7_conv_relu7_0_split_2
I0401 18:31:32.938874  3205 net.cpp:150] Setting up fc7_conv_relu7_0_split
I0401 18:31:32.938879  3205 net.cpp:157] Top shape: 32 256 4 16 (524288)
I0401 18:31:32.938881  3205 net.cpp:157] Top shape: 32 256 4 16 (524288)
I0401 18:31:32.938884  3205 net.cpp:157] Top shape: 32 256 4 16 (524288)
I0401 18:31:32.938892  3205 net.cpp:165] Memory required for data: 278921504
I0401 18:31:32.938895  3205 layer_factory.hpp:77] Creating layer conv6_1
I0401 18:31:32.938901  3205 net.cpp:100] Creating Layer conv6_1
I0401 18:31:32.938905  3205 net.cpp:434] conv6_1 <- fc7_conv_relu7_0_split_0
I0401 18:31:32.938910  3205 net.cpp:408] conv6_1 -> conv6_1
I0401 18:31:32.939160  3205 net.cpp:150] Setting up conv6_1
I0401 18:31:32.939165  3205 net.cpp:157] Top shape: 32 32 4 16 (65536)
I0401 18:31:32.939168  3205 net.cpp:165] Memory required for data: 279183648
I0401 18:31:32.939172  3205 layer_factory.hpp:77] Creating layer conv6_1_relu
I0401 18:31:32.939177  3205 net.cpp:100] Creating Layer conv6_1_relu
I0401 18:31:32.939179  3205 net.cpp:434] conv6_1_relu <- conv6_1
I0401 18:31:32.939182  3205 net.cpp:395] conv6_1_relu -> conv6_1 (in-place)
I0401 18:31:32.939187  3205 net.cpp:150] Setting up conv6_1_relu
I0401 18:31:32.939189  3205 net.cpp:157] Top shape: 32 32 4 16 (65536)
I0401 18:31:32.939193  3205 net.cpp:165] Memory required for data: 279445792
I0401 18:31:32.939194  3205 layer_factory.hpp:77] Creating layer conv6_2
I0401 18:31:32.939199  3205 net.cpp:100] Creating Layer conv6_2
I0401 18:31:32.939203  3205 net.cpp:434] conv6_2 <- conv6_1
I0401 18:31:32.939206  3205 net.cpp:408] conv6_2 -> conv6_2
I0401 18:31:32.939474  3205 net.cpp:150] Setting up conv6_2
I0401 18:31:32.939481  3205 net.cpp:157] Top shape: 32 64 2 8 (32768)
I0401 18:31:32.939482  3205 net.cpp:165] Memory required for data: 279576864
I0401 18:31:32.939489  3205 layer_factory.hpp:77] Creating layer conv6_2_relu
I0401 18:31:32.939493  3205 net.cpp:100] Creating Layer conv6_2_relu
I0401 18:31:32.939496  3205 net.cpp:434] conv6_2_relu <- conv6_2
I0401 18:31:32.939499  3205 net.cpp:395] conv6_2_relu -> conv6_2 (in-place)
I0401 18:31:32.939503  3205 net.cpp:150] Setting up conv6_2_relu
I0401 18:31:32.939507  3205 net.cpp:157] Top shape: 32 64 2 8 (32768)
I0401 18:31:32.939509  3205 net.cpp:165] Memory required for data: 279707936
I0401 18:31:32.939512  3205 layer_factory.hpp:77] Creating layer conv6_2_conv6_2_relu_0_split
I0401 18:31:32.939515  3205 net.cpp:100] Creating Layer conv6_2_conv6_2_relu_0_split
I0401 18:31:32.939517  3205 net.cpp:434] conv6_2_conv6_2_relu_0_split <- conv6_2
I0401 18:31:32.939522  3205 net.cpp:408] conv6_2_conv6_2_relu_0_split -> conv6_2_conv6_2_relu_0_split_0
I0401 18:31:32.939525  3205 net.cpp:408] conv6_2_conv6_2_relu_0_split -> conv6_2_conv6_2_relu_0_split_1
I0401 18:31:32.939529  3205 net.cpp:408] conv6_2_conv6_2_relu_0_split -> conv6_2_conv6_2_relu_0_split_2
I0401 18:31:32.939573  3205 net.cpp:150] Setting up conv6_2_conv6_2_relu_0_split
I0401 18:31:32.939576  3205 net.cpp:157] Top shape: 32 64 2 8 (32768)
I0401 18:31:32.939579  3205 net.cpp:157] Top shape: 32 64 2 8 (32768)
I0401 18:31:32.939582  3205 net.cpp:157] Top shape: 32 64 2 8 (32768)
I0401 18:31:32.939584  3205 net.cpp:165] Memory required for data: 280101152
I0401 18:31:32.939587  3205 layer_factory.hpp:77] Creating layer conv7_1
I0401 18:31:32.939591  3205 net.cpp:100] Creating Layer conv7_1
I0401 18:31:32.939594  3205 net.cpp:434] conv7_1 <- conv6_2_conv6_2_relu_0_split_0
I0401 18:31:32.939599  3205 net.cpp:408] conv7_1 -> conv7_1
I0401 18:31:32.939806  3205 net.cpp:150] Setting up conv7_1
I0401 18:31:32.939811  3205 net.cpp:157] Top shape: 32 16 2 8 (8192)
I0401 18:31:32.939815  3205 net.cpp:165] Memory required for data: 280133920
I0401 18:31:32.939818  3205 layer_factory.hpp:77] Creating layer conv7_1_relu
I0401 18:31:32.939821  3205 net.cpp:100] Creating Layer conv7_1_relu
I0401 18:31:32.939824  3205 net.cpp:434] conv7_1_relu <- conv7_1
I0401 18:31:32.939827  3205 net.cpp:395] conv7_1_relu -> conv7_1 (in-place)
I0401 18:31:32.939831  3205 net.cpp:150] Setting up conv7_1_relu
I0401 18:31:32.939836  3205 net.cpp:157] Top shape: 32 16 2 8 (8192)
I0401 18:31:32.939837  3205 net.cpp:165] Memory required for data: 280166688
I0401 18:31:32.939839  3205 layer_factory.hpp:77] Creating layer conv7_2
I0401 18:31:32.939844  3205 net.cpp:100] Creating Layer conv7_2
I0401 18:31:32.939849  3205 net.cpp:434] conv7_2 <- conv7_1
I0401 18:31:32.939854  3205 net.cpp:408] conv7_2 -> conv7_2
I0401 18:31:32.940073  3205 net.cpp:150] Setting up conv7_2
I0401 18:31:32.940078  3205 net.cpp:157] Top shape: 32 32 1 4 (4096)
I0401 18:31:32.940081  3205 net.cpp:165] Memory required for data: 280183072
I0401 18:31:32.940085  3205 layer_factory.hpp:77] Creating layer conv7_2_relu
I0401 18:31:32.940088  3205 net.cpp:100] Creating Layer conv7_2_relu
I0401 18:31:32.940091  3205 net.cpp:434] conv7_2_relu <- conv7_2
I0401 18:31:32.940094  3205 net.cpp:395] conv7_2_relu -> conv7_2 (in-place)
I0401 18:31:32.940099  3205 net.cpp:150] Setting up conv7_2_relu
I0401 18:31:32.940101  3205 net.cpp:157] Top shape: 32 32 1 4 (4096)
I0401 18:31:32.940104  3205 net.cpp:165] Memory required for data: 280199456
I0401 18:31:32.940106  3205 layer_factory.hpp:77] Creating layer conv7_2_conv7_2_relu_0_split
I0401 18:31:32.940109  3205 net.cpp:100] Creating Layer conv7_2_conv7_2_relu_0_split
I0401 18:31:32.940112  3205 net.cpp:434] conv7_2_conv7_2_relu_0_split <- conv7_2
I0401 18:31:32.940115  3205 net.cpp:408] conv7_2_conv7_2_relu_0_split -> conv7_2_conv7_2_relu_0_split_0
I0401 18:31:32.940119  3205 net.cpp:408] conv7_2_conv7_2_relu_0_split -> conv7_2_conv7_2_relu_0_split_1
I0401 18:31:32.940124  3205 net.cpp:408] conv7_2_conv7_2_relu_0_split -> conv7_2_conv7_2_relu_0_split_2
I0401 18:31:32.940163  3205 net.cpp:150] Setting up conv7_2_conv7_2_relu_0_split
I0401 18:31:32.940167  3205 net.cpp:157] Top shape: 32 32 1 4 (4096)
I0401 18:31:32.940171  3205 net.cpp:157] Top shape: 32 32 1 4 (4096)
I0401 18:31:32.940173  3205 net.cpp:157] Top shape: 32 32 1 4 (4096)
I0401 18:31:32.940176  3205 net.cpp:165] Memory required for data: 280248608
I0401 18:31:32.940178  3205 layer_factory.hpp:77] Creating layer pool6
I0401 18:31:32.940182  3205 net.cpp:100] Creating Layer pool6
I0401 18:31:32.940184  3205 net.cpp:434] pool6 <- conv7_2_conv7_2_relu_0_split_0
I0401 18:31:32.940188  3205 net.cpp:408] pool6 -> pool6
I0401 18:31:32.940207  3205 net.cpp:150] Setting up pool6
I0401 18:31:32.940210  3205 net.cpp:157] Top shape: 32 32 1 1 (1024)
I0401 18:31:32.940212  3205 net.cpp:165] Memory required for data: 280252704
I0401 18:31:32.940215  3205 layer_factory.hpp:77] Creating layer pool6_pool6_0_split
I0401 18:31:32.940218  3205 net.cpp:100] Creating Layer pool6_pool6_0_split
I0401 18:31:32.940222  3205 net.cpp:434] pool6_pool6_0_split <- pool6
I0401 18:31:32.940224  3205 net.cpp:408] pool6_pool6_0_split -> pool6_pool6_0_split_0
I0401 18:31:32.940228  3205 net.cpp:408] pool6_pool6_0_split -> pool6_pool6_0_split_1
I0401 18:31:32.940255  3205 net.cpp:150] Setting up pool6_pool6_0_split
I0401 18:31:32.940259  3205 net.cpp:157] Top shape: 32 32 1 1 (1024)
I0401 18:31:32.940263  3205 net.cpp:157] Top shape: 32 32 1 1 (1024)
I0401 18:31:32.940265  3205 net.cpp:165] Memory required for data: 280260896
I0401 18:31:32.940268  3205 layer_factory.hpp:77] Creating layer conv4_3_norm
I0401 18:31:32.940271  3205 net.cpp:100] Creating Layer conv4_3_norm
I0401 18:31:32.940274  3205 net.cpp:434] conv4_3_norm <- conv4_3_relu4_3_0_split_1
I0401 18:31:32.940279  3205 net.cpp:408] conv4_3_norm -> conv4_3_norm
I0401 18:31:32.940398  3205 net.cpp:150] Setting up conv4_3_norm
I0401 18:31:32.940404  3205 net.cpp:157] Top shape: 32 128 8 32 (1048576)
I0401 18:31:32.940407  3205 net.cpp:165] Memory required for data: 284455200
I0401 18:31:32.940410  3205 layer_factory.hpp:77] Creating layer conv4_3_norm_conv4_3_norm_0_split
I0401 18:31:32.940413  3205 net.cpp:100] Creating Layer conv4_3_norm_conv4_3_norm_0_split
I0401 18:31:32.940417  3205 net.cpp:434] conv4_3_norm_conv4_3_norm_0_split <- conv4_3_norm
I0401 18:31:32.940419  3205 net.cpp:408] conv4_3_norm_conv4_3_norm_0_split -> conv4_3_norm_conv4_3_norm_0_split_0
I0401 18:31:32.940423  3205 net.cpp:408] conv4_3_norm_conv4_3_norm_0_split -> conv4_3_norm_conv4_3_norm_0_split_1
I0401 18:31:32.940452  3205 net.cpp:150] Setting up conv4_3_norm_conv4_3_norm_0_split
I0401 18:31:32.940456  3205 net.cpp:157] Top shape: 32 128 8 32 (1048576)
I0401 18:31:32.940461  3205 net.cpp:157] Top shape: 32 128 8 32 (1048576)
I0401 18:31:32.940464  3205 net.cpp:165] Memory required for data: 292843808
I0401 18:31:32.940466  3205 layer_factory.hpp:77] Creating layer conv4_3_norm_mbox_loc_conf
I0401 18:31:32.940471  3205 net.cpp:100] Creating Layer conv4_3_norm_mbox_loc_conf
I0401 18:31:32.940474  3205 net.cpp:434] conv4_3_norm_mbox_loc_conf <- conv4_3_norm_conv4_3_norm_0_split_0
I0401 18:31:32.940479  3205 net.cpp:408] conv4_3_norm_mbox_loc_conf -> conv4_3_norm_mbox_loc_conf
I0401 18:31:32.940865  3205 net.cpp:150] Setting up conv4_3_norm_mbox_loc_conf
I0401 18:31:32.940870  3205 net.cpp:157] Top shape: 32 48 8 32 (393216)
I0401 18:31:32.940872  3205 net.cpp:165] Memory required for data: 294416672
I0401 18:31:32.940876  3205 layer_factory.hpp:77] Creating layer conv4_3_norm_mbox_loc_conf_perm
I0401 18:31:32.940881  3205 net.cpp:100] Creating Layer conv4_3_norm_mbox_loc_conf_perm
I0401 18:31:32.940883  3205 net.cpp:434] conv4_3_norm_mbox_loc_conf_perm <- conv4_3_norm_mbox_loc_conf
I0401 18:31:32.940887  3205 net.cpp:408] conv4_3_norm_mbox_loc_conf_perm -> conv4_3_norm_mbox_loc_conf_perm
I0401 18:31:32.940969  3205 net.cpp:150] Setting up conv4_3_norm_mbox_loc_conf_perm
I0401 18:31:32.940973  3205 net.cpp:157] Top shape: 32 8 32 48 (393216)
I0401 18:31:32.940975  3205 net.cpp:165] Memory required for data: 295989536
I0401 18:31:32.940979  3205 layer_factory.hpp:77] Creating layer conv4_3_norm_mbox_loc_perm
I0401 18:31:32.940982  3205 net.cpp:100] Creating Layer conv4_3_norm_mbox_loc_perm
I0401 18:31:32.940985  3205 net.cpp:434] conv4_3_norm_mbox_loc_perm <- conv4_3_norm_mbox_loc_conf_perm
I0401 18:31:32.940989  3205 net.cpp:408] conv4_3_norm_mbox_loc_perm -> conv4_3_norm_mbox_loc_perm
I0401 18:31:32.940994  3205 net.cpp:408] conv4_3_norm_mbox_loc_perm -> conv4_3_norm_mbox_conf_perm
I0401 18:31:32.941021  3205 net.cpp:150] Setting up conv4_3_norm_mbox_loc_perm
I0401 18:31:32.941025  3205 net.cpp:157] Top shape: 32 8 32 24 (196608)
I0401 18:31:32.941028  3205 net.cpp:157] Top shape: 32 8 32 24 (196608)
I0401 18:31:32.941031  3205 net.cpp:165] Memory required for data: 297562400
I0401 18:31:32.941033  3205 layer_factory.hpp:77] Creating layer conv4_3_norm_mbox_loc_flat
I0401 18:31:32.941037  3205 net.cpp:100] Creating Layer conv4_3_norm_mbox_loc_flat
I0401 18:31:32.941040  3205 net.cpp:434] conv4_3_norm_mbox_loc_flat <- conv4_3_norm_mbox_loc_perm
I0401 18:31:32.941045  3205 net.cpp:408] conv4_3_norm_mbox_loc_flat -> conv4_3_norm_mbox_loc_flat
I0401 18:31:32.941062  3205 net.cpp:150] Setting up conv4_3_norm_mbox_loc_flat
I0401 18:31:32.941066  3205 net.cpp:157] Top shape: 32 6144 (196608)
I0401 18:31:32.941068  3205 net.cpp:165] Memory required for data: 298348832
I0401 18:31:32.941071  3205 layer_factory.hpp:77] Creating layer conv4_3_norm_mbox_conf_flat
I0401 18:31:32.941074  3205 net.cpp:100] Creating Layer conv4_3_norm_mbox_conf_flat
I0401 18:31:32.941077  3205 net.cpp:434] conv4_3_norm_mbox_conf_flat <- conv4_3_norm_mbox_conf_perm
I0401 18:31:32.941081  3205 net.cpp:408] conv4_3_norm_mbox_conf_flat -> conv4_3_norm_mbox_conf_flat
I0401 18:31:32.941099  3205 net.cpp:150] Setting up conv4_3_norm_mbox_conf_flat
I0401 18:31:32.941103  3205 net.cpp:157] Top shape: 32 6144 (196608)
I0401 18:31:32.941105  3205 net.cpp:165] Memory required for data: 299135264
I0401 18:31:32.941107  3205 layer_factory.hpp:77] Creating layer conv4_3_norm_mbox_priorbox
I0401 18:31:32.941112  3205 net.cpp:100] Creating Layer conv4_3_norm_mbox_priorbox
I0401 18:31:32.941115  3205 net.cpp:434] conv4_3_norm_mbox_priorbox <- conv4_3_norm_conv4_3_norm_0_split_1
I0401 18:31:32.941118  3205 net.cpp:434] conv4_3_norm_mbox_priorbox <- data_data_0_split_1
I0401 18:31:32.941121  3205 net.cpp:408] conv4_3_norm_mbox_priorbox -> conv4_3_norm_mbox_priorbox
I0401 18:31:32.941140  3205 net.cpp:150] Setting up conv4_3_norm_mbox_priorbox
I0401 18:31:32.941144  3205 net.cpp:157] Top shape: 1 2 6144 (12288)
I0401 18:31:32.941148  3205 net.cpp:165] Memory required for data: 299184416
I0401 18:31:32.941149  3205 layer_factory.hpp:77] Creating layer fc7_conv_mbox_loc_conf
I0401 18:31:32.941156  3205 net.cpp:100] Creating Layer fc7_conv_mbox_loc_conf
I0401 18:31:32.941159  3205 net.cpp:434] fc7_conv_mbox_loc_conf <- fc7_conv_relu7_0_split_1
I0401 18:31:32.941164  3205 net.cpp:408] fc7_conv_mbox_loc_conf -> fc7_conv_mbox_loc_conf
I0401 18:31:32.942539  3205 net.cpp:150] Setting up fc7_conv_mbox_loc_conf
I0401 18:31:32.942551  3205 net.cpp:157] Top shape: 32 48 4 16 (98304)
I0401 18:31:32.942554  3205 net.cpp:165] Memory required for data: 299577632
I0401 18:31:32.942559  3205 layer_factory.hpp:77] Creating layer fc7_conv_mbox_loc_conf_perm
I0401 18:31:32.942564  3205 net.cpp:100] Creating Layer fc7_conv_mbox_loc_conf_perm
I0401 18:31:32.942567  3205 net.cpp:434] fc7_conv_mbox_loc_conf_perm <- fc7_conv_mbox_loc_conf
I0401 18:31:32.942571  3205 net.cpp:408] fc7_conv_mbox_loc_conf_perm -> fc7_conv_mbox_loc_conf_perm
I0401 18:31:32.942656  3205 net.cpp:150] Setting up fc7_conv_mbox_loc_conf_perm
I0401 18:31:32.942662  3205 net.cpp:157] Top shape: 32 4 16 48 (98304)
I0401 18:31:32.942663  3205 net.cpp:165] Memory required for data: 299970848
I0401 18:31:32.942667  3205 layer_factory.hpp:77] Creating layer fc7_conv_mbox_loc_perm
I0401 18:31:32.942670  3205 net.cpp:100] Creating Layer fc7_conv_mbox_loc_perm
I0401 18:31:32.942673  3205 net.cpp:434] fc7_conv_mbox_loc_perm <- fc7_conv_mbox_loc_conf_perm
I0401 18:31:32.942677  3205 net.cpp:408] fc7_conv_mbox_loc_perm -> fc7_conv_mbox_loc_perm
I0401 18:31:32.942680  3205 net.cpp:408] fc7_conv_mbox_loc_perm -> fc7_conv_mbox_conf_perm
I0401 18:31:32.942709  3205 net.cpp:150] Setting up fc7_conv_mbox_loc_perm
I0401 18:31:32.942714  3205 net.cpp:157] Top shape: 32 4 16 24 (49152)
I0401 18:31:32.942718  3205 net.cpp:157] Top shape: 32 4 16 24 (49152)
I0401 18:31:32.942719  3205 net.cpp:165] Memory required for data: 300364064
I0401 18:31:32.942721  3205 layer_factory.hpp:77] Creating layer fc7_conv_mbox_loc_flat
I0401 18:31:32.942725  3205 net.cpp:100] Creating Layer fc7_conv_mbox_loc_flat
I0401 18:31:32.942728  3205 net.cpp:434] fc7_conv_mbox_loc_flat <- fc7_conv_mbox_loc_perm
I0401 18:31:32.942733  3205 net.cpp:408] fc7_conv_mbox_loc_flat -> fc7_conv_mbox_loc_flat
I0401 18:31:32.942750  3205 net.cpp:150] Setting up fc7_conv_mbox_loc_flat
I0401 18:31:32.942754  3205 net.cpp:157] Top shape: 32 1536 (49152)
I0401 18:31:32.942756  3205 net.cpp:165] Memory required for data: 300560672
I0401 18:31:32.942759  3205 layer_factory.hpp:77] Creating layer fc7_conv_mbox_conf_flat
I0401 18:31:32.942762  3205 net.cpp:100] Creating Layer fc7_conv_mbox_conf_flat
I0401 18:31:32.942765  3205 net.cpp:434] fc7_conv_mbox_conf_flat <- fc7_conv_mbox_conf_perm
I0401 18:31:32.942769  3205 net.cpp:408] fc7_conv_mbox_conf_flat -> fc7_conv_mbox_conf_flat
I0401 18:31:32.942787  3205 net.cpp:150] Setting up fc7_conv_mbox_conf_flat
I0401 18:31:32.942791  3205 net.cpp:157] Top shape: 32 1536 (49152)
I0401 18:31:32.942795  3205 net.cpp:165] Memory required for data: 300757280
I0401 18:31:32.942796  3205 layer_factory.hpp:77] Creating layer fc7_conv_mbox_priorbox
I0401 18:31:32.942800  3205 net.cpp:100] Creating Layer fc7_conv_mbox_priorbox
I0401 18:31:32.942803  3205 net.cpp:434] fc7_conv_mbox_priorbox <- fc7_conv_relu7_0_split_2
I0401 18:31:32.942807  3205 net.cpp:434] fc7_conv_mbox_priorbox <- data_data_0_split_2
I0401 18:31:32.942811  3205 net.cpp:408] fc7_conv_mbox_priorbox -> fc7_conv_mbox_priorbox
I0401 18:31:32.942831  3205 net.cpp:150] Setting up fc7_conv_mbox_priorbox
I0401 18:31:32.942834  3205 net.cpp:157] Top shape: 1 2 1536 (3072)
I0401 18:31:32.942836  3205 net.cpp:165] Memory required for data: 300769568
I0401 18:31:32.942839  3205 layer_factory.hpp:77] Creating layer conv6_2_mbox_loc_conf
I0401 18:31:32.942844  3205 net.cpp:100] Creating Layer conv6_2_mbox_loc_conf
I0401 18:31:32.942847  3205 net.cpp:434] conv6_2_mbox_loc_conf <- conv6_2_conv6_2_relu_0_split_1
I0401 18:31:32.942852  3205 net.cpp:408] conv6_2_mbox_loc_conf -> conv6_2_mbox_loc_conf
I0401 18:31:32.943150  3205 net.cpp:150] Setting up conv6_2_mbox_loc_conf
I0401 18:31:32.943157  3205 net.cpp:157] Top shape: 32 48 2 8 (24576)
I0401 18:31:32.943161  3205 net.cpp:165] Memory required for data: 300867872
I0401 18:31:32.943164  3205 layer_factory.hpp:77] Creating layer conv6_2_mbox_loc_conf_perm
I0401 18:31:32.943171  3205 net.cpp:100] Creating Layer conv6_2_mbox_loc_conf_perm
I0401 18:31:32.943174  3205 net.cpp:434] conv6_2_mbox_loc_conf_perm <- conv6_2_mbox_loc_conf
I0401 18:31:32.943178  3205 net.cpp:408] conv6_2_mbox_loc_conf_perm -> conv6_2_mbox_loc_conf_perm
I0401 18:31:32.943265  3205 net.cpp:150] Setting up conv6_2_mbox_loc_conf_perm
I0401 18:31:32.943270  3205 net.cpp:157] Top shape: 32 2 8 48 (24576)
I0401 18:31:32.943272  3205 net.cpp:165] Memory required for data: 300966176
I0401 18:31:32.943275  3205 layer_factory.hpp:77] Creating layer conv6_2_mbox_loc_perm
I0401 18:31:32.943279  3205 net.cpp:100] Creating Layer conv6_2_mbox_loc_perm
I0401 18:31:32.943282  3205 net.cpp:434] conv6_2_mbox_loc_perm <- conv6_2_mbox_loc_conf_perm
I0401 18:31:32.943285  3205 net.cpp:408] conv6_2_mbox_loc_perm -> conv6_2_mbox_loc_perm
I0401 18:31:32.943290  3205 net.cpp:408] conv6_2_mbox_loc_perm -> conv6_2_mbox_conf_perm
I0401 18:31:32.943322  3205 net.cpp:150] Setting up conv6_2_mbox_loc_perm
I0401 18:31:32.943326  3205 net.cpp:157] Top shape: 32 2 8 24 (12288)
I0401 18:31:32.943331  3205 net.cpp:157] Top shape: 32 2 8 24 (12288)
I0401 18:31:32.943332  3205 net.cpp:165] Memory required for data: 301064480
I0401 18:31:32.943336  3205 layer_factory.hpp:77] Creating layer conv6_2_mbox_loc_flat
I0401 18:31:32.943339  3205 net.cpp:100] Creating Layer conv6_2_mbox_loc_flat
I0401 18:31:32.943342  3205 net.cpp:434] conv6_2_mbox_loc_flat <- conv6_2_mbox_loc_perm
I0401 18:31:32.943346  3205 net.cpp:408] conv6_2_mbox_loc_flat -> conv6_2_mbox_loc_flat
I0401 18:31:32.943363  3205 net.cpp:150] Setting up conv6_2_mbox_loc_flat
I0401 18:31:32.943367  3205 net.cpp:157] Top shape: 32 384 (12288)
I0401 18:31:32.943370  3205 net.cpp:165] Memory required for data: 301113632
I0401 18:31:32.943372  3205 layer_factory.hpp:77] Creating layer conv6_2_mbox_conf_flat
I0401 18:31:32.943377  3205 net.cpp:100] Creating Layer conv6_2_mbox_conf_flat
I0401 18:31:32.943378  3205 net.cpp:434] conv6_2_mbox_conf_flat <- conv6_2_mbox_conf_perm
I0401 18:31:32.943382  3205 net.cpp:408] conv6_2_mbox_conf_flat -> conv6_2_mbox_conf_flat
I0401 18:31:32.943400  3205 net.cpp:150] Setting up conv6_2_mbox_conf_flat
I0401 18:31:32.943404  3205 net.cpp:157] Top shape: 32 384 (12288)
I0401 18:31:32.943408  3205 net.cpp:165] Memory required for data: 301162784
I0401 18:31:32.943409  3205 layer_factory.hpp:77] Creating layer conv6_2_mbox_priorbox
I0401 18:31:32.943413  3205 net.cpp:100] Creating Layer conv6_2_mbox_priorbox
I0401 18:31:32.943415  3205 net.cpp:434] conv6_2_mbox_priorbox <- conv6_2_conv6_2_relu_0_split_2
I0401 18:31:32.943419  3205 net.cpp:434] conv6_2_mbox_priorbox <- data_data_0_split_3
I0401 18:31:32.943423  3205 net.cpp:408] conv6_2_mbox_priorbox -> conv6_2_mbox_priorbox
I0401 18:31:32.943440  3205 net.cpp:150] Setting up conv6_2_mbox_priorbox
I0401 18:31:32.943444  3205 net.cpp:157] Top shape: 1 2 384 (768)
I0401 18:31:32.943447  3205 net.cpp:165] Memory required for data: 301165856
I0401 18:31:32.943449  3205 layer_factory.hpp:77] Creating layer conv7_2_mbox_loc_conf
I0401 18:31:32.943454  3205 net.cpp:100] Creating Layer conv7_2_mbox_loc_conf
I0401 18:31:32.943457  3205 net.cpp:434] conv7_2_mbox_loc_conf <- conv7_2_conv7_2_relu_0_split_1
I0401 18:31:32.943461  3205 net.cpp:408] conv7_2_mbox_loc_conf -> conv7_2_mbox_loc_conf
I0401 18:31:32.943714  3205 net.cpp:150] Setting up conv7_2_mbox_loc_conf
I0401 18:31:32.943719  3205 net.cpp:157] Top shape: 32 48 1 4 (6144)
I0401 18:31:32.943722  3205 net.cpp:165] Memory required for data: 301190432
I0401 18:31:32.943727  3205 layer_factory.hpp:77] Creating layer conv7_2_mbox_loc_conf_perm
I0401 18:31:32.943730  3205 net.cpp:100] Creating Layer conv7_2_mbox_loc_conf_perm
I0401 18:31:32.943733  3205 net.cpp:434] conv7_2_mbox_loc_conf_perm <- conv7_2_mbox_loc_conf
I0401 18:31:32.943739  3205 net.cpp:408] conv7_2_mbox_loc_conf_perm -> conv7_2_mbox_loc_conf_perm
I0401 18:31:32.943821  3205 net.cpp:150] Setting up conv7_2_mbox_loc_conf_perm
I0401 18:31:32.943825  3205 net.cpp:157] Top shape: 32 1 4 48 (6144)
I0401 18:31:32.943828  3205 net.cpp:165] Memory required for data: 301215008
I0401 18:31:32.943830  3205 layer_factory.hpp:77] Creating layer conv7_2_mbox_loc_perm
I0401 18:31:32.943835  3205 net.cpp:100] Creating Layer conv7_2_mbox_loc_perm
I0401 18:31:32.943837  3205 net.cpp:434] conv7_2_mbox_loc_perm <- conv7_2_mbox_loc_conf_perm
I0401 18:31:32.943840  3205 net.cpp:408] conv7_2_mbox_loc_perm -> conv7_2_mbox_loc_perm
I0401 18:31:32.943845  3205 net.cpp:408] conv7_2_mbox_loc_perm -> conv7_2_mbox_conf_perm
I0401 18:31:32.943873  3205 net.cpp:150] Setting up conv7_2_mbox_loc_perm
I0401 18:31:32.943877  3205 net.cpp:157] Top shape: 32 1 4 24 (3072)
I0401 18:31:32.943881  3205 net.cpp:157] Top shape: 32 1 4 24 (3072)
I0401 18:31:32.943882  3205 net.cpp:165] Memory required for data: 301239584
I0401 18:31:32.943886  3205 layer_factory.hpp:77] Creating layer conv7_2_mbox_loc_flat
I0401 18:31:32.943888  3205 net.cpp:100] Creating Layer conv7_2_mbox_loc_flat
I0401 18:31:32.943892  3205 net.cpp:434] conv7_2_mbox_loc_flat <- conv7_2_mbox_loc_perm
I0401 18:31:32.943894  3205 net.cpp:408] conv7_2_mbox_loc_flat -> conv7_2_mbox_loc_flat
I0401 18:31:32.943912  3205 net.cpp:150] Setting up conv7_2_mbox_loc_flat
I0401 18:31:32.943917  3205 net.cpp:157] Top shape: 32 96 (3072)
I0401 18:31:32.943918  3205 net.cpp:165] Memory required for data: 301251872
I0401 18:31:32.943922  3205 layer_factory.hpp:77] Creating layer conv7_2_mbox_conf_flat
I0401 18:31:32.943924  3205 net.cpp:100] Creating Layer conv7_2_mbox_conf_flat
I0401 18:31:32.943928  3205 net.cpp:434] conv7_2_mbox_conf_flat <- conv7_2_mbox_conf_perm
I0401 18:31:32.943931  3205 net.cpp:408] conv7_2_mbox_conf_flat -> conv7_2_mbox_conf_flat
I0401 18:31:32.943949  3205 net.cpp:150] Setting up conv7_2_mbox_conf_flat
I0401 18:31:32.943953  3205 net.cpp:157] Top shape: 32 96 (3072)
I0401 18:31:32.943955  3205 net.cpp:165] Memory required for data: 301264160
I0401 18:31:32.943958  3205 layer_factory.hpp:77] Creating layer conv7_2_mbox_priorbox
I0401 18:31:32.943961  3205 net.cpp:100] Creating Layer conv7_2_mbox_priorbox
I0401 18:31:32.943964  3205 net.cpp:434] conv7_2_mbox_priorbox <- conv7_2_conv7_2_relu_0_split_2
I0401 18:31:32.943967  3205 net.cpp:434] conv7_2_mbox_priorbox <- data_data_0_split_4
I0401 18:31:32.943971  3205 net.cpp:408] conv7_2_mbox_priorbox -> conv7_2_mbox_priorbox
I0401 18:31:32.943990  3205 net.cpp:150] Setting up conv7_2_mbox_priorbox
I0401 18:31:32.943994  3205 net.cpp:157] Top shape: 1 2 96 (192)
I0401 18:31:32.943996  3205 net.cpp:165] Memory required for data: 301264928
I0401 18:31:32.944000  3205 layer_factory.hpp:77] Creating layer pool6_mbox_loc_conf
I0401 18:31:32.944005  3205 net.cpp:100] Creating Layer pool6_mbox_loc_conf
I0401 18:31:32.944007  3205 net.cpp:434] pool6_mbox_loc_conf <- pool6_pool6_0_split_0
I0401 18:31:32.944011  3205 net.cpp:408] pool6_mbox_loc_conf -> pool6_mbox_loc_conf
I0401 18:31:32.944264  3205 net.cpp:150] Setting up pool6_mbox_loc_conf
I0401 18:31:32.944269  3205 net.cpp:157] Top shape: 32 48 1 1 (1536)
I0401 18:31:32.944272  3205 net.cpp:165] Memory required for data: 301271072
I0401 18:31:32.944275  3205 layer_factory.hpp:77] Creating layer pool6_mbox_loc_conf_perm
I0401 18:31:32.944279  3205 net.cpp:100] Creating Layer pool6_mbox_loc_conf_perm
I0401 18:31:32.944283  3205 net.cpp:434] pool6_mbox_loc_conf_perm <- pool6_mbox_loc_conf
I0401 18:31:32.944286  3205 net.cpp:408] pool6_mbox_loc_conf_perm -> pool6_mbox_loc_conf_perm
I0401 18:31:32.944376  3205 net.cpp:150] Setting up pool6_mbox_loc_conf_perm
I0401 18:31:32.944381  3205 net.cpp:157] Top shape: 32 1 1 48 (1536)
I0401 18:31:32.944385  3205 net.cpp:165] Memory required for data: 301277216
I0401 18:31:32.944386  3205 layer_factory.hpp:77] Creating layer pool6_mbox_loc_perm
I0401 18:31:32.944391  3205 net.cpp:100] Creating Layer pool6_mbox_loc_perm
I0401 18:31:32.944396  3205 net.cpp:434] pool6_mbox_loc_perm <- pool6_mbox_loc_conf_perm
I0401 18:31:32.944399  3205 net.cpp:408] pool6_mbox_loc_perm -> pool6_mbox_loc_perm
I0401 18:31:32.944403  3205 net.cpp:408] pool6_mbox_loc_perm -> pool6_mbox_conf_perm
I0401 18:31:32.944432  3205 net.cpp:150] Setting up pool6_mbox_loc_perm
I0401 18:31:32.944437  3205 net.cpp:157] Top shape: 32 1 1 24 (768)
I0401 18:31:32.944439  3205 net.cpp:157] Top shape: 32 1 1 24 (768)
I0401 18:31:32.944442  3205 net.cpp:165] Memory required for data: 301283360
I0401 18:31:32.944444  3205 layer_factory.hpp:77] Creating layer pool6_mbox_loc_flat
I0401 18:31:32.944447  3205 net.cpp:100] Creating Layer pool6_mbox_loc_flat
I0401 18:31:32.944450  3205 net.cpp:434] pool6_mbox_loc_flat <- pool6_mbox_loc_perm
I0401 18:31:32.944453  3205 net.cpp:408] pool6_mbox_loc_flat -> pool6_mbox_loc_flat
I0401 18:31:32.944471  3205 net.cpp:150] Setting up pool6_mbox_loc_flat
I0401 18:31:32.944475  3205 net.cpp:157] Top shape: 32 24 (768)
I0401 18:31:32.944478  3205 net.cpp:165] Memory required for data: 301286432
I0401 18:31:32.944479  3205 layer_factory.hpp:77] Creating layer pool6_mbox_conf_flat
I0401 18:31:32.944483  3205 net.cpp:100] Creating Layer pool6_mbox_conf_flat
I0401 18:31:32.944485  3205 net.cpp:434] pool6_mbox_conf_flat <- pool6_mbox_conf_perm
I0401 18:31:32.944489  3205 net.cpp:408] pool6_mbox_conf_flat -> pool6_mbox_conf_flat
I0401 18:31:32.944507  3205 net.cpp:150] Setting up pool6_mbox_conf_flat
I0401 18:31:32.944511  3205 net.cpp:157] Top shape: 32 24 (768)
I0401 18:31:32.944514  3205 net.cpp:165] Memory required for data: 301289504
I0401 18:31:32.944516  3205 layer_factory.hpp:77] Creating layer pool6_mbox_priorbox
I0401 18:31:32.944520  3205 net.cpp:100] Creating Layer pool6_mbox_priorbox
I0401 18:31:32.944522  3205 net.cpp:434] pool6_mbox_priorbox <- pool6_pool6_0_split_1
I0401 18:31:32.944525  3205 net.cpp:434] pool6_mbox_priorbox <- data_data_0_split_5
I0401 18:31:32.944530  3205 net.cpp:408] pool6_mbox_priorbox -> pool6_mbox_priorbox
I0401 18:31:32.944547  3205 net.cpp:150] Setting up pool6_mbox_priorbox
I0401 18:31:32.944551  3205 net.cpp:157] Top shape: 1 2 24 (48)
I0401 18:31:32.944555  3205 net.cpp:165] Memory required for data: 301289696
I0401 18:31:32.944556  3205 layer_factory.hpp:77] Creating layer mbox_loc
I0401 18:31:32.944561  3205 net.cpp:100] Creating Layer mbox_loc
I0401 18:31:32.944564  3205 net.cpp:434] mbox_loc <- conv4_3_norm_mbox_loc_flat
I0401 18:31:32.944567  3205 net.cpp:434] mbox_loc <- fc7_conv_mbox_loc_flat
I0401 18:31:32.944571  3205 net.cpp:434] mbox_loc <- conv6_2_mbox_loc_flat
I0401 18:31:32.944574  3205 net.cpp:434] mbox_loc <- conv7_2_mbox_loc_flat
I0401 18:31:32.944577  3205 net.cpp:434] mbox_loc <- pool6_mbox_loc_flat
I0401 18:31:32.944581  3205 net.cpp:408] mbox_loc -> mbox_loc
I0401 18:31:32.944600  3205 net.cpp:150] Setting up mbox_loc
I0401 18:31:32.944603  3205 net.cpp:157] Top shape: 32 8184 (261888)
I0401 18:31:32.944607  3205 net.cpp:165] Memory required for data: 302337248
I0401 18:31:32.944608  3205 layer_factory.hpp:77] Creating layer mbox_conf
I0401 18:31:32.944612  3205 net.cpp:100] Creating Layer mbox_conf
I0401 18:31:32.944615  3205 net.cpp:434] mbox_conf <- conv4_3_norm_mbox_conf_flat
I0401 18:31:32.944618  3205 net.cpp:434] mbox_conf <- fc7_conv_mbox_conf_flat
I0401 18:31:32.944622  3205 net.cpp:434] mbox_conf <- conv6_2_mbox_conf_flat
I0401 18:31:32.944624  3205 net.cpp:434] mbox_conf <- conv7_2_mbox_conf_flat
I0401 18:31:32.944628  3205 net.cpp:434] mbox_conf <- pool6_mbox_conf_flat
I0401 18:31:32.944631  3205 net.cpp:408] mbox_conf -> mbox_conf
I0401 18:31:32.944648  3205 net.cpp:150] Setting up mbox_conf
I0401 18:31:32.944653  3205 net.cpp:157] Top shape: 32 8184 (261888)
I0401 18:31:32.944655  3205 net.cpp:165] Memory required for data: 303384800
I0401 18:31:32.944658  3205 layer_factory.hpp:77] Creating layer mbox_priorbox
I0401 18:31:32.944661  3205 net.cpp:100] Creating Layer mbox_priorbox
I0401 18:31:32.944664  3205 net.cpp:434] mbox_priorbox <- conv4_3_norm_mbox_priorbox
I0401 18:31:32.944669  3205 net.cpp:434] mbox_priorbox <- fc7_conv_mbox_priorbox
I0401 18:31:32.944672  3205 net.cpp:434] mbox_priorbox <- conv6_2_mbox_priorbox
I0401 18:31:32.944675  3205 net.cpp:434] mbox_priorbox <- conv7_2_mbox_priorbox
I0401 18:31:32.944677  3205 net.cpp:434] mbox_priorbox <- pool6_mbox_priorbox
I0401 18:31:32.944681  3205 net.cpp:408] mbox_priorbox -> mbox_priorbox
I0401 18:31:32.944700  3205 net.cpp:150] Setting up mbox_priorbox
I0401 18:31:32.944703  3205 net.cpp:157] Top shape: 1 2 8184 (16368)
I0401 18:31:32.944705  3205 net.cpp:165] Memory required for data: 303450272
I0401 18:31:32.944708  3205 layer_factory.hpp:77] Creating layer mbox_conf_reshape
I0401 18:31:32.944713  3205 net.cpp:100] Creating Layer mbox_conf_reshape
I0401 18:31:32.944715  3205 net.cpp:434] mbox_conf_reshape <- mbox_conf
I0401 18:31:32.944720  3205 net.cpp:408] mbox_conf_reshape -> mbox_conf_reshape
I0401 18:31:32.944738  3205 net.cpp:150] Setting up mbox_conf_reshape
I0401 18:31:32.944742  3205 net.cpp:157] Top shape: 32 2046 4 (261888)
I0401 18:31:32.944744  3205 net.cpp:165] Memory required for data: 304497824
I0401 18:31:32.944747  3205 layer_factory.hpp:77] Creating layer mbox_conf_softmax
I0401 18:31:32.944751  3205 net.cpp:100] Creating Layer mbox_conf_softmax
I0401 18:31:32.944754  3205 net.cpp:434] mbox_conf_softmax <- mbox_conf_reshape
I0401 18:31:32.944757  3205 net.cpp:408] mbox_conf_softmax -> mbox_conf_softmax
I0401 18:31:32.944810  3205 net.cpp:150] Setting up mbox_conf_softmax
I0401 18:31:32.944814  3205 net.cpp:157] Top shape: 32 2046 4 (261888)
I0401 18:31:32.944816  3205 net.cpp:165] Memory required for data: 305545376
I0401 18:31:32.944818  3205 layer_factory.hpp:77] Creating layer mbox_conf_flatten
I0401 18:31:32.944823  3205 net.cpp:100] Creating Layer mbox_conf_flatten
I0401 18:31:32.944825  3205 net.cpp:434] mbox_conf_flatten <- mbox_conf_softmax
I0401 18:31:32.944828  3205 net.cpp:408] mbox_conf_flatten -> mbox_conf_flatten
I0401 18:31:32.944846  3205 net.cpp:150] Setting up mbox_conf_flatten
I0401 18:31:32.944850  3205 net.cpp:157] Top shape: 32 8184 (261888)
I0401 18:31:32.944852  3205 net.cpp:165] Memory required for data: 306592928
I0401 18:31:32.944855  3205 layer_factory.hpp:77] Creating layer detection_out
I0401 18:31:32.944866  3205 net.cpp:100] Creating Layer detection_out
I0401 18:31:32.944869  3205 net.cpp:434] detection_out <- mbox_loc
I0401 18:31:32.944872  3205 net.cpp:434] detection_out <- mbox_conf_flatten
I0401 18:31:32.944875  3205 net.cpp:434] detection_out <- mbox_priorbox
I0401 18:31:32.944878  3205 net.cpp:408] detection_out -> detection_out
I0401 18:31:32.945587  3205 net.cpp:150] Setting up detection_out
I0401 18:31:32.945595  3205 net.cpp:157] Top shape: 1 1 1 7 (7)
I0401 18:31:32.945598  3205 net.cpp:165] Memory required for data: 306592956
I0401 18:31:32.945600  3205 layer_factory.hpp:77] Creating layer detection_eval
I0401 18:31:32.945605  3205 net.cpp:100] Creating Layer detection_eval
I0401 18:31:32.945608  3205 net.cpp:434] detection_eval <- detection_out
I0401 18:31:32.945612  3205 net.cpp:434] detection_eval <- label
I0401 18:31:32.945616  3205 net.cpp:408] detection_eval -> detection_eval
I0401 18:31:32.945922  3205 net.cpp:150] Setting up detection_eval
I0401 18:31:32.945927  3205 net.cpp:157] Top shape: 1 1 4 5 (20)
I0401 18:31:32.945930  3205 net.cpp:165] Memory required for data: 306593036
I0401 18:31:32.945932  3205 net.cpp:228] detection_eval does not need backward computation.
I0401 18:31:32.945935  3205 net.cpp:228] detection_out does not need backward computation.
I0401 18:31:32.945938  3205 net.cpp:228] mbox_conf_flatten does not need backward computation.
I0401 18:31:32.945940  3205 net.cpp:228] mbox_conf_softmax does not need backward computation.
…
