…
      sampler {
        min_scale: 0.3
        max_scale: 1
        min_aspect_ratio: 0.5
        max_aspect_ratio: 2
      }
      sample_constraint {
        min_jaccard_overlap: 0.9
      }
      max_sample: 1
      max_trials: 50
    }
    batch_sampler {
      sampler {
        min_scale: 0.3
        max_scale: 1
        min_aspect_ratio: 0.5
        max_aspect_ratio: 2
      }
      sample_constraint {
        max_jaccard_overlap: 1
      }
      max_sample: 1
      max_trials: 50
    }
    label_map_file: "/tmp/toqinhuan/labelmap.prototxt"
  }
}
layer {
  name: "conv1_1"
  type: "Convolution"
  bottom: "data"
  top: "conv1_1"
  param {
    lr_mult: 1
    decay_mult: 1
  }
  param {
    lr_mult: 2
    decay_mult: 0
  }
  convolution_param {
    num_output: 16
    pad: 1
    kernel_size: 3
    weight_filler {
      type: "xavier"
    }
    bias_filler {
      type: "constant"
      value: 0
    }
  }
}
layer {
  name: "relu1_1"
  type: "ReLU"
  bottom: "conv1_1"
  top: "conv1_1"
}
layer {
  name: "conv1_2"
  type: "Convolution"
  bottom: "conv1_1"
  top: "conv1_2"
  param {
    lr_mult: 1
    decay_mult: 1
  }
  param {
    lr_mult: 2
    decay_mult: 0
  }
  convolution_param {
    num_output: 16
    pad: 1
    kernel_size: 3
    stride: 2
    weight_filler {
      type: "xavier"
    }
    bias_filler {
      type: "constant"
      value: 0
    }
  }
}
layer {
  name: "relu1_2"
  type: "ReLU"
  bottom: "conv1_2"
  top: "conv1_2"
}
layer {
  name: "conv2_1"
  type: "Convolution"
  bottom: "conv1_2"
  top: "conv2_1"
  param {
    lr_mult: 1
    decay_mult: 1
  }
  param {
    lr_mult: 2
    decay_mult: 0
  }
  convolution_param {
    num_output: 32
    pad: 1
    kernel_size: 3
    weight_filler {
      type: "xavier"
    }
    bias_filler {
      type: "constant"
      value: 0
    }
  }
}
layer {
  name: "relu2_1"
  type: "ReLU"
  bottom: "conv2_1"
  top: "conv2_1"
}
layer {
  name: "conv2_2"
  type: "Convolution"
  bottom: "conv2_1"
  top: "conv2_2"
  param {
    lr_mult: 1
    decay_mult: 1
  }
  param {
    lr_mult: 2
    decay_mult: 0
  }
  convolution_param {
    num_output: 32
    pad: 1
    kernel_size: 3
    stride: 2
    weight_filler {
      type: "xavier"
    }
    bias_filler {
      type: "constant"
      value: 0
    }
  }
}
layer {
  name: "relu2_2"
  type: "ReLU"
  bottom: "conv2_2"
  top: "conv2_2"
}
layer {
  name: "conv3_1"
  type: "Convolution"
  bottom: "conv2_2"
  top: "conv3_1"
  param {
    lr_mult: 1
    decay_mult: 1
  }
  param {
    lr_mult: 2
    decay_mult: 0
  }
  convolution_param {
    num_output: 64
    pad: 1
    kernel_size: 3
    weight_filler {
      type: "xavier"
    }
    bias_filler {
      type: "constant"
      value: 0
    }
  }
}
layer {
  name: "relu3_1"
  type: "ReLU"
  bottom: "conv3_1"
  top: "conv3_1"
}
layer {
  name: "conv3_2"
  type: "Convolution"
  bottom: "conv3_1"
  top: "conv3_2"
  param {
    lr_mult: 1
    decay_mult: 1
  }
  param {
    lr_mult: 2
    decay_mult: 0
  }
  convolution_param {
    num_output: 64
    pad: 1
    kernel_size: 3
    weight_filler {
      type: "xavier"
    }
    bias_filler {
      type: "constant"
      value: 0
    }
  }
}
layer {
  name: "relu3_2"
  type: "ReLU"
  bottom: "conv3_2"
  top: "conv3_2"
}
layer {
  name: "conv3_3"
  type: "Convolution"
  bottom: "conv3_2"
  top: "conv3_3"
  param {
    lr_mult: 1
    decay_mult: 1
  }
  param {
    lr_mult: 2
    decay_mult: 0
  }
  convolution_param {
    num_output: 64
    pad: 1
    kernel_size: 3
    weight_filler {
      type: "xavier"
    }
    bias_filler {
      type: "constant"
      value: 0
    }
  }
}
layer {
  name: "relu3_3"
  type: "ReLU"
  bottom: "conv3_3"
  top: "conv3_3"
}
layer {
  name: "pool3"
  type: "Pooling"
  bottom: "conv3_3"
  top: "pool3"
  pooling_param {
    pool: MAX
    kernel_size: 2
    stride: 2
  }
}
layer {
  name: "conv4_1"
  type: "Convolution"
  bottom: "pool3"
  top: "conv4_1"
  param {
    lr_mult: 1
    decay_mult: 1
  }
  param {
    lr_mult: 2
    decay_mult: 0
  }
  convolution_param {
    num_output: 128
    pad: 1
    kernel_size: 3
    weight_filler {
      type: "xavier"
    }
    bias_filler {
      type: "constant"
      value: 0
    }
  }
}
layer {
  name: "relu4_1"
  type: "ReLU"
  bottom: "conv4_1"
  top: "conv4_1"
}
layer {
  name: "conv4_2"
  type: "Convolution"
  bottom: "conv4_1"
  top: "conv4_2"
  param {
    lr_mult: 1
    decay_mult: 1
  }
  param {
    lr_mult: 2
    decay_mult: 0
  }
  convolution_param {
    num_output: 128
    pad: 1
    kernel_size: 3
    weight_filler {
      type: "xavier"
    }
    bias_filler {
      type: "constant"
      value: 0
    }
  }
}
layer {
  name: "relu4_2"
  type: "ReLU"
  bottom: "conv4_2"
  top: "conv4_2"
}
layer {
  name: "conv4_3"
  type: "Convolution"
  bottom: "conv4_2"
  top: "conv4_3"
  param {
    lr_mult: 1
    decay_mult: 1
  }
  param {
    lr_mult: 2
    decay_mult: 0
  }
  convolution_param {
    num_output: 128
    pad: 1
    kernel_size: 3
    weight_filler {
      type: "xavier"
    }
    bias_filler {
      type: "constant"
      value: 0
    }
  }
}
layer {
  name: "relu4_3"
  type: "ReLU"
  bottom: "conv4_3"
  top: "conv4_3"
}
layer {
  name: "pool4"
  type: "Pooling"
  bottom: "conv4_3"
  top: "pool4"
  pooling_param {
    pool: MAX
    kernel_size: 2
    stride: 2
  }
}
layer {
  name: "conv5_1"
  type: "Convolution"
  bottom: "pool4"
  top: "conv5_1"
  param {
    lr_mult: 1
    decay_mult: 1
  }
  param {
    lr_mult: 2
    decay_mult: 0
  }
  convolution_param {
    num_output: 128
    pad: 1
    kernel_size: 3
    weight_filler {
      type: "xavier"
    }
    bias_filler {
      type: "constant"
      value: 0
    }
    dilation: 1
  }
}
layer {
  name: "relu5_1"
  type: "ReLU"
  bottom: "conv5_1"
  top: "conv5_1"
}
layer {
  name: "conv5_2"
  type: "Convolution"
  bottom: "conv5_1"
  top: "conv5_2"
  param {
    lr_mult: 1
    decay_mult: 1
  }
  param {
    lr_mult: 2
    decay_mult: 0
  }
  convolution_param {
    num_output: 128
    pad: 1
    kernel_size: 3
    weight_filler {
      type: "xavier"
    }
    bias_filler {
      type: "constant"
      value: 0
    }
    dilation: 1
  }
}
layer {
  name: "relu5_2"
  type: "ReLU"
  bottom: "conv5_2"
  top: "conv5_2"
}
layer {
  name: "conv5_3"
  type: "Convolution"
  bottom: "conv5_2"
  top: "conv5_3"
  param {
    lr_mult: 1
    decay_mult: 1
  }
  param {
    lr_mult: 2
    decay_mult: 0
  }
  convolution_param {
    num_output: 128
    pad: 1
    kernel_size: 3
    weight_filler {
      type: "xavier"
    }
    bias_filler {
      type: "constant"
      value: 0
    }
    dilation: 1
  }
}
layer {
  name: "relu5_3"
  type: "ReLU"
  bottom: "conv5_3"
  top: "conv5_3"
}
layer {
  name: "pool5"
  type: "Pooling"
  bottom: "conv5_3"
  top: "pool5"
  pooling_param {
    pool: MAX
    kernel_size: 3
    stride: 1
    pad: 1
  }
}
layer {
  name: "fc6_conv"
  type: "Convolution"
  bottom: "pool5"
  top: "fc6_conv"
  param {
    lr_mult: 1
    decay_mult: 1
  }
  param {
    lr_mult: 2
    decay_mult: 0
  }
  convolution_param {
    num_output: 256
    pad: 6
    kernel_size: 3
    weight_filler {
      type: "xavier"
    }
    bias_filler {
      type: "constant"
      value: 0
    }
    dilation: 6
  }
}
layer {
  name: "relu6"
  type: "ReLU"
  bottom: "fc6_conv"
  top: "fc6_conv"
}
layer {
  name: "fc7_conv"
  type: "Convolution"
  bottom: "fc6_conv"
  top: "fc7_conv"
  param {
    lr_mult: 1
    decay_mult: 1
  }
  param {
    lr_mult: 2
    decay_mult: 0
  }
  convolution_param {
    num_output: 256
    kernel_size: 1
    weight_filler {
      type: "xavier"
    }
    bias_filler {
      type: "constant"
      value: 0
    }
  }
}
layer {
  name: "relu7"
  type: "ReLU"
  bottom: "fc7_conv"
  top: "fc7_conv"
}
layer {
  name: "conv6_1"
  type: "Convolution"
  bottom: "fc7_conv"
  top: "conv6_1"
  param {
    lr_mult: 1
    decay_mult: 1
  }
  param {
    lr_mult: 2
    decay_mult: 0
  }
  convolution_param {
    num_output: 32
    pad: 0
    kernel_size: 1
    stride: 1
    weight_filler {
      type: "xavier"
    }
    bias_filler {
      type: "constant"
      value: 0
    }
  }
}
layer {
  name: "conv6_1_relu"
  type: "ReLU"
  bottom: "conv6_1"
  top: "conv6_1"
}
layer {
  name: "conv6_2"
  type: "Convolution"
  bottom: "conv6_1"
  top: "conv6_2"
  param {
    lr_mult: 1
    decay_mult: 1
  }
  param {
    lr_mult: 2
    decay_mult: 0
  }
  convolution_param {
    num_output: 64
    pad: 1
    kernel_size: 3
    stride: 2
    weight_filler {
      type: "xavier"
    }
    bias_filler {
      type: "constant"
      value: 0
    }
  }
}
layer {
  name: "conv6_2_relu"
  type: "ReLU"
  bottom: "conv6_2"
  top: "conv6_2"
}
layer {
  name: "conv7_1"
  type: "Convolution"
  bottom: "conv6_2"
  top: "conv7_1"
  param {
    lr_mult: 1
    decay_mult: 1
  }
  param {
    lr_mult: 2
    decay_mult: 0
  }
  convolution_param {
    num_output: 16
    pad: 0
    kernel_size: 1
    stride: 1
    weight_filler {
      type: "xavier"
    }
    bias_filler {
      type: "constant"
      value: 0
    }
  }
}
layer {
  name: "conv7_1_relu"
  type: "ReLU"
  bottom: "conv7_1"
  top: "conv7_1"
}
layer {
  name: "conv7_2"
  type: "Convolution"
  bottom: "conv7_1"
  top: "conv7_2"
  param {
    lr_mult: 1
    decay_mult: 1
  }
  param {
    lr_mult: 2
    decay_mult: 0
  }
  convolution_param {
    num_output: 32
    pad: 1
    kernel_size: 3
    stride: 2
    weight_filler {
      type: "xavier"
    }
    bias_filler {
      type: "constant"
      value: 0
    }
  }
}
layer {
  name: "conv7_2_relu"
  type: "ReLU"
  bottom: "conv7_2"
  top: "conv7_2"
}
layer {
  name: "conv8_1"
  type: "Convolution"
  bottom: "conv7_2"
  top: "conv8_1"
  param {
    lr_mult: 1
    decay_mult: 1
  }
  param {
    lr_mult: 2
    decay_mult: 0
  }
  convolution_param {
    num_output: 16
    pad: 0
    kernel_size: 1
    stride: 1
    weight_filler {
      type: "xavier"
    }
    bias_filler {
      type: "constant"
      value: 0
    }
  }
}
layer {
  name: "conv8_1_relu"
  type: "ReLU"
  bottom: "conv8_1"
  top: "conv8_1"
}
layer {
  name: "conv8_2"
  type: "Convolution"
  bottom: "conv8_1"
  top: "conv8_2"
  param {
    lr_mult: 1
    decay_mult: 1
  }
  param {
    lr_mult: 2
    decay_mult: 0
  }
  convolution_param {
    num_output: 32
    pad: 1
    kernel_size: 3
    stride: 2
    weight_filler {
      type: "xavier"
    }
    bias_filler {
      type: "constant"
      value: 0
    }
  }
}
layer {
  name: "conv8_2_relu"
  type: "ReLU"
  bottom: "conv8_2"
  top: "conv8_2"
}
layer {
  name: "pool6"
  type: "Pooling"
  bottom: "conv8_2"
  top: "pool6"
  pooling_param {
    pool: AVE
    global_pooling: true
  }
}
layer {
  name: "conv4_3_norm"
  type: "Normalize"
  bottom: "conv4_3"
  top: "conv4_3_norm"
  norm_param {
    across_spatial: false
    scale_filler {
      type: "constant"
      value: 20
    }
    channel_shared: false
  }
}
layer {
  name: "conv4_3_norm_mbox_loc_conf"
  type: "Convolution"
  bottom: "conv4_3_norm"
  top: "conv4_3_norm_mbox_loc_conf"
  param {
    lr_mult: 1
    decay_mult: 1
  }
  param {
    lr_mult: 2
    decay_mult: 0
  }
  convolution_param {
    num_output: 48
    pad: 1
    kernel_size: 3
    stride: 1
    weight_filler {
      type: "xavier"
    }
    bias_filler {
      type: "constant"
      value: 0
    }
  }
}
layer {
  name: "conv4_3_norm_mbox_loc_conf_perm"
  type: "Permute"
  bottom: "conv4_3_norm_mbox_loc_conf"
  top: "conv4_3_norm_mbox_loc_conf_perm"
  permute_param {
    order: 0
    order: 2
    order: 3
    order: 1
  }
}
layer {
  name: "conv4_3_norm_mbox_loc_perm"
  type: "Slice"
  bottom: "conv4_3_norm_mbox_loc_conf_perm"
  top: "conv4_3_norm_mbox_loc_perm"
  top: "conv4_3_norm_mbox_conf_perm"
  slice_param {
    slice_point: 24
    axis: 3
  }
}
layer {
  name: "conv4_3_norm_mbox_loc_flat"
  type: "Flatten"
  bottom: "conv4_3_norm_mbox_loc_perm"
  top: "conv4_3_norm_mbox_loc_flat"
  flatten_param {
    axis: 1
  }
}
layer {
  name: "conv4_3_norm_mbox_conf_flat"
  type: "Flatten"
  bottom: "conv4_3_norm_mbox_conf_perm"
  top: "conv4_3_norm_mbox_conf_flat"
  flatten_param {
    axis: 1
  }
}
layer {
  name: "conv4_3_norm_mbox_priorbox"
  type: "PriorBox"
  bottom: "conv4_3_norm"
  bottom: "data"
  top: "conv4_3_norm_mbox_priorbox"
  prior_box_param {
    min_size: 3.84
    max_size: 12.8
    aspect_ratio: 2
    aspect_ratio: 3
    flip: true
    clip: true
    variance: 0.1
    variance: 0.1
    variance: 0.2
    variance: 0.2
    offset: 0.5
  }
}
layer {
  name: "fc7_conv_mbox_loc_conf"
  type: "Convolution"
  bottom: "fc7_conv"
  top: "fc7_conv_mbox_loc_conf"
  param {
    lr_mult: 1
    decay_mult: 1
  }
  param {
    lr_mult: 2
    decay_mult: 0
  }
  convolution_param {
    num_output: 48
    pad: 1
    kernel_size: 3
    stride: 1
    weight_filler {
      type: "xavier"
    }
    bias_filler {
      type: "constant"
      value: 0
    }
  }
}
layer {
  name: "fc7_conv_mbox_loc_conf_perm"
  type: "Permute"
  bottom: "fc7_conv_mbox_loc_conf"
  top: "fc7_conv_mbox_loc_conf_perm"
  permute_param {
    order: 0
    order: 2
    order: 3
    order: 1
  }
}
layer {
  name: "fc7_conv_mbox_loc_perm"
  type: "Slice"
  bottom: "fc7_conv_mbox_loc_conf_perm"
  top: "fc7_conv_mbox_loc_perm"
  top: "fc7_conv_mbox_conf_perm"
  slice_param {
    slice_point: 24
    axis: 3
  }
}
layer {
  name: "fc7_conv_mbox_loc_flat"
  type: "Flatten"
  bottom: "fc7_conv_mbox_loc_perm"
  top: "fc7_conv_mbox_loc_flat"
  flatten_param {
    axis: 1
  }
}
layer {
  name: "fc7_conv_mbox_conf_flat"
  type: "Flatten"
  bottom: "fc7_conv_mbox_conf_perm"
  top: "fc7_conv_mbox_conf_flat"
  flatten_param {
    axis: 1
  }
}
layer {
  name: "fc7_conv_mbox_priorbox"
  type: "PriorBox"
  bottom: "fc7_conv"
  bottom: "data"
  top: "fc7_conv_mbox_priorbox"
  prior_box_param {
    min_size: 12.8
    max_size: 39.68
    aspect_ratio: 2
    aspect_ratio: 3
    flip: true
    clip: true
    variance: 0.1
    variance: 0.1
    variance: 0.2
    variance: 0.2
    offset: 0.5
  }
}
layer {
  name: "conv6_2_mbox_loc_conf"
  type: "Convolution"
  bottom: "conv6_2"
  top: "conv6_2_mbox_loc_conf"
  param {
    lr_mult: 1
    decay_mult: 1
  }
  param {
    lr_mult: 2
    decay_mult: 0
  }
  convolution_param {
    num_output: 48
    pad: 1
    kernel_size: 3
    stride: 1
    weight_filler {
      type: "xavier"
    }
    bias_filler {
      type: "constant"
      value: 0
    }
  }
}
layer {
  name: "conv6_2_mbox_loc_conf_perm"
  type: "Permute"
  bottom: "conv6_2_mbox_loc_conf"
  top: "conv6_2_mbox_loc_conf_perm"
  permute_param {
    order: 0
    order: 2
    order: 3
    order: 1
  }
}
layer {
  name: "conv6_2_mbox_loc_perm"
  type: "Slice"
  bottom: "conv6_2_mbox_loc_conf_perm"
  top: "conv6_2_mbox_loc_perm"
  top: "conv6_2_mbox_conf_perm"
  slice_param {
    slice_point: 24
    axis: 3
  }
}
layer {
  name: "conv6_2_mbox_loc_flat"
  type: "Flatten"
  bottom: "conv6_2_mbox_loc_perm"
  top: "conv6_2_mbox_loc_flat"
  flatten_param {
    axis: 1
  }
}
layer {
  name: "conv6_2_mbox_conf_flat"
  type: "Flatten"
  bottom: "conv6_2_mbox_conf_perm"
  top: "conv6_2_mbox_conf_flat"
  flatten_param {
    axis: 1
  }
}
layer {
  name: "conv6_2_mbox_priorbox"
  type: "PriorBox"
  bottom: "conv6_2"
  bottom: "data"
  top: "conv6_2_mbox_priorbox"
  prior_box_param {
    min_size: 39.68
    max_size: 66.56
    aspect_ratio: 2
    aspect_ratio: 3
    flip: true
    clip: true
    variance: 0.1
    variance: 0.1
    variance: 0.2
    variance: 0.2
    offset: 0.5
  }
}
layer {
  name: "conv7_2_mbox_loc_conf"
  type: "Convolution"
  bottom: "conv7_2"
  top: "conv7_2_mbox_loc_conf"
  param {
    lr_mult: 1
    decay_mult: 1
  }
  param {
    lr_mult: 2
    decay_mult: 0
  }
  convolution_param {
    num_output: 48
    pad: 1
    kernel_size: 3
    stride: 1
    weight_filler {
      type: "xavier"
    }
    bias_filler {
      type: "constant"
      value: 0
    }
  }
}
layer {
  name: "conv7_2_mbox_loc_conf_perm"
  type: "Permute"
  bottom: "conv7_2_mbox_loc_conf"
  top: "conv7_2_mbox_loc_conf_perm"
  permute_param {
    order: 0
    order: 2
    order: 3
    order: 1
  }
}
layer {
  name: "conv7_2_mbox_loc_perm"
  type: "Slice"
  bottom: "conv7_2_mbox_loc_conf_perm"
  top: "conv7_2_mbox_loc_perm"
  top: "conv7_2_mbox_conf_perm"
  slice_param {
    slice_point: 24
    axis: 3
  }
}
layer {
  name: "conv7_2_mbox_loc_flat"
  type: "Flatten"
  bottom: "conv7_2_mbox_loc_perm"
  top: "conv7_2_mbox_loc_flat"
  flatten_param {
    axis: 1
  }
}
layer {
  name: "conv7_2_mbox_conf_flat"
  type: "Flatten"
  bottom: "conv7_2_mbox_conf_perm"
  top: "conv7_2_mbox_conf_flat"
  flatten_param {
    axis: 1
  }
}
layer {
  name: "conv7_2_mbox_priorbox"
  type: "PriorBox"
  bottom: "conv7_2"
  bottom: "data"
  top: "conv7_2_mbox_priorbox"
  prior_box_param {
    min_size: 66.56
    max_size: 93.44
    aspect_ratio: 2
    aspect_ratio: 3
    flip: true
    clip: true
    variance: 0.1
    variance: 0.1
    variance: 0.2
    variance: 0.2
    offset: 0.5
  }
}
layer {
  name: "conv8_2_mbox_loc_conf"
  type: "Convolution"
  bottom: "conv8_2"
  top: "conv8_2_mbox_loc_conf"
  param {
    lr_mult: 1
    decay_mult: 1
  }
  param {
    lr_mult: 2
    decay_mult: 0
  }
  convolution_param {
    num_output: 48
    pad: 1
    kernel_size: 3
    stride: 1
    weight_filler {
      type: "xavier"
    }
    bias_filler {
      type: "constant"
      value: 0
    }
  }
}
layer {
  name: "conv8_2_mbox_loc_conf_perm"
  type: "Permute"
  bottom: "conv8_2_mbox_loc_conf"
  top: "conv8_2_mbox_loc_conf_perm"
  permute_param {
    order: 0
    order: 2
    order: 3
    order: 1
  }
}
layer {
  name: "conv8_2_mbox_loc_perm"
  type: "Slice"
  bottom: "conv8_2_mbox_loc_conf_perm"
  top: "conv8_2_mbox_loc_perm"
  top: "conv8_2_mbox_conf_perm"
  slice_param {
    slice_point: 24
    axis: 3
  }
}
layer {
  name: "conv8_2_mbox_loc_flat"
  type: "Flatten"
  bottom: "conv8_2_mbox_loc_perm"
  top: "conv8_2_mbox_loc_flat"
  flatten_param {
    axis: 1
  }
}
layer {
  name: "conv8_2_mbox_conf_flat"
  type: "Flatten"
  bottom: "conv8_2_mbox_conf_perm"
  top: "conv8_2_mbox_conf_flat"
  flatten_param {
    axis: 1
  }
}
layer {
  name: "conv8_2_mbox_priorbox"
  type: "PriorBox"
  bottom: "conv8_2"
  bottom: "data"
  top: "conv8_2_mbox_priorbox"
  prior_box_param {
    min_size: 93.44
    max_size: 120.32
    aspect_ratio: 2
    aspect_ratio: 3
    flip: true
    clip: true
    variance: 0.1
    variance: 0.1
    variance: 0.2
    variance: 0.2
    offset: 0.5
  }
}
layer {
  name: "pool6_mbox_loc_conf"
  type: "Convolution"
  bottom: "pool6"
  top: "pool6_mbox_loc_conf"
  param {
    lr_mult: 1
    decay_mult: 1
  }
  param {
    lr_mult: 2
    decay_mult: 0
  }
  convolution_param {
    num_output: 48
    pad: 1
    kernel_size: 3
    stride: 1
    weight_filler {
      type: "xavier"
    }
    bias_filler {
      type: "constant"
      value: 0
    }
  }
}
layer {
  name: "pool6_mbox_loc_conf_perm"
  type: "Permute"
  bottom: "pool6_mbox_loc_conf"
  top: "pool6_mbox_loc_conf_perm"
  permute_param {
    order: 0
    order: 2
    order: 3
    order: 1
  }
}
layer {
  name: "pool6_mbox_loc_perm"
  type: "Slice"
  bottom: "pool6_mbox_loc_conf_perm"
  top: "pool6_mbox_loc_perm"
  top: "pool6_mbox_conf_perm"
  slice_param {
    slice_point: 24
    axis: 3
  }
}
layer {
  name: "pool6_mbox_loc_flat"
  type: "Flatten"
  bottom: "pool6_mbox_loc_perm"
  top: "pool6_mbox_loc_flat"
  flatten_param {
    axis: 1
  }
}
layer {
  name: "pool6_mbox_conf_flat"
  type: "Flatten"
  bottom: "pool6_mbox_conf_perm"
  top: "pool6_mbox_conf_flat"
  flatten_param {
    axis: 1
  }
}
layer {
  name: "pool6_mbox_priorbox"
  type: "PriorBox"
  bottom: "pool6"
  bottom: "data"
  top: "pool6_mbox_priorbox"
  prior_box_param {
    min_size: 120.32
    max_size: 147.2
    aspect_ratio: 2
    aspect_ratio: 3
    flip: true
    clip: true
    variance: 0.1
    variance: 0.1
    variance: 0.2
    variance: 0.2
    offset: 0.5
  }
}
layer {
  name: "mbox_loc"
  type: "Concat"
  bottom: "conv4_3_norm_mbox_loc_flat"
  bottom: "fc7_conv_mbox_loc_flat"
  bottom: "conv6_2_mbox_loc_flat"
  bottom: "conv7_2_mbox_loc_flat"
  bottom: "conv8_2_mbox_loc_flat"
  bottom: "pool6_mbox_loc_flat"
  top: "mbox_loc"
  concat_param {
    axis: 1
  }
}
layer {
  name: "mbox_conf"
  type: "Concat"
  bottom: "conv4_3_norm_mbox_conf_flat"
  bottom: "fc7_conv_mbox_conf_flat"
  bottom: "conv6_2_mbox_conf_flat"
  bottom: "conv7_2_mbox_conf_flat"
  bottom: "conv8_2_mbox_conf_flat"
  bottom: "pool6_mbox_conf_flat"
  top: "mbox_conf"
  concat_param {
    axis: 1
  }
}
layer {
  name: "mbox_priorbox"
  type: "Concat"
  bottom: "conv4_3_norm_mbox_priorbox"
  bottom: "fc7_conv_mbox_priorbox"
  bottom: "conv6_2_mbox_priorbox"
  bottom: "conv7_2_mbox_priorbox"
  bottom: "conv8_2_mbox_priorbox"
  bottom: "pool6_mbox_priorbox"
  top: "mbox_priorbox"
  concat_param {
    axis: 2
  }
}
layer {
  name: "mbox_loss"
  type: "MultiBoxLoss"
  bottom: "mbox_loc"
  bottom: "mbox_conf"
  bottom: "mbox_priorbox"
  bottom: "label"
  top: "mbox_loss"
  include {
    phase: TRAIN
  }
  propagate_down: true
  propagate_down: true
  propagate_down: false
  propagate_down: false
  loss_param {
    normalization: VALID
  }
  multibox_loss_param {
    loc_loss_type: SMOOTH_L1
    conf_loss_type: SOFTMAX
    loc_weight: 1
    num_classes: 4
    share_location: true
    match_type: PER_PREDICTION
    overlap_threshold: 0.3
    use_prior_for_matching: true
    background_label_id: 0
    use_difficult_gt: true
    neg_pos_ratio: 3
    neg_overlap: 0.3
    code_type: CENTER_SIZE
    mining_type: MAX_NEGATIVE
  }
}
I0406 11:16:48.231236 21768 layer_factory.hpp:77] Creating layer data
I0406 11:16:48.231554 21768 net.cpp:100] Creating Layer data
I0406 11:16:48.231571 21768 net.cpp:408] data -> data
I0406 11:16:48.231583 21768 net.cpp:408] data -> label
I0406 11:16:48.232316 21789 db_lmdb.cpp:35] Opened lmdb /home/work/wwl/data/kitti/data_object_image_2/training/train_lmdb
I0406 11:16:48.255560 21768 annotated_data_layer.cpp:62] output data size: 32,3,64,256
I0406 11:16:48.270520 21768 net.cpp:150] Setting up data
I0406 11:16:48.270553 21768 net.cpp:157] Top shape: 32 3 64 256 (1572864)
I0406 11:16:48.270560 21768 net.cpp:157] Top shape: 1 1 11 8 (88)
I0406 11:16:48.270565 21768 net.cpp:165] Memory required for data: 6291808
I0406 11:16:48.270572 21768 layer_factory.hpp:77] Creating layer data_data_0_split
I0406 11:16:48.270584 21768 net.cpp:100] Creating Layer data_data_0_split
I0406 11:16:48.270589 21768 net.cpp:434] data_data_0_split <- data
I0406 11:16:48.270599 21768 net.cpp:408] data_data_0_split -> data_data_0_split_0
I0406 11:16:48.270609 21768 net.cpp:408] data_data_0_split -> data_data_0_split_1
I0406 11:16:48.270617 21768 net.cpp:408] data_data_0_split -> data_data_0_split_2
I0406 11:16:48.270623 21768 net.cpp:408] data_data_0_split -> data_data_0_split_3
I0406 11:16:48.270628 21768 net.cpp:408] data_data_0_split -> data_data_0_split_4
I0406 11:16:48.270635 21768 net.cpp:408] data_data_0_split -> data_data_0_split_5
I0406 11:16:48.270640 21768 net.cpp:408] data_data_0_split -> data_data_0_split_6
I0406 11:16:48.270787 21768 net.cpp:150] Setting up data_data_0_split
I0406 11:16:48.270793 21768 net.cpp:157] Top shape: 32 3 64 256 (1572864)
I0406 11:16:48.270798 21768 net.cpp:157] Top shape: 32 3 64 256 (1572864)
I0406 11:16:48.270803 21768 net.cpp:157] Top shape: 32 3 64 256 (1572864)
I0406 11:16:48.270807 21768 net.cpp:157] Top shape: 32 3 64 256 (1572864)
I0406 11:16:48.270812 21768 net.cpp:157] Top shape: 32 3 64 256 (1572864)
I0406 11:16:48.270815 21768 net.cpp:157] Top shape: 32 3 64 256 (1572864)
I0406 11:16:48.270820 21768 net.cpp:157] Top shape: 32 3 64 256 (1572864)
I0406 11:16:48.270823 21768 net.cpp:165] Memory required for data: 50332000
I0406 11:16:48.270828 21768 layer_factory.hpp:77] Creating layer conv1_1
I0406 11:16:48.270840 21768 net.cpp:100] Creating Layer conv1_1
I0406 11:16:48.270844 21768 net.cpp:434] conv1_1 <- data_data_0_split_0
I0406 11:16:48.270850 21768 net.cpp:408] conv1_1 -> conv1_1
I0406 11:16:48.273085 21768 net.cpp:150] Setting up conv1_1
I0406 11:16:48.273114 21768 net.cpp:157] Top shape: 32 16 64 256 (8388608)
I0406 11:16:48.273119 21768 net.cpp:165] Memory required for data: 83886432
I0406 11:16:48.273135 21768 layer_factory.hpp:77] Creating layer relu1_1
I0406 11:16:48.273147 21768 net.cpp:100] Creating Layer relu1_1
I0406 11:16:48.273154 21768 net.cpp:434] relu1_1 <- conv1_1
I0406 11:16:48.273160 21768 net.cpp:395] relu1_1 -> conv1_1 (in-place)
I0406 11:16:48.273171 21768 net.cpp:150] Setting up relu1_1
I0406 11:16:48.273177 21768 net.cpp:157] Top shape: 32 16 64 256 (8388608)
I0406 11:16:48.273180 21768 net.cpp:165] Memory required for data: 117440864
I0406 11:16:48.273185 21768 layer_factory.hpp:77] Creating layer conv1_2
I0406 11:16:48.273200 21768 net.cpp:100] Creating Layer conv1_2
I0406 11:16:48.273203 21768 net.cpp:434] conv1_2 <- conv1_1
I0406 11:16:48.273211 21768 net.cpp:408] conv1_2 -> conv1_2
I0406 11:16:48.274673 21768 net.cpp:150] Setting up conv1_2
I0406 11:16:48.274693 21768 net.cpp:157] Top shape: 32 16 32 128 (2097152)
I0406 11:16:48.274698 21768 net.cpp:165] Memory required for data: 125829472
I0406 11:16:48.274709 21768 layer_factory.hpp:77] Creating layer relu1_2
I0406 11:16:48.274718 21768 net.cpp:100] Creating Layer relu1_2
I0406 11:16:48.274724 21768 net.cpp:434] relu1_2 <- conv1_2
I0406 11:16:48.274731 21768 net.cpp:395] relu1_2 -> conv1_2 (in-place)
I0406 11:16:48.274740 21768 net.cpp:150] Setting up relu1_2
I0406 11:16:48.274745 21768 net.cpp:157] Top shape: 32 16 32 128 (2097152)
I0406 11:16:48.274749 21768 net.cpp:165] Memory required for data: 134218080
I0406 11:16:48.274752 21768 layer_factory.hpp:77] Creating layer conv2_1
I0406 11:16:48.274765 21768 net.cpp:100] Creating Layer conv2_1
I0406 11:16:48.274768 21768 net.cpp:434] conv2_1 <- conv1_2
I0406 11:16:48.274775 21768 net.cpp:408] conv2_1 -> conv2_1
I0406 11:16:48.275112 21768 net.cpp:150] Setting up conv2_1
I0406 11:16:48.275121 21768 net.cpp:157] Top shape: 32 32 32 128 (4194304)
I0406 11:16:48.275125 21768 net.cpp:165] Memory required for data: 150995296
I0406 11:16:48.275135 21768 layer_factory.hpp:77] Creating layer relu2_1
I0406 11:16:48.275141 21768 net.cpp:100] Creating Layer relu2_1
I0406 11:16:48.275146 21768 net.cpp:434] relu2_1 <- conv2_1
I0406 11:16:48.275151 21768 net.cpp:395] relu2_1 -> conv2_1 (in-place)
I0406 11:16:48.275156 21768 net.cpp:150] Setting up relu2_1
I0406 11:16:48.275161 21768 net.cpp:157] Top shape: 32 32 32 128 (4194304)
I0406 11:16:48.275166 21768 net.cpp:165] Memory required for data: 167772512
I0406 11:16:48.275169 21768 layer_factory.hpp:77] Creating layer conv2_2
I0406 11:16:48.275180 21768 net.cpp:100] Creating Layer conv2_2
I0406 11:16:48.275185 21768 net.cpp:434] conv2_2 <- conv2_1
I0406 11:16:48.275190 21768 net.cpp:408] conv2_2 -> conv2_2
I0406 11:16:48.275560 21768 net.cpp:150] Setting up conv2_2
I0406 11:16:48.275573 21768 net.cpp:157] Top shape: 32 32 16 64 (1048576)
I0406 11:16:48.275576 21768 net.cpp:165] Memory required for data: 171966816
I0406 11:16:48.275583 21768 layer_factory.hpp:77] Creating layer relu2_2
I0406 11:16:48.275590 21768 net.cpp:100] Creating Layer relu2_2
I0406 11:16:48.275594 21768 net.cpp:434] relu2_2 <- conv2_2
I0406 11:16:48.275601 21768 net.cpp:395] relu2_2 -> conv2_2 (in-place)
I0406 11:16:48.275607 21768 net.cpp:150] Setting up relu2_2
I0406 11:16:48.275611 21768 net.cpp:157] Top shape: 32 32 16 64 (1048576)
I0406 11:16:48.275615 21768 net.cpp:165] Memory required for data: 176161120
I0406 11:16:48.275619 21768 layer_factory.hpp:77] Creating layer conv3_1
I0406 11:16:48.275629 21768 net.cpp:100] Creating Layer conv3_1
I0406 11:16:48.275632 21768 net.cpp:434] conv3_1 <- conv2_2
I0406 11:16:48.275638 21768 net.cpp:408] conv3_1 -> conv3_1
I0406 11:16:48.277081 21768 net.cpp:150] Setting up conv3_1
I0406 11:16:48.277118 21768 net.cpp:157] Top shape: 32 64 16 64 (2097152)
I0406 11:16:48.277123 21768 net.cpp:165] Memory required for data: 184549728
I0406 11:16:48.277137 21768 layer_factory.hpp:77] Creating layer relu3_1
I0406 11:16:48.277148 21768 net.cpp:100] Creating Layer relu3_1
I0406 11:16:48.277153 21768 net.cpp:434] relu3_1 <- conv3_1
I0406 11:16:48.277159 21768 net.cpp:395] relu3_1 -> conv3_1 (in-place)
I0406 11:16:48.277168 21768 net.cpp:150] Setting up relu3_1
I0406 11:16:48.277173 21768 net.cpp:157] Top shape: 32 64 16 64 (2097152)
I0406 11:16:48.277176 21768 net.cpp:165] Memory required for data: 192938336
I0406 11:16:48.277180 21768 layer_factory.hpp:77] Creating layer conv3_2
I0406 11:16:48.277190 21768 net.cpp:100] Creating Layer conv3_2
I0406 11:16:48.277195 21768 net.cpp:434] conv3_2 <- conv3_1
I0406 11:16:48.277201 21768 net.cpp:408] conv3_2 -> conv3_2
I0406 11:16:48.277735 21768 net.cpp:150] Setting up conv3_2
I0406 11:16:48.277745 21768 net.cpp:157] Top shape: 32 64 16 64 (2097152)
I0406 11:16:48.277750 21768 net.cpp:165] Memory required for data: 201326944
I0406 11:16:48.277756 21768 layer_factory.hpp:77] Creating layer relu3_2
I0406 11:16:48.277763 21768 net.cpp:100] Creating Layer relu3_2
I0406 11:16:48.277767 21768 net.cpp:434] relu3_2 <- conv3_2
I0406 11:16:48.277771 21768 net.cpp:395] relu3_2 -> conv3_2 (in-place)
I0406 11:16:48.277777 21768 net.cpp:150] Setting up relu3_2
I0406 11:16:48.277782 21768 net.cpp:157] Top shape: 32 64 16 64 (2097152)
I0406 11:16:48.277786 21768 net.cpp:165] Memory required for data: 209715552
I0406 11:16:48.277791 21768 layer_factory.hpp:77] Creating layer conv3_3
I0406 11:16:48.277799 21768 net.cpp:100] Creating Layer conv3_3
I0406 11:16:48.277803 21768 net.cpp:434] conv3_3 <- conv3_2
I0406 11:16:48.277809 21768 net.cpp:408] conv3_3 -> conv3_3
I0406 11:16:48.278327 21768 net.cpp:150] Setting up conv3_3
I0406 11:16:48.278338 21768 net.cpp:157] Top shape: 32 64 16 64 (2097152)
I0406 11:16:48.278342 21768 net.cpp:165] Memory required for data: 218104160
I0406 11:16:48.278348 21768 layer_factory.hpp:77] Creating layer relu3_3
I0406 11:16:48.278362 21768 net.cpp:100] Creating Layer relu3_3
I0406 11:16:48.278367 21768 net.cpp:434] relu3_3 <- conv3_3
I0406 11:16:48.278370 21768 net.cpp:395] relu3_3 -> conv3_3 (in-place)
I0406 11:16:48.278376 21768 net.cpp:150] Setting up relu3_3
I0406 11:16:48.278381 21768 net.cpp:157] Top shape: 32 64 16 64 (2097152)
I0406 11:16:48.278385 21768 net.cpp:165] Memory required for data: 226492768
I0406 11:16:48.278389 21768 layer_factory.hpp:77] Creating layer pool3
I0406 11:16:48.278398 21768 net.cpp:100] Creating Layer pool3
I0406 11:16:48.278403 21768 net.cpp:434] pool3 <- conv3_3
I0406 11:16:48.278408 21768 net.cpp:408] pool3 -> pool3
I0406 11:16:48.278455 21768 net.cpp:150] Setting up pool3
I0406 11:16:48.278461 21768 net.cpp:157] Top shape: 32 64 8 32 (524288)
I0406 11:16:48.278465 21768 net.cpp:165] Memory required for data: 228589920
I0406 11:16:48.278468 21768 layer_factory.hpp:77] Creating layer conv4_1
I0406 11:16:48.278477 21768 net.cpp:100] Creating Layer conv4_1
I0406 11:16:48.278481 21768 net.cpp:434] conv4_1 <- pool3
I0406 11:16:48.278487 21768 net.cpp:408] conv4_1 -> conv4_1
I0406 11:16:48.280253 21768 net.cpp:150] Setting up conv4_1
I0406 11:16:48.280280 21768 net.cpp:157] Top shape: 32 128 8 32 (1048576)
I0406 11:16:48.280284 21768 net.cpp:165] Memory required for data: 232784224
I0406 11:16:48.280292 21768 layer_factory.hpp:77] Creating layer relu4_1
I0406 11:16:48.280300 21768 net.cpp:100] Creating Layer relu4_1
I0406 11:16:48.280305 21768 net.cpp:434] relu4_1 <- conv4_1
I0406 11:16:48.280313 21768 net.cpp:395] relu4_1 -> conv4_1 (in-place)
I0406 11:16:48.280319 21768 net.cpp:150] Setting up relu4_1
I0406 11:16:48.280324 21768 net.cpp:157] Top shape: 32 128 8 32 (1048576)
I0406 11:16:48.280328 21768 net.cpp:165] Memory required for data: 236978528
I0406 11:16:48.280333 21768 layer_factory.hpp:77] Creating layer conv4_2
I0406 11:16:48.280350 21768 net.cpp:100] Creating Layer conv4_2
I0406 11:16:48.280355 21768 net.cpp:434] conv4_2 <- conv4_1
I0406 11:16:48.280361 21768 net.cpp:408] conv4_2 -> conv4_2
I0406 11:16:48.281611 21768 net.cpp:150] Setting up conv4_2
I0406 11:16:48.281630 21768 net.cpp:157] Top shape: 32 128 8 32 (1048576)
I0406 11:16:48.281635 21768 net.cpp:165] Memory required for data: 241172832
I0406 11:16:48.281647 21768 layer_factory.hpp:77] Creating layer relu4_2
I0406 11:16:48.281656 21768 net.cpp:100] Creating Layer relu4_2
I0406 11:16:48.281661 21768 net.cpp:434] relu4_2 <- conv4_2
I0406 11:16:48.281666 21768 net.cpp:395] relu4_2 -> conv4_2 (in-place)
I0406 11:16:48.281674 21768 net.cpp:150] Setting up relu4_2
I0406 11:16:48.281678 21768 net.cpp:157] Top shape: 32 128 8 32 (1048576)
I0406 11:16:48.281682 21768 net.cpp:165] Memory required for data: 245367136
I0406 11:16:48.281687 21768 layer_factory.hpp:77] Creating layer conv4_3
I0406 11:16:48.281695 21768 net.cpp:100] Creating Layer conv4_3
I0406 11:16:48.281699 21768 net.cpp:434] conv4_3 <- conv4_2
I0406 11:16:48.281705 21768 net.cpp:408] conv4_3 -> conv4_3
I0406 11:16:48.282980 21768 net.cpp:150] Setting up conv4_3
I0406 11:16:48.283006 21768 net.cpp:157] Top shape: 32 128 8 32 (1048576)
I0406 11:16:48.283011 21768 net.cpp:165] Memory required for data: 249561440
I0406 11:16:48.283020 21768 layer_factory.hpp:77] Creating layer relu4_3
I0406 11:16:48.283028 21768 net.cpp:100] Creating Layer relu4_3
I0406 11:16:48.283033 21768 net.cpp:434] relu4_3 <- conv4_3
I0406 11:16:48.283041 21768 net.cpp:395] relu4_3 -> conv4_3 (in-place)
I0406 11:16:48.283052 21768 net.cpp:150] Setting up relu4_3
I0406 11:16:48.283057 21768 net.cpp:157] Top shape: 32 128 8 32 (1048576)
I0406 11:16:48.283061 21768 net.cpp:165] Memory required for data: 253755744
I0406 11:16:48.283064 21768 layer_factory.hpp:77] Creating layer conv4_3_relu4_3_0_split
I0406 11:16:48.283071 21768 net.cpp:100] Creating Layer conv4_3_relu4_3_0_split
I0406 11:16:48.283076 21768 net.cpp:434] conv4_3_relu4_3_0_split <- conv4_3
I0406 11:16:48.283082 21768 net.cpp:408] conv4_3_relu4_3_0_split -> conv4_3_relu4_3_0_split_0
I0406 11:16:48.283088 21768 net.cpp:408] conv4_3_relu4_3_0_split -> conv4_3_relu4_3_0_split_1
I0406 11:16:48.283138 21768 net.cpp:150] Setting up conv4_3_relu4_3_0_split
I0406 11:16:48.283145 21768 net.cpp:157] Top shape: 32 128 8 32 (1048576)
I0406 11:16:48.283150 21768 net.cpp:157] Top shape: 32 128 8 32 (1048576)
I0406 11:16:48.283154 21768 net.cpp:165] Memory required for data: 262144352
I0406 11:16:48.283157 21768 layer_factory.hpp:77] Creating layer pool4
I0406 11:16:48.283165 21768 net.cpp:100] Creating Layer pool4
I0406 11:16:48.283169 21768 net.cpp:434] pool4 <- conv4_3_relu4_3_0_split_0
I0406 11:16:48.283174 21768 net.cpp:408] pool4 -> pool4
I0406 11:16:48.283217 21768 net.cpp:150] Setting up pool4
I0406 11:16:48.283223 21768 net.cpp:157] Top shape: 32 128 4 16 (262144)
I0406 11:16:48.283226 21768 net.cpp:165] Memory required for data: 263192928
I0406 11:16:48.283231 21768 layer_factory.hpp:77] Creating layer conv5_1
I0406 11:16:48.283241 21768 net.cpp:100] Creating Layer conv5_1
I0406 11:16:48.283244 21768 net.cpp:434] conv5_1 <- pool4
I0406 11:16:48.283252 21768 net.cpp:408] conv5_1 -> conv5_1
I0406 11:16:48.285704 21768 net.cpp:150] Setting up conv5_1
I0406 11:16:48.285717 21768 net.cpp:157] Top shape: 32 128 4 16 (262144)
I0406 11:16:48.285722 21768 net.cpp:165] Memory required for data: 264241504
I0406 11:16:48.285728 21768 layer_factory.hpp:77] Creating layer relu5_1
I0406 11:16:48.285737 21768 net.cpp:100] Creating Layer relu5_1
I0406 11:16:48.285740 21768 net.cpp:434] relu5_1 <- conv5_1
I0406 11:16:48.285747 21768 net.cpp:395] relu5_1 -> conv5_1 (in-place)
I0406 11:16:48.285753 21768 net.cpp:150] Setting up relu5_1
I0406 11:16:48.285758 21768 net.cpp:157] Top shape: 32 128 4 16 (262144)
I0406 11:16:48.285763 21768 net.cpp:165] Memory required for data: 265290080
I0406 11:16:48.285766 21768 layer_factory.hpp:77] Creating layer conv5_2
I0406 11:16:48.285775 21768 net.cpp:100] Creating Layer conv5_2
I0406 11:16:48.285779 21768 net.cpp:434] conv5_2 <- conv5_1
I0406 11:16:48.285789 21768 net.cpp:408] conv5_2 -> conv5_2
I0406 11:16:48.287968 21768 net.cpp:150] Setting up conv5_2
I0406 11:16:48.287984 21768 net.cpp:157] Top shape: 32 128 4 16 (262144)
I0406 11:16:48.287989 21768 net.cpp:165] Memory required for data: 266338656
I0406 11:16:48.287997 21768 layer_factory.hpp:77] Creating layer relu5_2
I0406 11:16:48.288004 21768 net.cpp:100] Creating Layer relu5_2
I0406 11:16:48.288008 21768 net.cpp:434] relu5_2 <- conv5_2
I0406 11:16:48.288014 21768 net.cpp:395] relu5_2 -> conv5_2 (in-place)
I0406 11:16:48.288022 21768 net.cpp:150] Setting up relu5_2
I0406 11:16:48.288028 21768 net.cpp:157] Top shape: 32 128 4 16 (262144)
I0406 11:16:48.288030 21768 net.cpp:165] Memory required for data: 267387232
I0406 11:16:48.288034 21768 layer_factory.hpp:77] Creating layer conv5_3
I0406 11:16:48.288043 21768 net.cpp:100] Creating Layer conv5_3
I0406 11:16:48.288048 21768 net.cpp:434] conv5_3 <- conv5_2
I0406 11:16:48.288054 21768 net.cpp:408] conv5_3 -> conv5_3
I0406 11:16:48.289230 21768 net.cpp:150] Setting up conv5_3
I0406 11:16:48.289239 21768 net.cpp:157] Top shape: 32 128 4 16 (262144)
I0406 11:16:48.289243 21768 net.cpp:165] Memory required for data: 268435808
I0406 11:16:48.289250 21768 layer_factory.hpp:77] Creating layer relu5_3
I0406 11:16:48.289255 21768 net.cpp:100] Creating Layer relu5_3
I0406 11:16:48.289259 21768 net.cpp:434] relu5_3 <- conv5_3
I0406 11:16:48.289265 21768 net.cpp:395] relu5_3 -> conv5_3 (in-place)
I0406 11:16:48.289271 21768 net.cpp:150] Setting up relu5_3
I0406 11:16:48.289276 21768 net.cpp:157] Top shape: 32 128 4 16 (262144)
I0406 11:16:48.289279 21768 net.cpp:165] Memory required for data: 269484384
I0406 11:16:48.289283 21768 layer_factory.hpp:77] Creating layer pool5
I0406 11:16:48.289289 21768 net.cpp:100] Creating Layer pool5
I0406 11:16:48.289294 21768 net.cpp:434] pool5 <- conv5_3
I0406 11:16:48.289299 21768 net.cpp:408] pool5 -> pool5
I0406 11:16:48.289343 21768 net.cpp:150] Setting up pool5
I0406 11:16:48.289350 21768 net.cpp:157] Top shape: 32 128 4 16 (262144)
I0406 11:16:48.289355 21768 net.cpp:165] Memory required for data: 270532960
I0406 11:16:48.289362 21768 layer_factory.hpp:77] Creating layer fc6_conv
I0406 11:16:48.289374 21768 net.cpp:100] Creating Layer fc6_conv
I0406 11:16:48.289378 21768 net.cpp:434] fc6_conv <- pool5
I0406 11:16:48.289386 21768 net.cpp:408] fc6_conv -> fc6_conv
I0406 11:16:48.292418 21768 net.cpp:150] Setting up fc6_conv
I0406 11:16:48.292435 21768 net.cpp:157] Top shape: 32 256 4 16 (524288)
I0406 11:16:48.292439 21768 net.cpp:165] Memory required for data: 272630112
I0406 11:16:48.292446 21768 layer_factory.hpp:77] Creating layer relu6
I0406 11:16:48.292455 21768 net.cpp:100] Creating Layer relu6
I0406 11:16:48.292460 21768 net.cpp:434] relu6 <- fc6_conv
I0406 11:16:48.292466 21768 net.cpp:395] relu6 -> fc6_conv (in-place)
I0406 11:16:48.292474 21768 net.cpp:150] Setting up relu6
I0406 11:16:48.292479 21768 net.cpp:157] Top shape: 32 256 4 16 (524288)
I0406 11:16:48.292482 21768 net.cpp:165] Memory required for data: 274727264
I0406 11:16:48.292486 21768 layer_factory.hpp:77] Creating layer fc7_conv
I0406 11:16:48.292495 21768 net.cpp:100] Creating Layer fc7_conv
I0406 11:16:48.292500 21768 net.cpp:434] fc7_conv <- fc6_conv
I0406 11:16:48.292505 21768 net.cpp:408] fc7_conv -> fc7_conv
I0406 11:16:48.293193 21768 net.cpp:150] Setting up fc7_conv
I0406 11:16:48.293201 21768 net.cpp:157] Top shape: 32 256 4 16 (524288)
I0406 11:16:48.293205 21768 net.cpp:165] Memory required for data: 276824416
I0406 11:16:48.293211 21768 layer_factory.hpp:77] Creating layer relu7
I0406 11:16:48.293216 21768 net.cpp:100] Creating Layer relu7
I0406 11:16:48.293220 21768 net.cpp:434] relu7 <- fc7_conv
I0406 11:16:48.293226 21768 net.cpp:395] relu7 -> fc7_conv (in-place)
I0406 11:16:48.293232 21768 net.cpp:150] Setting up relu7
I0406 11:16:48.293237 21768 net.cpp:157] Top shape: 32 256 4 16 (524288)
I0406 11:16:48.293241 21768 net.cpp:165] Memory required for data: 278921568
I0406 11:16:48.293246 21768 layer_factory.hpp:77] Creating layer fc7_conv_relu7_0_split
I0406 11:16:48.293251 21768 net.cpp:100] Creating Layer fc7_conv_relu7_0_split
I0406 11:16:48.293253 21768 net.cpp:434] fc7_conv_relu7_0_split <- fc7_conv
I0406 11:16:48.293258 21768 net.cpp:408] fc7_conv_relu7_0_split -> fc7_conv_relu7_0_split_0
I0406 11:16:48.293264 21768 net.cpp:408] fc7_conv_relu7_0_split -> fc7_conv_relu7_0_split_1
I0406 11:16:48.293272 21768 net.cpp:408] fc7_conv_relu7_0_split -> fc7_conv_relu7_0_split_2
I0406 11:16:48.293330 21768 net.cpp:150] Setting up fc7_conv_relu7_0_split
I0406 11:16:48.293337 21768 net.cpp:157] Top shape: 32 256 4 16 (524288)
I0406 11:16:48.293341 21768 net.cpp:157] Top shape: 32 256 4 16 (524288)
I0406 11:16:48.293346 21768 net.cpp:157] Top shape: 32 256 4 16 (524288)
I0406 11:16:48.293349 21768 net.cpp:165] Memory required for data: 285213024
I0406 11:16:48.293354 21768 layer_factory.hpp:77] Creating layer conv6_1
I0406 11:16:48.293361 21768 net.cpp:100] Creating Layer conv6_1
I0406 11:16:48.293365 21768 net.cpp:434] conv6_1 <- fc7_conv_relu7_0_split_0
I0406 11:16:48.293372 21768 net.cpp:408] conv6_1 -> conv6_1
I0406 11:16:48.293727 21768 net.cpp:150] Setting up conv6_1
I0406 11:16:48.293735 21768 net.cpp:157] Top shape: 32 32 4 16 (65536)
I0406 11:16:48.293740 21768 net.cpp:165] Memory required for data: 285475168
I0406 11:16:48.293745 21768 layer_factory.hpp:77] Creating layer conv6_1_relu
I0406 11:16:48.293751 21768 net.cpp:100] Creating Layer conv6_1_relu
I0406 11:16:48.293754 21768 net.cpp:434] conv6_1_relu <- conv6_1
I0406 11:16:48.293761 21768 net.cpp:395] conv6_1_relu -> conv6_1 (in-place)
I0406 11:16:48.293766 21768 net.cpp:150] Setting up conv6_1_relu
I0406 11:16:48.293771 21768 net.cpp:157] Top shape: 32 32 4 16 (65536)
I0406 11:16:48.293774 21768 net.cpp:165] Memory required for data: 285737312
I0406 11:16:48.293778 21768 layer_factory.hpp:77] Creating layer conv6_2
I0406 11:16:48.293787 21768 net.cpp:100] Creating Layer conv6_2
I0406 11:16:48.293792 21768 net.cpp:434] conv6_2 <- conv6_1
I0406 11:16:48.293798 21768 net.cpp:408] conv6_2 -> conv6_2
I0406 11:16:48.294208 21768 net.cpp:150] Setting up conv6_2
I0406 11:16:48.294219 21768 net.cpp:157] Top shape: 32 64 2 8 (32768)
I0406 11:16:48.294224 21768 net.cpp:165] Memory required for data: 285868384
I0406 11:16:48.294234 21768 layer_factory.hpp:77] Creating layer conv6_2_relu
I0406 11:16:48.294240 21768 net.cpp:100] Creating Layer conv6_2_relu
I0406 11:16:48.294245 21768 net.cpp:434] conv6_2_relu <- conv6_2
I0406 11:16:48.294250 21768 net.cpp:395] conv6_2_relu -> conv6_2 (in-place)
I0406 11:16:48.294255 21768 net.cpp:150] Setting up conv6_2_relu
I0406 11:16:48.294260 21768 net.cpp:157] Top shape: 32 64 2 8 (32768)
I0406 11:16:48.294263 21768 net.cpp:165] Memory required for data: 285999456
I0406 11:16:48.294267 21768 layer_factory.hpp:77] Creating layer conv6_2_conv6_2_relu_0_split
I0406 11:16:48.294272 21768 net.cpp:100] Creating Layer conv6_2_conv6_2_relu_0_split
I0406 11:16:48.294276 21768 net.cpp:434] conv6_2_conv6_2_relu_0_split <- conv6_2
I0406 11:16:48.294282 21768 net.cpp:408] conv6_2_conv6_2_relu_0_split -> conv6_2_conv6_2_relu_0_split_0
I0406 11:16:48.294288 21768 net.cpp:408] conv6_2_conv6_2_relu_0_split -> conv6_2_conv6_2_relu_0_split_1
I0406 11:16:48.294294 21768 net.cpp:408] conv6_2_conv6_2_relu_0_split -> conv6_2_conv6_2_relu_0_split_2
I0406 11:16:48.294356 21768 net.cpp:150] Setting up conv6_2_conv6_2_relu_0_split
I0406 11:16:48.294363 21768 net.cpp:157] Top shape: 32 64 2 8 (32768)
I0406 11:16:48.294368 21768 net.cpp:157] Top shape: 32 64 2 8 (32768)
I0406 11:16:48.294373 21768 net.cpp:157] Top shape: 32 64 2 8 (32768)
I0406 11:16:48.294376 21768 net.cpp:165] Memory required for data: 286392672
I0406 11:16:48.294379 21768 layer_factory.hpp:77] Creating layer conv7_1
I0406 11:16:48.294387 21768 net.cpp:100] Creating Layer conv7_1
I0406 11:16:48.294392 21768 net.cpp:434] conv7_1 <- conv6_2_conv6_2_relu_0_split_0
I0406 11:16:48.294399 21768 net.cpp:408] conv7_1 -> conv7_1
I0406 11:16:48.294697 21768 net.cpp:150] Setting up conv7_1
I0406 11:16:48.294703 21768 net.cpp:157] Top shape: 32 16 2 8 (8192)
I0406 11:16:48.294708 21768 net.cpp:165] Memory required for data: 286425440
I0406 11:16:48.294713 21768 layer_factory.hpp:77] Creating layer conv7_1_relu
I0406 11:16:48.294718 21768 net.cpp:100] Creating Layer conv7_1_relu
I0406 11:16:48.294723 21768 net.cpp:434] conv7_1_relu <- conv7_1
I0406 11:16:48.294728 21768 net.cpp:395] conv7_1_relu -> conv7_1 (in-place)
I0406 11:16:48.294734 21768 net.cpp:150] Setting up conv7_1_relu
I0406 11:16:48.294739 21768 net.cpp:157] Top shape: 32 16 2 8 (8192)
I0406 11:16:48.294744 21768 net.cpp:165] Memory required for data: 286458208
I0406 11:16:48.294747 21768 layer_factory.hpp:77] Creating layer conv7_2
I0406 11:16:48.294754 21768 net.cpp:100] Creating Layer conv7_2
I0406 11:16:48.294759 21768 net.cpp:434] conv7_2 <- conv7_1
I0406 11:16:48.294764 21768 net.cpp:408] conv7_2 -> conv7_2
I0406 11:16:48.295089 21768 net.cpp:150] Setting up conv7_2
I0406 11:16:48.295095 21768 net.cpp:157] Top shape: 32 32 1 4 (4096)
I0406 11:16:48.295099 21768 net.cpp:165] Memory required for data: 286474592
I0406 11:16:48.295104 21768 layer_factory.hpp:77] Creating layer conv7_2_relu
I0406 11:16:48.295109 21768 net.cpp:100] Creating Layer conv7_2_relu
I0406 11:16:48.295114 21768 net.cpp:434] conv7_2_relu <- conv7_2
I0406 11:16:48.295120 21768 net.cpp:395] conv7_2_relu -> conv7_2 (in-place)
I0406 11:16:48.295125 21768 net.cpp:150] Setting up conv7_2_relu
I0406 11:16:48.295130 21768 net.cpp:157] Top shape: 32 32 1 4 (4096)
I0406 11:16:48.295135 21768 net.cpp:165] Memory required for data: 286490976
I0406 11:16:48.295138 21768 layer_factory.hpp:77] Creating layer conv7_2_conv7_2_relu_0_split
I0406 11:16:48.295142 21768 net.cpp:100] Creating Layer conv7_2_conv7_2_relu_0_split
I0406 11:16:48.295146 21768 net.cpp:434] conv7_2_conv7_2_relu_0_split <- conv7_2
I0406 11:16:48.295152 21768 net.cpp:408] conv7_2_conv7_2_relu_0_split -> conv7_2_conv7_2_relu_0_split_0
I0406 11:16:48.295158 21768 net.cpp:408] conv7_2_conv7_2_relu_0_split -> conv7_2_conv7_2_relu_0_split_1
I0406 11:16:48.295164 21768 net.cpp:408] conv7_2_conv7_2_relu_0_split -> conv7_2_conv7_2_relu_0_split_2
I0406 11:16:48.295227 21768 net.cpp:150] Setting up conv7_2_conv7_2_relu_0_split
I0406 11:16:48.295233 21768 net.cpp:157] Top shape: 32 32 1 4 (4096)
I0406 11:16:48.295238 21768 net.cpp:157] Top shape: 32 32 1 4 (4096)
I0406 11:16:48.295243 21768 net.cpp:157] Top shape: 32 32 1 4 (4096)
I0406 11:16:48.295245 21768 net.cpp:165] Memory required for data: 286540128
I0406 11:16:48.295249 21768 layer_factory.hpp:77] Creating layer conv8_1
I0406 11:16:48.295256 21768 net.cpp:100] Creating Layer conv8_1
I0406 11:16:48.295261 21768 net.cpp:434] conv8_1 <- conv7_2_conv7_2_relu_0_split_0
I0406 11:16:48.295267 21768 net.cpp:408] conv8_1 -> conv8_1
I0406 11:16:48.295557 21768 net.cpp:150] Setting up conv8_1
I0406 11:16:48.295564 21768 net.cpp:157] Top shape: 32 16 1 4 (2048)
I0406 11:16:48.295568 21768 net.cpp:165] Memory required for data: 286548320
I0406 11:16:48.295574 21768 layer_factory.hpp:77] Creating layer conv8_1_relu
I0406 11:16:48.295579 21768 net.cpp:100] Creating Layer conv8_1_relu
I0406 11:16:48.295584 21768 net.cpp:434] conv8_1_relu <- conv8_1
I0406 11:16:48.295589 21768 net.cpp:395] conv8_1_relu -> conv8_1 (in-place)
I0406 11:16:48.295594 21768 net.cpp:150] Setting up conv8_1_relu
I0406 11:16:48.295599 21768 net.cpp:157] Top shape: 32 16 1 4 (2048)
I0406 11:16:48.295603 21768 net.cpp:165] Memory required for data: 286556512
I0406 11:16:48.295608 21768 layer_factory.hpp:77] Creating layer conv8_2
I0406 11:16:48.295616 21768 net.cpp:100] Creating Layer conv8_2
I0406 11:16:48.295620 21768 net.cpp:434] conv8_2 <- conv8_1
I0406 11:16:48.295626 21768 net.cpp:408] conv8_2 -> conv8_2
I0406 11:16:48.295944 21768 net.cpp:150] Setting up conv8_2
I0406 11:16:48.295951 21768 net.cpp:157] Top shape: 32 32 1 2 (2048)
I0406 11:16:48.295955 21768 net.cpp:165] Memory required for data: 286564704
I0406 11:16:48.295961 21768 layer_factory.hpp:77] Creating layer conv8_2_relu
I0406 11:16:48.295967 21768 net.cpp:100] Creating Layer conv8_2_relu
I0406 11:16:48.295971 21768 net.cpp:434] conv8_2_relu <- conv8_2
I0406 11:16:48.295977 21768 net.cpp:395] conv8_2_relu -> conv8_2 (in-place)
I0406 11:16:48.295982 21768 net.cpp:150] Setting up conv8_2_relu
I0406 11:16:48.295987 21768 net.cpp:157] Top shape: 32 32 1 2 (2048)
I0406 11:16:48.295991 21768 net.cpp:165] Memory required for data: 286572896
I0406 11:16:48.295994 21768 layer_factory.hpp:77] Creating layer conv8_2_conv8_2_relu_0_split
I0406 11:16:48.296000 21768 net.cpp:100] Creating Layer conv8_2_conv8_2_relu_0_split
I0406 11:16:48.296003 21768 net.cpp:434] conv8_2_conv8_2_relu_0_split <- conv8_2
I0406 11:16:48.296008 21768 net.cpp:408] conv8_2_conv8_2_relu_0_split -> conv8_2_conv8_2_relu_0_split_0
I0406 11:16:48.296018 21768 net.cpp:408] conv8_2_conv8_2_relu_0_split -> conv8_2_conv8_2_relu_0_split_1
I0406 11:16:48.296025 21768 net.cpp:408] conv8_2_conv8_2_relu_0_split -> conv8_2_conv8_2_relu_0_split_2
I0406 11:16:48.296079 21768 net.cpp:150] Setting up conv8_2_conv8_2_relu_0_split
I0406 11:16:48.296085 21768 net.cpp:157] Top shape: 32 32 1 2 (2048)
I0406 11:16:48.296090 21768 net.cpp:157] Top shape: 32 32 1 2 (2048)
I0406 11:16:48.296094 21768 net.cpp:157] Top shape: 32 32 1 2 (2048)
I0406 11:16:48.296097 21768 net.cpp:165] Memory required for data: 286597472
I0406 11:16:48.296102 21768 layer_factory.hpp:77] Creating layer pool6
I0406 11:16:48.296108 21768 net.cpp:100] Creating Layer pool6
I0406 11:16:48.296111 21768 net.cpp:434] pool6 <- conv8_2_conv8_2_relu_0_split_0
I0406 11:16:48.296118 21768 net.cpp:408] pool6 -> pool6
I0406 11:16:48.296142 21768 net.cpp:150] Setting up pool6
I0406 11:16:48.296149 21768 net.cpp:157] Top shape: 32 32 1 1 (1024)
I0406 11:16:48.296152 21768 net.cpp:165] Memory required for data: 286601568
I0406 11:16:48.296155 21768 layer_factory.hpp:77] Creating layer pool6_pool6_0_split
I0406 11:16:48.296161 21768 net.cpp:100] Creating Layer pool6_pool6_0_split
I0406 11:16:48.296165 21768 net.cpp:434] pool6_pool6_0_split <- pool6
I0406 11:16:48.296170 21768 net.cpp:408] pool6_pool6_0_split -> pool6_pool6_0_split_0
I0406 11:16:48.296176 21768 net.cpp:408] pool6_pool6_0_split -> pool6_pool6_0_split_1
I0406 11:16:48.296218 21768 net.cpp:150] Setting up pool6_pool6_0_split
I0406 11:16:48.296224 21768 net.cpp:157] Top shape: 32 32 1 1 (1024)
I0406 11:16:48.296228 21768 net.cpp:157] Top shape: 32 32 1 1 (1024)
I0406 11:16:48.296232 21768 net.cpp:165] Memory required for data: 286609760
I0406 11:16:48.296236 21768 layer_factory.hpp:77] Creating layer conv4_3_norm
I0406 11:16:48.296242 21768 net.cpp:100] Creating Layer conv4_3_norm
I0406 11:16:48.296247 21768 net.cpp:434] conv4_3_norm <- conv4_3_relu4_3_0_split_1
I0406 11:16:48.296252 21768 net.cpp:408] conv4_3_norm -> conv4_3_norm
I0406 11:16:48.296416 21768 net.cpp:150] Setting up conv4_3_norm
I0406 11:16:48.296423 21768 net.cpp:157] Top shape: 32 128 8 32 (1048576)
I0406 11:16:48.296427 21768 net.cpp:165] Memory required for data: 290804064
I0406 11:16:48.296432 21768 layer_factory.hpp:77] Creating layer conv4_3_norm_conv4_3_norm_0_split
I0406 11:16:48.296439 21768 net.cpp:100] Creating Layer conv4_3_norm_conv4_3_norm_0_split
I0406 11:16:48.296443 21768 net.cpp:434] conv4_3_norm_conv4_3_norm_0_split <- conv4_3_norm
I0406 11:16:48.296448 21768 net.cpp:408] conv4_3_norm_conv4_3_norm_0_split -> conv4_3_norm_conv4_3_norm_0_split_0
I0406 11:16:48.296453 21768 net.cpp:408] conv4_3_norm_conv4_3_norm_0_split -> conv4_3_norm_conv4_3_norm_0_split_1
I0406 11:16:48.296496 21768 net.cpp:150] Setting up conv4_3_norm_conv4_3_norm_0_split
I0406 11:16:48.296502 21768 net.cpp:157] Top shape: 32 128 8 32 (1048576)
I0406 11:16:48.296507 21768 net.cpp:157] Top shape: 32 128 8 32 (1048576)
I0406 11:16:48.296511 21768 net.cpp:165] Memory required for data: 299192672
I0406 11:16:48.296515 21768 layer_factory.hpp:77] Creating layer conv4_3_norm_mbox_loc_conf
I0406 11:16:48.296525 21768 net.cpp:100] Creating Layer conv4_3_norm_mbox_loc_conf
I0406 11:16:48.296528 21768 net.cpp:434] conv4_3_norm_mbox_loc_conf <- conv4_3_norm_conv4_3_norm_0_split_0
I0406 11:16:48.296535 21768 net.cpp:408] conv4_3_norm_mbox_loc_conf -> conv4_3_norm_mbox_loc_conf
I0406 11:16:48.297124 21768 net.cpp:150] Setting up conv4_3_norm_mbox_loc_conf
I0406 11:16:48.297132 21768 net.cpp:157] Top shape: 32 48 8 32 (393216)
I0406 11:16:48.297137 21768 net.cpp:165] Memory required for data: 300765536
I0406 11:16:48.297142 21768 layer_factory.hpp:77] Creating layer conv4_3_norm_mbox_loc_conf_perm
I0406 11:16:48.297148 21768 net.cpp:100] Creating Layer conv4_3_norm_mbox_loc_conf_perm
I0406 11:16:48.297152 21768 net.cpp:434] conv4_3_norm_mbox_loc_conf_perm <- conv4_3_norm_mbox_loc_conf
I0406 11:16:48.297159 21768 net.cpp:408] conv4_3_norm_mbox_loc_conf_perm -> conv4_3_norm_mbox_loc_conf_perm
I0406 11:16:48.297271 21768 net.cpp:150] Setting up conv4_3_norm_mbox_loc_conf_perm
I0406 11:16:48.297276 21768 net.cpp:157] Top shape: 32 8 32 48 (393216)
I0406 11:16:48.297281 21768 net.cpp:165] Memory required for data: 302338400
I0406 11:16:48.297284 21768 layer_factory.hpp:77] Creating layer conv4_3_norm_mbox_loc_perm
I0406 11:16:48.297291 21768 net.cpp:100] Creating Layer conv4_3_norm_mbox_loc_perm
I0406 11:16:48.297294 21768 net.cpp:434] conv4_3_norm_mbox_loc_perm <- conv4_3_norm_mbox_loc_conf_perm
I0406 11:16:48.297300 21768 net.cpp:408] conv4_3_norm_mbox_loc_perm -> conv4_3_norm_mbox_loc_perm
I0406 11:16:48.297307 21768 net.cpp:408] conv4_3_norm_mbox_loc_perm -> conv4_3_norm_mbox_conf_perm
I0406 11:16:48.297344 21768 net.cpp:150] Setting up conv4_3_norm_mbox_loc_perm
I0406 11:16:48.297349 21768 net.cpp:157] Top shape: 32 8 32 24 (196608)
I0406 11:16:48.297354 21768 net.cpp:157] Top shape: 32 8 32 24 (196608)
I0406 11:16:48.297358 21768 net.cpp:165] Memory required for data: 303911264
I0406 11:16:48.297361 21768 layer_factory.hpp:77] Creating layer conv4_3_norm_mbox_loc_flat
I0406 11:16:48.297368 21768 net.cpp:100] Creating Layer conv4_3_norm_mbox_loc_flat
I0406 11:16:48.297371 21768 net.cpp:434] conv4_3_norm_mbox_loc_flat <- conv4_3_norm_mbox_loc_perm
I0406 11:16:48.297376 21768 net.cpp:408] conv4_3_norm_mbox_loc_flat -> conv4_3_norm_mbox_loc_flat
I0406 11:16:48.297399 21768 net.cpp:150] Setting up conv4_3_norm_mbox_loc_flat
I0406 11:16:48.297410 21768 net.cpp:157] Top shape: 32 6144 (196608)
I0406 11:16:48.297413 21768 net.cpp:165] Memory required for data: 304697696
I0406 11:16:48.297417 21768 layer_factory.hpp:77] Creating layer conv4_3_norm_mbox_conf_flat
I0406 11:16:48.297421 21768 net.cpp:100] Creating Layer conv4_3_norm_mbox_conf_flat
I0406 11:16:48.297426 21768 net.cpp:434] conv4_3_norm_mbox_conf_flat <- conv4_3_norm_mbox_conf_perm
I0406 11:16:48.297432 21768 net.cpp:408] conv4_3_norm_mbox_conf_flat -> conv4_3_norm_mbox_conf_flat
I0406 11:16:48.297456 21768 net.cpp:150] Setting up conv4_3_norm_mbox_conf_flat
I0406 11:16:48.297462 21768 net.cpp:157] Top shape: 32 6144 (196608)
I0406 11:16:48.297466 21768 net.cpp:165] Memory required for data: 305484128
I0406 11:16:48.297471 21768 layer_factory.hpp:77] Creating layer conv4_3_norm_mbox_priorbox
I0406 11:16:48.297477 21768 net.cpp:100] Creating Layer conv4_3_norm_mbox_priorbox
I0406 11:16:48.297482 21768 net.cpp:434] conv4_3_norm_mbox_priorbox <- conv4_3_norm_conv4_3_norm_0_split_1
I0406 11:16:48.297487 21768 net.cpp:434] conv4_3_norm_mbox_priorbox <- data_data_0_split_1
I0406 11:16:48.297492 21768 net.cpp:408] conv4_3_norm_mbox_priorbox -> conv4_3_norm_mbox_priorbox
I0406 11:16:48.297519 21768 net.cpp:150] Setting up conv4_3_norm_mbox_priorbox
I0406 11:16:48.297526 21768 net.cpp:157] Top shape: 1 2 6144 (12288)
I0406 11:16:48.297530 21768 net.cpp:165] Memory required for data: 305533280
I0406 11:16:48.297534 21768 layer_factory.hpp:77] Creating layer fc7_conv_mbox_loc_conf
I0406 11:16:48.297543 21768 net.cpp:100] Creating Layer fc7_conv_mbox_loc_conf
I0406 11:16:48.297547 21768 net.cpp:434] fc7_conv_mbox_loc_conf <- fc7_conv_relu7_0_split_1
I0406 11:16:48.297554 21768 net.cpp:408] fc7_conv_mbox_loc_conf -> fc7_conv_mbox_loc_conf
I0406 11:16:48.298509 21768 net.cpp:150] Setting up fc7_conv_mbox_loc_conf
I0406 11:16:48.298518 21768 net.cpp:157] Top shape: 32 48 4 16 (98304)
I0406 11:16:48.298522 21768 net.cpp:165] Memory required for data: 305926496
I0406 11:16:48.298529 21768 layer_factory.hpp:77] Creating layer fc7_conv_mbox_loc_conf_perm
I0406 11:16:48.298537 21768 net.cpp:100] Creating Layer fc7_conv_mbox_loc_conf_perm
I0406 11:16:48.298542 21768 net.cpp:434] fc7_conv_mbox_loc_conf_perm <- fc7_conv_mbox_loc_conf
I0406 11:16:48.298548 21768 net.cpp:408] fc7_conv_mbox_loc_conf_perm -> fc7_conv_mbox_loc_conf_perm
I0406 11:16:48.298667 21768 net.cpp:150] Setting up fc7_conv_mbox_loc_conf_perm
I0406 11:16:48.298674 21768 net.cpp:157] Top shape: 32 4 16 48 (98304)
I0406 11:16:48.298678 21768 net.cpp:165] Memory required for data: 306319712
I0406 11:16:48.298682 21768 layer_factory.hpp:77] Creating layer fc7_conv_mbox_loc_perm
I0406 11:16:48.298696 21768 net.cpp:100] Creating Layer fc7_conv_mbox_loc_perm
I0406 11:16:48.298702 21768 net.cpp:434] fc7_conv_mbox_loc_perm <- fc7_conv_mbox_loc_conf_perm
I0406 11:16:48.298707 21768 net.cpp:408] fc7_conv_mbox_loc_perm -> fc7_conv_mbox_loc_perm
I0406 11:16:48.298713 21768 net.cpp:408] fc7_conv_mbox_loc_perm -> fc7_conv_mbox_conf_perm
I0406 11:16:48.298753 21768 net.cpp:150] Setting up fc7_conv_mbox_loc_perm
I0406 11:16:48.298759 21768 net.cpp:157] Top shape: 32 4 16 24 (49152)
I0406 11:16:48.298764 21768 net.cpp:157] Top shape: 32 4 16 24 (49152)
I0406 11:16:48.298768 21768 net.cpp:165] Memory required for data: 306712928
I0406 11:16:48.298773 21768 layer_factory.hpp:77] Creating layer fc7_conv_mbox_loc_flat
I0406 11:16:48.298777 21768 net.cpp:100] Creating Layer fc7_conv_mbox_loc_flat
I0406 11:16:48.298782 21768 net.cpp:434] fc7_conv_mbox_loc_flat <- fc7_conv_mbox_loc_perm
I0406 11:16:48.298789 21768 net.cpp:408] fc7_conv_mbox_loc_flat -> fc7_conv_mbox_loc_flat
I0406 11:16:48.298818 21768 net.cpp:150] Setting up fc7_conv_mbox_loc_flat
I0406 11:16:48.298825 21768 net.cpp:157] Top shape: 32 1536 (49152)
I0406 11:16:48.298828 21768 net.cpp:165] Memory required for data: 306909536
I0406 11:16:48.298832 21768 layer_factory.hpp:77] Creating layer fc7_conv_mbox_conf_flat
I0406 11:16:48.298838 21768 net.cpp:100] Creating Layer fc7_conv_mbox_conf_flat
I0406 11:16:48.298846 21768 net.cpp:434] fc7_conv_mbox_conf_flat <- fc7_conv_mbox_conf_perm
I0406 11:16:48.298851 21768 net.cpp:408] fc7_conv_mbox_conf_flat -> fc7_conv_mbox_conf_flat
I0406 11:16:48.298878 21768 net.cpp:150] Setting up fc7_conv_mbox_conf_flat
I0406 11:16:48.298884 21768 net.cpp:157] Top shape: 32 1536 (49152)
I0406 11:16:48.298888 21768 net.cpp:165] Memory required for data: 307106144
I0406 11:16:48.298892 21768 layer_factory.hpp:77] Creating layer fc7_conv_mbox_priorbox
I0406 11:16:48.298898 21768 net.cpp:100] Creating Layer fc7_conv_mbox_priorbox
I0406 11:16:48.298903 21768 net.cpp:434] fc7_conv_mbox_priorbox <- fc7_conv_relu7_0_split_2
I0406 11:16:48.298908 21768 net.cpp:434] fc7_conv_mbox_priorbox <- data_data_0_split_2
I0406 11:16:48.298915 21768 net.cpp:408] fc7_conv_mbox_priorbox -> fc7_conv_mbox_priorbox
I0406 11:16:48.298943 21768 net.cpp:150] Setting up fc7_conv_mbox_priorbox
I0406 11:16:48.298949 21768 net.cpp:157] Top shape: 1 2 1536 (3072)
I0406 11:16:48.298952 21768 net.cpp:165] Memory required for data: 307118432
I0406 11:16:48.298956 21768 layer_factory.hpp:77] Creating layer conv6_2_mbox_loc_conf
I0406 11:16:48.298964 21768 net.cpp:100] Creating Layer conv6_2_mbox_loc_conf
I0406 11:16:48.298969 21768 net.cpp:434] conv6_2_mbox_loc_conf <- conv6_2_conv6_2_relu_0_split_1
I0406 11:16:48.298975 21768 net.cpp:408] conv6_2_mbox_loc_conf -> conv6_2_mbox_loc_conf
I0406 11:16:48.299434 21768 net.cpp:150] Setting up conv6_2_mbox_loc_conf
I0406 11:16:48.299443 21768 net.cpp:157] Top shape: 32 48 2 8 (24576)
I0406 11:16:48.299446 21768 net.cpp:165] Memory required for data: 307216736
I0406 11:16:48.299453 21768 layer_factory.hpp:77] Creating layer conv6_2_mbox_loc_conf_perm
I0406 11:16:48.299460 21768 net.cpp:100] Creating Layer conv6_2_mbox_loc_conf_perm
I0406 11:16:48.299464 21768 net.cpp:434] conv6_2_mbox_loc_conf_perm <- conv6_2_mbox_loc_conf
I0406 11:16:48.299471 21768 net.cpp:408] conv6_2_mbox_loc_conf_perm -> conv6_2_mbox_loc_conf_perm
I0406 11:16:48.299589 21768 net.cpp:150] Setting up conv6_2_mbox_loc_conf_perm
I0406 11:16:48.299597 21768 net.cpp:157] Top shape: 32 2 8 48 (24576)
I0406 11:16:48.299602 21768 net.cpp:165] Memory required for data: 307315040
I0406 11:16:48.299604 21768 layer_factory.hpp:77] Creating layer conv6_2_mbox_loc_perm
I0406 11:16:48.299610 21768 net.cpp:100] Creating Layer conv6_2_mbox_loc_perm
I0406 11:16:48.299614 21768 net.cpp:434] conv6_2_mbox_loc_perm <- conv6_2_mbox_loc_conf_perm
I0406 11:16:48.299620 21768 net.cpp:408] conv6_2_mbox_loc_perm -> conv6_2_mbox_loc_perm
I0406 11:16:48.299628 21768 net.cpp:408] conv6_2_mbox_loc_perm -> conv6_2_mbox_conf_perm
I0406 11:16:48.299666 21768 net.cpp:150] Setting up conv6_2_mbox_loc_perm
I0406 11:16:48.299672 21768 net.cpp:157] Top shape: 32 2 8 24 (12288)
I0406 11:16:48.299677 21768 net.cpp:157] Top shape: 32 2 8 24 (12288)
I0406 11:16:48.299681 21768 net.cpp:165] Memory required for data: 307413344
I0406 11:16:48.299685 21768 layer_factory.hpp:77] Creating layer conv6_2_mbox_loc_flat
I0406 11:16:48.299690 21768 net.cpp:100] Creating Layer conv6_2_mbox_loc_flat
I0406 11:16:48.299695 21768 net.cpp:434] conv6_2_mbox_loc_flat <- conv6_2_mbox_loc_perm
I0406 11:16:48.299700 21768 net.cpp:408] conv6_2_mbox_loc_flat -> conv6_2_mbox_loc_flat
I0406 11:16:48.299727 21768 net.cpp:150] Setting up conv6_2_mbox_loc_flat
I0406 11:16:48.299733 21768 net.cpp:157] Top shape: 32 384 (12288)
I0406 11:16:48.299737 21768 net.cpp:165] Memory required for data: 307462496
I0406 11:16:48.299741 21768 layer_factory.hpp:77] Creating layer conv6_2_mbox_conf_flat
I0406 11:16:48.299746 21768 net.cpp:100] Creating Layer conv6_2_mbox_conf_flat
I0406 11:16:48.299751 21768 net.cpp:434] conv6_2_mbox_conf_flat <- conv6_2_mbox_conf_perm
I0406 11:16:48.299757 21768 net.cpp:408] conv6_2_mbox_conf_flat -> conv6_2_mbox_conf_flat
I0406 11:16:48.299780 21768 net.cpp:150] Setting up conv6_2_mbox_conf_flat
I0406 11:16:48.299787 21768 net.cpp:157] Top shape: 32 384 (12288)
I0406 11:16:48.299790 21768 net.cpp:165] Memory required for data: 307511648
I0406 11:16:48.299798 21768 layer_factory.hpp:77] Creating layer conv6_2_mbox_priorbox
I0406 11:16:48.299804 21768 net.cpp:100] Creating Layer conv6_2_mbox_priorbox
I0406 11:16:48.299808 21768 net.cpp:434] conv6_2_mbox_priorbox <- conv6_2_conv6_2_relu_0_split_2
I0406 11:16:48.299813 21768 net.cpp:434] conv6_2_mbox_priorbox <- data_data_0_split_3
I0406 11:16:48.299819 21768 net.cpp:408] conv6_2_mbox_priorbox -> conv6_2_mbox_priorbox
I0406 11:16:48.299846 21768 net.cpp:150] Setting up conv6_2_mbox_priorbox
I0406 11:16:48.299852 21768 net.cpp:157] Top shape: 1 2 384 (768)
I0406 11:16:48.299856 21768 net.cpp:165] Memory required for data: 307514720
I0406 11:16:48.299860 21768 layer_factory.hpp:77] Creating layer conv7_2_mbox_loc_conf
I0406 11:16:48.299870 21768 net.cpp:100] Creating Layer conv7_2_mbox_loc_conf
I0406 11:16:48.299875 21768 net.cpp:434] conv7_2_mbox_loc_conf <- conv7_2_conv7_2_relu_0_split_1
I0406 11:16:48.299880 21768 net.cpp:408] conv7_2_mbox_loc_conf -> conv7_2_mbox_loc_conf
I0406 11:16:48.300261 21768 net.cpp:150] Setting up conv7_2_mbox_loc_conf
I0406 11:16:48.300268 21768 net.cpp:157] Top shape: 32 48 1 4 (6144)
I0406 11:16:48.300272 21768 net.cpp:165] Memory required for data: 307539296
I0406 11:16:48.300278 21768 layer_factory.hpp:77] Creating layer conv7_2_mbox_loc_conf_perm
I0406 11:16:48.300285 21768 net.cpp:100] Creating Layer conv7_2_mbox_loc_conf_perm
I0406 11:16:48.300290 21768 net.cpp:434] conv7_2_mbox_loc_conf_perm <- conv7_2_mbox_loc_conf
I0406 11:16:48.300295 21768 net.cpp:408] conv7_2_mbox_loc_conf_perm -> conv7_2_mbox_loc_conf_perm
I0406 11:16:48.300422 21768 net.cpp:150] Setting up conv7_2_mbox_loc_conf_perm
I0406 11:16:48.300431 21768 net.cpp:157] Top shape: 32 1 4 48 (6144)
I0406 11:16:48.300436 21768 net.cpp:165] Memory required for data: 307563872
I0406 11:16:48.300438 21768 layer_factory.hpp:77] Creating layer conv7_2_mbox_loc_perm
I0406 11:16:48.300446 21768 net.cpp:100] Creating Layer conv7_2_mbox_loc_perm
I0406 11:16:48.300451 21768 net.cpp:434] conv7_2_mbox_loc_perm <- conv7_2_mbox_loc_conf_perm
I0406 11:16:48.300456 21768 net.cpp:408] conv7_2_mbox_loc_perm -> conv7_2_mbox_loc_perm
I0406 11:16:48.300462 21768 net.cpp:408] conv7_2_mbox_loc_perm -> conv7_2_mbox_conf_perm
I0406 11:16:48.300501 21768 net.cpp:150] Setting up conv7_2_mbox_loc_perm
I0406 11:16:48.300508 21768 net.cpp:157] Top shape: 32 1 4 24 (3072)
I0406 11:16:48.300513 21768 net.cpp:157] Top shape: 32 1 4 24 (3072)
I0406 11:16:48.300515 21768 net.cpp:165] Memory required for data: 307588448
I0406 11:16:48.300519 21768 layer_factory.hpp:77] Creating layer conv7_2_mbox_loc_flat
I0406 11:16:48.300524 21768 net.cpp:100] Creating Layer conv7_2_mbox_loc_flat
I0406 11:16:48.300529 21768 net.cpp:434] conv7_2_mbox_loc_flat <- conv7_2_mbox_loc_perm
I0406 11:16:48.300534 21768 net.cpp:408] conv7_2_mbox_loc_flat -> conv7_2_mbox_loc_flat
I0406 11:16:48.300559 21768 net.cpp:150] Setting up conv7_2_mbox_loc_flat
I0406 11:16:48.300565 21768 net.cpp:157] Top shape: 32 96 (3072)
I0406 11:16:48.300570 21768 net.cpp:165] Memory required for data: 307600736
I0406 11:16:48.300573 21768 layer_factory.hpp:77] Creating layer conv7_2_mbox_conf_flat
I0406 11:16:48.300578 21768 net.cpp:100] Creating Layer conv7_2_mbox_conf_flat
I0406 11:16:48.300582 21768 net.cpp:434] conv7_2_mbox_conf_flat <- conv7_2_mbox_conf_perm
I0406 11:16:48.300587 21768 net.cpp:408] conv7_2_mbox_conf_flat -> conv7_2_mbox_conf_flat
I0406 11:16:48.300614 21768 net.cpp:150] Setting up conv7_2_mbox_conf_flat
I0406 11:16:48.300621 21768 net.cpp:157] Top shape: 32 96 (3072)
I0406 11:16:48.300624 21768 net.cpp:165] Memory required for data: 307613024
I0406 11:16:48.300628 21768 layer_factory.hpp:77] Creating layer conv7_2_mbox_priorbox
I0406 11:16:48.300633 21768 net.cpp:100] Creating Layer conv7_2_mbox_priorbox
I0406 11:16:48.300637 21768 net.cpp:434] conv7_2_mbox_priorbox <- conv7_2_conv7_2_relu_0_split_2
I0406 11:16:48.300642 21768 net.cpp:434] conv7_2_mbox_priorbox <- data_data_0_split_4
I0406 11:16:48.300649 21768 net.cpp:408] conv7_2_mbox_priorbox -> conv7_2_mbox_priorbox
I0406 11:16:48.300678 21768 net.cpp:150] Setting up conv7_2_mbox_priorbox
I0406 11:16:48.300685 21768 net.cpp:157] Top shape: 1 2 96 (192)
I0406 11:16:48.300688 21768 net.cpp:165] Memory required for data: 307613792
I0406 11:16:48.300693 21768 layer_factory.hpp:77] Creating layer conv8_2_mbox_loc_conf
I0406 11:16:48.300704 21768 net.cpp:100] Creating Layer conv8_2_mbox_loc_conf
I0406 11:16:48.300709 21768 net.cpp:434] conv8_2_mbox_loc_conf <- conv8_2_conv8_2_relu_0_split_1
I0406 11:16:48.300715 21768 net.cpp:408] conv8_2_mbox_loc_conf -> conv8_2_mbox_loc_conf
I0406 11:16:48.301091 21768 net.cpp:150] Setting up conv8_2_mbox_loc_conf
I0406 11:16:48.301100 21768 net.cpp:157] Top shape: 32 48 1 2 (3072)
I0406 11:16:48.301105 21768 net.cpp:165] Memory required for data: 307626080
I0406 11:16:48.301112 21768 layer_factory.hpp:77] Creating layer conv8_2_mbox_loc_conf_perm
I0406 11:16:48.301118 21768 net.cpp:100] Creating Layer conv8_2_mbox_loc_conf_perm
I0406 11:16:48.301123 21768 net.cpp:434] conv8_2_mbox_loc_conf_perm <- conv8_2_mbox_loc_conf
I0406 11:16:48.301131 21768 net.cpp:408] conv8_2_mbox_loc_conf_perm -> conv8_2_mbox_loc_conf_perm
I0406 11:16:48.301254 21768 net.cpp:150] Setting up conv8_2_mbox_loc_conf_perm
I0406 11:16:48.301260 21768 net.cpp:157] Top shape: 32 1 2 48 (3072)
I0406 11:16:48.301264 21768 net.cpp:165] Memory required for data: 307638368
I0406 11:16:48.301267 21768 layer_factory.hpp:77] Creating layer conv8_2_mbox_loc_perm
I0406 11:16:48.301272 21768 net.cpp:100] Creating Layer conv8_2_mbox_loc_perm
I0406 11:16:48.301278 21768 net.cpp:434] conv8_2_mbox_loc_perm <- conv8_2_mbox_loc_conf_perm
I0406 11:16:48.301283 21768 net.cpp:408] conv8_2_mbox_loc_perm -> conv8_2_mbox_loc_perm
I0406 11:16:48.301290 21768 net.cpp:408] conv8_2_mbox_loc_perm -> conv8_2_mbox_conf_perm
I0406 11:16:48.301331 21768 net.cpp:150] Setting up conv8_2_mbox_loc_perm
I0406 11:16:48.301337 21768 net.cpp:157] Top shape: 32 1 2 24 (1536)
I0406 11:16:48.301342 21768 net.cpp:157] Top shape: 32 1 2 24 (1536)
I0406 11:16:48.301345 21768 net.cpp:165] Memory required for data: 307650656
I0406 11:16:48.301349 21768 layer_factory.hpp:77] Creating layer conv8_2_mbox_loc_flat
I0406 11:16:48.301354 21768 net.cpp:100] Creating Layer conv8_2_mbox_loc_flat
I0406 11:16:48.301358 21768 net.cpp:434] conv8_2_mbox_loc_flat <- conv8_2_mbox_loc_perm
I0406 11:16:48.301363 21768 net.cpp:408] conv8_2_mbox_loc_flat -> conv8_2_mbox_loc_flat
I0406 11:16:48.301389 21768 net.cpp:150] Setting up conv8_2_mbox_loc_flat
I0406 11:16:48.301395 21768 net.cpp:157] Top shape: 32 48 (1536)
I0406 11:16:48.301399 21768 net.cpp:165] Memory required for data: 307656800
I0406 11:16:48.301403 21768 layer_factory.hpp:77] Creating layer conv8_2_mbox_conf_flat
I0406 11:16:48.301409 21768 net.cpp:100] Creating Layer conv8_2_mbox_conf_flat
I0406 11:16:48.301414 21768 net.cpp:434] conv8_2_mbox_conf_flat <- conv8_2_mbox_conf_perm
I0406 11:16:48.301419 21768 net.cpp:408] conv8_2_mbox_conf_flat -> conv8_2_mbox_conf_flat
I0406 11:16:48.301445 21768 net.cpp:150] Setting up conv8_2_mbox_conf_flat
I0406 11:16:48.301451 21768 net.cpp:157] Top shape: 32 48 (1536)
I0406 11:16:48.301455 21768 net.cpp:165] Memory required for data: 307662944
I0406 11:16:48.301458 21768 layer_factory.hpp:77] Creating layer conv8_2_mbox_priorbox
I0406 11:16:48.301465 21768 net.cpp:100] Creating Layer conv8_2_mbox_priorbox
I0406 11:16:48.301468 21768 net.cpp:434] conv8_2_mbox_priorbox <- conv8_2_conv8_2_relu_0_split_2
I0406 11:16:48.301473 21768 net.cpp:434] conv8_2_mbox_priorbox <- data_data_0_split_5
I0406 11:16:48.301479 21768 net.cpp:408] conv8_2_mbox_priorbox -> conv8_2_mbox_priorbox
I0406 11:16:48.301506 21768 net.cpp:150] Setting up conv8_2_mbox_priorbox
I0406 11:16:48.301512 21768 net.cpp:157] Top shape: 1 2 48 (96)
I0406 11:16:48.301514 21768 net.cpp:165] Memory required for data: 307663328
I0406 11:16:48.301518 21768 layer_factory.hpp:77] Creating layer pool6_mbox_loc_conf
I0406 11:16:48.301527 21768 net.cpp:100] Creating Layer pool6_mbox_loc_conf
I0406 11:16:48.301532 21768 net.cpp:434] pool6_mbox_loc_conf <- pool6_pool6_0_split_0
I0406 11:16:48.301542 21768 net.cpp:408] pool6_mbox_loc_conf -> pool6_mbox_loc_conf
I0406 11:16:48.301923 21768 net.cpp:150] Setting up pool6_mbox_loc_conf
I0406 11:16:48.301930 21768 net.cpp:157] Top shape: 32 48 1 1 (1536)
I0406 11:16:48.301934 21768 net.cpp:165] Memory required for data: 307669472
I0406 11:16:48.301940 21768 layer_factory.hpp:77] Creating layer pool6_mbox_loc_conf_perm
I0406 11:16:48.301946 21768 net.cpp:100] Creating Layer pool6_mbox_loc_conf_perm
I0406 11:16:48.301950 21768 net.cpp:434] pool6_mbox_loc_conf_perm <- pool6_mbox_loc_conf
I0406 11:16:48.301956 21768 net.cpp:408] pool6_mbox_loc_conf_perm -> pool6_mbox_loc_conf_perm
I0406 11:16:48.302076 21768 net.cpp:150] Setting up pool6_mbox_loc_conf_perm
I0406 11:16:48.302084 21768 net.cpp:157] Top shape: 32 1 1 48 (1536)
I0406 11:16:48.302088 21768 net.cpp:165] Memory required for data: 307675616
I0406 11:16:48.302093 21768 layer_factory.hpp:77] Creating layer pool6_mbox_loc_perm
I0406 11:16:48.302098 21768 net.cpp:100] Creating Layer pool6_mbox_loc_perm
I0406 11:16:48.302103 21768 net.cpp:434] pool6_mbox_loc_perm <- pool6_mbox_loc_conf_perm
I0406 11:16:48.302109 21768 net.cpp:408] pool6_mbox_loc_perm -> pool6_mbox_loc_perm
I0406 11:16:48.302116 21768 net.cpp:408] pool6_mbox_loc_perm -> pool6_mbox_conf_perm
I0406 11:16:48.302156 21768 net.cpp:150] Setting up pool6_mbox_loc_perm
I0406 11:16:48.302162 21768 net.cpp:157] Top shape: 32 1 1 24 (768)
I0406 11:16:48.302167 21768 net.cpp:157] Top shape: 32 1 1 24 (768)
I0406 11:16:48.302171 21768 net.cpp:165] Memory required for data: 307681760
I0406 11:16:48.302175 21768 layer_factory.hpp:77] Creating layer pool6_mbox_loc_flat
I0406 11:16:48.302182 21768 net.cpp:100] Creating Layer pool6_mbox_loc_flat
I0406 11:16:48.302187 21768 net.cpp:434] pool6_mbox_loc_flat <- pool6_mbox_loc_perm
I0406 11:16:48.302193 21768 net.cpp:408] pool6_mbox_loc_flat -> pool6_mbox_loc_flat
I0406 11:16:48.302217 21768 net.cpp:150] Setting up pool6_mbox_loc_flat
I0406 11:16:48.302223 21768 net.cpp:157] Top shape: 32 24 (768)
I0406 11:16:48.302227 21768 net.cpp:165] Memory required for data: 307684832
I0406 11:16:48.302232 21768 layer_factory.hpp:77] Creating layer pool6_mbox_conf_flat
I0406 11:16:48.302235 21768 net.cpp:100] Creating Layer pool6_mbox_conf_flat
I0406 11:16:48.302239 21768 net.cpp:434] pool6_mbox_conf_flat <- pool6_mbox_conf_perm
I0406 11:16:48.302247 21768 net.cpp:408] pool6_mbox_conf_flat -> pool6_mbox_conf_flat
I0406 11:16:48.302271 21768 net.cpp:150] Setting up pool6_mbox_conf_flat
I0406 11:16:48.302278 21768 net.cpp:157] Top shape: 32 24 (768)
I0406 11:16:48.302281 21768 net.cpp:165] Memory required for data: 307687904
I0406 11:16:48.302285 21768 layer_factory.hpp:77] Creating layer pool6_mbox_priorbox
I0406 11:16:48.302291 21768 net.cpp:100] Creating Layer pool6_mbox_priorbox
I0406 11:16:48.302296 21768 net.cpp:434] pool6_mbox_priorbox <- pool6_pool6_0_split_1
I0406 11:16:48.302300 21768 net.cpp:434] pool6_mbox_priorbox <- data_data_0_split_6
I0406 11:16:48.302306 21768 net.cpp:408] pool6_mbox_priorbox -> pool6_mbox_priorbox
I0406 11:16:48.302335 21768 net.cpp:150] Setting up pool6_mbox_priorbox
I0406 11:16:48.302340 21768 net.cpp:157] Top shape: 1 2 24 (48)
I0406 11:16:48.302345 21768 net.cpp:165] Memory required for data: 307688096
I0406 11:16:48.302348 21768 layer_factory.hpp:77] Creating layer mbox_loc
I0406 11:16:48.302355 21768 net.cpp:100] Creating Layer mbox_loc
I0406 11:16:48.302359 21768 net.cpp:434] mbox_loc <- conv4_3_norm_mbox_loc_flat
I0406 11:16:48.302364 21768 net.cpp:434] mbox_loc <- fc7_conv_mbox_loc_flat
I0406 11:16:48.302369 21768 net.cpp:434] mbox_loc <- conv6_2_mbox_loc_flat
I0406 11:16:48.302373 21768 net.cpp:434] mbox_loc <- conv7_2_mbox_loc_flat
I0406 11:16:48.302378 21768 net.cpp:434] mbox_loc <- conv8_2_mbox_loc_flat
I0406 11:16:48.302383 21768 net.cpp:434] mbox_loc <- pool6_mbox_loc_flat
I0406 11:16:48.302389 21768 net.cpp:408] mbox_loc -> mbox_loc
I0406 11:16:48.302415 21768 net.cpp:150] Setting up mbox_loc
I0406 11:16:48.302422 21768 net.cpp:157] Top shape: 32 8232 (263424)
I0406 11:16:48.302428 21768 net.cpp:165] Memory required for data: 308741792
I0406 11:16:48.302431 21768 layer_factory.hpp:77] Creating layer mbox_conf
I0406 11:16:48.302436 21768 net.cpp:100] Creating Layer mbox_conf
I0406 11:16:48.302440 21768 net.cpp:434] mbox_conf <- conv4_3_norm_mbox_conf_flat
I0406 11:16:48.302445 21768 net.cpp:434] mbox_conf <- fc7_conv_mbox_conf_flat
I0406 11:16:48.302450 21768 net.cpp:434] mbox_conf <- conv6_2_mbox_conf_flat
I0406 11:16:48.302455 21768 net.cpp:434] mbox_conf <- conv7_2_mbox_conf_flat
I0406 11:16:48.302459 21768 net.cpp:434] mbox_conf <- conv8_2_mbox_conf_flat
I0406 11:16:48.302464 21768 net.cpp:434] mbox_conf <- pool6_mbox_conf_flat
I0406 11:16:48.302469 21768 net.cpp:408] mbox_conf -> mbox_conf
I0406 11:16:48.302495 21768 net.cpp:150] Setting up mbox_conf
I0406 11:16:48.302500 21768 net.cpp:157] Top shape: 32 8232 (263424)
I0406 11:16:48.302505 21768 net.cpp:165] Memory required for data: 309795488
I0406 11:16:48.302507 21768 layer_factory.hpp:77] Creating layer mbox_priorbox
I0406 11:16:48.302515 21768 net.cpp:100] Creating Layer mbox_priorbox
I0406 11:16:48.302518 21768 net.cpp:434] mbox_priorbox <- conv4_3_norm_mbox_priorbox
I0406 11:16:48.302523 21768 net.cpp:434] mbox_priorbox <- fc7_conv_mbox_priorbox
I0406 11:16:48.302527 21768 net.cpp:434] mbox_priorbox <- conv6_2_mbox_priorbox
I0406 11:16:48.302532 21768 net.cpp:434] mbox_priorbox <- conv7_2_mbox_priorbox
I0406 11:16:48.302536 21768 net.cpp:434] mbox_priorbox <- conv8_2_mbox_priorbox
I0406 11:16:48.302541 21768 net.cpp:434] mbox_priorbox <- pool6_mbox_priorbox
I0406 11:16:48.302546 21768 net.cpp:408] mbox_priorbox -> mbox_priorbox
I0406 11:16:48.302572 21768 net.cpp:150] Setting up mbox_priorbox
I0406 11:16:48.302577 21768 net.cpp:157] Top shape: 1 2 8232 (16464)
I0406 11:16:48.302580 21768 net.cpp:165] Memory required for data: 309861344
I0406 11:16:48.302584 21768 layer_factory.hpp:77] Creating layer mbox_loss
I0406 11:16:48.302593 21768 net.cpp:100] Creating Layer mbox_loss
I0406 11:16:48.302597 21768 net.cpp:434] mbox_loss <- mbox_loc
I0406 11:16:48.302603 21768 net.cpp:434] mbox_loss <- mbox_conf
I0406 11:16:48.302606 21768 net.cpp:434] mbox_loss <- mbox_priorbox
…
  name: "data"
  type: "AnnotatedData"
  top: "data"
  top: "label"
  include {
    phase: TEST
  }
  transform_param {
    mean_value: 114
    mean_value: 115
    mean_value: 108
    resize_param {
      prob: 1
      resize_mode: WARP
      height: 64
      width: 256
      interp_mode: LINEAR
    }
  }
  data_param {
    source: "/home/work/wwl/data/kitti/data_object_image_2/training/test_lmdb"
    batch_size: 32
    backend: LMDB
  }
  annotated_data_param {
    batch_sampler {
    }
    label_map_file: "/tmp/toqinhuan/labelmap.prototxt"
  }
}
layer {
  name: "conv1_1"
  type: "Convolution"
  bottom: "data"
  top: "conv1_1"
  param {
    lr_mult: 1
    decay_mult: 1
  }
  param {
    lr_mult: 2
    decay_mult: 0
  }
  convolution_param {
    num_output: 16
    pad: 1
    kernel_size: 3
    weight_filler {
      type: "xavier"
    }
    bias_filler {
      type: "constant"
      value: 0
    }
  }
}
layer {
  name: "relu1_1"
  type: "ReLU"
  bottom: "conv1_1"
  top: "conv1_1"
}
layer {
  name: "conv1_2"
  type: "Convolution"
  bottom: "conv1_1"
  top: "conv1_2"
  param {
    lr_mult: 1
    decay_mult: 1
  }
  param {
    lr_mult: 2
    decay_mult: 0
  }
  convolution_param {
    num_output: 16
    pad: 1
    kernel_size: 3
    stride: 2
    weight_filler {
      type: "xavier"
    }
    bias_filler {
      type: "constant"
      value: 0
    }
  }
}
layer {
  name: "relu1_2"
  type: "ReLU"
  bottom: "conv1_2"
  top: "conv1_2"
}
layer {
  name: "conv2_1"
  type: "Convolution"
  bottom: "conv1_2"
  top: "conv2_1"
  param {
    lr_mult: 1
    decay_mult: 1
  }
  param {
    lr_mult: 2
    decay_mult: 0
  }
  convolution_param {
    num_output: 32
    pad: 1
    kernel_size: 3
    weight_filler {
      type: "xavier"
    }
    bias_filler {
      type: "constant"
      value: 0
    }
  }
}
layer {
  name: "relu2_1"
  type: "ReLU"
  bottom: "conv2_1"
  top: "conv2_1"
}
layer {
  name: "conv2_2"
  type: "Convolution"
  bottom: "conv2_1"
  top: "conv2_2"
  param {
    lr_mult: 1
    decay_mult: 1
  }
  param {
    lr_mult: 2
    decay_mult: 0
  }
  convolution_param {
    num_output: 32
    pad: 1
    kernel_size: 3
    stride: 2
    weight_filler {
      type: "xavier"
    }
    bias_filler {
      type: "constant"
      value: 0
    }
  }
}
layer {
  name: "relu2_2"
  type: "ReLU"
  bottom: "conv2_2"
  top: "conv2_2"
}
layer {
  name: "conv3_1"
  type: "Convolution"
  bottom: "conv2_2"
  top: "conv3_1"
  param {
    lr_mult: 1
    decay_mult: 1
  }
  param {
    lr_mult: 2
    decay_mult: 0
  }
  convolution_param {
    num_output: 64
    pad: 1
    kernel_size: 3
    weight_filler {
      type: "xavier"
    }
    bias_filler {
      type: "constant"
      value: 0
    }
  }
}
layer {
  name: "relu3_1"
  type: "ReLU"
  bottom: "conv3_1"
  top: "conv3_1"
}
layer {
  name: "conv3_2"
  type: "Convolution"
  bottom: "conv3_1"
  top: "conv3_2"
  param {
    lr_mult: 1
    decay_mult: 1
  }
  param {
    lr_mult: 2
    decay_mult: 0
  }
  convolution_param {
    num_output: 64
    pad: 1
    kernel_size: 3
    weight_filler {
      type: "xavier"
    }
    bias_filler {
      type: "constant"
      value: 0
    }
  }
}
layer {
  name: "relu3_2"
  type: "ReLU"
  bottom: "conv3_2"
  top: "conv3_2"
}
layer {
  name: "conv3_3"
  type: "Convolution"
  bottom: "conv3_2"
  top: "conv3_3"
  param {
    lr_mult: 1
    decay_mult: 1
  }
  param {
    lr_mult: 2
    decay_mult: 0
  }
  convolution_param {
    num_output: 64
    pad: 1
    kernel_size: 3
    weight_filler {
      type: "xavier"
    }
    bias_filler {
      type: "constant"
      value: 0
    }
  }
}
layer {
  name: "relu3_3"
  type: "ReLU"
  bottom: "conv3_3"
  top: "conv3_3"
}
layer {
  name: "pool3"
  type: "Pooling"
  bottom: "conv3_3"
  top: "pool3"
  pooling_param {
    pool: MAX
    kernel_size: 2
    stride: 2
  }
}
layer {
  name: "conv4_1"
  type: "Convolution"
  bottom: "pool3"
  top: "conv4_1"
  param {
    lr_mult: 1
    decay_mult: 1
  }
  param {
    lr_mult: 2
    decay_mult: 0
  }
  convolution_param {
    num_output: 128
    pad: 1
    kernel_size: 3
    weight_filler {
      type: "xavier"
    }
    bias_filler {
      type: "constant"
      value: 0
    }
  }
}
layer {
  name: "relu4_1"
  type: "ReLU"
  bottom: "conv4_1"
  top: "conv4_1"
}
layer {
  name: "conv4_2"
  type: "Convolution"
  bottom: "conv4_1"
  top: "conv4_2"
  param {
    lr_mult: 1
    decay_mult: 1
  }
  param {
    lr_mult: 2
    decay_mult: 0
  }
  convolution_param {
    num_output: 128
    pad: 1
    kernel_size: 3
    weight_filler {
      type: "xavier"
    }
    bias_filler {
      type: "constant"
      value: 0
    }
  }
}
layer {
  name: "relu4_2"
  type: "ReLU"
  bottom: "conv4_2"
  top: "conv4_2"
}
layer {
  name: "conv4_3"
  type: "Convolution"
  bottom: "conv4_2"
  top: "conv4_3"
  param {
    lr_mult: 1
    decay_mult: 1
  }
  param {
    lr_mult: 2
    decay_mult: 0
  }
  convolution_param {
    num_output: 128
    pad: 1
    kernel_size: 3
    weight_filler {
      type: "xavier"
    }
    bias_filler {
      type: "constant"
      value: 0
    }
  }
}
layer {
  name: "relu4_3"
  type: "ReLU"
  bottom: "conv4_3"
  top: "conv4_3"
}
layer {
  name: "pool4"
  type: "Pooling"
  bottom: "conv4_3"
  top: "pool4"
  pooling_param {
    pool: MAX
    kernel_size: 2
    stride: 2
  }
}
layer {
  name: "conv5_1"
  type: "Convolution"
  bottom: "pool4"
  top: "conv5_1"
  param {
    lr_mult: 1
    decay_mult: 1
  }
  param {
    lr_mult: 2
    decay_mult: 0
  }
  convolution_param {
    num_output: 128
    pad: 1
    kernel_size: 3
    weight_filler {
      type: "xavier"
    }
    bias_filler {
      type: "constant"
      value: 0
    }
    dilation: 1
  }
}
layer {
  name: "relu5_1"
  type: "ReLU"
  bottom: "conv5_1"
  top: "conv5_1"
}
layer {
  name: "conv5_2"
  type: "Convolution"
  bottom: "conv5_1"
  top: "conv5_2"
  param {
    lr_mult: 1
    decay_mult: 1
  }
  param {
    lr_mult: 2
    decay_mult: 0
  }
  convolution_param {
    num_output: 128
    pad: 1
    kernel_size: 3
    weight_filler {
      type: "xavier"
    }
    bias_filler {
      type: "constant"
      value: 0
    }
    dilation: 1
  }
}
layer {
  name: "relu5_2"
  type: "ReLU"
  bottom: "conv5_2"
  top: "conv5_2"
}
layer {
  name: "conv5_3"
  type: "Convolution"
  bottom: "conv5_2"
  top: "conv5_3"
  param {
    lr_mult: 1
    decay_mult: 1
  }
  param {
    lr_mult: 2
    decay_mult: 0
  }
  convolution_param {
    num_output: 128
    pad: 1
    kernel_size: 3
    weight_filler {
      type: "xavier"
    }
    bias_filler {
      type: "constant"
      value: 0
    }
    dilation: 1
  }
}
layer {
  name: "relu5_3"
  type: "ReLU"
  bottom: "conv5_3"
  top: "conv5_3"
}
layer {
  name: "pool5"
  type: "Pooling"
  bottom: "conv5_3"
  top: "pool5"
  pooling_param {
    pool: MAX
    kernel_size: 3
    stride: 1
    pad: 1
  }
}
layer {
  name: "fc6_conv"
  type: "Convolution"
  bottom: "pool5"
  top: "fc6_conv"
  param {
    lr_mult: 1
    decay_mult: 1
  }
  param {
    lr_mult: 2
    decay_mult: 0
  }
  convolution_param {
    num_output: 256
    pad: 6
    kernel_size: 3
    weight_filler {
      type: "xavier"
    }
    bias_filler {
      type: "constant"
      value: 0
    }
    dilation: 6
  }
}
layer {
  name: "relu6"
  type: "ReLU"
  bottom: "fc6_conv"
  top: "fc6_conv"
}
layer {
  name: "fc7_conv"
  type: "Convolution"
  bottom: "fc6_conv"
  top: "fc7_conv"
  param {
    lr_mult: 1
    decay_mult: 1
  }
  param {
    lr_mult: 2
    decay_mult: 0
  }
  convolution_param {
    num_output: 256
    kernel_size: 1
    weight_filler {
      type: "xavier"
    }
    bias_filler {
      type: "constant"
      value: 0
    }
  }
}
layer {
  name: "relu7"
  type: "ReLU"
  bottom: "fc7_conv"
  top: "fc7_conv"
}
layer {
  name: "conv6_1"
  type: "Convolution"
  bottom: "fc7_conv"
  top: "conv6_1"
  param {
    lr_mult: 1
    decay_mult: 1
  }
  param {
    lr_mult: 2
    decay_mult: 0
  }
  convolution_param {
    num_output: 32
    pad: 0
    kernel_size: 1
    stride: 1
    weight_filler {
      type: "xavier"
    }
    bias_filler {
      type: "constant"
      value: 0
    }
  }
}
layer {
  name: "conv6_1_relu"
  type: "ReLU"
  bottom: "conv6_1"
  top: "conv6_1"
}
layer {
  name: "conv6_2"
  type: "Convolution"
  bottom: "conv6_1"
  top: "conv6_2"
  param {
    lr_mult: 1
    decay_mult: 1
  }
  param {
    lr_mult: 2
    decay_mult: 0
  }
  convolution_param {
    num_output: 64
    pad: 1
    kernel_size: 3
    stride: 2
    weight_filler {
      type: "xavier"
    }
    bias_filler {
      type: "constant"
      value: 0
    }
  }
}
layer {
  name: "conv6_2_relu"
  type: "ReLU"
  bottom: "conv6_2"
  top: "conv6_2"
}
layer {
  name: "conv7_1"
  type: "Convolution"
  bottom: "conv6_2"
  top: "conv7_1"
  param {
    lr_mult: 1
    decay_mult: 1
  }
  param {
    lr_mult: 2
    decay_mult: 0
  }
  convolution_param {
    num_output: 16
    pad: 0
    kernel_size: 1
    stride: 1
    weight_filler {
      type: "xavier"
    }
    bias_filler {
      type: "constant"
      value: 0
    }
  }
}
layer {
  name: "conv7_1_relu"
  type: "ReLU"
  bottom: "conv7_1"
  top: "conv7_1"
}
layer {
  name: "conv7_2"
  type: "Convolution"
  bottom: "conv7_1"
  top: "conv7_2"
  param {
    lr_mult: 1
    decay_mult: 1
  }
  param {
    lr_mult: 2
    decay_mult: 0
  }
  convolution_param {
    num_output: 32
    pad: 1
    kernel_size: 3
    stride: 2
    weight_filler {
      type: "xavier"
    }
    bias_filler {
      type: "constant"
      value: 0
    }
  }
}
layer {
  name: "conv7_2_relu"
  type: "ReLU"
  bottom: "conv7_2"
  top: "conv7_2"
}
layer {
  name: "conv8_1"
  type: "Convolution"
  bottom: "conv7_2"
  top: "conv8_1"
  param {
    lr_mult: 1
    decay_mult: 1
  }
  param {
    lr_mult: 2
    decay_mult: 0
  }
  convolution_param {
    num_output: 16
    pad: 0
    kernel_size: 1
    stride: 1
    weight_filler {
      type: "xavier"
    }
    bias_filler {
      type: "constant"
      value: 0
    }
  }
}
layer {
  name: "conv8_1_relu"
  type: "ReLU"
  bottom: "conv8_1"
  top: "conv8_1"
}
layer {
  name: "conv8_2"
  type: "Convolution"
  bottom: "conv8_1"
  top: "conv8_2"
  param {
    lr_mult: 1
    decay_mult: 1
  }
  param {
    lr_mult: 2
    decay_mult: 0
  }
  convolution_param {
    num_output: 32
    pad: 1
    kernel_size: 3
    stride: 2
    weight_filler {
      type: "xavier"
    }
    bias_filler {
      type: "constant"
      value: 0
    }
  }
}
layer {
  name: "conv8_2_relu"
  type: "ReLU"
  bottom: "conv8_2"
  top: "conv8_2"
}
layer {
  name: "pool6"
  type: "Pooling"
  bottom: "conv8_2"
  top: "pool6"
  pooling_param {
    pool: AVE
    global_pooling: true
  }
}
layer {
  name: "conv4_3_norm"
  type: "Normalize"
  bottom: "conv4_3"
  top: "conv4_3_norm"
  norm_param {
    across_spatial: false
    scale_filler {
      type: "constant"
      value: 20
    }
    channel_shared: false
  }
}
layer {
  name: "conv4_3_norm_mbox_loc_conf"
  type: "Convolution"
  bottom: "conv4_3_norm"
  top: "conv4_3_norm_mbox_loc_conf"
  param {
    lr_mult: 1
    decay_mult: 1
  }
  param {
    lr_mult: 2
    decay_mult: 0
  }
  convolution_param {
    num_output: 48
    pad: 1
    kernel_size: 3
    stride: 1
    weight_filler {
      type: "xavier"
    }
    bias_filler {
      type: "constant"
      value: 0
    }
  }
}
layer {
  name: "conv4_3_norm_mbox_loc_conf_perm"
  type: "Permute"
  bottom: "conv4_3_norm_mbox_loc_conf"
  top: "conv4_3_norm_mbox_loc_conf_perm"
  permute_param {
    order: 0
    order: 2
    order: 3
    order: 1
  }
}
layer {
  name: "conv4_3_norm_mbox_loc_perm"
  type: "Slice"
  bottom: "conv4_3_norm_mbox_loc_conf_perm"
  top: "conv4_3_norm_mbox_loc_perm"
  top: "conv4_3_norm_mbox_conf_perm"
  slice_param {
    slice_point: 24
    axis: 3
  }
}
layer {
  name: "conv4_3_norm_mbox_loc_flat"
  type: "Flatten"
  bottom: "conv4_3_norm_mbox_loc_perm"
  top: "conv4_3_norm_mbox_loc_flat"
  flatten_param {
    axis: 1
  }
}
layer {
  name: "conv4_3_norm_mbox_conf_flat"
  type: "Flatten"
  bottom: "conv4_3_norm_mbox_conf_perm"
  top: "conv4_3_norm_mbox_conf_flat"
  flatten_param {
    axis: 1
  }
}
layer {
  name: "conv4_3_norm_mbox_priorbox"
  type: "PriorBox"
  bottom: "conv4_3_norm"
  bottom: "data"
  top: "conv4_3_norm_mbox_priorbox"
  prior_box_param {
    min_size: 3.84
    max_size: 12.8
    aspect_ratio: 2
    aspect_ratio: 3
    flip: true
    clip: true
    variance: 0.1
    variance: 0.1
    variance: 0.2
    variance: 0.2
    offset: 0.5
  }
}
layer {
  name: "fc7_conv_mbox_loc_conf"
  type: "Convolution"
  bottom: "fc7_conv"
  top: "fc7_conv_mbox_loc_conf"
  param {
    lr_mult: 1
    decay_mult: 1
  }
  param {
    lr_mult: 2
    decay_mult: 0
  }
  convolution_param {
    num_output: 48
    pad: 1
    kernel_size: 3
    stride: 1
    weight_filler {
      type: "xavier"
    }
    bias_filler {
      type: "constant"
      value: 0
    }
  }
}
layer {
  name: "fc7_conv_mbox_loc_conf_perm"
  type: "Permute"
  bottom: "fc7_conv_mbox_loc_conf"
  top: "fc7_conv_mbox_loc_conf_perm"
  permute_param {
    order: 0
    order: 2
    order: 3
    order: 1
  }
}
layer {
  name: "fc7_conv_mbox_loc_perm"
  type: "Slice"
  bottom: "fc7_conv_mbox_loc_conf_perm"
  top: "fc7_conv_mbox_loc_perm"
  top: "fc7_conv_mbox_conf_perm"
  slice_param {
    slice_point: 24
    axis: 3
  }
}
layer {
  name: "fc7_conv_mbox_loc_flat"
  type: "Flatten"
  bottom: "fc7_conv_mbox_loc_perm"
  top: "fc7_conv_mbox_loc_flat"
  flatten_param {
    axis: 1
  }
}
layer {
  name: "fc7_conv_mbox_conf_flat"
  type: "Flatten"
  bottom: "fc7_conv_mbox_conf_perm"
  top: "fc7_conv_mbox_conf_flat"
  flatten_param {
    axis: 1
  }
}
layer {
  name: "fc7_conv_mbox_priorbox"
  type: "PriorBox"
  bottom: "fc7_conv"
  bottom: "data"
  top: "fc7_conv_mbox_priorbox"
  prior_box_param {
    min_size: 12.8
    max_size: 39.68
    aspect_ratio: 2
    aspect_ratio: 3
    flip: true
    clip: true
    variance: 0.1
    variance: 0.1
    variance: 0.2
    variance: 0.2
    offset: 0.5
  }
}
layer {
  name: "conv6_2_mbox_loc_conf"
  type: "Convolution"
  bottom: "conv6_2"
  top: "conv6_2_mbox_loc_conf"
  param {
    lr_mult: 1
    decay_mult: 1
  }
  param {
    lr_mult: 2
    decay_mult: 0
  }
  convolution_param {
    num_output: 48
    pad: 1
    kernel_size: 3
    stride: 1
    weight_filler {
      type: "xavier"
    }
    bias_filler {
      type: "constant"
      value: 0
    }
  }
}
layer {
  name: "conv6_2_mbox_loc_conf_perm"
  type: "Permute"
  bottom: "conv6_2_mbox_loc_conf"
  top: "conv6_2_mbox_loc_conf_perm"
  permute_param {
    order: 0
    order: 2
    order: 3
    order: 1
  }
}
layer {
  name: "conv6_2_mbox_loc_perm"
  type: "Slice"
  bottom: "conv6_2_mbox_loc_conf_perm"
  top: "conv6_2_mbox_loc_perm"
  top: "conv6_2_mbox_conf_perm"
  slice_param {
    slice_point: 24
    axis: 3
  }
}
layer {
  name: "conv6_2_mbox_loc_flat"
  type: "Flatten"
  bottom: "conv6_2_mbox_loc_perm"
  top: "conv6_2_mbox_loc_flat"
  flatten_param {
    axis: 1
  }
}
layer {
  name: "conv6_2_mbox_conf_flat"
  type: "Flatten"
  bottom: "conv6_2_mbox_conf_perm"
  top: "conv6_2_mbox_conf_flat"
  flatten_param {
    axis: 1
  }
}
layer {
  name: "conv6_2_mbox_priorbox"
  type: "PriorBox"
  bottom: "conv6_2"
  bottom: "data"
  top: "conv6_2_mbox_priorbox"
  prior_box_param {
    min_size: 39.68
    max_size: 66.56
    aspect_ratio: 2
    aspect_ratio: 3
    flip: true
    clip: true
    variance: 0.1
    variance: 0.1
    variance: 0.2
    variance: 0.2
    offset: 0.5
  }
}
layer {
  name: "conv7_2_mbox_loc_conf"
  type: "Convolution"
  bottom: "conv7_2"
  top: "conv7_2_mbox_loc_conf"
  param {
    lr_mult: 1
    decay_mult: 1
  }
  param {
    lr_mult: 2
    decay_mult: 0
  }
  convolution_param {
    num_output: 48
    pad: 1
    kernel_size: 3
    stride: 1
    weight_filler {
      type: "xavier"
    }
    bias_filler {
      type: "constant"
      value: 0
    }
  }
}
layer {
  name: "conv7_2_mbox_loc_conf_perm"
  type: "Permute"
  bottom: "conv7_2_mbox_loc_conf"
  top: "conv7_2_mbox_loc_conf_perm"
  permute_param {
    order: 0
    order: 2
    order: 3
    order: 1
  }
}
layer {
  name: "conv7_2_mbox_loc_perm"
  type: "Slice"
  bottom: "conv7_2_mbox_loc_conf_perm"
  top: "conv7_2_mbox_loc_perm"
  top: "conv7_2_mbox_conf_perm"
  slice_param {
    slice_point: 24
    axis: 3
  }
}
layer {
  name: "conv7_2_mbox_loc_flat"
  type: "Flatten"
  bottom: "conv7_2_mbox_loc_perm"
  top: "conv7_2_mbox_loc_flat"
  flatten_param {
    axis: 1
  }
}
layer {
  name: "conv7_2_mbox_conf_flat"
  type: "Flatten"
  bottom: "conv7_2_mbox_conf_perm"
  top: "conv7_2_mbox_conf_flat"
  flatten_param {
    axis: 1
  }
}
layer {
  name: "conv7_2_mbox_priorbox"
  type: "PriorBox"
  bottom: "conv7_2"
  bottom: "data"
  top: "conv7_2_mbox_priorbox"
  prior_box_param {
    min_size: 66.56
    max_size: 93.44
    aspect_ratio: 2
    aspect_ratio: 3
    flip: true
    clip: true
    variance: 0.1
    variance: 0.1
    variance: 0.2
    variance: 0.2
    offset: 0.5
  }
}
layer {
  name: "conv8_2_mbox_loc_conf"
  type: "Convolution"
  bottom: "conv8_2"
  top: "conv8_2_mbox_loc_conf"
  param {
    lr_mult: 1
    decay_mult: 1
  }
  param {
    lr_mult: 2
    decay_mult: 0
  }
  convolution_param {
    num_output: 48
    pad: 1
    kernel_size: 3
    stride: 1
    weight_filler {
      type: "xavier"
    }
    bias_filler {
      type: "constant"
      value: 0
    }
  }
}
layer {
  name: "conv8_2_mbox_loc_conf_perm"
  type: "Permute"
  bottom: "conv8_2_mbox_loc_conf"
  top: "conv8_2_mbox_loc_conf_perm"
  permute_param {
    order: 0
    order: 2
    order: 3
    order: 1
  }
}
layer {
  name: "conv8_2_mbox_loc_perm"
  type: "Slice"
  bottom: "conv8_2_mbox_loc_conf_perm"
  top: "conv8_2_mbox_loc_perm"
  top: "conv8_2_mbox_conf_perm"
  slice_param {
    slice_point: 24
    axis: 3
  }
}
layer {
  name: "conv8_2_mbox_loc_flat"
  type: "Flatten"
  bottom: "conv8_2_mbox_loc_perm"
  top: "conv8_2_mbox_loc_flat"
  flatten_param {
    axis: 1
  }
}
layer {
  name: "conv8_2_mbox_conf_flat"
  type: "Flatten"
  bottom: "conv8_2_mbox_conf_perm"
  top: "conv8_2_mbox_conf_flat"
  flatten_param {
    axis: 1
  }
}
layer {
  name: "conv8_2_mbox_priorbox"
  type: "PriorBox"
  bottom: "conv8_2"
  bottom: "data"
  top: "conv8_2_mbox_priorbox"
  prior_box_param {
    min_size: 93.44
    max_size: 120.32
    aspect_ratio: 2
    aspect_ratio: 3
    flip: true
    clip: true
    variance: 0.1
    variance: 0.1
    variance: 0.2
    variance: 0.2
    offset: 0.5
  }
}
layer {
  name: "pool6_mbox_loc_conf"
  type: "Convolution"
  bottom: "pool6"
  top: "pool6_mbox_loc_conf"
  param {
    lr_mult: 1
    decay_mult: 1
  }
  param {
    lr_mult: 2
    decay_mult: 0
  }
  convolution_param {
    num_output: 48
    pad: 1
    kernel_size: 3
    stride: 1
    weight_filler {
      type: "xavier"
    }
    bias_filler {
      type: "constant"
      value: 0
    }
  }
}
layer {
  name: "pool6_mbox_loc_conf_perm"
  type: "Permute"
  bottom: "pool6_mbox_loc_conf"
  top: "pool6_mbox_loc_conf_perm"
  permute_param {
    order: 0
    order: 2
    order: 3
    order: 1
  }
}
layer {
  name: "pool6_mbox_loc_perm"
  type: "Slice"
  bottom: "pool6_mbox_loc_conf_perm"
  top: "pool6_mbox_loc_perm"
  top: "pool6_mbox_conf_perm"
  slice_param {
    slice_point: 24
    axis: 3
  }
}
layer {
  name: "pool6_mbox_loc_flat"
  type: "Flatten"
  bottom: "pool6_mbox_loc_perm"
  top: "pool6_mbox_loc_flat"
  flatten_param {
    axis: 1
  }
}
layer {
  name: "pool6_mbox_conf_flat"
  type: "Flatten"
  bottom: "pool6_mbox_conf_perm"
  top: "pool6_mbox_conf_flat"
  flatten_param {
    axis: 1
  }
}
layer {
  name: "pool6_mbox_priorbox"
  type: "PriorBox"
  bottom: "pool6"
  bottom: "data"
  top: "pool6_mbox_priorbox"
  prior_box_param {
    min_size: 120.32
    max_size: 147.2
    aspect_ratio: 2
    aspect_ratio: 3
    flip: true
    clip: true
    variance: 0.1
    variance: 0.1
    variance: 0.2
    variance: 0.2
    offset: 0.5
  }
}
layer {
  name: "mbox_loc"
  type: "Concat"
  bottom: "conv4_3_norm_mbox_loc_flat"
  bottom: "fc7_conv_mbox_loc_flat"
  bottom: "conv6_2_mbox_loc_flat"
  bottom: "conv7_2_mbox_loc_flat"
  bottom: "conv8_2_mbox_loc_flat"
  bottom: "pool6_mbox_loc_flat"
  top: "mbox_loc"
  concat_param {
    axis: 1
  }
}
layer {
  name: "mbox_conf"
  type: "Concat"
  bottom: "conv4_3_norm_mbox_conf_flat"
  bottom: "fc7_conv_mbox_conf_flat"
  bottom: "conv6_2_mbox_conf_flat"
  bottom: "conv7_2_mbox_conf_flat"
  bottom: "conv8_2_mbox_conf_flat"
  bottom: "pool6_mbox_conf_flat"
  top: "mbox_conf"
  concat_param {
    axis: 1
  }
}
layer {
  name: "mbox_priorbox"
  type: "Concat"
  bottom: "conv4_3_norm_mbox_priorbox"
  bottom: "fc7_conv_mbox_priorbox"
  bottom: "conv6_2_mbox_priorbox"
  bottom: "conv7_2_mbox_priorbox"
  bottom: "conv8_2_mbox_priorbox"
  bottom: "pool6_mbox_priorbox"
  top: "mbox_priorbox"
  concat_param {
    axis: 2
  }
}
layer {
  name: "mbox_conf_reshape"
  type: "Reshape"
  bottom: "mbox_conf"
  top: "mbox_conf_reshape"
  reshape_param {
    shape {
      dim: 0
      dim: -1
      dim: 4
    }
  }
}
layer {
  name: "mbox_conf_softmax"
  type: "Softmax"
  bottom: "mbox_conf_reshape"
  top: "mbox_conf_softmax"
  softmax_param {
    axis: 2
  }
}
layer {
  name: "mbox_conf_flatten"
  type: "Flatten"
  bottom: "mbox_conf_softmax"
  top: "mbox_conf_flatten"
  flatten_param {
    axis: 1
  }
}
layer {
  name: "detection_out"
  type: "DetectionOutput"
  bottom: "mbox_loc"
  bottom: "mbox_conf_flatten"
  bottom: "mbox_priorbox"
  top: "detection_out"
  include {
    phase: TEST
  }
  detection_output_param {
    num_classes: 4
    share_location: true
    background_label_id: 0
    nms_param {
      nms_threshold: 0.3
      top_k: 200
    }
    save_output_param {
      output_directory: "jobs/ssd/v0406_kitti_64x256_vgg16-channel16-nopooling12_smallssd/output"
      output_name_prefix: "det_test_"
      output_format: "VOC"
      label_map_file: "/tmp/toqinhuan/labelmap.prototxt"
      name_size_file: "/tmp/toqinhuan/test_name_size.txt"
      num_test_image: 2245
    }
    code_type: CENTER_SIZE
    keep_top_k: 100
    confidence_threshold: 0.01
  }
}
layer {
  name: "detection_eval"
  type: "DetectionEvaluate"
  bottom: "detection_out"
  bottom: "label"
  top: "detection_eval"
  include {
    phase: TEST
  }
  detection_evaluate_param {
    num_classes: 4
    background_label_id: 0
    overlap_threshold: 0.5
    evaluate_difficult_gt: false
    name_size_file: "/tmp/toqinhuan/test_name_size.txt"
  }
}
I0406 11:16:48.306104 21768 layer_factory.hpp:77] Creating layer data
I0406 11:16:48.306164 21768 net.cpp:100] Creating Layer data
I0406 11:16:48.306174 21768 net.cpp:408] data -> data
I0406 11:16:48.306182 21768 net.cpp:408] data -> label
I0406 11:16:48.306887 21791 db_lmdb.cpp:35] Opened lmdb /home/work/wwl/data/kitti/data_object_image_2/training/test_lmdb
I0406 11:16:48.318652 21768 annotated_data_layer.cpp:62] output data size: 32,3,64,256
I0406 11:16:48.334578 21768 net.cpp:150] Setting up data
I0406 11:16:48.334609 21768 net.cpp:157] Top shape: 32 3 64 256 (1572864)
I0406 11:16:48.334614 21768 net.cpp:157] Top shape: 1 1 9 8 (72)
I0406 11:16:48.334619 21768 net.cpp:165] Memory required for data: 6291744
I0406 11:16:48.334625 21768 layer_factory.hpp:77] Creating layer data_data_0_split
I0406 11:16:48.334635 21768 net.cpp:100] Creating Layer data_data_0_split
I0406 11:16:48.334640 21768 net.cpp:434] data_data_0_split <- data
I0406 11:16:48.334646 21768 net.cpp:408] data_data_0_split -> data_data_0_split_0
I0406 11:16:48.334656 21768 net.cpp:408] data_data_0_split -> data_data_0_split_1
I0406 11:16:48.334661 21768 net.cpp:408] data_data_0_split -> data_data_0_split_2
I0406 11:16:48.334667 21768 net.cpp:408] data_data_0_split -> data_data_0_split_3
I0406 11:16:48.334674 21768 net.cpp:408] data_data_0_split -> data_data_0_split_4
I0406 11:16:48.334681 21768 net.cpp:408] data_data_0_split -> data_data_0_split_5
I0406 11:16:48.334686 21768 net.cpp:408] data_data_0_split -> data_data_0_split_6
I0406 11:16:48.334844 21768 net.cpp:150] Setting up data_data_0_split
I0406 11:16:48.334852 21768 net.cpp:157] Top shape: 32 3 64 256 (1572864)
I0406 11:16:48.334857 21768 net.cpp:157] Top shape: 32 3 64 256 (1572864)
I0406 11:16:48.334866 21768 net.cpp:157] Top shape: 32 3 64 256 (1572864)
I0406 11:16:48.334872 21768 net.cpp:157] Top shape: 32 3 64 256 (1572864)
I0406 11:16:48.334878 21768 net.cpp:157] Top shape: 32 3 64 256 (1572864)
I0406 11:16:48.334884 21768 net.cpp:157] Top shape: 32 3 64 256 (1572864)
I0406 11:16:48.334892 21768 net.cpp:157] Top shape: 32 3 64 256 (1572864)
I0406 11:16:48.334897 21768 net.cpp:165] Memory required for data: 50331936
I0406 11:16:48.334902 21768 layer_factory.hpp:77] Creating layer conv1_1
I0406 11:16:48.334914 21768 net.cpp:100] Creating Layer conv1_1
I0406 11:16:48.334918 21768 net.cpp:434] conv1_1 <- data_data_0_split_0
I0406 11:16:48.334925 21768 net.cpp:408] conv1_1 -> conv1_1
I0406 11:16:48.335278 21768 net.cpp:150] Setting up conv1_1
I0406 11:16:48.335286 21768 net.cpp:157] Top shape: 32 16 64 256 (8388608)
I0406 11:16:48.335290 21768 net.cpp:165] Memory required for data: 83886368
I0406 11:16:48.335300 21768 layer_factory.hpp:77] Creating layer relu1_1
I0406 11:16:48.335307 21768 net.cpp:100] Creating Layer relu1_1
I0406 11:16:48.335317 21768 net.cpp:434] relu1_1 <- conv1_1
I0406 11:16:48.335324 21768 net.cpp:395] relu1_1 -> conv1_1 (in-place)
I0406 11:16:48.335330 21768 net.cpp:150] Setting up relu1_1
I0406 11:16:48.335335 21768 net.cpp:157] Top shape: 32 16 64 256 (8388608)
I0406 11:16:48.335337 21768 net.cpp:165] Memory required for data: 117440800
I0406 11:16:48.335341 21768 layer_factory.hpp:77] Creating layer conv1_2
I0406 11:16:48.335350 21768 net.cpp:100] Creating Layer conv1_2
I0406 11:16:48.335355 21768 net.cpp:434] conv1_2 <- conv1_1
I0406 11:16:48.335361 21768 net.cpp:408] conv1_2 -> conv1_2
I0406 11:16:48.335695 21768 net.cpp:150] Setting up conv1_2
I0406 11:16:48.335703 21768 net.cpp:157] Top shape: 32 16 32 128 (2097152)
I0406 11:16:48.335707 21768 net.cpp:165] Memory required for data: 125829408
I0406 11:16:48.335716 21768 layer_factory.hpp:77] Creating layer relu1_2
I0406 11:16:48.335721 21768 net.cpp:100] Creating Layer relu1_2
I0406 11:16:48.335726 21768 net.cpp:434] relu1_2 <- conv1_2
I0406 11:16:48.335731 21768 net.cpp:395] relu1_2 -> conv1_2 (in-place)
I0406 11:16:48.335736 21768 net.cpp:150] Setting up relu1_2
I0406 11:16:48.335741 21768 net.cpp:157] Top shape: 32 16 32 128 (2097152)
I0406 11:16:48.335744 21768 net.cpp:165] Memory required for data: 134218016
I0406 11:16:48.335748 21768 layer_factory.hpp:77] Creating layer conv2_1
I0406 11:16:48.335755 21768 net.cpp:100] Creating Layer conv2_1
I0406 11:16:48.335759 21768 net.cpp:434] conv2_1 <- conv1_2
I0406 11:16:48.335764 21768 net.cpp:408] conv2_1 -> conv2_1
I0406 11:16:48.336092 21768 net.cpp:150] Setting up conv2_1
I0406 11:16:48.336099 21768 net.cpp:157] Top shape: 32 32 32 128 (4194304)
I0406 11:16:48.336103 21768 net.cpp:165] Memory required for data: 150995232
I0406 11:16:48.336112 21768 layer_factory.hpp:77] Creating layer relu2_1
I0406 11:16:48.336117 21768 net.cpp:100] Creating Layer relu2_1
I0406 11:16:48.336120 21768 net.cpp:434] relu2_1 <- conv2_1
I0406 11:16:48.336125 21768 net.cpp:395] relu2_1 -> conv2_1 (in-place)
I0406 11:16:48.336130 21768 net.cpp:150] Setting up relu2_1
I0406 11:16:48.336135 21768 net.cpp:157] Top shape: 32 32 32 128 (4194304)
I0406 11:16:48.336139 21768 net.cpp:165] Memory required for data: 167772448
I0406 11:16:48.336143 21768 layer_factory.hpp:77] Creating layer conv2_2
I0406 11:16:48.336151 21768 net.cpp:100] Creating Layer conv2_2
I0406 11:16:48.336155 21768 net.cpp:434] conv2_2 <- conv2_1
I0406 11:16:48.336160 21768 net.cpp:408] conv2_2 -> conv2_2
I0406 11:16:48.336555 21768 net.cpp:150] Setting up conv2_2
I0406 11:16:48.336563 21768 net.cpp:157] Top shape: 32 32 16 64 (1048576)
I0406 11:16:48.336567 21768 net.cpp:165] Memory required for data: 171966752
I0406 11:16:48.336575 21768 layer_factory.hpp:77] Creating layer relu2_2
I0406 11:16:48.336580 21768 net.cpp:100] Creating Layer relu2_2
I0406 11:16:48.336585 21768 net.cpp:434] relu2_2 <- conv2_2
I0406 11:16:48.336590 21768 net.cpp:395] relu2_2 -> conv2_2 (in-place)
I0406 11:16:48.336596 21768 net.cpp:150] Setting up relu2_2
I0406 11:16:48.336601 21768 net.cpp:157] Top shape: 32 32 16 64 (1048576)
I0406 11:16:48.336604 21768 net.cpp:165] Memory required for data: 176161056
I0406 11:16:48.336608 21768 layer_factory.hpp:77] Creating layer conv3_1
I0406 11:16:48.336616 21768 net.cpp:100] Creating Layer conv3_1
I0406 11:16:48.336621 21768 net.cpp:434] conv3_1 <- conv2_2
I0406 11:16:48.336627 21768 net.cpp:408] conv3_1 -> conv3_1
I0406 11:16:48.337040 21768 net.cpp:150] Setting up conv3_1
I0406 11:16:48.337049 21768 net.cpp:157] Top shape: 32 64 16 64 (2097152)
I0406 11:16:48.337054 21768 net.cpp:165] Memory required for data: 184549664
I0406 11:16:48.337061 21768 layer_factory.hpp:77] Creating layer relu3_1
I0406 11:16:48.337067 21768 net.cpp:100] Creating Layer relu3_1
I0406 11:16:48.337071 21768 net.cpp:434] relu3_1 <- conv3_1
I0406 11:16:48.337076 21768 net.cpp:395] relu3_1 -> conv3_1 (in-place)
I0406 11:16:48.337082 21768 net.cpp:150] Setting up relu3_1
I0406 11:16:48.337087 21768 net.cpp:157] Top shape: 32 64 16 64 (2097152)
I0406 11:16:48.337095 21768 net.cpp:165] Memory required for data: 192938272
I0406 11:16:48.337100 21768 layer_factory.hpp:77] Creating layer conv3_2
I0406 11:16:48.337107 21768 net.cpp:100] Creating Layer conv3_2
I0406 11:16:48.337111 21768 net.cpp:434] conv3_2 <- conv3_1
I0406 11:16:48.337117 21768 net.cpp:408] conv3_2 -> conv3_2
I0406 11:16:48.337654 21768 net.cpp:150] Setting up conv3_2
I0406 11:16:48.337666 21768 net.cpp:157] Top shape: 32 64 16 64 (2097152)
I0406 11:16:48.337671 21768 net.cpp:165] Memory required for data: 201326880
I0406 11:16:48.337677 21768 layer_factory.hpp:77] Creating layer relu3_2
I0406 11:16:48.337682 21768 net.cpp:100] Creating Layer relu3_2
I0406 11:16:48.337687 21768 net.cpp:434] relu3_2 <- conv3_2
I0406 11:16:48.337692 21768 net.cpp:395] relu3_2 -> conv3_2 (in-place)
I0406 11:16:48.337698 21768 net.cpp:150] Setting up relu3_2
I0406 11:16:48.337703 21768 net.cpp:157] Top shape: 32 64 16 64 (2097152)
I0406 11:16:48.337707 21768 net.cpp:165] Memory required for data: 209715488
I0406 11:16:48.337710 21768 layer_factory.hpp:77] Creating layer conv3_3
I0406 11:16:48.337718 21768 net.cpp:100] Creating Layer conv3_3
I0406 11:16:48.337723 21768 net.cpp:434] conv3_3 <- conv3_2
I0406 11:16:48.337728 21768 net.cpp:408] conv3_3 -> conv3_3
I0406 11:16:48.338230 21768 net.cpp:150] Setting up conv3_3
I0406 11:16:48.338238 21768 net.cpp:157] Top shape: 32 64 16 64 (2097152)
I0406 11:16:48.338243 21768 net.cpp:165] Memory required for data: 218104096
I0406 11:16:48.338248 21768 layer_factory.hpp:77] Creating layer relu3_3
I0406 11:16:48.338254 21768 net.cpp:100] Creating Layer relu3_3
I0406 11:16:48.338258 21768 net.cpp:434] relu3_3 <- conv3_3
I0406 11:16:48.338263 21768 net.cpp:395] relu3_3 -> conv3_3 (in-place)
I0406 11:16:48.338269 21768 net.cpp:150] Setting up relu3_3
I0406 11:16:48.338274 21768 net.cpp:157] Top shape: 32 64 16 64 (2097152)
I0406 11:16:48.338277 21768 net.cpp:165] Memory required for data: 226492704
I0406 11:16:48.338281 21768 layer_factory.hpp:77] Creating layer pool3
I0406 11:16:48.338289 21768 net.cpp:100] Creating Layer pool3
I0406 11:16:48.338294 21768 net.cpp:434] pool3 <- conv3_3
I0406 11:16:48.338299 21768 net.cpp:408] pool3 -> pool3
I0406 11:16:48.338343 21768 net.cpp:150] Setting up pool3
I0406 11:16:48.338351 21768 net.cpp:157] Top shape: 32 64 8 32 (524288)
I0406 11:16:48.338354 21768 net.cpp:165] Memory required for data: 228589856
I0406 11:16:48.338358 21768 layer_factory.hpp:77] Creating layer conv4_1
I0406 11:16:48.338364 21768 net.cpp:100] Creating Layer conv4_1
I0406 11:16:48.338369 21768 net.cpp:434] conv4_1 <- pool3
I0406 11:16:48.338376 21768 net.cpp:408] conv4_1 -> conv4_1
I0406 11:16:48.339107 21768 net.cpp:150] Setting up conv4_1
I0406 11:16:48.339120 21768 net.cpp:157] Top shape: 32 128 8 32 (1048576)
I0406 11:16:48.339124 21768 net.cpp:165] Memory required for data: 232784160
I0406 11:16:48.339131 21768 layer_factory.hpp:77] Creating layer relu4_1
I0406 11:16:48.339138 21768 net.cpp:100] Creating Layer relu4_1
I0406 11:16:48.339141 21768 net.cpp:434] relu4_1 <- conv4_1
I0406 11:16:48.339148 21768 net.cpp:395] relu4_1 -> conv4_1 (in-place)
I0406 11:16:48.339154 21768 net.cpp:150] Setting up relu4_1
I0406 11:16:48.339159 21768 net.cpp:157] Top shape: 32 128 8 32 (1048576)
I0406 11:16:48.339162 21768 net.cpp:165] Memory required for data: 236978464
I0406 11:16:48.339166 21768 layer_factory.hpp:77] Creating layer conv4_2
I0406 11:16:48.339174 21768 net.cpp:100] Creating Layer conv4_2
I0406 11:16:48.339179 21768 net.cpp:434] conv4_2 <- conv4_1
I0406 11:16:48.339184 21768 net.cpp:408] conv4_2 -> conv4_2
I0406 11:16:48.340371 21768 net.cpp:150] Setting up conv4_2
I0406 11:16:48.340385 21768 net.cpp:157] Top shape: 32 128 8 32 (1048576)
I0406 11:16:48.340389 21768 net.cpp:165] Memory required for data: 241172768
I0406 11:16:48.340404 21768 layer_factory.hpp:77] Creating layer relu4_2
I0406 11:16:48.340411 21768 net.cpp:100] Creating Layer relu4_2
I0406 11:16:48.340416 21768 net.cpp:434] relu4_2 <- conv4_2
I0406 11:16:48.340421 21768 net.cpp:395] relu4_2 -> conv4_2 (in-place)
I0406 11:16:48.340435 21768 net.cpp:150] Setting up relu4_2
I0406 11:16:48.340441 21768 net.cpp:157] Top shape: 32 128 8 32 (1048576)
I0406 11:16:48.340445 21768 net.cpp:165] Memory required for data: 245367072
I0406 11:16:48.340448 21768 layer_factory.hpp:77] Creating layer conv4_3
I0406 11:16:48.340457 21768 net.cpp:100] Creating Layer conv4_3
I0406 11:16:48.340461 21768 net.cpp:434] conv4_3 <- conv4_2
I0406 11:16:48.340467 21768 net.cpp:408] conv4_3 -> conv4_3
I0406 11:16:48.343876 21768 net.cpp:150] Setting up conv4_3
I0406 11:16:48.343900 21768 net.cpp:157] Top shape: 32 128 8 32 (1048576)
I0406 11:16:48.343904 21768 net.cpp:165] Memory required for data: 249561376
I0406 11:16:48.343912 21768 layer_factory.hpp:77] Creating layer relu4_3
I0406 11:16:48.343921 21768 net.cpp:100] Creating Layer relu4_3
I0406 11:16:48.343926 21768 net.cpp:434] relu4_3 <- conv4_3
I0406 11:16:48.343932 21768 net.cpp:395] relu4_3 -> conv4_3 (in-place)
I0406 11:16:48.343940 21768 net.cpp:150] Setting up relu4_3
I0406 11:16:48.343945 21768 net.cpp:157] Top shape: 32 128 8 32 (1048576)
I0406 11:16:48.343950 21768 net.cpp:165] Memory required for data: 253755680
I0406 11:16:48.343952 21768 layer_factory.hpp:77] Creating layer conv4_3_relu4_3_0_split
I0406 11:16:48.343958 21768 net.cpp:100] Creating Layer conv4_3_relu4_3_0_split
I0406 11:16:48.343961 21768 net.cpp:434] conv4_3_relu4_3_0_split <- conv4_3
I0406 11:16:48.343966 21768 net.cpp:408] conv4_3_relu4_3_0_split -> conv4_3_relu4_3_0_split_0
I0406 11:16:48.343972 21768 net.cpp:408] conv4_3_relu4_3_0_split -> conv4_3_relu4_3_0_split_1
I0406 11:16:48.344009 21768 net.cpp:150] Setting up conv4_3_relu4_3_0_split
I0406 11:16:48.344015 21768 net.cpp:157] Top shape: 32 128 8 32 (1048576)
I0406 11:16:48.344019 21768 net.cpp:157] Top shape: 32 128 8 32 (1048576)
I0406 11:16:48.344023 21768 net.cpp:165] Memory required for data: 262144288
I0406 11:16:48.344027 21768 layer_factory.hpp:77] Creating layer pool4
I0406 11:16:48.344033 21768 net.cpp:100] Creating Layer pool4
I0406 11:16:48.344036 21768 net.cpp:434] pool4 <- conv4_3_relu4_3_0_split_0
I0406 11:16:48.344041 21768 net.cpp:408] pool4 -> pool4
I0406 11:16:48.344080 21768 net.cpp:150] Setting up pool4
I0406 11:16:48.344086 21768 net.cpp:157] Top shape: 32 128 4 16 (262144)
I0406 11:16:48.344090 21768 net.cpp:165] Memory required for data: 263192864
I0406 11:16:48.344094 21768 layer_factory.hpp:77] Creating layer conv5_1
I0406 11:16:48.344102 21768 net.cpp:100] Creating Layer conv5_1
I0406 11:16:48.344106 21768 net.cpp:434] conv5_1 <- pool4
I0406 11:16:48.344112 21768 net.cpp:408] conv5_1 -> conv5_1
I0406 11:16:48.345268 21768 net.cpp:150] Setting up conv5_1
I0406 11:16:48.345285 21768 net.cpp:157] Top shape: 32 128 4 16 (262144)
I0406 11:16:48.345290 21768 net.cpp:165] Memory required for data: 264241440
I0406 11:16:48.345297 21768 layer_factory.hpp:77] Creating layer relu5_1
I0406 11:16:48.345305 21768 net.cpp:100] Creating Layer relu5_1
I0406 11:16:48.345309 21768 net.cpp:434] relu5_1 <- conv5_1
I0406 11:16:48.345315 21768 net.cpp:395] relu5_1 -> conv5_1 (in-place)
I0406 11:16:48.345324 21768 net.cpp:150] Setting up relu5_1
I0406 11:16:48.345327 21768 net.cpp:157] Top shape: 32 128 4 16 (262144)
I0406 11:16:48.345331 21768 net.cpp:165] Memory required for data: 265290016
I0406 11:16:48.345335 21768 layer_factory.hpp:77] Creating layer conv5_2
I0406 11:16:48.345343 21768 net.cpp:100] Creating Layer conv5_2
I0406 11:16:48.345347 21768 net.cpp:434] conv5_2 <- conv5_1
I0406 11:16:48.345353 21768 net.cpp:408] conv5_2 -> conv5_2
I0406 11:16:48.346544 21768 net.cpp:150] Setting up conv5_2
I0406 11:16:48.346552 21768 net.cpp:157] Top shape: 32 128 4 16 (262144)
I0406 11:16:48.346556 21768 net.cpp:165] Memory required for data: 266338592
I0406 11:16:48.346563 21768 layer_factory.hpp:77] Creating layer relu5_2
I0406 11:16:48.346568 21768 net.cpp:100] Creating Layer relu5_2
I0406 11:16:48.346572 21768 net.cpp:434] relu5_2 <- conv5_2
I0406 11:16:48.346577 21768 net.cpp:395] relu5_2 -> conv5_2 (in-place)
I0406 11:16:48.346583 21768 net.cpp:150] Setting up relu5_2
I0406 11:16:48.346595 21768 net.cpp:157] Top shape: 32 128 4 16 (262144)
I0406 11:16:48.346598 21768 net.cpp:165] Memory required for data: 267387168
I0406 11:16:48.346602 21768 layer_factory.hpp:77] Creating layer conv5_3
I0406 11:16:48.346609 21768 net.cpp:100] Creating Layer conv5_3
I0406 11:16:48.346613 21768 net.cpp:434] conv5_3 <- conv5_2
I0406 11:16:48.346619 21768 net.cpp:408] conv5_3 -> conv5_3
I0406 11:16:48.348886 21768 net.cpp:150] Setting up conv5_3
I0406 11:16:48.348906 21768 net.cpp:157] Top shape: 32 128 4 16 (262144)
I0406 11:16:48.348909 21768 net.cpp:165] Memory required for data: 268435744
I0406 11:16:48.348917 21768 layer_factory.hpp:77] Creating layer relu5_3
I0406 11:16:48.348925 21768 net.cpp:100] Creating Layer relu5_3
I0406 11:16:48.348929 21768 net.cpp:434] relu5_3 <- conv5_3
I0406 11:16:48.348935 21768 net.cpp:395] relu5_3 -> conv5_3 (in-place)
I0406 11:16:48.348944 21768 net.cpp:150] Setting up relu5_3
I0406 11:16:48.348949 21768 net.cpp:157] Top shape: 32 128 4 16 (262144)
I0406 11:16:48.348953 21768 net.cpp:165] Memory required for data: 269484320
I0406 11:16:48.348956 21768 layer_factory.hpp:77] Creating layer pool5
I0406 11:16:48.348963 21768 net.cpp:100] Creating Layer pool5
I0406 11:16:48.348966 21768 net.cpp:434] pool5 <- conv5_3
I0406 11:16:48.348973 21768 net.cpp:408] pool5 -> pool5
I0406 11:16:48.349020 21768 net.cpp:150] Setting up pool5
I0406 11:16:48.349026 21768 net.cpp:157] Top shape: 32 128 4 16 (262144)
I0406 11:16:48.349030 21768 net.cpp:165] Memory required for data: 270532896
I0406 11:16:48.349033 21768 layer_factory.hpp:77] Creating layer fc6_conv
I0406 11:16:48.349047 21768 net.cpp:100] Creating Layer fc6_conv
I0406 11:16:48.349051 21768 net.cpp:434] fc6_conv <- pool5
I0406 11:16:48.349058 21768 net.cpp:408] fc6_conv -> fc6_conv
I0406 11:16:48.351148 21768 net.cpp:150] Setting up fc6_conv
I0406 11:16:48.351160 21768 net.cpp:157] Top shape: 32 256 4 16 (524288)
I0406 11:16:48.351163 21768 net.cpp:165] Memory required for data: 272630048
I0406 11:16:48.351169 21768 layer_factory.hpp:77] Creating layer relu6
I0406 11:16:48.351176 21768 net.cpp:100] Creating Layer relu6
I0406 11:16:48.351179 21768 net.cpp:434] relu6 <- fc6_conv
I0406 11:16:48.351184 21768 net.cpp:395] relu6 -> fc6_conv (in-place)
I0406 11:16:48.351191 21768 net.cpp:150] Setting up relu6
I0406 11:16:48.351196 21768 net.cpp:157] Top shape: 32 256 4 16 (524288)
I0406 11:16:48.351199 21768 net.cpp:165] Memory required for data: 274727200
I0406 11:16:48.351203 21768 layer_factory.hpp:77] Creating layer fc7_conv
I0406 11:16:48.351210 21768 net.cpp:100] Creating Layer fc7_conv
I0406 11:16:48.351214 21768 net.cpp:434] fc7_conv <- fc6_conv
I0406 11:16:48.351219 21768 net.cpp:408] fc7_conv -> fc7_conv
I0406 11:16:48.351917 21768 net.cpp:150] Setting up fc7_conv
I0406 11:16:48.351927 21768 net.cpp:157] Top shape: 32 256 4 16 (524288)
I0406 11:16:48.351932 21768 net.cpp:165] Memory required for data: 276824352
I0406 11:16:48.351938 21768 layer_factory.hpp:77] Creating layer relu7
I0406 11:16:48.351943 21768 net.cpp:100] Creating Layer relu7
I0406 11:16:48.351948 21768 net.cpp:434] relu7 <- fc7_conv
I0406 11:16:48.351953 21768 net.cpp:395] relu7 -> fc7_conv (in-place)
I0406 11:16:48.351958 21768 net.cpp:150] Setting up relu7
I0406 11:16:48.351963 21768 net.cpp:157] Top shape: 32 256 4 16 (524288)
I0406 11:16:48.351966 21768 net.cpp:165] Memory required for data: 278921504
I0406 11:16:48.351970 21768 layer_factory.hpp:77] Creating layer fc7_conv_relu7_0_split
I0406 11:16:48.351975 21768 net.cpp:100] Creating Layer fc7_conv_relu7_0_split
I0406 11:16:48.351979 21768 net.cpp:434] fc7_conv_relu7_0_split <- fc7_conv
I0406 11:16:48.351984 21768 net.cpp:408] fc7_conv_relu7_0_split -> fc7_conv_relu7_0_split_0
I0406 11:16:48.351990 21768 net.cpp:408] fc7_conv_relu7_0_split -> fc7_conv_relu7_0_split_1
I0406 11:16:48.351996 21768 net.cpp:408] fc7_conv_relu7_0_split -> fc7_conv_relu7_0_split_2
I0406 11:16:48.352053 21768 net.cpp:150] Setting up fc7_conv_relu7_0_split
I0406 11:16:48.352059 21768 net.cpp:157] Top shape: 32 256 4 16 (524288)
I0406 11:16:48.352071 21768 net.cpp:157] Top shape: 32 256 4 16 (524288)
I0406 11:16:48.352075 21768 net.cpp:157] Top shape: 32 256 4 16 (524288)
I0406 11:16:48.352079 21768 net.cpp:165] Memory required for data: 285212960
I0406 11:16:48.352083 21768 layer_factory.hpp:77] Creating layer conv6_1
I0406 11:16:48.352090 21768 net.cpp:100] Creating Layer conv6_1
I0406 11:16:48.352094 21768 net.cpp:434] conv6_1 <- fc7_conv_relu7_0_split_0
I0406 11:16:48.352102 21768 net.cpp:408] conv6_1 -> conv6_1
I0406 11:16:48.352481 21768 net.cpp:150] Setting up conv6_1
I0406 11:16:48.352493 21768 net.cpp:157] Top shape: 32 32 4 16 (65536)
I0406 11:16:48.352496 21768 net.cpp:165] Memory required for data: 285475104
I0406 11:16:48.352504 21768 layer_factory.hpp:77] Creating layer conv6_1_relu
I0406 11:16:48.352509 21768 net.cpp:100] Creating Layer conv6_1_relu
I0406 11:16:48.352514 21768 net.cpp:434] conv6_1_relu <- conv6_1
I0406 11:16:48.352519 21768 net.cpp:395] conv6_1_relu -> conv6_1 (in-place)
I0406 11:16:48.352525 21768 net.cpp:150] Setting up conv6_1_relu
I0406 11:16:48.352531 21768 net.cpp:157] Top shape: 32 32 4 16 (65536)
I0406 11:16:48.352535 21768 net.cpp:165] Memory required for data: 285737248
I0406 11:16:48.352538 21768 layer_factory.hpp:77] Creating layer conv6_2
I0406 11:16:48.352546 21768 net.cpp:100] Creating Layer conv6_2
I0406 11:16:48.352550 21768 net.cpp:434] conv6_2 <- conv6_1
I0406 11:16:48.352556 21768 net.cpp:408] conv6_2 -> conv6_2
I0406 11:16:48.352993 21768 net.cpp:150] Setting up conv6_2
I0406 11:16:48.353004 21768 net.cpp:157] Top shape: 32 64 2 8 (32768)
I0406 11:16:48.353008 21768 net.cpp:165] Memory required for data: 285868320
I0406 11:16:48.353021 21768 layer_factory.hpp:77] Creating layer conv6_2_relu
I0406 11:16:48.353027 21768 net.cpp:100] Creating Layer conv6_2_relu
I0406 11:16:48.353032 21768 net.cpp:434] conv6_2_relu <- conv6_2
I0406 11:16:48.353037 21768 net.cpp:395] conv6_2_relu -> conv6_2 (in-place)
I0406 11:16:48.353044 21768 net.cpp:150] Setting up conv6_2_relu
I0406 11:16:48.353049 21768 net.cpp:157] Top shape: 32 64 2 8 (32768)
I0406 11:16:48.353052 21768 net.cpp:165] Memory required for data: 285999392
I0406 11:16:48.353056 21768 layer_factory.hpp:77] Creating layer conv6_2_conv6_2_relu_0_split
I0406 11:16:48.353062 21768 net.cpp:100] Creating Layer conv6_2_conv6_2_relu_0_split
I0406 11:16:48.353066 21768 net.cpp:434] conv6_2_conv6_2_relu_0_split <- conv6_2
I0406 11:16:48.353072 21768 net.cpp:408] conv6_2_conv6_2_relu_0_split -> conv6_2_conv6_2_relu_0_split_0
I0406 11:16:48.353078 21768 net.cpp:408] conv6_2_conv6_2_relu_0_split -> conv6_2_conv6_2_relu_0_split_1
I0406 11:16:48.353085 21768 net.cpp:408] conv6_2_conv6_2_relu_0_split -> conv6_2_conv6_2_relu_0_split_2
I0406 11:16:48.353158 21768 net.cpp:150] Setting up conv6_2_conv6_2_relu_0_split
I0406 11:16:48.353165 21768 net.cpp:157] Top shape: 32 64 2 8 (32768)
I0406 11:16:48.353170 21768 net.cpp:157] Top shape: 32 64 2 8 (32768)
I0406 11:16:48.353174 21768 net.cpp:157] Top shape: 32 64 2 8 (32768)
I0406 11:16:48.353178 21768 net.cpp:165] Memory required for data: 286392608
I0406 11:16:48.353183 21768 layer_factory.hpp:77] Creating layer conv7_1
I0406 11:16:48.353193 21768 net.cpp:100] Creating Layer conv7_1
I0406 11:16:48.353198 21768 net.cpp:434] conv7_1 <- conv6_2_conv6_2_relu_0_split_0
I0406 11:16:48.353204 21768 net.cpp:408] conv7_1 -> conv7_1
I0406 11:16:48.353529 21768 net.cpp:150] Setting up conv7_1
I0406 11:16:48.353538 21768 net.cpp:157] Top shape: 32 16 2 8 (8192)
I0406 11:16:48.353541 21768 net.cpp:165] Memory required for data: 286425376
I0406 11:16:48.353548 21768 layer_factory.hpp:77] Creating layer conv7_1_relu
I0406 11:16:48.353554 21768 net.cpp:100] Creating Layer conv7_1_relu
I0406 11:16:48.353559 21768 net.cpp:434] conv7_1_relu <- conv7_1
I0406 11:16:48.353564 21768 net.cpp:395] conv7_1_relu -> conv7_1 (in-place)
I0406 11:16:48.353569 21768 net.cpp:150] Setting up conv7_1_relu
I0406 11:16:48.353574 21768 net.cpp:157] Top shape: 32 16 2 8 (8192)
I0406 11:16:48.353577 21768 net.cpp:165] Memory required for data: 286458144
I0406 11:16:48.353586 21768 layer_factory.hpp:77] Creating layer conv7_2
I0406 11:16:48.353595 21768 net.cpp:100] Creating Layer conv7_2
I0406 11:16:48.353598 21768 net.cpp:434] conv7_2 <- conv7_1
I0406 11:16:48.353605 21768 net.cpp:408] conv7_2 -> conv7_2
I0406 11:16:48.353935 21768 net.cpp:150] Setting up conv7_2
I0406 11:16:48.353943 21768 net.cpp:157] Top shape: 32 32 1 4 (4096)
I0406 11:16:48.353947 21768 net.cpp:165] Memory required for data: 286474528
I0406 11:16:48.353952 21768 layer_factory.hpp:77] Creating layer conv7_2_relu
I0406 11:16:48.353957 21768 net.cpp:100] Creating Layer conv7_2_relu
I0406 11:16:48.353961 21768 net.cpp:434] conv7_2_relu <- conv7_2
I0406 11:16:48.353966 21768 net.cpp:395] conv7_2_relu -> conv7_2 (in-place)
I0406 11:16:48.353972 21768 net.cpp:150] Setting up conv7_2_relu
I0406 11:16:48.353977 21768 net.cpp:157] Top shape: 32 32 1 4 (4096)
I0406 11:16:48.353981 21768 net.cpp:165] Memory required for data: 286490912
I0406 11:16:48.353984 21768 layer_factory.hpp:77] Creating layer conv7_2_conv7_2_relu_0_split
I0406 11:16:48.353989 21768 net.cpp:100] Creating Layer conv7_2_conv7_2_relu_0_split
I0406 11:16:48.353993 21768 net.cpp:434] conv7_2_conv7_2_relu_0_split <- conv7_2
I0406 11:16:48.353998 21768 net.cpp:408] conv7_2_conv7_2_relu_0_split -> conv7_2_conv7_2_relu_0_split_0
I0406 11:16:48.354004 21768 net.cpp:408] conv7_2_conv7_2_relu_0_split -> conv7_2_conv7_2_relu_0_split_1
I0406 11:16:48.354010 21768 net.cpp:408] conv7_2_conv7_2_relu_0_split -> conv7_2_conv7_2_relu_0_split_2
I0406 11:16:48.354066 21768 net.cpp:150] Setting up conv7_2_conv7_2_relu_0_split
I0406 11:16:48.354071 21768 net.cpp:157] Top shape: 32 32 1 4 (4096)
I0406 11:16:48.354076 21768 net.cpp:157] Top shape: 32 32 1 4 (4096)
I0406 11:16:48.354081 21768 net.cpp:157] Top shape: 32 32 1 4 (4096)
I0406 11:16:48.354084 21768 net.cpp:165] Memory required for data: 286540064
I0406 11:16:48.354089 21768 layer_factory.hpp:77] Creating layer conv8_1
I0406 11:16:48.354095 21768 net.cpp:100] Creating Layer conv8_1
I0406 11:16:48.354099 21768 net.cpp:434] conv8_1 <- conv7_2_conv7_2_relu_0_split_0
I0406 11:16:48.354105 21768 net.cpp:408] conv8_1 -> conv8_1
I0406 11:16:48.354408 21768 net.cpp:150] Setting up conv8_1
I0406 11:16:48.354415 21768 net.cpp:157] Top shape: 32 16 1 4 (2048)
I0406 11:16:48.354419 21768 net.cpp:165] Memory required for data: 286548256
I0406 11:16:48.354425 21768 layer_factory.hpp:77] Creating layer conv8_1_relu
I0406 11:16:48.354430 21768 net.cpp:100] Creating Layer conv8_1_relu
I0406 11:16:48.354434 21768 net.cpp:434] conv8_1_relu <- conv8_1
I0406 11:16:48.354439 21768 net.cpp:395] conv8_1_relu -> conv8_1 (in-place)
I0406 11:16:48.354445 21768 net.cpp:150] Setting up conv8_1_relu
I0406 11:16:48.354449 21768 net.cpp:157] Top shape: 32 16 1 4 (2048)
I0406 11:16:48.354454 21768 net.cpp:165] Memory required for data: 286556448
I0406 11:16:48.354457 21768 layer_factory.hpp:77] Creating layer conv8_2
I0406 11:16:48.354465 21768 net.cpp:100] Creating Layer conv8_2
I0406 11:16:48.354468 21768 net.cpp:434] conv8_2 <- conv8_1
I0406 11:16:48.354473 21768 net.cpp:408] conv8_2 -> conv8_2
I0406 11:16:48.354804 21768 net.cpp:150] Setting up conv8_2
I0406 11:16:48.354812 21768 net.cpp:157] Top shape: 32 32 1 2 (2048)
I0406 11:16:48.354816 21768 net.cpp:165] Memory required for data: 286564640
I0406 11:16:48.354823 21768 layer_factory.hpp:77] Creating layer conv8_2_relu
I0406 11:16:48.354830 21768 net.cpp:100] Creating Layer conv8_2_relu
I0406 11:16:48.354835 21768 net.cpp:434] conv8_2_relu <- conv8_2
I0406 11:16:48.354840 21768 net.cpp:395] conv8_2_relu -> conv8_2 (in-place)
I0406 11:16:48.354846 21768 net.cpp:150] Setting up conv8_2_relu
I0406 11:16:48.354852 21768 net.cpp:157] Top shape: 32 32 1 2 (2048)
I0406 11:16:48.354856 21768 net.cpp:165] Memory required for data: 286572832
I0406 11:16:48.354861 21768 layer_factory.hpp:77] Creating layer conv8_2_conv8_2_relu_0_split
I0406 11:16:48.354866 21768 net.cpp:100] Creating Layer conv8_2_conv8_2_relu_0_split
I0406 11:16:48.354871 21768 net.cpp:434] conv8_2_conv8_2_relu_0_split <- conv8_2
I0406 11:16:48.354883 21768 net.cpp:408] conv8_2_conv8_2_relu_0_split -> conv8_2_conv8_2_relu_0_split_0
I0406 11:16:48.354890 21768 net.cpp:408] conv8_2_conv8_2_relu_0_split -> conv8_2_conv8_2_relu_0_split_1
I0406 11:16:48.354897 21768 net.cpp:408] conv8_2_conv8_2_relu_0_split -> conv8_2_conv8_2_relu_0_split_2
I0406 11:16:48.354959 21768 net.cpp:150] Setting up conv8_2_conv8_2_relu_0_split
I0406 11:16:48.354965 21768 net.cpp:157] Top shape: 32 32 1 2 (2048)
I0406 11:16:48.354971 21768 net.cpp:157] Top shape: 32 32 1 2 (2048)
I0406 11:16:48.354975 21768 net.cpp:157] Top shape: 32 32 1 2 (2048)
I0406 11:16:48.354979 21768 net.cpp:165] Memory required for data: 286597408
I0406 11:16:48.354984 21768 layer_factory.hpp:77] Creating layer pool6
I0406 11:16:48.354990 21768 net.cpp:100] Creating Layer pool6
I0406 11:16:48.354993 21768 net.cpp:434] pool6 <- conv8_2_conv8_2_relu_0_split_0
I0406 11:16:48.355000 21768 net.cpp:408] pool6 -> pool6
I0406 11:16:48.355027 21768 net.cpp:150] Setting up pool6
I0406 11:16:48.355033 21768 net.cpp:157] Top shape: 32 32 1 1 (1024)
I0406 11:16:48.355037 21768 net.cpp:165] Memory required for data: 286601504
I0406 11:16:48.355041 21768 layer_factory.hpp:77] Creating layer pool6_pool6_0_split
I0406 11:16:48.355046 21768 net.cpp:100] Creating Layer pool6_pool6_0_split
I0406 11:16:48.355051 21768 net.cpp:434] pool6_pool6_0_split <- pool6
I0406 11:16:48.355057 21768 net.cpp:408] pool6_pool6_0_split -> pool6_pool6_0_split_0
I0406 11:16:48.355062 21768 net.cpp:408] pool6_pool6_0_split -> pool6_pool6_0_split_1
I0406 11:16:48.355101 21768 net.cpp:150] Setting up pool6_pool6_0_split
I0406 11:16:48.355108 21768 net.cpp:157] Top shape: 32 32 1 1 (1024)
I0406 11:16:48.355113 21768 net.cpp:157] Top shape: 32 32 1 1 (1024)
I0406 11:16:48.355116 21768 net.cpp:165] Memory required for data: 286609696
I0406 11:16:48.355120 21768 layer_factory.hpp:77] Creating layer conv4_3_norm
I0406 11:16:48.355126 21768 net.cpp:100] Creating Layer conv4_3_norm
I0406 11:16:48.355131 21768 net.cpp:434] conv4_3_norm <- conv4_3_relu4_3_0_split_1
I0406 11:16:48.355136 21768 net.cpp:408] conv4_3_norm -> conv4_3_norm
I0406 11:16:48.355306 21768 net.cpp:150] Setting up conv4_3_norm
I0406 11:16:48.355314 21768 net.cpp:157] Top shape: 32 128 8 32 (1048576)
I0406 11:16:48.355319 21768 net.cpp:165] Memory required for data: 290804000
I0406 11:16:48.355324 21768 layer_factory.hpp:77] Creating layer conv4_3_norm_conv4_3_norm_0_split
I0406 11:16:48.355329 21768 net.cpp:100] Creating Layer conv4_3_norm_conv4_3_norm_0_split
I0406 11:16:48.355332 21768 net.cpp:434] conv4_3_norm_conv4_3_norm_0_split <- conv4_3_norm
I0406 11:16:48.355337 21768 net.cpp:408] conv4_3_norm_conv4_3_norm_0_split -> conv4_3_norm_conv4_3_norm_0_split_0
I0406 11:16:48.355345 21768 net.cpp:408] conv4_3_norm_conv4_3_norm_0_split -> conv4_3_norm_conv4_3_norm_0_split_1
I0406 11:16:48.355386 21768 net.cpp:150] Setting up conv4_3_norm_conv4_3_norm_0_split
I0406 11:16:48.355391 21768 net.cpp:157] Top shape: 32 128 8 32 (1048576)
I0406 11:16:48.355396 21768 net.cpp:157] Top shape: 32 128 8 32 (1048576)
I0406 11:16:48.355401 21768 net.cpp:165] Memory required for data: 299192608
I0406 11:16:48.355404 21768 layer_factory.hpp:77] Creating layer conv4_3_norm_mbox_loc_conf
I0406 11:16:48.355412 21768 net.cpp:100] Creating Layer conv4_3_norm_mbox_loc_conf
I0406 11:16:48.355417 21768 net.cpp:434] conv4_3_norm_mbox_loc_conf <- conv4_3_norm_conv4_3_norm_0_split_0
I0406 11:16:48.355423 21768 net.cpp:408] conv4_3_norm_mbox_loc_conf -> conv4_3_norm_mbox_loc_conf
I0406 11:16:48.356087 21768 net.cpp:150] Setting up conv4_3_norm_mbox_loc_conf
I0406 11:16:48.356096 21768 net.cpp:157] Top shape: 32 48 8 32 (393216)
I0406 11:16:48.356101 21768 net.cpp:165] Memory required for data: 300765472
I0406 11:16:48.356107 21768 layer_factory.hpp:77] Creating layer conv4_3_norm_mbox_loc_conf_perm
I0406 11:16:48.356114 21768 net.cpp:100] Creating Layer conv4_3_norm_mbox_loc_conf_perm
I0406 11:16:48.356119 21768 net.cpp:434] conv4_3_norm_mbox_loc_conf_perm <- conv4_3_norm_mbox_loc_conf
I0406 11:16:48.356130 21768 net.cpp:408] conv4_3_norm_mbox_loc_conf_perm -> conv4_3_norm_mbox_loc_conf_perm
I0406 11:16:48.356252 21768 net.cpp:150] Setting up conv4_3_norm_mbox_loc_conf_perm
I0406 11:16:48.356261 21768 net.cpp:157] Top shape: 32 8 32 48 (393216)
I0406 11:16:48.356264 21768 net.cpp:165] Memory required for data: 302338336
I0406 11:16:48.356268 21768 layer_factory.hpp:77] Creating layer conv4_3_norm_mbox_loc_perm
I0406 11:16:48.356276 21768 net.cpp:100] Creating Layer conv4_3_norm_mbox_loc_perm
I0406 11:16:48.356281 21768 net.cpp:434] conv4_3_norm_mbox_loc_perm <- conv4_3_norm_mbox_loc_conf_perm
I0406 11:16:48.356287 21768 net.cpp:408] conv4_3_norm_mbox_loc_perm -> conv4_3_norm_mbox_loc_perm
I0406 11:16:48.356294 21768 net.cpp:408] conv4_3_norm_mbox_loc_perm -> conv4_3_norm_mbox_conf_perm
I0406 11:16:48.356336 21768 net.cpp:150] Setting up conv4_3_norm_mbox_loc_perm
I0406 11:16:48.356353 21768 net.cpp:157] Top shape: 32 8 32 24 (196608)
I0406 11:16:48.356359 21768 net.cpp:157] Top shape: 32 8 32 24 (196608)
I0406 11:16:48.356362 21768 net.cpp:165] Memory required for data: 303911200
I0406 11:16:48.356366 21768 layer_factory.hpp:77] Creating layer conv4_3_norm_mbox_loc_flat
I0406 11:16:48.356374 21768 net.cpp:100] Creating Layer conv4_3_norm_mbox_loc_flat
I0406 11:16:48.356377 21768 net.cpp:434] conv4_3_norm_mbox_loc_flat <- conv4_3_norm_mbox_loc_perm
I0406 11:16:48.356384 21768 net.cpp:408] conv4_3_norm_mbox_loc_flat -> conv4_3_norm_mbox_loc_flat
I0406 11:16:48.356421 21768 net.cpp:150] Setting up conv4_3_norm_mbox_loc_flat
I0406 11:16:48.356428 21768 net.cpp:157] Top shape: 32 6144 (196608)
I0406 11:16:48.356432 21768 net.cpp:165] Memory required for data: 304697632
I0406 11:16:48.356436 21768 layer_factory.hpp:77] Creating layer conv4_3_norm_mbox_conf_flat
I0406 11:16:48.356441 21768 net.cpp:100] Creating Layer conv4_3_norm_mbox_conf_flat
I0406 11:16:48.356446 21768 net.cpp:434] conv4_3_norm_mbox_conf_flat <- conv4_3_norm_mbox_conf_perm
I0406 11:16:48.356451 21768 net.cpp:408] conv4_3_norm_mbox_conf_flat -> conv4_3_norm_mbox_conf_flat
I0406 11:16:48.356479 21768 net.cpp:150] Setting up conv4_3_norm_mbox_conf_flat
I0406 11:16:48.356485 21768 net.cpp:157] Top shape: 32 6144 (196608)
I0406 11:16:48.356489 21768 net.cpp:165] Memory required for data: 305484064
I0406 11:16:48.356493 21768 layer_factory.hpp:77] Creating layer conv4_3_norm_mbox_priorbox
I0406 11:16:48.356499 21768 net.cpp:100] Creating Layer conv4_3_norm_mbox_priorbox
I0406 11:16:48.356504 21768 net.cpp:434] conv4_3_norm_mbox_priorbox <- conv4_3_norm_conv4_3_norm_0_split_1
I0406 11:16:48.356509 21768 net.cpp:434] conv4_3_norm_mbox_priorbox <- data_data_0_split_1
I0406 11:16:48.356515 21768 net.cpp:408] conv4_3_norm_mbox_priorbox -> conv4_3_norm_mbox_priorbox
I0406 11:16:48.356542 21768 net.cpp:150] Setting up conv4_3_norm_mbox_priorbox
I0406 11:16:48.356547 21768 net.cpp:157] Top shape: 1 2 6144 (12288)
I0406 11:16:48.356551 21768 net.cpp:165] Memory required for data: 305533216
I0406 11:16:48.356555 21768 layer_factory.hpp:77] Creating layer fc7_conv_mbox_loc_conf
I0406 11:16:48.356564 21768 net.cpp:100] Creating Layer fc7_conv_mbox_loc_conf
I0406 11:16:48.356567 21768 net.cpp:434] fc7_conv_mbox_loc_conf <- fc7_conv_relu7_0_split_1
I0406 11:16:48.356575 21768 net.cpp:408] fc7_conv_mbox_loc_conf -> fc7_conv_mbox_loc_conf
I0406 11:16:48.358176 21768 net.cpp:150] Setting up fc7_conv_mbox_loc_conf
I0406 11:16:48.358201 21768 net.cpp:157] Top shape: 32 48 4 16 (98304)
I0406 11:16:48.358203 21768 net.cpp:165] Memory required for data: 305926432
I0406 11:16:48.358209 21768 layer_factory.hpp:77] Creating layer fc7_conv_mbox_loc_conf_perm
I0406 11:16:48.358219 21768 net.cpp:100] Creating Layer fc7_conv_mbox_loc_conf_perm
I0406 11:16:48.358223 21768 net.cpp:434] fc7_conv_mbox_loc_conf_perm <- fc7_conv_mbox_loc_conf
I0406 11:16:48.358228 21768 net.cpp:408] fc7_conv_mbox_loc_conf_perm -> fc7_conv_mbox_loc_conf_perm
I0406 11:16:48.358322 21768 net.cpp:150] Setting up fc7_conv_mbox_loc_conf_perm
I0406 11:16:48.358327 21768 net.cpp:157] Top shape: 32 4 16 48 (98304)
I0406 11:16:48.358335 21768 net.cpp:165] Memory required for data: 306319648
I0406 11:16:48.358338 21768 layer_factory.hpp:77] Creating layer fc7_conv_mbox_loc_perm
I0406 11:16:48.358350 21768 net.cpp:100] Creating Layer fc7_conv_mbox_loc_perm
I0406 11:16:48.358352 21768 net.cpp:434] fc7_conv_mbox_loc_perm <- fc7_conv_mbox_loc_conf_perm
I0406 11:16:48.358356 21768 net.cpp:408] fc7_conv_mbox_loc_perm -> fc7_conv_mbox_loc_perm
I0406 11:16:48.358362 21768 net.cpp:408] fc7_conv_mbox_loc_perm -> fc7_conv_mbox_conf_perm
I0406 11:16:48.358393 21768 net.cpp:150] Setting up fc7_conv_mbox_loc_perm
I0406 11:16:48.358397 21768 net.cpp:157] Top shape: 32 4 16 24 (49152)
I0406 11:16:48.358400 21768 net.cpp:157] Top shape: 32 4 16 24 (49152)
I0406 11:16:48.358403 21768 net.cpp:165] Memory required for data: 306712864
I0406 11:16:48.358405 21768 layer_factory.hpp:77] Creating layer fc7_conv_mbox_loc_flat
I0406 11:16:48.358410 21768 net.cpp:100] Creating Layer fc7_conv_mbox_loc_flat
I0406 11:16:48.358413 21768 net.cpp:434] fc7_conv_mbox_loc_flat <- fc7_conv_mbox_loc_perm
I0406 11:16:48.358417 21768 net.cpp:408] fc7_conv_mbox_loc_flat -> fc7_conv_mbox_loc_flat
I0406 11:16:48.358439 21768 net.cpp:150] Setting up fc7_conv_mbox_loc_flat
I0406 11:16:48.358444 21768 net.cpp:157] Top shape: 32 1536 (49152)
I0406 11:16:48.358446 21768 net.cpp:165] Memory required for data: 306909472
I0406 11:16:48.358449 21768 layer_factory.hpp:77] Creating layer fc7_conv_mbox_conf_flat
I0406 11:16:48.358453 21768 net.cpp:100] Creating Layer fc7_conv_mbox_conf_flat
I0406 11:16:48.358455 21768 net.cpp:434] fc7_conv_mbox_conf_flat <- fc7_conv_mbox_conf_perm
I0406 11:16:48.358459 21768 net.cpp:408] fc7_conv_mbox_conf_flat -> fc7_conv_mbox_conf_flat
I0406 11:16:48.358485 21768 net.cpp:150] Setting up fc7_conv_mbox_conf_flat
I0406 11:16:48.358489 21768 net.cpp:157] Top shape: 32 1536 (49152)
I0406 11:16:48.358491 21768 net.cpp:165] Memory required for data: 307106080
I0406 11:16:48.358494 21768 layer_factory.hpp:77] Creating layer fc7_conv_mbox_priorbox
I0406 11:16:48.358500 21768 net.cpp:100] Creating Layer fc7_conv_mbox_priorbox
I0406 11:16:48.358502 21768 net.cpp:434] fc7_conv_mbox_priorbox <- fc7_conv_relu7_0_split_2
I0406 11:16:48.358505 21768 net.cpp:434] fc7_conv_mbox_priorbox <- data_data_0_split_2
I0406 11:16:48.358510 21768 net.cpp:408] fc7_conv_mbox_priorbox -> fc7_conv_mbox_priorbox
I0406 11:16:48.358535 21768 net.cpp:150] Setting up fc7_conv_mbox_priorbox
I0406 11:16:48.358538 21768 net.cpp:157] Top shape: 1 2 1536 (3072)
I0406 11:16:48.358541 21768 net.cpp:165] Memory required for data: 307118368
I0406 11:16:48.358543 21768 layer_factory.hpp:77] Creating layer conv6_2_mbox_loc_conf
I0406 11:16:48.358551 21768 net.cpp:100] Creating Layer conv6_2_mbox_loc_conf
I0406 11:16:48.358554 21768 net.cpp:434] conv6_2_mbox_loc_conf <- conv6_2_conv6_2_relu_0_split_1
I0406 11:16:48.358558 21768 net.cpp:408] conv6_2_mbox_loc_conf -> conv6_2_mbox_loc_conf
I0406 11:16:48.358881 21768 net.cpp:150] Setting up conv6_2_mbox_loc_conf
I0406 11:16:48.358887 21768 net.cpp:157] Top shape: 32 48 2 8 (24576)
I0406 11:16:48.358891 21768 net.cpp:165] Memory required for data: 307216672
I0406 11:16:48.358894 21768 layer_factory.hpp:77] Creating layer conv6_2_mbox_loc_conf_perm
I0406 11:16:48.358898 21768 net.cpp:100] Creating Layer conv6_2_mbox_loc_conf_perm
I0406 11:16:48.358901 21768 net.cpp:434] conv6_2_mbox_loc_conf_perm <- conv6_2_mbox_loc_conf
I0406 11:16:48.358904 21768 net.cpp:408] conv6_2_mbox_loc_conf_perm -> conv6_2_mbox_loc_conf_perm
I0406 11:16:48.358995 21768 net.cpp:150] Setting up conv6_2_mbox_loc_conf_perm
I0406 11:16:48.358999 21768 net.cpp:157] Top shape: 32 2 8 48 (24576)
I0406 11:16:48.359002 21768 net.cpp:165] Memory required for data: 307314976
I0406 11:16:48.359004 21768 layer_factory.hpp:77] Creating layer conv6_2_mbox_loc_perm
I0406 11:16:48.359009 21768 net.cpp:100] Creating Layer conv6_2_mbox_loc_perm
I0406 11:16:48.359011 21768 net.cpp:434] conv6_2_mbox_loc_perm <- conv6_2_mbox_loc_conf_perm
I0406 11:16:48.359014 21768 net.cpp:408] conv6_2_mbox_loc_perm -> conv6_2_mbox_loc_perm
I0406 11:16:48.359021 21768 net.cpp:408] conv6_2_mbox_loc_perm -> conv6_2_mbox_conf_perm
I0406 11:16:48.359051 21768 net.cpp:150] Setting up conv6_2_mbox_loc_perm
I0406 11:16:48.359055 21768 net.cpp:157] Top shape: 32 2 8 24 (12288)
I0406 11:16:48.359058 21768 net.cpp:157] Top shape: 32 2 8 24 (12288)
I0406 11:16:48.359061 21768 net.cpp:165] Memory required for data: 307413280
I0406 11:16:48.359062 21768 layer_factory.hpp:77] Creating layer conv6_2_mbox_loc_flat
I0406 11:16:48.359066 21768 net.cpp:100] Creating Layer conv6_2_mbox_loc_flat
I0406 11:16:48.359069 21768 net.cpp:434] conv6_2_mbox_loc_flat <- conv6_2_mbox_loc_perm
I0406 11:16:48.359072 21768 net.cpp:408] conv6_2_mbox_loc_flat -> conv6_2_mbox_loc_flat
I0406 11:16:48.359091 21768 net.cpp:150] Setting up conv6_2_mbox_loc_flat
I0406 11:16:48.359094 21768 net.cpp:157] Top shape: 32 384 (12288)
I0406 11:16:48.359097 21768 net.cpp:165] Memory required for data: 307462432
I0406 11:16:48.359099 21768 layer_factory.hpp:77] Creating layer conv6_2_mbox_conf_flat
I0406 11:16:48.359102 21768 net.cpp:100] Creating Layer conv6_2_mbox_conf_flat
I0406 11:16:48.359105 21768 net.cpp:434] conv6_2_mbox_conf_flat <- conv6_2_mbox_conf_perm
I0406 11:16:48.359108 21768 net.cpp:408] conv6_2_mbox_conf_flat -> conv6_2_mbox_conf_flat
I0406 11:16:48.359127 21768 net.cpp:150] Setting up conv6_2_mbox_conf_flat
I0406 11:16:48.359132 21768 net.cpp:157] Top shape: 32 384 (12288)
I0406 11:16:48.359133 21768 net.cpp:165] Memory required for data: 307511584
I0406 11:16:48.359135 21768 layer_factory.hpp:77] Creating layer conv6_2_mbox_priorbox
I0406 11:16:48.359139 21768 net.cpp:100] Creating Layer conv6_2_mbox_priorbox
I0406 11:16:48.359143 21768 net.cpp:434] conv6_2_mbox_priorbox <- conv6_2_conv6_2_relu_0_split_2
I0406 11:16:48.359145 21768 net.cpp:434] conv6_2_mbox_priorbox <- data_data_0_split_3
I0406 11:16:48.359149 21768 net.cpp:408] conv6_2_mbox_priorbox -> conv6_2_mbox_priorbox
I0406 11:16:48.359169 21768 net.cpp:150] Setting up conv6_2_mbox_priorbox
I0406 11:16:48.359172 21768 net.cpp:157] Top shape: 1 2 384 (768)
I0406 11:16:48.359174 21768 net.cpp:165] Memory required for data: 307514656
I0406 11:16:48.359177 21768 layer_factory.hpp:77] Creating layer conv7_2_mbox_loc_conf
I0406 11:16:48.359182 21768 net.cpp:100] Creating Layer conv7_2_mbox_loc_conf
I0406 11:16:48.359185 21768 net.cpp:434] conv7_2_mbox_loc_conf <- conv7_2_conv7_2_relu_0_split_1
I0406 11:16:48.359190 21768 net.cpp:408] conv7_2_mbox_loc_conf -> conv7_2_mbox_loc_conf
I0406 11:16:48.359457 21768 net.cpp:150] Setting up conv7_2_mbox_loc_conf
I0406 11:16:48.359462 21768 net.cpp:157] Top shape: 32 48 1 4 (6144)
I0406 11:16:48.359464 21768 net.cpp:165] Memory required for data: 307539232
I0406 11:16:48.359468 21768 layer_factory.hpp:77] Creating layer conv7_2_mbox_loc_conf_perm
I0406 11:16:48.359472 21768 net.cpp:100] Creating Layer conv7_2_mbox_loc_conf_perm
I0406 11:16:48.359475 21768 net.cpp:434] conv7_2_mbox_loc_conf_perm <- conv7_2_mbox_loc_conf
I0406 11:16:48.359478 21768 net.cpp:408] conv7_2_mbox_loc_conf_perm -> conv7_2_mbox_loc_conf_perm
I0406 11:16:48.359565 21768 net.cpp:150] Setting up conv7_2_mbox_loc_conf_perm
I0406 11:16:48.359568 21768 net.cpp:157] Top shape: 32 1 4 48 (6144)
I0406 11:16:48.359571 21768 net.cpp:165] Memory required for data: 307563808
I0406 11:16:48.359573 21768 layer_factory.hpp:77] Creating layer conv7_2_mbox_loc_perm
I0406 11:16:48.359577 21768 net.cpp:100] Creating Layer conv7_2_mbox_loc_perm
I0406 11:16:48.359580 21768 net.cpp:434] conv7_2_mbox_loc_perm <- conv7_2_mbox_loc_conf_perm
I0406 11:16:48.359583 21768 net.cpp:408] conv7_2_mbox_loc_perm -> conv7_2_mbox_loc_perm
I0406 11:16:48.359587 21768 net.cpp:408] conv7_2_mbox_loc_perm -> conv7_2_mbox_conf_perm
I0406 11:16:48.359616 21768 net.cpp:150] Setting up conv7_2_mbox_loc_perm
I0406 11:16:48.359621 21768 net.cpp:157] Top shape: 32 1 4 24 (3072)
I0406 11:16:48.359623 21768 net.cpp:157] Top shape: 32 1 4 24 (3072)
I0406 11:16:48.359625 21768 net.cpp:165] Memory required for data: 307588384
I0406 11:16:48.359630 21768 layer_factory.hpp:77] Creating layer conv7_2_mbox_loc_flat
I0406 11:16:48.359634 21768 net.cpp:100] Creating Layer conv7_2_mbox_loc_flat
I0406 11:16:48.359637 21768 net.cpp:434] conv7_2_mbox_loc_flat <- conv7_2_mbox_loc_perm
I0406 11:16:48.359640 21768 net.cpp:408] conv7_2_mbox_loc_flat -> conv7_2_mbox_loc_flat
I0406 11:16:48.359658 21768 net.cpp:150] Setting up conv7_2_mbox_loc_flat
I0406 11:16:48.359663 21768 net.cpp:157] Top shape: 32 96 (3072)
I0406 11:16:48.359664 21768 net.cpp:165] Memory required for data: 307600672
I0406 11:16:48.359666 21768 layer_factory.hpp:77] Creating layer conv7_2_mbox_conf_flat
I0406 11:16:48.359670 21768 net.cpp:100] Creating Layer conv7_2_mbox_conf_flat
I0406 11:16:48.359673 21768 net.cpp:434] conv7_2_mbox_conf_flat <- conv7_2_mbox_conf_perm
I0406 11:16:48.359676 21768 net.cpp:408] conv7_2_mbox_conf_flat -> conv7_2_mbox_conf_flat
I0406 11:16:48.359694 21768 net.cpp:150] Setting up conv7_2_mbox_conf_flat
I0406 11:16:48.359699 21768 net.cpp:157] Top shape: 32 96 (3072)
I0406 11:16:48.359700 21768 net.cpp:165] Memory required for data: 307612960
I0406 11:16:48.359704 21768 layer_factory.hpp:77] Creating layer conv7_2_mbox_priorbox
I0406 11:16:48.359706 21768 net.cpp:100] Creating Layer conv7_2_mbox_priorbox
I0406 11:16:48.359709 21768 net.cpp:434] conv7_2_mbox_priorbox <- conv7_2_conv7_2_relu_0_split_2
I0406 11:16:48.359712 21768 net.cpp:434] conv7_2_mbox_priorbox <- data_data_0_split_4
I0406 11:16:48.359716 21768 net.cpp:408] conv7_2_mbox_priorbox -> conv7_2_mbox_priorbox
I0406 11:16:48.359735 21768 net.cpp:150] Setting up conv7_2_mbox_priorbox
I0406 11:16:48.359740 21768 net.cpp:157] Top shape: 1 2 96 (192)
I0406 11:16:48.359741 21768 net.cpp:165] Memory required for data: 307613728
I0406 11:16:48.359743 21768 layer_factory.hpp:77] Creating layer conv8_2_mbox_loc_conf
I0406 11:16:48.359748 21768 net.cpp:100] Creating Layer conv8_2_mbox_loc_conf
I0406 11:16:48.359751 21768 net.cpp:434] conv8_2_mbox_loc_conf <- conv8_2_conv8_2_relu_0_split_1
I0406 11:16:48.359755 21768 net.cpp:408] conv8_2_mbox_loc_conf -> conv8_2_mbox_loc_conf
I0406 11:16:48.360023 21768 net.cpp:150] Setting up conv8_2_mbox_loc_conf
I0406 11:16:48.360028 21768 net.cpp:157] Top shape: 32 48 1 2 (3072)
I0406 11:16:48.360030 21768 net.cpp:165] Memory required for data: 307626016
I0406 11:16:48.360034 21768 layer_factory.hpp:77] Creating layer conv8_2_mbox_loc_conf_perm
I0406 11:16:48.360038 21768 net.cpp:100] Creating Layer conv8_2_mbox_loc_conf_perm
I0406 11:16:48.360041 21768 net.cpp:434] conv8_2_mbox_loc_conf_perm <- conv8_2_mbox_loc_conf
I0406 11:16:48.360045 21768 net.cpp:408] conv8_2_mbox_loc_conf_perm -> conv8_2_mbox_loc_conf_perm
I0406 11:16:48.360131 21768 net.cpp:150] Setting up conv8_2_mbox_loc_conf_perm
I0406 11:16:48.360134 21768 net.cpp:157] Top shape: 32 1 2 48 (3072)
I0406 11:16:48.360136 21768 net.cpp:165] Memory required for data: 307638304
I0406 11:16:48.360139 21768 layer_factory.hpp:77] Creating layer conv8_2_mbox_loc_perm
I0406 11:16:48.360142 21768 net.cpp:100] Creating Layer conv8_2_mbox_loc_perm
I0406 11:16:48.360146 21768 net.cpp:434] conv8_2_mbox_loc_perm <- conv8_2_mbox_loc_conf_perm
I0406 11:16:48.360148 21768 net.cpp:408] conv8_2_mbox_loc_perm -> conv8_2_mbox_loc_perm
I0406 11:16:48.360152 21768 net.cpp:408] conv8_2_mbox_loc_perm -> conv8_2_mbox_conf_perm
I0406 11:16:48.360182 21768 net.cpp:150] Setting up conv8_2_mbox_loc_perm
I0406 11:16:48.360185 21768 net.cpp:157] Top shape: 32 1 2 24 (1536)
I0406 11:16:48.360188 21768 net.cpp:157] Top shape: 32 1 2 24 (1536)
I0406 11:16:48.360190 21768 net.cpp:165] Memory required for data: 307650592
I0406 11:16:48.360193 21768 layer_factory.hpp:77] Creating layer conv8_2_mbox_loc_flat
I0406 11:16:48.360196 21768 net.cpp:100] Creating Layer conv8_2_mbox_loc_flat
I0406 11:16:48.360198 21768 net.cpp:434] conv8_2_mbox_loc_flat <- conv8_2_mbox_loc_perm
I0406 11:16:48.360203 21768 net.cpp:408] conv8_2_mbox_loc_flat -> conv8_2_mbox_loc_flat
I0406 11:16:48.360219 21768 net.cpp:150] Setting up conv8_2_mbox_loc_flat
I0406 11:16:48.360224 21768 net.cpp:157] Top shape: 32 48 (1536)
I0406 11:16:48.360229 21768 net.cpp:165] Memory required for data: 307656736
I0406 11:16:48.360230 21768 layer_factory.hpp:77] Creating layer conv8_2_mbox_conf_flat
I0406 11:16:48.360234 21768 net.cpp:100] Creating Layer conv8_2_mbox_conf_flat
I0406 11:16:48.360236 21768 net.cpp:434] conv8_2_mbox_conf_flat <- conv8_2_mbox_conf_perm
I0406 11:16:48.360240 21768 net.cpp:408] conv8_2_mbox_conf_flat -> conv8_2_mbox_conf_flat
I0406 11:16:48.360258 21768 net.cpp:150] Setting up conv8_2_mbox_conf_flat
I0406 11:16:48.360262 21768 net.cpp:157] Top shape: 32 48 (1536)
I0406 11:16:48.360265 21768 net.cpp:165] Memory required for data: 307662880
I0406 11:16:48.360266 21768 layer_factory.hpp:77] Creating layer conv8_2_mbox_priorbox
I0406 11:16:48.360270 21768 net.cpp:100] Creating Layer conv8_2_mbox_priorbox
I0406 11:16:48.360273 21768 net.cpp:434] conv8_2_mbox_priorbox <- conv8_2_conv8_2_relu_0_split_2
I0406 11:16:48.360276 21768 net.cpp:434] conv8_2_mbox_priorbox <- data_data_0_split_5
I0406 11:16:48.360280 21768 net.cpp:408] conv8_2_mbox_priorbox -> conv8_2_mbox_priorbox
I0406 11:16:48.360299 21768 net.cpp:150] Setting up conv8_2_mbox_priorbox
I0406 11:16:48.360302 21768 net.cpp:157] Top shape: 1 2 48 (96)
I0406 11:16:48.360306 21768 net.cpp:165] Memory required for data: 307663264
I0406 11:16:48.360307 21768 layer_factory.hpp:77] Creating layer pool6_mbox_loc_conf
I0406 11:16:48.360312 21768 net.cpp:100] Creating Layer pool6_mbox_loc_conf
I0406 11:16:48.360316 21768 net.cpp:434] pool6_mbox_loc_conf <- pool6_pool6_0_split_0
I0406 11:16:48.360319 21768 net.cpp:408] pool6_mbox_loc_conf -> pool6_mbox_loc_conf
I0406 11:16:48.360715 21768 net.cpp:150] Setting up pool6_mbox_loc_conf
I0406 11:16:48.360726 21768 net.cpp:157] Top shape: 32 48 1 1 (1536)
I0406 11:16:48.360730 21768 net.cpp:165] Memory required for data: 307669408
I0406 11:16:48.360738 21768 layer_factory.hpp:77] Creating layer pool6_mbox_loc_conf_perm
I0406 11:16:48.360743 21768 net.cpp:100] Creating Layer pool6_mbox_loc_conf_perm
I0406 11:16:48.360749 21768 net.cpp:434] pool6_mbox_loc_conf_perm <- pool6_mbox_loc_conf
I0406 11:16:48.360754 21768 net.cpp:408] pool6_mbox_loc_conf_perm -> pool6_mbox_loc_conf_perm
I0406 11:16:48.360878 21768 net.cpp:150] Setting up pool6_mbox_loc_conf_perm
I0406 11:16:48.360885 21768 net.cpp:157] Top shape: 32 1 1 48 (1536)
I0406 11:16:48.360889 21768 net.cpp:165] Memory required for data: 307675552
I0406 11:16:48.360893 21768 layer_factory.hpp:77] Creating layer pool6_mbox_loc_perm
I0406 11:16:48.360899 21768 net.cpp:100] Creating Layer pool6_mbox_loc_perm
I0406 11:16:48.360903 21768 net.cpp:434] pool6_mbox_loc_perm <- pool6_mbox_loc_conf_perm
I0406 11:16:48.360909 21768 net.cpp:408] pool6_mbox_loc_perm -> pool6_mbox_loc_perm
I0406 11:16:48.360915 21768 net.cpp:408] pool6_mbox_loc_perm -> pool6_mbox_conf_perm
I0406 11:16:48.360958 21768 net.cpp:150] Setting up pool6_mbox_loc_perm
I0406 11:16:48.360965 21768 net.cpp:157] Top shape: 32 1 1 24 (768)
I0406 11:16:48.360970 21768 net.cpp:157] Top shape: 32 1 1 24 (768)
I0406 11:16:48.360973 21768 net.cpp:165] Memory required for data: 307681696
I0406 11:16:48.360978 21768 layer_factory.hpp:77] Creating layer pool6_mbox_loc_flat
I0406 11:16:48.360983 21768 net.cpp:100] Creating Layer pool6_mbox_loc_flat
I0406 11:16:48.360987 21768 net.cpp:434] pool6_mbox_loc_flat <- pool6_mbox_loc_perm
I0406 11:16:48.360993 21768 net.cpp:408] pool6_mbox_loc_flat -> pool6_mbox_loc_flat
I0406 11:16:48.361018 21768 net.cpp:150] Setting up pool6_mbox_loc_flat
I0406 11:16:48.361024 21768 net.cpp:157] Top shape: 32 24 (768)
I0406 11:16:48.361028 21768 net.cpp:165] Memory required for data: 307684768
I0406 11:16:48.361032 21768 layer_factory.hpp:77] Creating layer pool6_mbox_conf_flat
I0406 11:16:48.361037 21768 net.cpp:100] Creating Layer pool6_mbox_conf_flat
I0406 11:16:48.361042 21768 net.cpp:434] pool6_mbox_conf_flat <- pool6_mbox_conf_perm
I0406 11:16:48.361045 21768 net.cpp:408] pool6_mbox_conf_flat -> pool6_mbox_conf_flat
I0406 11:16:48.361073 21768 net.cpp:150] Setting up pool6_mbox_conf_flat
I0406 11:16:48.361080 21768 net.cpp:157] Top shape: 32 24 (768)
I0406 11:16:48.361084 21768 net.cpp:165] Memory required for data: 307687840
I0406 11:16:48.361088 21768 layer_factory.hpp:77] Creating layer pool6_mbox_priorbox
I0406 11:16:48.361095 21768 net.cpp:100] Creating Layer pool6_mbox_priorbox
I0406 11:16:48.361100 21768 net.cpp:434] pool6_mbox_priorbox <- pool6_pool6_0_split_1
I0406 11:16:48.361105 21768 net.cpp:434] pool6_mbox_priorbox <- data_data_0_split_6
I0406 11:16:48.361110 21768 net.cpp:408] pool6_mbox_priorbox -> pool6_mbox_priorbox
I0406 11:16:48.361141 21768 net.cpp:150] Setting up pool6_mbox_priorbox
I0406 11:16:48.361147 21768 net.cpp:157] Top shape: 1 2 24 (48)
I0406 11:16:48.361151 21768 net.cpp:165] Memory required for data: 307688032
I0406 11:16:48.361155 21768 layer_factory.hpp:77] Creating layer mbox_loc
I0406 11:16:48.361161 21768 net.cpp:100] Creating Layer mbox_loc
I0406 11:16:48.361166 21768 net.cpp:434] mbox_loc <- conv4_3_norm_mbox_loc_flat
I0406 11:16:48.361171 21768 net.cpp:434] mbox_loc <- fc7_conv_mbox_loc_flat
I0406 11:16:48.361177 21768 net.cpp:434] mbox_loc <- conv6_2_mbox_loc_flat
I0406 11:16:48.361181 21768 net.cpp:434] mbox_loc <- conv7_2_mbox_loc_flat
I0406 11:16:48.361186 21768 net.cpp:434] mbox_loc <- conv8_2_mbox_loc_flat
I0406 11:16:48.361191 21768 net.cpp:434] mbox_loc <- pool6_mbox_loc_flat
I0406 11:16:48.361196 21768 net.cpp:408] mbox_loc -> mbox_loc
I0406 11:16:48.363293 21768 net.cpp:150] Setting up mbox_loc
I0406 11:16:48.363317 21768 net.cpp:157] Top shape: 32 8232 (263424)
I0406 11:16:48.363323 21768 net.cpp:165] Memory required for data: 308741728
I0406 11:16:48.363329 21768 layer_factory.hpp:77] Creating layer mbox_conf
I0406 11:16:48.363340 21768 net.cpp:100] Creating Layer mbox_conf
I0406 11:16:48.363348 21768 net.cpp:434] mbox_conf <- conv4_3_norm_mbox_conf_flat
I0406 11:16:48.363356 21768 net.cpp:434] mbox_conf <- fc7_conv_mbox_conf_flat
I0406 11:16:48.363363 21768 net.cpp:434] mbox_conf <- conv6_2_mbox_conf_flat
I0406 11:16:48.363370 21768 net.cpp:434] mbox_conf <- conv7_2_mbox_conf_flat
I0406 11:16:48.363376 21768 net.cpp:434] mbox_conf <- conv8_2_mbox_conf_flat
I0406 11:16:48.363382 21768 net.cpp:434] mbox_conf <- pool6_mbox_conf_flat
I0406 11:16:48.363389 21768 net.cpp:408] mbox_conf -> mbox_conf
I0406 11:16:48.363445 21768 net.cpp:150] Setting up mbox_conf
I0406 11:16:48.363453 21768 net.cpp:157] Top shape: 32 8232 (263424)
I0406 11:16:48.363457 21768 net.cpp:165] Memory required for data: 309795424
I0406 11:16:48.363462 21768 layer_factory.hpp:77] Creating layer mbox_priorbox
I0406 11:16:48.363469 21768 net.cpp:100] Creating Layer mbox_priorbox
I0406 11:16:48.363474 21768 net.cpp:434] mbox_priorbox <- conv4_3_norm_mbox_priorbox
I0406 11:16:48.363481 21768 net.cpp:434] mbox_priorbox <- fc7_conv_mbox_priorbox
I0406 11:16:48.363487 21768 net.cpp:434] mbox_priorbox <- conv6_2_mbox_priorbox
I0406 11:16:48.363493 21768 net.cpp:434] mbox_priorbox <- conv7_2_mbox_priorbox
I0406 11:16:48.363498 21768 net.cpp:434] mbox_priorbox <- conv8_2_mbox_priorbox
I0406 11:16:48.363504 21768 net.cpp:434] mbox_priorbox <- pool6_mbox_priorbox
I0406 11:16:48.363510 21768 net.cpp:408] mbox_priorbox -> mbox_priorbox
I0406 11:16:48.363543 21768 net.cpp:150] Setting up mbox_priorbox
I0406 11:16:48.363551 21768 net.cpp:157] Top shape: 1 2 8232 (16464)
I0406 11:16:48.363555 21768 net.cpp:165] Memory required for data: 309861280
I0406 11:16:48.363560 21768 layer_factory.hpp:77] Creating layer mbox_conf_reshape
I0406 11:16:48.363567 21768 net.cpp:100] Creating Layer mbox_conf_reshape
I0406 11:16:48.363574 21768 net.cpp:434] mbox_conf_reshape <- mbox_conf
I0406 11:16:48.363579 21768 net.cpp:408] mbox_conf_reshape -> mbox_conf_reshape
I0406 11:16:48.363615 21768 net.cpp:150] Setting up mbox_conf_reshape
I0406 11:16:48.363621 21768 net.cpp:157] Top shape: 32 2058 4 (263424)
I0406 11:16:48.363626 21768 net.cpp:165] Memory required for data: 310914976
I0406 11:16:48.363631 21768 layer_factory.hpp:77] Creating layer mbox_conf_softmax
I0406 11:16:48.363638 21768 net.cpp:100] Creating Layer mbox_conf_softmax
I0406 11:16:48.363651 21768 net.cpp:434] mbox_conf_softmax <- mbox_conf_reshape
I0406 11:16:48.363657 21768 net.cpp:408] mbox_conf_softmax -> mbox_conf_softmax
I0406 11:16:48.363750 21768 net.cpp:150] Setting up mbox_conf_softmax
I0406 11:16:48.363759 21768 net.cpp:157] Top shape: 32 2058 4 (263424)
I0406 11:16:48.363764 21768 net.cpp:165] Memory required for data: 311968672
I0406 11:16:48.363767 21768 layer_factory.hpp:77] Creating layer mbox_conf_flatten
I0406 11:16:48.363775 21768 net.cpp:100] Creating Layer mbox_conf_flatten
I0406 11:16:48.363780 21768 net.cpp:434] mbox_conf_flatten <- mbox_conf_softmax
I0406 11:16:48.363786 21768 net.cpp:408] mbox_conf_flatten -> mbox_conf_flatten
I0406 11:16:48.363814 21768 net.cpp:150] Setting up mbox_conf_flatten
I0406 11:16:48.363821 21768 net.cpp:157] Top shape: 32 8232 (263424)
I0406 11:16:48.363826 21768 net.cpp:165] Memory required for data: 313022368
I0406 11:16:48.363831 21768 layer_factory.hpp:77] Creating layer detection_out
I0406 11:16:48.363840 21768 net.cpp:100] Creating Layer detection_out
I0406 11:16:48.363845 21768 net.cpp:434] detection_out <- mbox_loc
I0406 11:16:48.363852 21768 net.cpp:434] detection_out <- mbox_conf_flatten
I0406 11:16:48.363857 21768 net.cpp:434] detection_out <- mbox_priorbox
I0406 11:16:48.363863 21768 net.cpp:408] detection_out -> detection_out
I0406 11:16:48.368367 21768 net.cpp:150] Setting up detection_out
I0406 11:16:48.368402 21768 net.cpp:157] Top shape: 1 1 1 7 (7)
I0406 11:16:48.368407 21768 net.cpp:165] Memory required for data: 313022396
I0406 11:16:48.368413 21768 layer_factory.hpp:77] Creating layer detection_eval
I0406 11:16:48.368425 21768 net.cpp:100] Creating Layer detection_eval
I0406 11:16:48.368432 21768 net.cpp:434] detection_eval <- detection_out
I0406 11:16:48.368439 21768 net.cpp:434] detection_eval <- label
I0406 11:16:48.368446 21768 net.cpp:408] detection_eval -> detection_eval
I0406 11:16:48.372400 21768 net.cpp:150] Setting up detection_eval
I0406 11:16:48.372440 21768 net.cpp:157] Top shape: 1 1 4 5 (20)
I0406 11:16:48.372445 21768 net.cpp:165] Memory required for data: 313022476
I0406 11:16:48.372452 21768 net.cpp:228] detection_eval does not need backward computation.
I0406 11:16:48.372457 21768 net.cpp:228] detection_out does not need backward computation.
I0406 11:16:48.372462 21768 net.cpp:228] mbox_conf_flatten does not need backward computation.
I0406 11:16:48.372467 21768 net.cpp:228] mbox_conf_softmax does not need backward computation.
…
