…
      sampler {
        min_scale: 0.3
        max_scale: 1
        min_aspect_ratio: 0.5
        max_aspect_ratio: 2
      }
      sample_constraint {
        min_jaccard_overlap: 0.9
      }
      max_sample: 1
      max_trials: 50
    }
    batch_sampler {
      sampler {
        min_scale: 0.3
        max_scale: 1
        min_aspect_ratio: 0.5
        max_aspect_ratio: 2
      }
      sample_constraint {
        max_jaccard_overlap: 1
      }
      max_sample: 1
      max_trials: 50
    }
    label_map_file: "/tmp/toqinhuan/labelmap.prototxt"
  }
}
layer {
  name: "conv1_1"
  type: "Convolution"
  bottom: "data"
  top: "conv1_1"
  param {
    lr_mult: 1
    decay_mult: 1
  }
  param {
    lr_mult: 2
    decay_mult: 0
  }
  convolution_param {
    num_output: 16
    pad: 1
    kernel_size: 3
    weight_filler {
      type: "xavier"
    }
    bias_filler {
      type: "constant"
      value: 0
    }
  }
}
layer {
  name: "relu1_1"
  type: "ReLU"
  bottom: "conv1_1"
  top: "conv1_1"
}
layer {
  name: "conv1_2"
  type: "Convolution"
  bottom: "conv1_1"
  top: "conv1_2"
  param {
    lr_mult: 1
    decay_mult: 1
  }
  param {
    lr_mult: 2
    decay_mult: 0
  }
  convolution_param {
    num_output: 16
    pad: 1
    kernel_size: 3
    stride: 2
    weight_filler {
      type: "xavier"
    }
    bias_filler {
      type: "constant"
      value: 0
    }
  }
}
layer {
  name: "relu1_2"
  type: "ReLU"
  bottom: "conv1_2"
  top: "conv1_2"
}
layer {
  name: "conv2_1"
  type: "Convolution"
  bottom: "conv1_2"
  top: "conv2_1"
  param {
    lr_mult: 1
    decay_mult: 1
  }
  param {
    lr_mult: 2
    decay_mult: 0
  }
  convolution_param {
    num_output: 32
    pad: 1
    kernel_size: 3
    weight_filler {
      type: "xavier"
    }
    bias_filler {
      type: "constant"
      value: 0
    }
  }
}
layer {
  name: "relu2_1"
  type: "ReLU"
  bottom: "conv2_1"
  top: "conv2_1"
}
layer {
  name: "conv2_2"
  type: "Convolution"
  bottom: "conv2_1"
  top: "conv2_2"
  param {
    lr_mult: 1
    decay_mult: 1
  }
  param {
    lr_mult: 2
    decay_mult: 0
  }
  convolution_param {
    num_output: 32
    pad: 1
    kernel_size: 3
    stride: 2
    weight_filler {
      type: "xavier"
    }
    bias_filler {
      type: "constant"
      value: 0
    }
  }
}
layer {
  name: "relu2_2"
  type: "ReLU"
  bottom: "conv2_2"
  top: "conv2_2"
}
layer {
  name: "conv3_1"
  type: "Convolution"
  bottom: "conv2_2"
  top: "conv3_1"
  param {
    lr_mult: 1
    decay_mult: 1
  }
  param {
    lr_mult: 2
    decay_mult: 0
  }
  convolution_param {
    num_output: 64
    pad: 1
    kernel_size: 3
    weight_filler {
      type: "xavier"
    }
    bias_filler {
      type: "constant"
      value: 0
    }
  }
}
layer {
  name: "relu3_1"
  type: "ReLU"
  bottom: "conv3_1"
  top: "conv3_1"
}
layer {
  name: "conv3_2"
  type: "Convolution"
  bottom: "conv3_1"
  top: "conv3_2"
  param {
    lr_mult: 1
    decay_mult: 1
  }
  param {
    lr_mult: 2
    decay_mult: 0
  }
  convolution_param {
    num_output: 64
    pad: 1
    kernel_size: 3
    weight_filler {
      type: "xavier"
    }
    bias_filler {
      type: "constant"
      value: 0
    }
  }
}
layer {
  name: "relu3_2"
  type: "ReLU"
  bottom: "conv3_2"
  top: "conv3_2"
}
layer {
  name: "conv3_3"
  type: "Convolution"
  bottom: "conv3_2"
  top: "conv3_3"
  param {
    lr_mult: 1
    decay_mult: 1
  }
  param {
    lr_mult: 2
    decay_mult: 0
  }
  convolution_param {
    num_output: 64
    pad: 1
    kernel_size: 3
    weight_filler {
      type: "xavier"
    }
    bias_filler {
      type: "constant"
      value: 0
    }
  }
}
layer {
  name: "relu3_3"
  type: "ReLU"
  bottom: "conv3_3"
  top: "conv3_3"
}
layer {
  name: "pool3"
  type: "Pooling"
  bottom: "conv3_3"
  top: "pool3"
  pooling_param {
    pool: MAX
    kernel_size: 2
    stride: 2
  }
}
layer {
  name: "conv4_1"
  type: "Convolution"
  bottom: "pool3"
  top: "conv4_1"
  param {
    lr_mult: 1
    decay_mult: 1
  }
  param {
    lr_mult: 2
    decay_mult: 0
  }
  convolution_param {
    num_output: 128
    pad: 1
    kernel_size: 3
    weight_filler {
      type: "xavier"
    }
    bias_filler {
      type: "constant"
      value: 0
    }
  }
}
layer {
  name: "relu4_1"
  type: "ReLU"
  bottom: "conv4_1"
  top: "conv4_1"
}
layer {
  name: "conv4_2"
  type: "Convolution"
  bottom: "conv4_1"
  top: "conv4_2"
  param {
    lr_mult: 1
    decay_mult: 1
  }
  param {
    lr_mult: 2
    decay_mult: 0
  }
  convolution_param {
    num_output: 128
    pad: 1
    kernel_size: 3
    weight_filler {
      type: "xavier"
    }
    bias_filler {
      type: "constant"
      value: 0
    }
  }
}
layer {
  name: "relu4_2"
  type: "ReLU"
  bottom: "conv4_2"
  top: "conv4_2"
}
layer {
  name: "conv4_3"
  type: "Convolution"
  bottom: "conv4_2"
  top: "conv4_3"
  param {
    lr_mult: 1
    decay_mult: 1
  }
  param {
    lr_mult: 2
    decay_mult: 0
  }
  convolution_param {
    num_output: 128
    pad: 1
    kernel_size: 3
    weight_filler {
      type: "xavier"
    }
    bias_filler {
      type: "constant"
      value: 0
    }
  }
}
layer {
  name: "relu4_3"
  type: "ReLU"
  bottom: "conv4_3"
  top: "conv4_3"
}
layer {
  name: "pool4"
  type: "Pooling"
  bottom: "conv4_3"
  top: "pool4"
  pooling_param {
    pool: MAX
    kernel_size: 2
    stride: 2
  }
}
layer {
  name: "conv5_1"
  type: "Convolution"
  bottom: "pool4"
  top: "conv5_1"
  param {
    lr_mult: 1
    decay_mult: 1
  }
  param {
    lr_mult: 2
    decay_mult: 0
  }
  convolution_param {
    num_output: 128
    pad: 1
    kernel_size: 3
    weight_filler {
      type: "xavier"
    }
    bias_filler {
      type: "constant"
      value: 0
    }
    dilation: 1
  }
}
layer {
  name: "relu5_1"
  type: "ReLU"
  bottom: "conv5_1"
  top: "conv5_1"
}
layer {
  name: "conv5_2"
  type: "Convolution"
  bottom: "conv5_1"
  top: "conv5_2"
  param {
    lr_mult: 1
    decay_mult: 1
  }
  param {
    lr_mult: 2
    decay_mult: 0
  }
  convolution_param {
    num_output: 128
    pad: 1
    kernel_size: 3
    weight_filler {
      type: "xavier"
    }
    bias_filler {
      type: "constant"
      value: 0
    }
    dilation: 1
  }
}
layer {
  name: "relu5_2"
  type: "ReLU"
  bottom: "conv5_2"
  top: "conv5_2"
}
layer {
  name: "conv5_3"
  type: "Convolution"
  bottom: "conv5_2"
  top: "conv5_3"
  param {
    lr_mult: 1
    decay_mult: 1
  }
  param {
    lr_mult: 2
    decay_mult: 0
  }
  convolution_param {
    num_output: 128
    pad: 1
    kernel_size: 3
    weight_filler {
      type: "xavier"
    }
    bias_filler {
      type: "constant"
      value: 0
    }
    dilation: 1
  }
}
layer {
  name: "relu5_3"
  type: "ReLU"
  bottom: "conv5_3"
  top: "conv5_3"
}
layer {
  name: "pool5"
  type: "Pooling"
  bottom: "conv5_3"
  top: "pool5"
  pooling_param {
    pool: MAX
    kernel_size: 3
    stride: 1
    pad: 1
  }
}
layer {
  name: "fc6_conv"
  type: "Convolution"
  bottom: "pool5"
  top: "fc6_conv"
  param {
    lr_mult: 1
    decay_mult: 1
  }
  param {
    lr_mult: 2
    decay_mult: 0
  }
  convolution_param {
    num_output: 256
    pad: 6
    kernel_size: 3
    weight_filler {
      type: "xavier"
    }
    bias_filler {
      type: "constant"
      value: 0
    }
    dilation: 6
  }
}
layer {
  name: "relu6"
  type: "ReLU"
  bottom: "fc6_conv"
  top: "fc6_conv"
}
layer {
  name: "fc7_conv"
  type: "Convolution"
  bottom: "fc6_conv"
  top: "fc7_conv"
  param {
    lr_mult: 1
    decay_mult: 1
  }
  param {
    lr_mult: 2
    decay_mult: 0
  }
  convolution_param {
    num_output: 256
    kernel_size: 1
    weight_filler {
      type: "xavier"
    }
    bias_filler {
      type: "constant"
      value: 0
    }
  }
}
layer {
  name: "relu7"
  type: "ReLU"
  bottom: "fc7_conv"
  top: "fc7_conv"
}
layer {
  name: "conv6_1"
  type: "Convolution"
  bottom: "fc7_conv"
  top: "conv6_1"
  param {
    lr_mult: 1
    decay_mult: 1
  }
  param {
    lr_mult: 2
    decay_mult: 0
  }
  convolution_param {
    num_output: 32
    pad: 0
    kernel_size: 1
    stride: 1
    weight_filler {
      type: "xavier"
    }
    bias_filler {
      type: "constant"
      value: 0
    }
  }
}
layer {
  name: "conv6_1_relu"
  type: "ReLU"
  bottom: "conv6_1"
  top: "conv6_1"
}
layer {
  name: "conv6_2"
  type: "Convolution"
  bottom: "conv6_1"
  top: "conv6_2"
  param {
    lr_mult: 1
    decay_mult: 1
  }
  param {
    lr_mult: 2
    decay_mult: 0
  }
  convolution_param {
    num_output: 64
    pad: 1
    kernel_size: 3
    stride: 2
    weight_filler {
      type: "xavier"
    }
    bias_filler {
      type: "constant"
      value: 0
    }
  }
}
layer {
  name: "conv6_2_relu"
  type: "ReLU"
  bottom: "conv6_2"
  top: "conv6_2"
}
layer {
  name: "conv7_1"
  type: "Convolution"
  bottom: "conv6_2"
  top: "conv7_1"
  param {
    lr_mult: 1
    decay_mult: 1
  }
  param {
    lr_mult: 2
    decay_mult: 0
  }
  convolution_param {
    num_output: 16
    pad: 0
    kernel_size: 1
    stride: 1
    weight_filler {
      type: "xavier"
    }
    bias_filler {
      type: "constant"
      value: 0
    }
  }
}
layer {
  name: "conv7_1_relu"
  type: "ReLU"
  bottom: "conv7_1"
  top: "conv7_1"
}
layer {
  name: "conv7_2"
  type: "Convolution"
  bottom: "conv7_1"
  top: "conv7_2"
  param {
    lr_mult: 1
    decay_mult: 1
  }
  param {
    lr_mult: 2
    decay_mult: 0
  }
  convolution_param {
    num_output: 32
    pad: 1
    kernel_size: 3
    stride: 2
    weight_filler {
      type: "xavier"
    }
    bias_filler {
      type: "constant"
      value: 0
    }
  }
}
layer {
  name: "conv7_2_relu"
  type: "ReLU"
  bottom: "conv7_2"
  top: "conv7_2"
}
layer {
  name: "pool6"
  type: "Pooling"
  bottom: "conv7_2"
  top: "pool6"
  pooling_param {
    pool: AVE
    global_pooling: true
  }
}
layer {
  name: "conv4_3_norm"
  type: "Normalize"
  bottom: "conv4_3"
  top: "conv4_3_norm"
  norm_param {
    across_spatial: false
    scale_filler {
      type: "constant"
      value: 20
    }
    channel_shared: false
  }
}
layer {
  name: "conv4_3_norm_mbox_loc_conf"
  type: "Convolution"
  bottom: "conv4_3_norm"
  top: "conv4_3_norm_mbox_loc_conf"
  param {
    lr_mult: 1
    decay_mult: 1
  }
  param {
    lr_mult: 2
    decay_mult: 0
  }
  convolution_param {
    num_output: 48
    pad: 1
    kernel_size: 3
    stride: 1
    weight_filler {
      type: "xavier"
    }
    bias_filler {
      type: "constant"
      value: 0
    }
  }
}
layer {
  name: "conv4_3_norm_mbox_loc_conf_perm"
  type: "Permute"
  bottom: "conv4_3_norm_mbox_loc_conf"
  top: "conv4_3_norm_mbox_loc_conf_perm"
  permute_param {
    order: 0
    order: 2
    order: 3
    order: 1
  }
}
layer {
  name: "conv4_3_norm_mbox_loc_perm"
  type: "Slice"
  bottom: "conv4_3_norm_mbox_loc_conf_perm"
  top: "conv4_3_norm_mbox_loc_perm"
  top: "conv4_3_norm_mbox_conf_perm"
  slice_param {
    slice_point: 24
    axis: 3
  }
}
layer {
  name: "conv4_3_norm_mbox_loc_flat"
  type: "Flatten"
  bottom: "conv4_3_norm_mbox_loc_perm"
  top: "conv4_3_norm_mbox_loc_flat"
  flatten_param {
    axis: 1
  }
}
layer {
  name: "conv4_3_norm_mbox_conf_flat"
  type: "Flatten"
  bottom: "conv4_3_norm_mbox_conf_perm"
  top: "conv4_3_norm_mbox_conf_flat"
  flatten_param {
    axis: 1
  }
}
layer {
  name: "conv4_3_norm_mbox_priorbox"
  type: "PriorBox"
  bottom: "conv4_3_norm"
  bottom: "data"
  top: "conv4_3_norm_mbox_priorbox"
  prior_box_param {
    min_size: 11.52
    max_size: 25.6
    aspect_ratio: 2
    aspect_ratio: 3
    flip: true
    clip: true
    variance: 0.1
    variance: 0.1
    variance: 0.2
    variance: 0.2
    offset: 0.5
  }
}
layer {
  name: "fc7_conv_mbox_loc_conf"
  type: "Convolution"
  bottom: "fc7_conv"
  top: "fc7_conv_mbox_loc_conf"
  param {
    lr_mult: 1
    decay_mult: 1
  }
  param {
    lr_mult: 2
    decay_mult: 0
  }
  convolution_param {
    num_output: 48
    pad: 1
    kernel_size: 3
    stride: 1
    weight_filler {
      type: "xavier"
    }
    bias_filler {
      type: "constant"
      value: 0
    }
  }
}
layer {
  name: "fc7_conv_mbox_loc_conf_perm"
  type: "Permute"
  bottom: "fc7_conv_mbox_loc_conf"
  top: "fc7_conv_mbox_loc_conf_perm"
  permute_param {
    order: 0
    order: 2
    order: 3
    order: 1
  }
}
layer {
  name: "fc7_conv_mbox_loc_perm"
  type: "Slice"
  bottom: "fc7_conv_mbox_loc_conf_perm"
  top: "fc7_conv_mbox_loc_perm"
  top: "fc7_conv_mbox_conf_perm"
  slice_param {
    slice_point: 24
    axis: 3
  }
}
layer {
  name: "fc7_conv_mbox_loc_flat"
  type: "Flatten"
  bottom: "fc7_conv_mbox_loc_perm"
  top: "fc7_conv_mbox_loc_flat"
  flatten_param {
    axis: 1
  }
}
layer {
  name: "fc7_conv_mbox_conf_flat"
  type: "Flatten"
  bottom: "fc7_conv_mbox_conf_perm"
  top: "fc7_conv_mbox_conf_flat"
  flatten_param {
    axis: 1
  }
}
layer {
  name: "fc7_conv_mbox_priorbox"
  type: "PriorBox"
  bottom: "fc7_conv"
  bottom: "data"
  top: "fc7_conv_mbox_priorbox"
  prior_box_param {
    min_size: 25.6
    max_size: 57.6
    aspect_ratio: 2
    aspect_ratio: 3
    flip: true
    clip: true
    variance: 0.1
    variance: 0.1
    variance: 0.2
    variance: 0.2
    offset: 0.5
  }
}
layer {
  name: "conv6_2_mbox_loc_conf"
  type: "Convolution"
  bottom: "conv6_2"
  top: "conv6_2_mbox_loc_conf"
  param {
    lr_mult: 1
    decay_mult: 1
  }
  param {
    lr_mult: 2
    decay_mult: 0
  }
  convolution_param {
    num_output: 48
    pad: 1
    kernel_size: 3
    stride: 1
    weight_filler {
      type: "xavier"
    }
    bias_filler {
      type: "constant"
      value: 0
    }
  }
}
layer {
  name: "conv6_2_mbox_loc_conf_perm"
  type: "Permute"
  bottom: "conv6_2_mbox_loc_conf"
  top: "conv6_2_mbox_loc_conf_perm"
  permute_param {
    order: 0
    order: 2
    order: 3
    order: 1
  }
}
layer {
  name: "conv6_2_mbox_loc_perm"
  type: "Slice"
  bottom: "conv6_2_mbox_loc_conf_perm"
  top: "conv6_2_mbox_loc_perm"
  top: "conv6_2_mbox_conf_perm"
  slice_param {
    slice_point: 24
    axis: 3
  }
}
layer {
  name: "conv6_2_mbox_loc_flat"
  type: "Flatten"
  bottom: "conv6_2_mbox_loc_perm"
  top: "conv6_2_mbox_loc_flat"
  flatten_param {
    axis: 1
  }
}
layer {
  name: "conv6_2_mbox_conf_flat"
  type: "Flatten"
  bottom: "conv6_2_mbox_conf_perm"
  top: "conv6_2_mbox_conf_flat"
  flatten_param {
    axis: 1
  }
}
layer {
  name: "conv6_2_mbox_priorbox"
  type: "PriorBox"
  bottom: "conv6_2"
  bottom: "data"
  top: "conv6_2_mbox_priorbox"
  prior_box_param {
    min_size: 57.6
    max_size: 89.6
    aspect_ratio: 2
    aspect_ratio: 3
    flip: true
    clip: true
    variance: 0.1
    variance: 0.1
    variance: 0.2
    variance: 0.2
    offset: 0.5
  }
}
layer {
  name: "conv7_2_mbox_loc_conf"
  type: "Convolution"
  bottom: "conv7_2"
  top: "conv7_2_mbox_loc_conf"
  param {
    lr_mult: 1
    decay_mult: 1
  }
  param {
    lr_mult: 2
    decay_mult: 0
  }
  convolution_param {
    num_output: 48
    pad: 1
    kernel_size: 3
    stride: 1
    weight_filler {
      type: "xavier"
    }
    bias_filler {
      type: "constant"
      value: 0
    }
  }
}
layer {
  name: "conv7_2_mbox_loc_conf_perm"
  type: "Permute"
  bottom: "conv7_2_mbox_loc_conf"
  top: "conv7_2_mbox_loc_conf_perm"
  permute_param {
    order: 0
    order: 2
    order: 3
    order: 1
  }
}
layer {
  name: "conv7_2_mbox_loc_perm"
  type: "Slice"
  bottom: "conv7_2_mbox_loc_conf_perm"
  top: "conv7_2_mbox_loc_perm"
  top: "conv7_2_mbox_conf_perm"
  slice_param {
    slice_point: 24
    axis: 3
  }
}
layer {
  name: "conv7_2_mbox_loc_flat"
  type: "Flatten"
  bottom: "conv7_2_mbox_loc_perm"
  top: "conv7_2_mbox_loc_flat"
  flatten_param {
    axis: 1
  }
}
layer {
  name: "conv7_2_mbox_conf_flat"
  type: "Flatten"
  bottom: "conv7_2_mbox_conf_perm"
  top: "conv7_2_mbox_conf_flat"
  flatten_param {
    axis: 1
  }
}
layer {
  name: "conv7_2_mbox_priorbox"
  type: "PriorBox"
  bottom: "conv7_2"
  bottom: "data"
  top: "conv7_2_mbox_priorbox"
  prior_box_param {
    min_size: 89.6
    max_size: 121.6
    aspect_ratio: 2
    aspect_ratio: 3
    flip: true
    clip: true
    variance: 0.1
    variance: 0.1
    variance: 0.2
    variance: 0.2
    offset: 0.5
  }
}
layer {
  name: "pool6_mbox_loc_conf"
  type: "Convolution"
  bottom: "pool6"
  top: "pool6_mbox_loc_conf"
  param {
    lr_mult: 1
    decay_mult: 1
  }
  param {
    lr_mult: 2
    decay_mult: 0
  }
  convolution_param {
    num_output: 48
    pad: 1
    kernel_size: 3
    stride: 1
    weight_filler {
      type: "xavier"
    }
    bias_filler {
      type: "constant"
      value: 0
    }
  }
}
layer {
  name: "pool6_mbox_loc_conf_perm"
  type: "Permute"
  bottom: "pool6_mbox_loc_conf"
  top: "pool6_mbox_loc_conf_perm"
  permute_param {
    order: 0
    order: 2
    order: 3
    order: 1
  }
}
layer {
  name: "pool6_mbox_loc_perm"
  type: "Slice"
  bottom: "pool6_mbox_loc_conf_perm"
  top: "pool6_mbox_loc_perm"
  top: "pool6_mbox_conf_perm"
  slice_param {
    slice_point: 24
    axis: 3
  }
}
layer {
  name: "pool6_mbox_loc_flat"
  type: "Flatten"
  bottom: "pool6_mbox_loc_perm"
  top: "pool6_mbox_loc_flat"
  flatten_param {
    axis: 1
  }
}
layer {
  name: "pool6_mbox_conf_flat"
  type: "Flatten"
  bottom: "pool6_mbox_conf_perm"
  top: "pool6_mbox_conf_flat"
  flatten_param {
    axis: 1
  }
}
layer {
  name: "pool6_mbox_priorbox"
  type: "PriorBox"
  bottom: "pool6"
  bottom: "data"
  top: "pool6_mbox_priorbox"
  prior_box_param {
    min_size: 121.6
    max_size: 153.6
    aspect_ratio: 2
    aspect_ratio: 3
    flip: true
    clip: true
    variance: 0.1
    variance: 0.1
    variance: 0.2
    variance: 0.2
    offset: 0.5
  }
}
layer {
  name: "mbox_loc"
  type: "Concat"
  bottom: "conv4_3_norm_mbox_loc_flat"
  bottom: "fc7_conv_mbox_loc_flat"
  bottom: "conv6_2_mbox_loc_flat"
  bottom: "conv7_2_mbox_loc_flat"
  bottom: "pool6_mbox_loc_flat"
  top: "mbox_loc"
  concat_param {
    axis: 1
  }
}
layer {
  name: "mbox_conf"
  type: "Concat"
  bottom: "conv4_3_norm_mbox_conf_flat"
  bottom: "fc7_conv_mbox_conf_flat"
  bottom: "conv6_2_mbox_conf_flat"
  bottom: "conv7_2_mbox_conf_flat"
  bottom: "pool6_mbox_conf_flat"
  top: "mbox_conf"
  concat_param {
    axis: 1
  }
}
layer {
  name: "mbox_priorbox"
  type: "Concat"
  bottom: "conv4_3_norm_mbox_priorbox"
  bottom: "fc7_conv_mbox_priorbox"
  bottom: "conv6_2_mbox_priorbox"
  bottom: "conv7_2_mbox_priorbox"
  bottom: "pool6_mbox_priorbox"
  top: "mbox_priorbox"
  concat_param {
    axis: 2
  }
}
layer {
  name: "mbox_loss"
  type: "MultiBoxLoss"
  bottom: "mbox_loc"
  bottom: "mbox_conf"
  bottom: "mbox_priorbox"
  bottom: "label"
  top: "mbox_loss"
  include {
    phase: TRAIN
  }
  propagate_down: true
  propagate_down: true
  propagate_down: false
  propagate_down: false
  loss_param {
    normalization: VALID
  }
  multibox_loss_param {
    loc_loss_type: SMOOTH_L1
    conf_loss_type: SOFTMAX
    loc_weight: 1
    num_classes: 4
    share_location: true
    match_type: PER_PREDICTION
    overlap_threshold: 0.3
    use_prior_for_matching: true
    background_label_id: 0
    use_difficult_gt: true
    neg_pos_ratio: 3
    neg_overlap: 0.3
    code_type: CENTER_SIZE
    mining_type: MAX_NEGATIVE
  }
}
I0407 15:42:16.544198  3579 layer_factory.hpp:77] Creating layer data
I0407 15:42:16.546249  3579 net.cpp:100] Creating Layer data
I0407 15:42:16.546265  3579 net.cpp:408] data -> data
I0407 15:42:16.546278  3579 net.cpp:408] data -> label
I0407 15:42:16.564038  3600 db_lmdb.cpp:35] Opened lmdb /home/work/wwl/data/kitti/data_object_image_2/training/train_lmdb
I0407 15:42:16.600965  3579 annotated_data_layer.cpp:62] output data size: 32,3,64,256
I0407 15:42:16.618374  3579 net.cpp:150] Setting up data
I0407 15:42:16.618401  3579 net.cpp:157] Top shape: 32 3 64 256 (1572864)
I0407 15:42:16.618417  3579 net.cpp:157] Top shape: 1 1 11 8 (88)
I0407 15:42:16.618422  3579 net.cpp:165] Memory required for data: 6291808
I0407 15:42:16.618428  3579 layer_factory.hpp:77] Creating layer data_data_0_split
I0407 15:42:16.618440  3579 net.cpp:100] Creating Layer data_data_0_split
I0407 15:42:16.618445  3579 net.cpp:434] data_data_0_split <- data
I0407 15:42:16.618453  3579 net.cpp:408] data_data_0_split -> data_data_0_split_0
I0407 15:42:16.618463  3579 net.cpp:408] data_data_0_split -> data_data_0_split_1
I0407 15:42:16.618469  3579 net.cpp:408] data_data_0_split -> data_data_0_split_2
I0407 15:42:16.618475  3579 net.cpp:408] data_data_0_split -> data_data_0_split_3
I0407 15:42:16.618480  3579 net.cpp:408] data_data_0_split -> data_data_0_split_4
I0407 15:42:16.618486  3579 net.cpp:408] data_data_0_split -> data_data_0_split_5
I0407 15:42:16.618602  3579 net.cpp:150] Setting up data_data_0_split
I0407 15:42:16.618610  3579 net.cpp:157] Top shape: 32 3 64 256 (1572864)
I0407 15:42:16.618615  3579 net.cpp:157] Top shape: 32 3 64 256 (1572864)
I0407 15:42:16.618619  3579 net.cpp:157] Top shape: 32 3 64 256 (1572864)
I0407 15:42:16.618624  3579 net.cpp:157] Top shape: 32 3 64 256 (1572864)
I0407 15:42:16.618628  3579 net.cpp:157] Top shape: 32 3 64 256 (1572864)
I0407 15:42:16.618633  3579 net.cpp:157] Top shape: 32 3 64 256 (1572864)
I0407 15:42:16.618636  3579 net.cpp:165] Memory required for data: 44040544
I0407 15:42:16.618640  3579 layer_factory.hpp:77] Creating layer conv1_1
I0407 15:42:16.618651  3579 net.cpp:100] Creating Layer conv1_1
I0407 15:42:16.618655  3579 net.cpp:434] conv1_1 <- data_data_0_split_0
I0407 15:42:16.618662  3579 net.cpp:408] conv1_1 -> conv1_1
I0407 15:42:16.620864  3579 net.cpp:150] Setting up conv1_1
I0407 15:42:16.620883  3579 net.cpp:157] Top shape: 32 16 64 256 (8388608)
I0407 15:42:16.620888  3579 net.cpp:165] Memory required for data: 77594976
I0407 15:42:16.620899  3579 layer_factory.hpp:77] Creating layer relu1_1
I0407 15:42:16.620908  3579 net.cpp:100] Creating Layer relu1_1
I0407 15:42:16.620914  3579 net.cpp:434] relu1_1 <- conv1_1
I0407 15:42:16.620919  3579 net.cpp:395] relu1_1 -> conv1_1 (in-place)
I0407 15:42:16.620928  3579 net.cpp:150] Setting up relu1_1
I0407 15:42:16.620932  3579 net.cpp:157] Top shape: 32 16 64 256 (8388608)
I0407 15:42:16.620936  3579 net.cpp:165] Memory required for data: 111149408
I0407 15:42:16.620940  3579 layer_factory.hpp:77] Creating layer conv1_2
I0407 15:42:16.620951  3579 net.cpp:100] Creating Layer conv1_2
I0407 15:42:16.620955  3579 net.cpp:434] conv1_2 <- conv1_1
I0407 15:42:16.620962  3579 net.cpp:408] conv1_2 -> conv1_2
I0407 15:42:16.622155  3579 net.cpp:150] Setting up conv1_2
I0407 15:42:16.622166  3579 net.cpp:157] Top shape: 32 16 32 128 (2097152)
I0407 15:42:16.622171  3579 net.cpp:165] Memory required for data: 119538016
I0407 15:42:16.622179  3579 layer_factory.hpp:77] Creating layer relu1_2
I0407 15:42:16.622186  3579 net.cpp:100] Creating Layer relu1_2
I0407 15:42:16.622191  3579 net.cpp:434] relu1_2 <- conv1_2
I0407 15:42:16.622197  3579 net.cpp:395] relu1_2 -> conv1_2 (in-place)
I0407 15:42:16.622203  3579 net.cpp:150] Setting up relu1_2
I0407 15:42:16.622208  3579 net.cpp:157] Top shape: 32 16 32 128 (2097152)
I0407 15:42:16.622212  3579 net.cpp:165] Memory required for data: 127926624
I0407 15:42:16.622215  3579 layer_factory.hpp:77] Creating layer conv2_1
I0407 15:42:16.622225  3579 net.cpp:100] Creating Layer conv2_1
I0407 15:42:16.622229  3579 net.cpp:434] conv2_1 <- conv1_2
I0407 15:42:16.622236  3579 net.cpp:408] conv2_1 -> conv2_1
I0407 15:42:16.622539  3579 net.cpp:150] Setting up conv2_1
I0407 15:42:16.622547  3579 net.cpp:157] Top shape: 32 32 32 128 (4194304)
I0407 15:42:16.622551  3579 net.cpp:165] Memory required for data: 144703840
I0407 15:42:16.622558  3579 layer_factory.hpp:77] Creating layer relu2_1
I0407 15:42:16.622563  3579 net.cpp:100] Creating Layer relu2_1
I0407 15:42:16.622567  3579 net.cpp:434] relu2_1 <- conv2_1
I0407 15:42:16.622573  3579 net.cpp:395] relu2_1 -> conv2_1 (in-place)
I0407 15:42:16.622580  3579 net.cpp:150] Setting up relu2_1
I0407 15:42:16.622584  3579 net.cpp:157] Top shape: 32 32 32 128 (4194304)
I0407 15:42:16.622587  3579 net.cpp:165] Memory required for data: 161481056
I0407 15:42:16.622591  3579 layer_factory.hpp:77] Creating layer conv2_2
I0407 15:42:16.622601  3579 net.cpp:100] Creating Layer conv2_2
I0407 15:42:16.622604  3579 net.cpp:434] conv2_2 <- conv2_1
I0407 15:42:16.622611  3579 net.cpp:408] conv2_2 -> conv2_2
I0407 15:42:16.622957  3579 net.cpp:150] Setting up conv2_2
I0407 15:42:16.622964  3579 net.cpp:157] Top shape: 32 32 16 64 (1048576)
I0407 15:42:16.622969  3579 net.cpp:165] Memory required for data: 165675360
I0407 15:42:16.622975  3579 layer_factory.hpp:77] Creating layer relu2_2
I0407 15:42:16.622982  3579 net.cpp:100] Creating Layer relu2_2
I0407 15:42:16.622985  3579 net.cpp:434] relu2_2 <- conv2_2
I0407 15:42:16.622990  3579 net.cpp:395] relu2_2 -> conv2_2 (in-place)
I0407 15:42:16.622997  3579 net.cpp:150] Setting up relu2_2
I0407 15:42:16.623001  3579 net.cpp:157] Top shape: 32 32 16 64 (1048576)
I0407 15:42:16.623004  3579 net.cpp:165] Memory required for data: 169869664
I0407 15:42:16.623008  3579 layer_factory.hpp:77] Creating layer conv3_1
I0407 15:42:16.623016  3579 net.cpp:100] Creating Layer conv3_1
I0407 15:42:16.623020  3579 net.cpp:434] conv3_1 <- conv2_2
I0407 15:42:16.623026  3579 net.cpp:408] conv3_1 -> conv3_1
I0407 15:42:16.624303  3579 net.cpp:150] Setting up conv3_1
I0407 15:42:16.624315  3579 net.cpp:157] Top shape: 32 64 16 64 (2097152)
I0407 15:42:16.624320  3579 net.cpp:165] Memory required for data: 178258272
I0407 15:42:16.624330  3579 layer_factory.hpp:77] Creating layer relu3_1
I0407 15:42:16.624336  3579 net.cpp:100] Creating Layer relu3_1
I0407 15:42:16.624351  3579 net.cpp:434] relu3_1 <- conv3_1
I0407 15:42:16.624357  3579 net.cpp:395] relu3_1 -> conv3_1 (in-place)
I0407 15:42:16.624366  3579 net.cpp:150] Setting up relu3_1
I0407 15:42:16.624370  3579 net.cpp:157] Top shape: 32 64 16 64 (2097152)
I0407 15:42:16.624374  3579 net.cpp:165] Memory required for data: 186646880
I0407 15:42:16.624378  3579 layer_factory.hpp:77] Creating layer conv3_2
I0407 15:42:16.624385  3579 net.cpp:100] Creating Layer conv3_2
I0407 15:42:16.624389  3579 net.cpp:434] conv3_2 <- conv3_1
I0407 15:42:16.624397  3579 net.cpp:408] conv3_2 -> conv3_2
I0407 15:42:16.624896  3579 net.cpp:150] Setting up conv3_2
I0407 15:42:16.624902  3579 net.cpp:157] Top shape: 32 64 16 64 (2097152)
I0407 15:42:16.624907  3579 net.cpp:165] Memory required for data: 195035488
I0407 15:42:16.624912  3579 layer_factory.hpp:77] Creating layer relu3_2
I0407 15:42:16.624918  3579 net.cpp:100] Creating Layer relu3_2
I0407 15:42:16.624922  3579 net.cpp:434] relu3_2 <- conv3_2
I0407 15:42:16.624927  3579 net.cpp:395] relu3_2 -> conv3_2 (in-place)
I0407 15:42:16.624933  3579 net.cpp:150] Setting up relu3_2
I0407 15:42:16.624938  3579 net.cpp:157] Top shape: 32 64 16 64 (2097152)
I0407 15:42:16.624941  3579 net.cpp:165] Memory required for data: 203424096
I0407 15:42:16.624945  3579 layer_factory.hpp:77] Creating layer conv3_3
I0407 15:42:16.624953  3579 net.cpp:100] Creating Layer conv3_3
I0407 15:42:16.624958  3579 net.cpp:434] conv3_3 <- conv3_2
I0407 15:42:16.624963  3579 net.cpp:408] conv3_3 -> conv3_3
I0407 15:42:16.625429  3579 net.cpp:150] Setting up conv3_3
I0407 15:42:16.625438  3579 net.cpp:157] Top shape: 32 64 16 64 (2097152)
I0407 15:42:16.625443  3579 net.cpp:165] Memory required for data: 211812704
I0407 15:42:16.625449  3579 layer_factory.hpp:77] Creating layer relu3_3
I0407 15:42:16.625455  3579 net.cpp:100] Creating Layer relu3_3
I0407 15:42:16.625459  3579 net.cpp:434] relu3_3 <- conv3_3
I0407 15:42:16.625465  3579 net.cpp:395] relu3_3 -> conv3_3 (in-place)
I0407 15:42:16.625471  3579 net.cpp:150] Setting up relu3_3
I0407 15:42:16.625476  3579 net.cpp:157] Top shape: 32 64 16 64 (2097152)
I0407 15:42:16.625480  3579 net.cpp:165] Memory required for data: 220201312
I0407 15:42:16.625484  3579 layer_factory.hpp:77] Creating layer pool3
I0407 15:42:16.625491  3579 net.cpp:100] Creating Layer pool3
I0407 15:42:16.625495  3579 net.cpp:434] pool3 <- conv3_3
I0407 15:42:16.625501  3579 net.cpp:408] pool3 -> pool3
I0407 15:42:16.625546  3579 net.cpp:150] Setting up pool3
I0407 15:42:16.625552  3579 net.cpp:157] Top shape: 32 64 8 32 (524288)
I0407 15:42:16.625556  3579 net.cpp:165] Memory required for data: 222298464
I0407 15:42:16.625560  3579 layer_factory.hpp:77] Creating layer conv4_1
I0407 15:42:16.625569  3579 net.cpp:100] Creating Layer conv4_1
I0407 15:42:16.625573  3579 net.cpp:434] conv4_1 <- pool3
I0407 15:42:16.625579  3579 net.cpp:408] conv4_1 -> conv4_1
I0407 15:42:16.627243  3579 net.cpp:150] Setting up conv4_1
I0407 15:42:16.627256  3579 net.cpp:157] Top shape: 32 128 8 32 (1048576)
I0407 15:42:16.627260  3579 net.cpp:165] Memory required for data: 226492768
I0407 15:42:16.627267  3579 layer_factory.hpp:77] Creating layer relu4_1
I0407 15:42:16.627274  3579 net.cpp:100] Creating Layer relu4_1
I0407 15:42:16.627279  3579 net.cpp:434] relu4_1 <- conv4_1
I0407 15:42:16.627285  3579 net.cpp:395] relu4_1 -> conv4_1 (in-place)
I0407 15:42:16.627291  3579 net.cpp:150] Setting up relu4_1
I0407 15:42:16.627296  3579 net.cpp:157] Top shape: 32 128 8 32 (1048576)
I0407 15:42:16.627300  3579 net.cpp:165] Memory required for data: 230687072
I0407 15:42:16.627305  3579 layer_factory.hpp:77] Creating layer conv4_2
I0407 15:42:16.627313  3579 net.cpp:100] Creating Layer conv4_2
I0407 15:42:16.627317  3579 net.cpp:434] conv4_2 <- conv4_1
I0407 15:42:16.627324  3579 net.cpp:408] conv4_2 -> conv4_2
I0407 15:42:16.630220  3579 net.cpp:150] Setting up conv4_2
I0407 15:42:16.630233  3579 net.cpp:157] Top shape: 32 128 8 32 (1048576)
I0407 15:42:16.630237  3579 net.cpp:165] Memory required for data: 234881376
I0407 15:42:16.630251  3579 layer_factory.hpp:77] Creating layer relu4_2
I0407 15:42:16.630257  3579 net.cpp:100] Creating Layer relu4_2
I0407 15:42:16.630261  3579 net.cpp:434] relu4_2 <- conv4_2
I0407 15:42:16.630269  3579 net.cpp:395] relu4_2 -> conv4_2 (in-place)
I0407 15:42:16.630275  3579 net.cpp:150] Setting up relu4_2
I0407 15:42:16.630280  3579 net.cpp:157] Top shape: 32 128 8 32 (1048576)
I0407 15:42:16.630285  3579 net.cpp:165] Memory required for data: 239075680
I0407 15:42:16.630287  3579 layer_factory.hpp:77] Creating layer conv4_3
I0407 15:42:16.630296  3579 net.cpp:100] Creating Layer conv4_3
I0407 15:42:16.630300  3579 net.cpp:434] conv4_3 <- conv4_2
I0407 15:42:16.630306  3579 net.cpp:408] conv4_3 -> conv4_3
I0407 15:42:16.631455  3579 net.cpp:150] Setting up conv4_3
I0407 15:42:16.631464  3579 net.cpp:157] Top shape: 32 128 8 32 (1048576)
I0407 15:42:16.631469  3579 net.cpp:165] Memory required for data: 243269984
I0407 15:42:16.631474  3579 layer_factory.hpp:77] Creating layer relu4_3
I0407 15:42:16.631480  3579 net.cpp:100] Creating Layer relu4_3
I0407 15:42:16.631485  3579 net.cpp:434] relu4_3 <- conv4_3
I0407 15:42:16.631490  3579 net.cpp:395] relu4_3 -> conv4_3 (in-place)
I0407 15:42:16.631496  3579 net.cpp:150] Setting up relu4_3
I0407 15:42:16.631501  3579 net.cpp:157] Top shape: 32 128 8 32 (1048576)
I0407 15:42:16.631505  3579 net.cpp:165] Memory required for data: 247464288
I0407 15:42:16.631508  3579 layer_factory.hpp:77] Creating layer conv4_3_relu4_3_0_split
I0407 15:42:16.631515  3579 net.cpp:100] Creating Layer conv4_3_relu4_3_0_split
I0407 15:42:16.631518  3579 net.cpp:434] conv4_3_relu4_3_0_split <- conv4_3
I0407 15:42:16.631523  3579 net.cpp:408] conv4_3_relu4_3_0_split -> conv4_3_relu4_3_0_split_0
I0407 15:42:16.631531  3579 net.cpp:408] conv4_3_relu4_3_0_split -> conv4_3_relu4_3_0_split_1
I0407 15:42:16.631566  3579 net.cpp:150] Setting up conv4_3_relu4_3_0_split
I0407 15:42:16.631572  3579 net.cpp:157] Top shape: 32 128 8 32 (1048576)
I0407 15:42:16.631577  3579 net.cpp:157] Top shape: 32 128 8 32 (1048576)
I0407 15:42:16.631580  3579 net.cpp:165] Memory required for data: 255852896
I0407 15:42:16.631584  3579 layer_factory.hpp:77] Creating layer pool4
I0407 15:42:16.631592  3579 net.cpp:100] Creating Layer pool4
I0407 15:42:16.631595  3579 net.cpp:434] pool4 <- conv4_3_relu4_3_0_split_0
I0407 15:42:16.631600  3579 net.cpp:408] pool4 -> pool4
I0407 15:42:16.631641  3579 net.cpp:150] Setting up pool4
I0407 15:42:16.631646  3579 net.cpp:157] Top shape: 32 128 4 16 (262144)
I0407 15:42:16.631650  3579 net.cpp:165] Memory required for data: 256901472
I0407 15:42:16.631654  3579 layer_factory.hpp:77] Creating layer conv5_1
I0407 15:42:16.631662  3579 net.cpp:100] Creating Layer conv5_1
I0407 15:42:16.631666  3579 net.cpp:434] conv5_1 <- pool4
I0407 15:42:16.631674  3579 net.cpp:408] conv5_1 -> conv5_1
I0407 15:42:16.632838  3579 net.cpp:150] Setting up conv5_1
I0407 15:42:16.632854  3579 net.cpp:157] Top shape: 32 128 4 16 (262144)
I0407 15:42:16.632858  3579 net.cpp:165] Memory required for data: 257950048
I0407 15:42:16.632865  3579 layer_factory.hpp:77] Creating layer relu5_1
I0407 15:42:16.632872  3579 net.cpp:100] Creating Layer relu5_1
I0407 15:42:16.632876  3579 net.cpp:434] relu5_1 <- conv5_1
I0407 15:42:16.632884  3579 net.cpp:395] relu5_1 -> conv5_1 (in-place)
I0407 15:42:16.632891  3579 net.cpp:150] Setting up relu5_1
I0407 15:42:16.632896  3579 net.cpp:157] Top shape: 32 128 4 16 (262144)
I0407 15:42:16.632899  3579 net.cpp:165] Memory required for data: 258998624
I0407 15:42:16.632903  3579 layer_factory.hpp:77] Creating layer conv5_2
I0407 15:42:16.632912  3579 net.cpp:100] Creating Layer conv5_2
I0407 15:42:16.632916  3579 net.cpp:434] conv5_2 <- conv5_1
I0407 15:42:16.632922  3579 net.cpp:408] conv5_2 -> conv5_2
I0407 15:42:16.635190  3579 net.cpp:150] Setting up conv5_2
I0407 15:42:16.635223  3579 net.cpp:157] Top shape: 32 128 4 16 (262144)
I0407 15:42:16.635228  3579 net.cpp:165] Memory required for data: 260047200
I0407 15:42:16.635246  3579 layer_factory.hpp:77] Creating layer relu5_2
I0407 15:42:16.635258  3579 net.cpp:100] Creating Layer relu5_2
I0407 15:42:16.635264  3579 net.cpp:434] relu5_2 <- conv5_2
I0407 15:42:16.635273  3579 net.cpp:395] relu5_2 -> conv5_2 (in-place)
I0407 15:42:16.635282  3579 net.cpp:150] Setting up relu5_2
I0407 15:42:16.635288  3579 net.cpp:157] Top shape: 32 128 4 16 (262144)
I0407 15:42:16.635291  3579 net.cpp:165] Memory required for data: 261095776
I0407 15:42:16.635295  3579 layer_factory.hpp:77] Creating layer conv5_3
I0407 15:42:16.635306  3579 net.cpp:100] Creating Layer conv5_3
I0407 15:42:16.635310  3579 net.cpp:434] conv5_3 <- conv5_2
I0407 15:42:16.635316  3579 net.cpp:408] conv5_3 -> conv5_3
I0407 15:42:16.636531  3579 net.cpp:150] Setting up conv5_3
I0407 15:42:16.636556  3579 net.cpp:157] Top shape: 32 128 4 16 (262144)
I0407 15:42:16.636560  3579 net.cpp:165] Memory required for data: 262144352
I0407 15:42:16.636569  3579 layer_factory.hpp:77] Creating layer relu5_3
I0407 15:42:16.636577  3579 net.cpp:100] Creating Layer relu5_3
I0407 15:42:16.636582  3579 net.cpp:434] relu5_3 <- conv5_3
I0407 15:42:16.636590  3579 net.cpp:395] relu5_3 -> conv5_3 (in-place)
I0407 15:42:16.636596  3579 net.cpp:150] Setting up relu5_3
I0407 15:42:16.636601  3579 net.cpp:157] Top shape: 32 128 4 16 (262144)
I0407 15:42:16.636605  3579 net.cpp:165] Memory required for data: 263192928
I0407 15:42:16.636608  3579 layer_factory.hpp:77] Creating layer pool5
I0407 15:42:16.636615  3579 net.cpp:100] Creating Layer pool5
I0407 15:42:16.636620  3579 net.cpp:434] pool5 <- conv5_3
I0407 15:42:16.636626  3579 net.cpp:408] pool5 -> pool5
I0407 15:42:16.636674  3579 net.cpp:150] Setting up pool5
I0407 15:42:16.636680  3579 net.cpp:157] Top shape: 32 128 4 16 (262144)
I0407 15:42:16.636683  3579 net.cpp:165] Memory required for data: 264241504
I0407 15:42:16.636687  3579 layer_factory.hpp:77] Creating layer fc6_conv
I0407 15:42:16.636701  3579 net.cpp:100] Creating Layer fc6_conv
I0407 15:42:16.636705  3579 net.cpp:434] fc6_conv <- pool5
I0407 15:42:16.636711  3579 net.cpp:408] fc6_conv -> fc6_conv
I0407 15:42:16.643674  3579 net.cpp:150] Setting up fc6_conv
I0407 15:42:16.643702  3579 net.cpp:157] Top shape: 32 256 4 16 (524288)
I0407 15:42:16.643707  3579 net.cpp:165] Memory required for data: 266338656
I0407 15:42:16.643714  3579 layer_factory.hpp:77] Creating layer relu6
I0407 15:42:16.643723  3579 net.cpp:100] Creating Layer relu6
I0407 15:42:16.643728  3579 net.cpp:434] relu6 <- fc6_conv
I0407 15:42:16.643736  3579 net.cpp:395] relu6 -> fc6_conv (in-place)
I0407 15:42:16.643744  3579 net.cpp:150] Setting up relu6
I0407 15:42:16.643750  3579 net.cpp:157] Top shape: 32 256 4 16 (524288)
I0407 15:42:16.643754  3579 net.cpp:165] Memory required for data: 268435808
I0407 15:42:16.643757  3579 layer_factory.hpp:77] Creating layer fc7_conv
I0407 15:42:16.643767  3579 net.cpp:100] Creating Layer fc7_conv
I0407 15:42:16.643771  3579 net.cpp:434] fc7_conv <- fc6_conv
I0407 15:42:16.643777  3579 net.cpp:408] fc7_conv -> fc7_conv
I0407 15:42:16.644500  3579 net.cpp:150] Setting up fc7_conv
I0407 15:42:16.644510  3579 net.cpp:157] Top shape: 32 256 4 16 (524288)
I0407 15:42:16.644515  3579 net.cpp:165] Memory required for data: 270532960
I0407 15:42:16.644521  3579 layer_factory.hpp:77] Creating layer relu7
I0407 15:42:16.644527  3579 net.cpp:100] Creating Layer relu7
I0407 15:42:16.644531  3579 net.cpp:434] relu7 <- fc7_conv
I0407 15:42:16.644536  3579 net.cpp:395] relu7 -> fc7_conv (in-place)
I0407 15:42:16.644542  3579 net.cpp:150] Setting up relu7
I0407 15:42:16.644547  3579 net.cpp:157] Top shape: 32 256 4 16 (524288)
I0407 15:42:16.644551  3579 net.cpp:165] Memory required for data: 272630112
I0407 15:42:16.644554  3579 layer_factory.hpp:77] Creating layer fc7_conv_relu7_0_split
I0407 15:42:16.644562  3579 net.cpp:100] Creating Layer fc7_conv_relu7_0_split
I0407 15:42:16.644565  3579 net.cpp:434] fc7_conv_relu7_0_split <- fc7_conv
I0407 15:42:16.644570  3579 net.cpp:408] fc7_conv_relu7_0_split -> fc7_conv_relu7_0_split_0
I0407 15:42:16.644582  3579 net.cpp:408] fc7_conv_relu7_0_split -> fc7_conv_relu7_0_split_1
I0407 15:42:16.644588  3579 net.cpp:408] fc7_conv_relu7_0_split -> fc7_conv_relu7_0_split_2
I0407 15:42:16.644650  3579 net.cpp:150] Setting up fc7_conv_relu7_0_split
I0407 15:42:16.644656  3579 net.cpp:157] Top shape: 32 256 4 16 (524288)
I0407 15:42:16.644661  3579 net.cpp:157] Top shape: 32 256 4 16 (524288)
I0407 15:42:16.644665  3579 net.cpp:157] Top shape: 32 256 4 16 (524288)
I0407 15:42:16.644670  3579 net.cpp:165] Memory required for data: 278921568
I0407 15:42:16.644673  3579 layer_factory.hpp:77] Creating layer conv6_1
I0407 15:42:16.644682  3579 net.cpp:100] Creating Layer conv6_1
I0407 15:42:16.644687  3579 net.cpp:434] conv6_1 <- fc7_conv_relu7_0_split_0
I0407 15:42:16.644695  3579 net.cpp:408] conv6_1 -> conv6_1
I0407 15:42:16.645059  3579 net.cpp:150] Setting up conv6_1
I0407 15:42:16.645067  3579 net.cpp:157] Top shape: 32 32 4 16 (65536)
I0407 15:42:16.645071  3579 net.cpp:165] Memory required for data: 279183712
I0407 15:42:16.645076  3579 layer_factory.hpp:77] Creating layer conv6_1_relu
I0407 15:42:16.645083  3579 net.cpp:100] Creating Layer conv6_1_relu
I0407 15:42:16.645087  3579 net.cpp:434] conv6_1_relu <- conv6_1
I0407 15:42:16.645093  3579 net.cpp:395] conv6_1_relu -> conv6_1 (in-place)
I0407 15:42:16.645099  3579 net.cpp:150] Setting up conv6_1_relu
I0407 15:42:16.645103  3579 net.cpp:157] Top shape: 32 32 4 16 (65536)
I0407 15:42:16.645107  3579 net.cpp:165] Memory required for data: 279445856
I0407 15:42:16.645112  3579 layer_factory.hpp:77] Creating layer conv6_2
I0407 15:42:16.645119  3579 net.cpp:100] Creating Layer conv6_2
I0407 15:42:16.645123  3579 net.cpp:434] conv6_2 <- conv6_1
I0407 15:42:16.645130  3579 net.cpp:408] conv6_2 -> conv6_2
I0407 15:42:16.645555  3579 net.cpp:150] Setting up conv6_2
I0407 15:42:16.645562  3579 net.cpp:157] Top shape: 32 64 2 8 (32768)
I0407 15:42:16.645566  3579 net.cpp:165] Memory required for data: 279576928
I0407 15:42:16.645577  3579 layer_factory.hpp:77] Creating layer conv6_2_relu
I0407 15:42:16.645584  3579 net.cpp:100] Creating Layer conv6_2_relu
I0407 15:42:16.645588  3579 net.cpp:434] conv6_2_relu <- conv6_2
I0407 15:42:16.645593  3579 net.cpp:395] conv6_2_relu -> conv6_2 (in-place)
I0407 15:42:16.645598  3579 net.cpp:150] Setting up conv6_2_relu
I0407 15:42:16.645603  3579 net.cpp:157] Top shape: 32 64 2 8 (32768)
I0407 15:42:16.645607  3579 net.cpp:165] Memory required for data: 279708000
I0407 15:42:16.645611  3579 layer_factory.hpp:77] Creating layer conv6_2_conv6_2_relu_0_split
I0407 15:42:16.645615  3579 net.cpp:100] Creating Layer conv6_2_conv6_2_relu_0_split
I0407 15:42:16.645619  3579 net.cpp:434] conv6_2_conv6_2_relu_0_split <- conv6_2
I0407 15:42:16.645624  3579 net.cpp:408] conv6_2_conv6_2_relu_0_split -> conv6_2_conv6_2_relu_0_split_0
I0407 15:42:16.645630  3579 net.cpp:408] conv6_2_conv6_2_relu_0_split -> conv6_2_conv6_2_relu_0_split_1
I0407 15:42:16.645638  3579 net.cpp:408] conv6_2_conv6_2_relu_0_split -> conv6_2_conv6_2_relu_0_split_2
I0407 15:42:16.645699  3579 net.cpp:150] Setting up conv6_2_conv6_2_relu_0_split
I0407 15:42:16.645705  3579 net.cpp:157] Top shape: 32 64 2 8 (32768)
I0407 15:42:16.645709  3579 net.cpp:157] Top shape: 32 64 2 8 (32768)
I0407 15:42:16.645714  3579 net.cpp:157] Top shape: 32 64 2 8 (32768)
I0407 15:42:16.645719  3579 net.cpp:165] Memory required for data: 280101216
I0407 15:42:16.645721  3579 layer_factory.hpp:77] Creating layer conv7_1
I0407 15:42:16.645730  3579 net.cpp:100] Creating Layer conv7_1
I0407 15:42:16.645733  3579 net.cpp:434] conv7_1 <- conv6_2_conv6_2_relu_0_split_0
I0407 15:42:16.645741  3579 net.cpp:408] conv7_1 -> conv7_1
I0407 15:42:16.646054  3579 net.cpp:150] Setting up conv7_1
I0407 15:42:16.646062  3579 net.cpp:157] Top shape: 32 16 2 8 (8192)
I0407 15:42:16.646066  3579 net.cpp:165] Memory required for data: 280133984
I0407 15:42:16.646072  3579 layer_factory.hpp:77] Creating layer conv7_1_relu
I0407 15:42:16.646080  3579 net.cpp:100] Creating Layer conv7_1_relu
I0407 15:42:16.646083  3579 net.cpp:434] conv7_1_relu <- conv7_1
I0407 15:42:16.646093  3579 net.cpp:395] conv7_1_relu -> conv7_1 (in-place)
I0407 15:42:16.646100  3579 net.cpp:150] Setting up conv7_1_relu
I0407 15:42:16.646105  3579 net.cpp:157] Top shape: 32 16 2 8 (8192)
I0407 15:42:16.646108  3579 net.cpp:165] Memory required for data: 280166752
I0407 15:42:16.646112  3579 layer_factory.hpp:77] Creating layer conv7_2
I0407 15:42:16.646119  3579 net.cpp:100] Creating Layer conv7_2
I0407 15:42:16.646123  3579 net.cpp:434] conv7_2 <- conv7_1
I0407 15:42:16.646131  3579 net.cpp:408] conv7_2 -> conv7_2
I0407 15:42:16.646458  3579 net.cpp:150] Setting up conv7_2
I0407 15:42:16.646466  3579 net.cpp:157] Top shape: 32 32 1 4 (4096)
I0407 15:42:16.646471  3579 net.cpp:165] Memory required for data: 280183136
I0407 15:42:16.646476  3579 layer_factory.hpp:77] Creating layer conv7_2_relu
I0407 15:42:16.646481  3579 net.cpp:100] Creating Layer conv7_2_relu
I0407 15:42:16.646484  3579 net.cpp:434] conv7_2_relu <- conv7_2
I0407 15:42:16.646491  3579 net.cpp:395] conv7_2_relu -> conv7_2 (in-place)
I0407 15:42:16.646497  3579 net.cpp:150] Setting up conv7_2_relu
I0407 15:42:16.646502  3579 net.cpp:157] Top shape: 32 32 1 4 (4096)
I0407 15:42:16.646504  3579 net.cpp:165] Memory required for data: 280199520
I0407 15:42:16.646508  3579 layer_factory.hpp:77] Creating layer conv7_2_conv7_2_relu_0_split
I0407 15:42:16.646513  3579 net.cpp:100] Creating Layer conv7_2_conv7_2_relu_0_split
I0407 15:42:16.646517  3579 net.cpp:434] conv7_2_conv7_2_relu_0_split <- conv7_2
I0407 15:42:16.646522  3579 net.cpp:408] conv7_2_conv7_2_relu_0_split -> conv7_2_conv7_2_relu_0_split_0
I0407 15:42:16.646528  3579 net.cpp:408] conv7_2_conv7_2_relu_0_split -> conv7_2_conv7_2_relu_0_split_1
I0407 15:42:16.646534  3579 net.cpp:408] conv7_2_conv7_2_relu_0_split -> conv7_2_conv7_2_relu_0_split_2
I0407 15:42:16.646591  3579 net.cpp:150] Setting up conv7_2_conv7_2_relu_0_split
I0407 15:42:16.646597  3579 net.cpp:157] Top shape: 32 32 1 4 (4096)
I0407 15:42:16.646602  3579 net.cpp:157] Top shape: 32 32 1 4 (4096)
I0407 15:42:16.646606  3579 net.cpp:157] Top shape: 32 32 1 4 (4096)
I0407 15:42:16.646610  3579 net.cpp:165] Memory required for data: 280248672
I0407 15:42:16.646615  3579 layer_factory.hpp:77] Creating layer pool6
I0407 15:42:16.646621  3579 net.cpp:100] Creating Layer pool6
I0407 15:42:16.646625  3579 net.cpp:434] pool6 <- conv7_2_conv7_2_relu_0_split_0
I0407 15:42:16.646631  3579 net.cpp:408] pool6 -> pool6
I0407 15:42:16.646675  3579 net.cpp:150] Setting up pool6
I0407 15:42:16.646682  3579 net.cpp:157] Top shape: 32 32 1 1 (1024)
I0407 15:42:16.646685  3579 net.cpp:165] Memory required for data: 280252768
I0407 15:42:16.646688  3579 layer_factory.hpp:77] Creating layer pool6_pool6_0_split
I0407 15:42:16.646695  3579 net.cpp:100] Creating Layer pool6_pool6_0_split
I0407 15:42:16.646699  3579 net.cpp:434] pool6_pool6_0_split <- pool6
I0407 15:42:16.646704  3579 net.cpp:408] pool6_pool6_0_split -> pool6_pool6_0_split_0
I0407 15:42:16.646709  3579 net.cpp:408] pool6_pool6_0_split -> pool6_pool6_0_split_1
I0407 15:42:16.646750  3579 net.cpp:150] Setting up pool6_pool6_0_split
I0407 15:42:16.646756  3579 net.cpp:157] Top shape: 32 32 1 1 (1024)
I0407 15:42:16.646760  3579 net.cpp:157] Top shape: 32 32 1 1 (1024)
I0407 15:42:16.646764  3579 net.cpp:165] Memory required for data: 280260960
I0407 15:42:16.646767  3579 layer_factory.hpp:77] Creating layer conv4_3_norm
I0407 15:42:16.646773  3579 net.cpp:100] Creating Layer conv4_3_norm
I0407 15:42:16.646777  3579 net.cpp:434] conv4_3_norm <- conv4_3_relu4_3_0_split_1
I0407 15:42:16.646783  3579 net.cpp:408] conv4_3_norm -> conv4_3_norm
I0407 15:42:16.646956  3579 net.cpp:150] Setting up conv4_3_norm
I0407 15:42:16.646965  3579 net.cpp:157] Top shape: 32 128 8 32 (1048576)
I0407 15:42:16.646968  3579 net.cpp:165] Memory required for data: 284455264
I0407 15:42:16.646972  3579 layer_factory.hpp:77] Creating layer conv4_3_norm_conv4_3_norm_0_split
I0407 15:42:16.646980  3579 net.cpp:100] Creating Layer conv4_3_norm_conv4_3_norm_0_split
I0407 15:42:16.646986  3579 net.cpp:434] conv4_3_norm_conv4_3_norm_0_split <- conv4_3_norm
I0407 15:42:16.646991  3579 net.cpp:408] conv4_3_norm_conv4_3_norm_0_split -> conv4_3_norm_conv4_3_norm_0_split_0
I0407 15:42:16.646997  3579 net.cpp:408] conv4_3_norm_conv4_3_norm_0_split -> conv4_3_norm_conv4_3_norm_0_split_1
I0407 15:42:16.647047  3579 net.cpp:150] Setting up conv4_3_norm_conv4_3_norm_0_split
I0407 15:42:16.647053  3579 net.cpp:157] Top shape: 32 128 8 32 (1048576)
I0407 15:42:16.647058  3579 net.cpp:157] Top shape: 32 128 8 32 (1048576)
I0407 15:42:16.647061  3579 net.cpp:165] Memory required for data: 292843872
I0407 15:42:16.647065  3579 layer_factory.hpp:77] Creating layer conv4_3_norm_mbox_loc_conf
I0407 15:42:16.647074  3579 net.cpp:100] Creating Layer conv4_3_norm_mbox_loc_conf
I0407 15:42:16.647078  3579 net.cpp:434] conv4_3_norm_mbox_loc_conf <- conv4_3_norm_conv4_3_norm_0_split_0
I0407 15:42:16.647085  3579 net.cpp:408] conv4_3_norm_mbox_loc_conf -> conv4_3_norm_mbox_loc_conf
I0407 15:42:16.647734  3579 net.cpp:150] Setting up conv4_3_norm_mbox_loc_conf
I0407 15:42:16.647742  3579 net.cpp:157] Top shape: 32 48 8 32 (393216)
I0407 15:42:16.647747  3579 net.cpp:165] Memory required for data: 294416736
I0407 15:42:16.647753  3579 layer_factory.hpp:77] Creating layer conv4_3_norm_mbox_loc_conf_perm
I0407 15:42:16.647759  3579 net.cpp:100] Creating Layer conv4_3_norm_mbox_loc_conf_perm
I0407 15:42:16.647764  3579 net.cpp:434] conv4_3_norm_mbox_loc_conf_perm <- conv4_3_norm_mbox_loc_conf
I0407 15:42:16.647771  3579 net.cpp:408] conv4_3_norm_mbox_loc_conf_perm -> conv4_3_norm_mbox_loc_conf_perm
I0407 15:42:16.647884  3579 net.cpp:150] Setting up conv4_3_norm_mbox_loc_conf_perm
I0407 15:42:16.647891  3579 net.cpp:157] Top shape: 32 8 32 48 (393216)
I0407 15:42:16.647896  3579 net.cpp:165] Memory required for data: 295989600
I0407 15:42:16.647898  3579 layer_factory.hpp:77] Creating layer conv4_3_norm_mbox_loc_perm
I0407 15:42:16.647907  3579 net.cpp:100] Creating Layer conv4_3_norm_mbox_loc_perm
I0407 15:42:16.647912  3579 net.cpp:434] conv4_3_norm_mbox_loc_perm <- conv4_3_norm_mbox_loc_conf_perm
I0407 15:42:16.647917  3579 net.cpp:408] conv4_3_norm_mbox_loc_perm -> conv4_3_norm_mbox_loc_perm
I0407 15:42:16.647922  3579 net.cpp:408] conv4_3_norm_mbox_loc_perm -> conv4_3_norm_mbox_conf_perm
I0407 15:42:16.647963  3579 net.cpp:150] Setting up conv4_3_norm_mbox_loc_perm
I0407 15:42:16.647969  3579 net.cpp:157] Top shape: 32 8 32 24 (196608)
I0407 15:42:16.647972  3579 net.cpp:157] Top shape: 32 8 32 24 (196608)
I0407 15:42:16.647976  3579 net.cpp:165] Memory required for data: 297562464
I0407 15:42:16.647979  3579 layer_factory.hpp:77] Creating layer conv4_3_norm_mbox_loc_flat
I0407 15:42:16.647985  3579 net.cpp:100] Creating Layer conv4_3_norm_mbox_loc_flat
I0407 15:42:16.647989  3579 net.cpp:434] conv4_3_norm_mbox_loc_flat <- conv4_3_norm_mbox_loc_perm
I0407 15:42:16.647994  3579 net.cpp:408] conv4_3_norm_mbox_loc_flat -> conv4_3_norm_mbox_loc_flat
I0407 15:42:16.648020  3579 net.cpp:150] Setting up conv4_3_norm_mbox_loc_flat
I0407 15:42:16.648027  3579 net.cpp:157] Top shape: 32 6144 (196608)
I0407 15:42:16.648031  3579 net.cpp:165] Memory required for data: 298348896
I0407 15:42:16.648035  3579 layer_factory.hpp:77] Creating layer conv4_3_norm_mbox_conf_flat
I0407 15:42:16.648039  3579 net.cpp:100] Creating Layer conv4_3_norm_mbox_conf_flat
I0407 15:42:16.648044  3579 net.cpp:434] conv4_3_norm_mbox_conf_flat <- conv4_3_norm_mbox_conf_perm
I0407 15:42:16.648049  3579 net.cpp:408] conv4_3_norm_mbox_conf_flat -> conv4_3_norm_mbox_conf_flat
I0407 15:42:16.648075  3579 net.cpp:150] Setting up conv4_3_norm_mbox_conf_flat
I0407 15:42:16.648082  3579 net.cpp:157] Top shape: 32 6144 (196608)
I0407 15:42:16.648084  3579 net.cpp:165] Memory required for data: 299135328
I0407 15:42:16.648088  3579 layer_factory.hpp:77] Creating layer conv4_3_norm_mbox_priorbox
I0407 15:42:16.648095  3579 net.cpp:100] Creating Layer conv4_3_norm_mbox_priorbox
I0407 15:42:16.648099  3579 net.cpp:434] conv4_3_norm_mbox_priorbox <- conv4_3_norm_conv4_3_norm_0_split_1
I0407 15:42:16.648108  3579 net.cpp:434] conv4_3_norm_mbox_priorbox <- data_data_0_split_1
I0407 15:42:16.648114  3579 net.cpp:408] conv4_3_norm_mbox_priorbox -> conv4_3_norm_mbox_priorbox
I0407 15:42:16.648142  3579 net.cpp:150] Setting up conv4_3_norm_mbox_priorbox
I0407 15:42:16.648149  3579 net.cpp:157] Top shape: 1 2 6144 (12288)
I0407 15:42:16.648151  3579 net.cpp:165] Memory required for data: 299184480
I0407 15:42:16.648155  3579 layer_factory.hpp:77] Creating layer fc7_conv_mbox_loc_conf
I0407 15:42:16.648164  3579 net.cpp:100] Creating Layer fc7_conv_mbox_loc_conf
I0407 15:42:16.648169  3579 net.cpp:434] fc7_conv_mbox_loc_conf <- fc7_conv_relu7_0_split_1
I0407 15:42:16.648181  3579 net.cpp:408] fc7_conv_mbox_loc_conf -> fc7_conv_mbox_loc_conf
I0407 15:42:16.649210  3579 net.cpp:150] Setting up fc7_conv_mbox_loc_conf
I0407 15:42:16.649225  3579 net.cpp:157] Top shape: 32 48 4 16 (98304)
I0407 15:42:16.649230  3579 net.cpp:165] Memory required for data: 299577696
I0407 15:42:16.649236  3579 layer_factory.hpp:77] Creating layer fc7_conv_mbox_loc_conf_perm
I0407 15:42:16.649243  3579 net.cpp:100] Creating Layer fc7_conv_mbox_loc_conf_perm
I0407 15:42:16.649248  3579 net.cpp:434] fc7_conv_mbox_loc_conf_perm <- fc7_conv_mbox_loc_conf
I0407 15:42:16.649255  3579 net.cpp:408] fc7_conv_mbox_loc_conf_perm -> fc7_conv_mbox_loc_conf_perm
I0407 15:42:16.649379  3579 net.cpp:150] Setting up fc7_conv_mbox_loc_conf_perm
I0407 15:42:16.649386  3579 net.cpp:157] Top shape: 32 4 16 48 (98304)
I0407 15:42:16.649390  3579 net.cpp:165] Memory required for data: 299970912
I0407 15:42:16.649394  3579 layer_factory.hpp:77] Creating layer fc7_conv_mbox_loc_perm
I0407 15:42:16.649399  3579 net.cpp:100] Creating Layer fc7_conv_mbox_loc_perm
I0407 15:42:16.649404  3579 net.cpp:434] fc7_conv_mbox_loc_perm <- fc7_conv_mbox_loc_conf_perm
I0407 15:42:16.649410  3579 net.cpp:408] fc7_conv_mbox_loc_perm -> fc7_conv_mbox_loc_perm
I0407 15:42:16.649416  3579 net.cpp:408] fc7_conv_mbox_loc_perm -> fc7_conv_mbox_conf_perm
I0407 15:42:16.649457  3579 net.cpp:150] Setting up fc7_conv_mbox_loc_perm
I0407 15:42:16.649463  3579 net.cpp:157] Top shape: 32 4 16 24 (49152)
I0407 15:42:16.649467  3579 net.cpp:157] Top shape: 32 4 16 24 (49152)
I0407 15:42:16.649471  3579 net.cpp:165] Memory required for data: 300364128
I0407 15:42:16.649476  3579 layer_factory.hpp:77] Creating layer fc7_conv_mbox_loc_flat
I0407 15:42:16.649480  3579 net.cpp:100] Creating Layer fc7_conv_mbox_loc_flat
I0407 15:42:16.649485  3579 net.cpp:434] fc7_conv_mbox_loc_flat <- fc7_conv_mbox_loc_perm
I0407 15:42:16.649490  3579 net.cpp:408] fc7_conv_mbox_loc_flat -> fc7_conv_mbox_loc_flat
I0407 15:42:16.649516  3579 net.cpp:150] Setting up fc7_conv_mbox_loc_flat
I0407 15:42:16.649523  3579 net.cpp:157] Top shape: 32 1536 (49152)
I0407 15:42:16.649525  3579 net.cpp:165] Memory required for data: 300560736
I0407 15:42:16.649529  3579 layer_factory.hpp:77] Creating layer fc7_conv_mbox_conf_flat
I0407 15:42:16.649536  3579 net.cpp:100] Creating Layer fc7_conv_mbox_conf_flat
I0407 15:42:16.649540  3579 net.cpp:434] fc7_conv_mbox_conf_flat <- fc7_conv_mbox_conf_perm
I0407 15:42:16.649545  3579 net.cpp:408] fc7_conv_mbox_conf_flat -> fc7_conv_mbox_conf_flat
I0407 15:42:16.649572  3579 net.cpp:150] Setting up fc7_conv_mbox_conf_flat
I0407 15:42:16.649580  3579 net.cpp:157] Top shape: 32 1536 (49152)
I0407 15:42:16.649583  3579 net.cpp:165] Memory required for data: 300757344
I0407 15:42:16.649587  3579 layer_factory.hpp:77] Creating layer fc7_conv_mbox_priorbox
I0407 15:42:16.649593  3579 net.cpp:100] Creating Layer fc7_conv_mbox_priorbox
I0407 15:42:16.649597  3579 net.cpp:434] fc7_conv_mbox_priorbox <- fc7_conv_relu7_0_split_2
I0407 15:42:16.649602  3579 net.cpp:434] fc7_conv_mbox_priorbox <- data_data_0_split_2
I0407 15:42:16.649608  3579 net.cpp:408] fc7_conv_mbox_priorbox -> fc7_conv_mbox_priorbox
I0407 15:42:16.649637  3579 net.cpp:150] Setting up fc7_conv_mbox_priorbox
I0407 15:42:16.649642  3579 net.cpp:157] Top shape: 1 2 1536 (3072)
I0407 15:42:16.649646  3579 net.cpp:165] Memory required for data: 300769632
I0407 15:42:16.649654  3579 layer_factory.hpp:77] Creating layer conv6_2_mbox_loc_conf
I0407 15:42:16.649665  3579 net.cpp:100] Creating Layer conv6_2_mbox_loc_conf
I0407 15:42:16.649670  3579 net.cpp:434] conv6_2_mbox_loc_conf <- conv6_2_conv6_2_relu_0_split_1
I0407 15:42:16.649677  3579 net.cpp:408] conv6_2_mbox_loc_conf -> conv6_2_mbox_loc_conf
I0407 15:42:16.650141  3579 net.cpp:150] Setting up conv6_2_mbox_loc_conf
I0407 15:42:16.650152  3579 net.cpp:157] Top shape: 32 48 2 8 (24576)
I0407 15:42:16.650156  3579 net.cpp:165] Memory required for data: 300867936
I0407 15:42:16.650162  3579 layer_factory.hpp:77] Creating layer conv6_2_mbox_loc_conf_perm
I0407 15:42:16.650182  3579 net.cpp:100] Creating Layer conv6_2_mbox_loc_conf_perm
I0407 15:42:16.650187  3579 net.cpp:434] conv6_2_mbox_loc_conf_perm <- conv6_2_mbox_loc_conf
I0407 15:42:16.650193  3579 net.cpp:408] conv6_2_mbox_loc_conf_perm -> conv6_2_mbox_loc_conf_perm
I0407 15:42:16.650321  3579 net.cpp:150] Setting up conv6_2_mbox_loc_conf_perm
I0407 15:42:16.650327  3579 net.cpp:157] Top shape: 32 2 8 48 (24576)
I0407 15:42:16.650331  3579 net.cpp:165] Memory required for data: 300966240
I0407 15:42:16.650336  3579 layer_factory.hpp:77] Creating layer conv6_2_mbox_loc_perm
I0407 15:42:16.650342  3579 net.cpp:100] Creating Layer conv6_2_mbox_loc_perm
I0407 15:42:16.650347  3579 net.cpp:434] conv6_2_mbox_loc_perm <- conv6_2_mbox_loc_conf_perm
I0407 15:42:16.650352  3579 net.cpp:408] conv6_2_mbox_loc_perm -> conv6_2_mbox_loc_perm
I0407 15:42:16.650359  3579 net.cpp:408] conv6_2_mbox_loc_perm -> conv6_2_mbox_conf_perm
I0407 15:42:16.650404  3579 net.cpp:150] Setting up conv6_2_mbox_loc_perm
I0407 15:42:16.650410  3579 net.cpp:157] Top shape: 32 2 8 24 (12288)
I0407 15:42:16.650415  3579 net.cpp:157] Top shape: 32 2 8 24 (12288)
I0407 15:42:16.650419  3579 net.cpp:165] Memory required for data: 301064544
I0407 15:42:16.650424  3579 layer_factory.hpp:77] Creating layer conv6_2_mbox_loc_flat
I0407 15:42:16.650430  3579 net.cpp:100] Creating Layer conv6_2_mbox_loc_flat
I0407 15:42:16.650435  3579 net.cpp:434] conv6_2_mbox_loc_flat <- conv6_2_mbox_loc_perm
I0407 15:42:16.650440  3579 net.cpp:408] conv6_2_mbox_loc_flat -> conv6_2_mbox_loc_flat
I0407 15:42:16.650466  3579 net.cpp:150] Setting up conv6_2_mbox_loc_flat
I0407 15:42:16.650472  3579 net.cpp:157] Top shape: 32 384 (12288)
I0407 15:42:16.650476  3579 net.cpp:165] Memory required for data: 301113696
I0407 15:42:16.650480  3579 layer_factory.hpp:77] Creating layer conv6_2_mbox_conf_flat
I0407 15:42:16.650486  3579 net.cpp:100] Creating Layer conv6_2_mbox_conf_flat
I0407 15:42:16.650490  3579 net.cpp:434] conv6_2_mbox_conf_flat <- conv6_2_mbox_conf_perm
I0407 15:42:16.650496  3579 net.cpp:408] conv6_2_mbox_conf_flat -> conv6_2_mbox_conf_flat
I0407 15:42:16.650523  3579 net.cpp:150] Setting up conv6_2_mbox_conf_flat
I0407 15:42:16.650529  3579 net.cpp:157] Top shape: 32 384 (12288)
I0407 15:42:16.650533  3579 net.cpp:165] Memory required for data: 301162848
I0407 15:42:16.650537  3579 layer_factory.hpp:77] Creating layer conv6_2_mbox_priorbox
I0407 15:42:16.650543  3579 net.cpp:100] Creating Layer conv6_2_mbox_priorbox
I0407 15:42:16.650547  3579 net.cpp:434] conv6_2_mbox_priorbox <- conv6_2_conv6_2_relu_0_split_2
I0407 15:42:16.650552  3579 net.cpp:434] conv6_2_mbox_priorbox <- data_data_0_split_3
I0407 15:42:16.650559  3579 net.cpp:408] conv6_2_mbox_priorbox -> conv6_2_mbox_priorbox
I0407 15:42:16.650586  3579 net.cpp:150] Setting up conv6_2_mbox_priorbox
I0407 15:42:16.650593  3579 net.cpp:157] Top shape: 1 2 384 (768)
I0407 15:42:16.650598  3579 net.cpp:165] Memory required for data: 301165920
I0407 15:42:16.650600  3579 layer_factory.hpp:77] Creating layer conv7_2_mbox_loc_conf
I0407 15:42:16.650610  3579 net.cpp:100] Creating Layer conv7_2_mbox_loc_conf
I0407 15:42:16.650614  3579 net.cpp:434] conv7_2_mbox_loc_conf <- conv7_2_conv7_2_relu_0_split_1
I0407 15:42:16.650622  3579 net.cpp:408] conv7_2_mbox_loc_conf -> conv7_2_mbox_loc_conf
I0407 15:42:16.651008  3579 net.cpp:150] Setting up conv7_2_mbox_loc_conf
I0407 15:42:16.651022  3579 net.cpp:157] Top shape: 32 48 1 4 (6144)
I0407 15:42:16.651027  3579 net.cpp:165] Memory required for data: 301190496
I0407 15:42:16.651033  3579 layer_factory.hpp:77] Creating layer conv7_2_mbox_loc_conf_perm
I0407 15:42:16.651039  3579 net.cpp:100] Creating Layer conv7_2_mbox_loc_conf_perm
I0407 15:42:16.651044  3579 net.cpp:434] conv7_2_mbox_loc_conf_perm <- conv7_2_mbox_loc_conf
I0407 15:42:16.651051  3579 net.cpp:408] conv7_2_mbox_loc_conf_perm -> conv7_2_mbox_loc_conf_perm
I0407 15:42:16.651170  3579 net.cpp:150] Setting up conv7_2_mbox_loc_conf_perm
I0407 15:42:16.651176  3579 net.cpp:157] Top shape: 32 1 4 48 (6144)
I0407 15:42:16.651180  3579 net.cpp:165] Memory required for data: 301215072
I0407 15:42:16.651185  3579 layer_factory.hpp:77] Creating layer conv7_2_mbox_loc_perm
I0407 15:42:16.651190  3579 net.cpp:100] Creating Layer conv7_2_mbox_loc_perm
I0407 15:42:16.651195  3579 net.cpp:434] conv7_2_mbox_loc_perm <- conv7_2_mbox_loc_conf_perm
I0407 15:42:16.651201  3579 net.cpp:408] conv7_2_mbox_loc_perm -> conv7_2_mbox_loc_perm
I0407 15:42:16.651207  3579 net.cpp:408] conv7_2_mbox_loc_perm -> conv7_2_mbox_conf_perm
I0407 15:42:16.651247  3579 net.cpp:150] Setting up conv7_2_mbox_loc_perm
I0407 15:42:16.651254  3579 net.cpp:157] Top shape: 32 1 4 24 (3072)
I0407 15:42:16.651259  3579 net.cpp:157] Top shape: 32 1 4 24 (3072)
I0407 15:42:16.651262  3579 net.cpp:165] Memory required for data: 301239648
I0407 15:42:16.651267  3579 layer_factory.hpp:77] Creating layer conv7_2_mbox_loc_flat
I0407 15:42:16.651271  3579 net.cpp:100] Creating Layer conv7_2_mbox_loc_flat
I0407 15:42:16.651275  3579 net.cpp:434] conv7_2_mbox_loc_flat <- conv7_2_mbox_loc_perm
I0407 15:42:16.651288  3579 net.cpp:408] conv7_2_mbox_loc_flat -> conv7_2_mbox_loc_flat
I0407 15:42:16.651315  3579 net.cpp:150] Setting up conv7_2_mbox_loc_flat
I0407 15:42:16.651321  3579 net.cpp:157] Top shape: 32 96 (3072)
I0407 15:42:16.651325  3579 net.cpp:165] Memory required for data: 301251936
I0407 15:42:16.651329  3579 layer_factory.hpp:77] Creating layer conv7_2_mbox_conf_flat
I0407 15:42:16.651335  3579 net.cpp:100] Creating Layer conv7_2_mbox_conf_flat
I0407 15:42:16.651338  3579 net.cpp:434] conv7_2_mbox_conf_flat <- conv7_2_mbox_conf_perm
I0407 15:42:16.651345  3579 net.cpp:408] conv7_2_mbox_conf_flat -> conv7_2_mbox_conf_flat
I0407 15:42:16.651371  3579 net.cpp:150] Setting up conv7_2_mbox_conf_flat
I0407 15:42:16.651377  3579 net.cpp:157] Top shape: 32 96 (3072)
I0407 15:42:16.651381  3579 net.cpp:165] Memory required for data: 301264224
I0407 15:42:16.651384  3579 layer_factory.hpp:77] Creating layer conv7_2_mbox_priorbox
I0407 15:42:16.651391  3579 net.cpp:100] Creating Layer conv7_2_mbox_priorbox
I0407 15:42:16.651396  3579 net.cpp:434] conv7_2_mbox_priorbox <- conv7_2_conv7_2_relu_0_split_2
I0407 15:42:16.651401  3579 net.cpp:434] conv7_2_mbox_priorbox <- data_data_0_split_4
I0407 15:42:16.651408  3579 net.cpp:408] conv7_2_mbox_priorbox -> conv7_2_mbox_priorbox
I0407 15:42:16.651437  3579 net.cpp:150] Setting up conv7_2_mbox_priorbox
I0407 15:42:16.651443  3579 net.cpp:157] Top shape: 1 2 96 (192)
I0407 15:42:16.651446  3579 net.cpp:165] Memory required for data: 301264992
I0407 15:42:16.651449  3579 layer_factory.hpp:77] Creating layer pool6_mbox_loc_conf
I0407 15:42:16.651458  3579 net.cpp:100] Creating Layer pool6_mbox_loc_conf
I0407 15:42:16.651463  3579 net.cpp:434] pool6_mbox_loc_conf <- pool6_pool6_0_split_0
I0407 15:42:16.651470  3579 net.cpp:408] pool6_mbox_loc_conf -> pool6_mbox_loc_conf
I0407 15:42:16.651859  3579 net.cpp:150] Setting up pool6_mbox_loc_conf
I0407 15:42:16.651866  3579 net.cpp:157] Top shape: 32 48 1 1 (1536)
I0407 15:42:16.651870  3579 net.cpp:165] Memory required for data: 301271136
I0407 15:42:16.651876  3579 layer_factory.hpp:77] Creating layer pool6_mbox_loc_conf_perm
I0407 15:42:16.651883  3579 net.cpp:100] Creating Layer pool6_mbox_loc_conf_perm
I0407 15:42:16.651888  3579 net.cpp:434] pool6_mbox_loc_conf_perm <- pool6_mbox_loc_conf
I0407 15:42:16.651895  3579 net.cpp:408] pool6_mbox_loc_conf_perm -> pool6_mbox_loc_conf_perm
I0407 15:42:16.652017  3579 net.cpp:150] Setting up pool6_mbox_loc_conf_perm
I0407 15:42:16.652025  3579 net.cpp:157] Top shape: 32 1 1 48 (1536)
I0407 15:42:16.652029  3579 net.cpp:165] Memory required for data: 301277280
I0407 15:42:16.652034  3579 layer_factory.hpp:77] Creating layer pool6_mbox_loc_perm
I0407 15:42:16.652039  3579 net.cpp:100] Creating Layer pool6_mbox_loc_perm
I0407 15:42:16.652042  3579 net.cpp:434] pool6_mbox_loc_perm <- pool6_mbox_loc_conf_perm
I0407 15:42:16.652050  3579 net.cpp:408] pool6_mbox_loc_perm -> pool6_mbox_loc_perm
I0407 15:42:16.652056  3579 net.cpp:408] pool6_mbox_loc_perm -> pool6_mbox_conf_perm
I0407 15:42:16.652096  3579 net.cpp:150] Setting up pool6_mbox_loc_perm
I0407 15:42:16.652102  3579 net.cpp:157] Top shape: 32 1 1 24 (768)
I0407 15:42:16.652107  3579 net.cpp:157] Top shape: 32 1 1 24 (768)
I0407 15:42:16.652110  3579 net.cpp:165] Memory required for data: 301283424
I0407 15:42:16.652114  3579 layer_factory.hpp:77] Creating layer pool6_mbox_loc_flat
I0407 15:42:16.652120  3579 net.cpp:100] Creating Layer pool6_mbox_loc_flat
I0407 15:42:16.652124  3579 net.cpp:434] pool6_mbox_loc_flat <- pool6_mbox_loc_perm
I0407 15:42:16.652129  3579 net.cpp:408] pool6_mbox_loc_flat -> pool6_mbox_loc_flat
I0407 15:42:16.652155  3579 net.cpp:150] Setting up pool6_mbox_loc_flat
I0407 15:42:16.652161  3579 net.cpp:157] Top shape: 32 24 (768)
I0407 15:42:16.652165  3579 net.cpp:165] Memory required for data: 301286496
I0407 15:42:16.652169  3579 layer_factory.hpp:77] Creating layer pool6_mbox_conf_flat
I0407 15:42:16.652174  3579 net.cpp:100] Creating Layer pool6_mbox_conf_flat
I0407 15:42:16.652179  3579 net.cpp:434] pool6_mbox_conf_flat <- pool6_mbox_conf_perm
I0407 15:42:16.652185  3579 net.cpp:408] pool6_mbox_conf_flat -> pool6_mbox_conf_flat
I0407 15:42:16.652212  3579 net.cpp:150] Setting up pool6_mbox_conf_flat
I0407 15:42:16.652217  3579 net.cpp:157] Top shape: 32 24 (768)
I0407 15:42:16.652221  3579 net.cpp:165] Memory required for data: 301289568
I0407 15:42:16.652225  3579 layer_factory.hpp:77] Creating layer pool6_mbox_priorbox
I0407 15:42:16.652232  3579 net.cpp:100] Creating Layer pool6_mbox_priorbox
I0407 15:42:16.652236  3579 net.cpp:434] pool6_mbox_priorbox <- pool6_pool6_0_split_1
I0407 15:42:16.652241  3579 net.cpp:434] pool6_mbox_priorbox <- data_data_0_split_5
I0407 15:42:16.652247  3579 net.cpp:408] pool6_mbox_priorbox -> pool6_mbox_priorbox
I0407 15:42:16.652276  3579 net.cpp:150] Setting up pool6_mbox_priorbox
I0407 15:42:16.652281  3579 net.cpp:157] Top shape: 1 2 24 (48)
I0407 15:42:16.652285  3579 net.cpp:165] Memory required for data: 301289760
I0407 15:42:16.652288  3579 layer_factory.hpp:77] Creating layer mbox_loc
I0407 15:42:16.652295  3579 net.cpp:100] Creating Layer mbox_loc
I0407 15:42:16.652300  3579 net.cpp:434] mbox_loc <- conv4_3_norm_mbox_loc_flat
I0407 15:42:16.652307  3579 net.cpp:434] mbox_loc <- fc7_conv_mbox_loc_flat
I0407 15:42:16.652312  3579 net.cpp:434] mbox_loc <- conv6_2_mbox_loc_flat
I0407 15:42:16.652318  3579 net.cpp:434] mbox_loc <- conv7_2_mbox_loc_flat
I0407 15:42:16.652321  3579 net.cpp:434] mbox_loc <- pool6_mbox_loc_flat
I0407 15:42:16.652329  3579 net.cpp:408] mbox_loc -> mbox_loc
I0407 15:42:16.652364  3579 net.cpp:150] Setting up mbox_loc
I0407 15:42:16.652371  3579 net.cpp:157] Top shape: 32 8184 (261888)
I0407 15:42:16.652375  3579 net.cpp:165] Memory required for data: 302337312
I0407 15:42:16.652379  3579 layer_factory.hpp:77] Creating layer mbox_conf
I0407 15:42:16.652384  3579 net.cpp:100] Creating Layer mbox_conf
I0407 15:42:16.652389  3579 net.cpp:434] mbox_conf <- conv4_3_norm_mbox_conf_flat
I0407 15:42:16.652395  3579 net.cpp:434] mbox_conf <- fc7_conv_mbox_conf_flat
I0407 15:42:16.652400  3579 net.cpp:434] mbox_conf <- conv6_2_mbox_conf_flat
I0407 15:42:16.652405  3579 net.cpp:434] mbox_conf <- conv7_2_mbox_conf_flat
I0407 15:42:16.652408  3579 net.cpp:434] mbox_conf <- pool6_mbox_conf_flat
I0407 15:42:16.652413  3579 net.cpp:408] mbox_conf -> mbox_conf
I0407 15:42:16.652443  3579 net.cpp:150] Setting up mbox_conf
I0407 15:42:16.652449  3579 net.cpp:157] Top shape: 32 8184 (261888)
I0407 15:42:16.652453  3579 net.cpp:165] Memory required for data: 303384864
I0407 15:42:16.652457  3579 layer_factory.hpp:77] Creating layer mbox_priorbox
I0407 15:42:16.652462  3579 net.cpp:100] Creating Layer mbox_priorbox
I0407 15:42:16.652467  3579 net.cpp:434] mbox_priorbox <- conv4_3_norm_mbox_priorbox
I0407 15:42:16.652472  3579 net.cpp:434] mbox_priorbox <- fc7_conv_mbox_priorbox
I0407 15:42:16.652477  3579 net.cpp:434] mbox_priorbox <- conv6_2_mbox_priorbox
I0407 15:42:16.652482  3579 net.cpp:434] mbox_priorbox <- conv7_2_mbox_priorbox
I0407 15:42:16.652485  3579 net.cpp:434] mbox_priorbox <- pool6_mbox_priorbox
I0407 15:42:16.652490  3579 net.cpp:408] mbox_priorbox -> mbox_priorbox
I0407 15:42:16.652518  3579 net.cpp:150] Setting up mbox_priorbox
I0407 15:42:16.652523  3579 net.cpp:157] Top shape: 1 2 8184 (16368)
I0407 15:42:16.652528  3579 net.cpp:165] Memory required for data: 303450336
I0407 15:42:16.652531  3579 layer_factory.hpp:77] Creating layer mbox_loss
I0407 15:42:16.652539  3579 net.cpp:100] Creating Layer mbox_loss
I0407 15:42:16.652544  3579 net.cpp:434] mbox_loss <- mbox_loc
I0407 15:42:16.652549  3579 net.cpp:434] mbox_loss <- mbox_conf
I0407 15:42:16.652554  3579 net.cpp:434] mbox_loss <- mbox_priorbox
…
  name: "data"
  type: "AnnotatedData"
  top: "data"
  top: "label"
  include {
    phase: TEST
  }
  transform_param {
    mean_value: 114
    mean_value: 115
    mean_value: 108
    resize_param {
      prob: 1
      resize_mode: WARP
      height: 64
      width: 256
      interp_mode: LINEAR
    }
  }
  data_param {
    source: "/home/work/wwl/data/kitti/data_object_image_2/training/test_lmdb"
    batch_size: 32
    backend: LMDB
  }
  annotated_data_param {
    batch_sampler {
    }
    label_map_file: "/tmp/toqinhuan/labelmap.prototxt"
  }
}
layer {
  name: "conv1_1"
  type: "Convolution"
  bottom: "data"
  top: "conv1_1"
  param {
    lr_mult: 1
    decay_mult: 1
  }
  param {
    lr_mult: 2
    decay_mult: 0
  }
  convolution_param {
    num_output: 16
    pad: 1
    kernel_size: 3
    weight_filler {
      type: "xavier"
    }
    bias_filler {
      type: "constant"
      value: 0
    }
  }
}
layer {
  name: "relu1_1"
  type: "ReLU"
  bottom: "conv1_1"
  top: "conv1_1"
}
layer {
  name: "conv1_2"
  type: "Convolution"
  bottom: "conv1_1"
  top: "conv1_2"
  param {
    lr_mult: 1
    decay_mult: 1
  }
  param {
    lr_mult: 2
    decay_mult: 0
  }
  convolution_param {
    num_output: 16
    pad: 1
    kernel_size: 3
    stride: 2
    weight_filler {
      type: "xavier"
    }
    bias_filler {
      type: "constant"
      value: 0
    }
  }
}
layer {
  name: "relu1_2"
  type: "ReLU"
  bottom: "conv1_2"
  top: "conv1_2"
}
layer {
  name: "conv2_1"
  type: "Convolution"
  bottom: "conv1_2"
  top: "conv2_1"
  param {
    lr_mult: 1
    decay_mult: 1
  }
  param {
    lr_mult: 2
    decay_mult: 0
  }
  convolution_param {
    num_output: 32
    pad: 1
    kernel_size: 3
    weight_filler {
      type: "xavier"
    }
    bias_filler {
      type: "constant"
      value: 0
    }
  }
}
layer {
  name: "relu2_1"
  type: "ReLU"
  bottom: "conv2_1"
  top: "conv2_1"
}
layer {
  name: "conv2_2"
  type: "Convolution"
  bottom: "conv2_1"
  top: "conv2_2"
  param {
    lr_mult: 1
    decay_mult: 1
  }
  param {
    lr_mult: 2
    decay_mult: 0
  }
  convolution_param {
    num_output: 32
    pad: 1
    kernel_size: 3
    stride: 2
    weight_filler {
      type: "xavier"
    }
    bias_filler {
      type: "constant"
      value: 0
    }
  }
}
layer {
  name: "relu2_2"
  type: "ReLU"
  bottom: "conv2_2"
  top: "conv2_2"
}
layer {
  name: "conv3_1"
  type: "Convolution"
  bottom: "conv2_2"
  top: "conv3_1"
  param {
    lr_mult: 1
    decay_mult: 1
  }
  param {
    lr_mult: 2
    decay_mult: 0
  }
  convolution_param {
    num_output: 64
    pad: 1
    kernel_size: 3
    weight_filler {
      type: "xavier"
    }
    bias_filler {
      type: "constant"
      value: 0
    }
  }
}
layer {
  name: "relu3_1"
  type: "ReLU"
  bottom: "conv3_1"
  top: "conv3_1"
}
layer {
  name: "conv3_2"
  type: "Convolution"
  bottom: "conv3_1"
  top: "conv3_2"
  param {
    lr_mult: 1
    decay_mult: 1
  }
  param {
    lr_mult: 2
    decay_mult: 0
  }
  convolution_param {
    num_output: 64
    pad: 1
    kernel_size: 3
    weight_filler {
      type: "xavier"
    }
    bias_filler {
      type: "constant"
      value: 0
    }
  }
}
layer {
  name: "relu3_2"
  type: "ReLU"
  bottom: "conv3_2"
  top: "conv3_2"
}
layer {
  name: "conv3_3"
  type: "Convolution"
  bottom: "conv3_2"
  top: "conv3_3"
  param {
    lr_mult: 1
    decay_mult: 1
  }
  param {
    lr_mult: 2
    decay_mult: 0
  }
  convolution_param {
    num_output: 64
    pad: 1
    kernel_size: 3
    weight_filler {
      type: "xavier"
    }
    bias_filler {
      type: "constant"
      value: 0
    }
  }
}
layer {
  name: "relu3_3"
  type: "ReLU"
  bottom: "conv3_3"
  top: "conv3_3"
}
layer {
  name: "pool3"
  type: "Pooling"
  bottom: "conv3_3"
  top: "pool3"
  pooling_param {
    pool: MAX
    kernel_size: 2
    stride: 2
  }
}
layer {
  name: "conv4_1"
  type: "Convolution"
  bottom: "pool3"
  top: "conv4_1"
  param {
    lr_mult: 1
    decay_mult: 1
  }
  param {
    lr_mult: 2
    decay_mult: 0
  }
  convolution_param {
    num_output: 128
    pad: 1
    kernel_size: 3
    weight_filler {
      type: "xavier"
    }
    bias_filler {
      type: "constant"
      value: 0
    }
  }
}
layer {
  name: "relu4_1"
  type: "ReLU"
  bottom: "conv4_1"
  top: "conv4_1"
}
layer {
  name: "conv4_2"
  type: "Convolution"
  bottom: "conv4_1"
  top: "conv4_2"
  param {
    lr_mult: 1
    decay_mult: 1
  }
  param {
    lr_mult: 2
    decay_mult: 0
  }
  convolution_param {
    num_output: 128
    pad: 1
    kernel_size: 3
    weight_filler {
      type: "xavier"
    }
    bias_filler {
      type: "constant"
      value: 0
    }
  }
}
layer {
  name: "relu4_2"
  type: "ReLU"
  bottom: "conv4_2"
  top: "conv4_2"
}
layer {
  name: "conv4_3"
  type: "Convolution"
  bottom: "conv4_2"
  top: "conv4_3"
  param {
    lr_mult: 1
    decay_mult: 1
  }
  param {
    lr_mult: 2
    decay_mult: 0
  }
  convolution_param {
    num_output: 128
    pad: 1
    kernel_size: 3
    weight_filler {
      type: "xavier"
    }
    bias_filler {
      type: "constant"
      value: 0
    }
  }
}
layer {
  name: "relu4_3"
  type: "ReLU"
  bottom: "conv4_3"
  top: "conv4_3"
}
layer {
  name: "pool4"
  type: "Pooling"
  bottom: "conv4_3"
  top: "pool4"
  pooling_param {
    pool: MAX
    kernel_size: 2
    stride: 2
  }
}
layer {
  name: "conv5_1"
  type: "Convolution"
  bottom: "pool4"
  top: "conv5_1"
  param {
    lr_mult: 1
    decay_mult: 1
  }
  param {
    lr_mult: 2
    decay_mult: 0
  }
  convolution_param {
    num_output: 128
    pad: 1
    kernel_size: 3
    weight_filler {
      type: "xavier"
    }
    bias_filler {
      type: "constant"
      value: 0
    }
    dilation: 1
  }
}
layer {
  name: "relu5_1"
  type: "ReLU"
  bottom: "conv5_1"
  top: "conv5_1"
}
layer {
  name: "conv5_2"
  type: "Convolution"
  bottom: "conv5_1"
  top: "conv5_2"
  param {
    lr_mult: 1
    decay_mult: 1
  }
  param {
    lr_mult: 2
    decay_mult: 0
  }
  convolution_param {
    num_output: 128
    pad: 1
    kernel_size: 3
    weight_filler {
      type: "xavier"
    }
    bias_filler {
      type: "constant"
      value: 0
    }
    dilation: 1
  }
}
layer {
  name: "relu5_2"
  type: "ReLU"
  bottom: "conv5_2"
  top: "conv5_2"
}
layer {
  name: "conv5_3"
  type: "Convolution"
  bottom: "conv5_2"
  top: "conv5_3"
  param {
    lr_mult: 1
    decay_mult: 1
  }
  param {
    lr_mult: 2
    decay_mult: 0
  }
  convolution_param {
    num_output: 128
    pad: 1
    kernel_size: 3
    weight_filler {
      type: "xavier"
    }
    bias_filler {
      type: "constant"
      value: 0
    }
    dilation: 1
  }
}
layer {
  name: "relu5_3"
  type: "ReLU"
  bottom: "conv5_3"
  top: "conv5_3"
}
layer {
  name: "pool5"
  type: "Pooling"
  bottom: "conv5_3"
  top: "pool5"
  pooling_param {
    pool: MAX
    kernel_size: 3
    stride: 1
    pad: 1
  }
}
layer {
  name: "fc6_conv"
  type: "Convolution"
  bottom: "pool5"
  top: "fc6_conv"
  param {
    lr_mult: 1
    decay_mult: 1
  }
  param {
    lr_mult: 2
    decay_mult: 0
  }
  convolution_param {
    num_output: 256
    pad: 6
    kernel_size: 3
    weight_filler {
      type: "xavier"
    }
    bias_filler {
      type: "constant"
      value: 0
    }
    dilation: 6
  }
}
layer {
  name: "relu6"
  type: "ReLU"
  bottom: "fc6_conv"
  top: "fc6_conv"
}
layer {
  name: "fc7_conv"
  type: "Convolution"
  bottom: "fc6_conv"
  top: "fc7_conv"
  param {
    lr_mult: 1
    decay_mult: 1
  }
  param {
    lr_mult: 2
    decay_mult: 0
  }
  convolution_param {
    num_output: 256
    kernel_size: 1
    weight_filler {
      type: "xavier"
    }
    bias_filler {
      type: "constant"
      value: 0
    }
  }
}
layer {
  name: "relu7"
  type: "ReLU"
  bottom: "fc7_conv"
  top: "fc7_conv"
}
layer {
  name: "conv6_1"
  type: "Convolution"
  bottom: "fc7_conv"
  top: "conv6_1"
  param {
    lr_mult: 1
    decay_mult: 1
  }
  param {
    lr_mult: 2
    decay_mult: 0
  }
  convolution_param {
    num_output: 32
    pad: 0
    kernel_size: 1
    stride: 1
    weight_filler {
      type: "xavier"
    }
    bias_filler {
      type: "constant"
      value: 0
    }
  }
}
layer {
  name: "conv6_1_relu"
  type: "ReLU"
  bottom: "conv6_1"
  top: "conv6_1"
}
layer {
  name: "conv6_2"
  type: "Convolution"
  bottom: "conv6_1"
  top: "conv6_2"
  param {
    lr_mult: 1
    decay_mult: 1
  }
  param {
    lr_mult: 2
    decay_mult: 0
  }
  convolution_param {
    num_output: 64
    pad: 1
    kernel_size: 3
    stride: 2
    weight_filler {
      type: "xavier"
    }
    bias_filler {
      type: "constant"
      value: 0
    }
  }
}
layer {
  name: "conv6_2_relu"
  type: "ReLU"
  bottom: "conv6_2"
  top: "conv6_2"
}
layer {
  name: "conv7_1"
  type: "Convolution"
  bottom: "conv6_2"
  top: "conv7_1"
  param {
    lr_mult: 1
    decay_mult: 1
  }
  param {
    lr_mult: 2
    decay_mult: 0
  }
  convolution_param {
    num_output: 16
    pad: 0
    kernel_size: 1
    stride: 1
    weight_filler {
      type: "xavier"
    }
    bias_filler {
      type: "constant"
      value: 0
    }
  }
}
layer {
  name: "conv7_1_relu"
  type: "ReLU"
  bottom: "conv7_1"
  top: "conv7_1"
}
layer {
  name: "conv7_2"
  type: "Convolution"
  bottom: "conv7_1"
  top: "conv7_2"
  param {
    lr_mult: 1
    decay_mult: 1
  }
  param {
    lr_mult: 2
    decay_mult: 0
  }
  convolution_param {
    num_output: 32
    pad: 1
    kernel_size: 3
    stride: 2
    weight_filler {
      type: "xavier"
    }
    bias_filler {
      type: "constant"
      value: 0
    }
  }
}
layer {
  name: "conv7_2_relu"
  type: "ReLU"
  bottom: "conv7_2"
  top: "conv7_2"
}
layer {
  name: "pool6"
  type: "Pooling"
  bottom: "conv7_2"
  top: "pool6"
  pooling_param {
    pool: AVE
    global_pooling: true
  }
}
layer {
  name: "conv4_3_norm"
  type: "Normalize"
  bottom: "conv4_3"
  top: "conv4_3_norm"
  norm_param {
    across_spatial: false
    scale_filler {
      type: "constant"
      value: 20
    }
    channel_shared: false
  }
}
layer {
  name: "conv4_3_norm_mbox_loc_conf"
  type: "Convolution"
  bottom: "conv4_3_norm"
  top: "conv4_3_norm_mbox_loc_conf"
  param {
    lr_mult: 1
    decay_mult: 1
  }
  param {
    lr_mult: 2
    decay_mult: 0
  }
  convolution_param {
    num_output: 48
    pad: 1
    kernel_size: 3
    stride: 1
    weight_filler {
      type: "xavier"
    }
    bias_filler {
      type: "constant"
      value: 0
    }
  }
}
layer {
  name: "conv4_3_norm_mbox_loc_conf_perm"
  type: "Permute"
  bottom: "conv4_3_norm_mbox_loc_conf"
  top: "conv4_3_norm_mbox_loc_conf_perm"
  permute_param {
    order: 0
    order: 2
    order: 3
    order: 1
  }
}
layer {
  name: "conv4_3_norm_mbox_loc_perm"
  type: "Slice"
  bottom: "conv4_3_norm_mbox_loc_conf_perm"
  top: "conv4_3_norm_mbox_loc_perm"
  top: "conv4_3_norm_mbox_conf_perm"
  slice_param {
    slice_point: 24
    axis: 3
  }
}
layer {
  name: "conv4_3_norm_mbox_loc_flat"
  type: "Flatten"
  bottom: "conv4_3_norm_mbox_loc_perm"
  top: "conv4_3_norm_mbox_loc_flat"
  flatten_param {
    axis: 1
  }
}
layer {
  name: "conv4_3_norm_mbox_conf_flat"
  type: "Flatten"
  bottom: "conv4_3_norm_mbox_conf_perm"
  top: "conv4_3_norm_mbox_conf_flat"
  flatten_param {
    axis: 1
  }
}
layer {
  name: "conv4_3_norm_mbox_priorbox"
  type: "PriorBox"
  bottom: "conv4_3_norm"
  bottom: "data"
  top: "conv4_3_norm_mbox_priorbox"
  prior_box_param {
    min_size: 11.52
    max_size: 25.6
    aspect_ratio: 2
    aspect_ratio: 3
    flip: true
    clip: true
    variance: 0.1
    variance: 0.1
    variance: 0.2
    variance: 0.2
    offset: 0.5
  }
}
layer {
  name: "fc7_conv_mbox_loc_conf"
  type: "Convolution"
  bottom: "fc7_conv"
  top: "fc7_conv_mbox_loc_conf"
  param {
    lr_mult: 1
    decay_mult: 1
  }
  param {
    lr_mult: 2
    decay_mult: 0
  }
  convolution_param {
    num_output: 48
    pad: 1
    kernel_size: 3
    stride: 1
    weight_filler {
      type: "xavier"
    }
    bias_filler {
      type: "constant"
      value: 0
    }
  }
}
layer {
  name: "fc7_conv_mbox_loc_conf_perm"
  type: "Permute"
  bottom: "fc7_conv_mbox_loc_conf"
  top: "fc7_conv_mbox_loc_conf_perm"
  permute_param {
    order: 0
    order: 2
    order: 3
    order: 1
  }
}
layer {
  name: "fc7_conv_mbox_loc_perm"
  type: "Slice"
  bottom: "fc7_conv_mbox_loc_conf_perm"
  top: "fc7_conv_mbox_loc_perm"
  top: "fc7_conv_mbox_conf_perm"
  slice_param {
    slice_point: 24
    axis: 3
  }
}
layer {
  name: "fc7_conv_mbox_loc_flat"
  type: "Flatten"
  bottom: "fc7_conv_mbox_loc_perm"
  top: "fc7_conv_mbox_loc_flat"
  flatten_param {
    axis: 1
  }
}
layer {
  name: "fc7_conv_mbox_conf_flat"
  type: "Flatten"
  bottom: "fc7_conv_mbox_conf_perm"
  top: "fc7_conv_mbox_conf_flat"
  flatten_param {
    axis: 1
  }
}
layer {
  name: "fc7_conv_mbox_priorbox"
  type: "PriorBox"
  bottom: "fc7_conv"
  bottom: "data"
  top: "fc7_conv_mbox_priorbox"
  prior_box_param {
    min_size: 25.6
    max_size: 57.6
    aspect_ratio: 2
    aspect_ratio: 3
    flip: true
    clip: true
    variance: 0.1
    variance: 0.1
    variance: 0.2
    variance: 0.2
    offset: 0.5
  }
}
layer {
  name: "conv6_2_mbox_loc_conf"
  type: "Convolution"
  bottom: "conv6_2"
  top: "conv6_2_mbox_loc_conf"
  param {
    lr_mult: 1
    decay_mult: 1
  }
  param {
    lr_mult: 2
    decay_mult: 0
  }
  convolution_param {
    num_output: 48
    pad: 1
    kernel_size: 3
    stride: 1
    weight_filler {
      type: "xavier"
    }
    bias_filler {
      type: "constant"
      value: 0
    }
  }
}
layer {
  name: "conv6_2_mbox_loc_conf_perm"
  type: "Permute"
  bottom: "conv6_2_mbox_loc_conf"
  top: "conv6_2_mbox_loc_conf_perm"
  permute_param {
    order: 0
    order: 2
    order: 3
    order: 1
  }
}
layer {
  name: "conv6_2_mbox_loc_perm"
  type: "Slice"
  bottom: "conv6_2_mbox_loc_conf_perm"
  top: "conv6_2_mbox_loc_perm"
  top: "conv6_2_mbox_conf_perm"
  slice_param {
    slice_point: 24
    axis: 3
  }
}
layer {
  name: "conv6_2_mbox_loc_flat"
  type: "Flatten"
  bottom: "conv6_2_mbox_loc_perm"
  top: "conv6_2_mbox_loc_flat"
  flatten_param {
    axis: 1
  }
}
layer {
  name: "conv6_2_mbox_conf_flat"
  type: "Flatten"
  bottom: "conv6_2_mbox_conf_perm"
  top: "conv6_2_mbox_conf_flat"
  flatten_param {
    axis: 1
  }
}
layer {
  name: "conv6_2_mbox_priorbox"
  type: "PriorBox"
  bottom: "conv6_2"
  bottom: "data"
  top: "conv6_2_mbox_priorbox"
  prior_box_param {
    min_size: 57.6
    max_size: 89.6
    aspect_ratio: 2
    aspect_ratio: 3
    flip: true
    clip: true
    variance: 0.1
    variance: 0.1
    variance: 0.2
    variance: 0.2
    offset: 0.5
  }
}
layer {
  name: "conv7_2_mbox_loc_conf"
  type: "Convolution"
  bottom: "conv7_2"
  top: "conv7_2_mbox_loc_conf"
  param {
    lr_mult: 1
    decay_mult: 1
  }
  param {
    lr_mult: 2
    decay_mult: 0
  }
  convolution_param {
    num_output: 48
    pad: 1
    kernel_size: 3
    stride: 1
    weight_filler {
      type: "xavier"
    }
    bias_filler {
      type: "constant"
      value: 0
    }
  }
}
layer {
  name: "conv7_2_mbox_loc_conf_perm"
  type: "Permute"
  bottom: "conv7_2_mbox_loc_conf"
  top: "conv7_2_mbox_loc_conf_perm"
  permute_param {
    order: 0
    order: 2
    order: 3
    order: 1
  }
}
layer {
  name: "conv7_2_mbox_loc_perm"
  type: "Slice"
  bottom: "conv7_2_mbox_loc_conf_perm"
  top: "conv7_2_mbox_loc_perm"
  top: "conv7_2_mbox_conf_perm"
  slice_param {
    slice_point: 24
    axis: 3
  }
}
layer {
  name: "conv7_2_mbox_loc_flat"
  type: "Flatten"
  bottom: "conv7_2_mbox_loc_perm"
  top: "conv7_2_mbox_loc_flat"
  flatten_param {
    axis: 1
  }
}
layer {
  name: "conv7_2_mbox_conf_flat"
  type: "Flatten"
  bottom: "conv7_2_mbox_conf_perm"
  top: "conv7_2_mbox_conf_flat"
  flatten_param {
    axis: 1
  }
}
layer {
  name: "conv7_2_mbox_priorbox"
  type: "PriorBox"
  bottom: "conv7_2"
  bottom: "data"
  top: "conv7_2_mbox_priorbox"
  prior_box_param {
    min_size: 89.6
    max_size: 121.6
    aspect_ratio: 2
    aspect_ratio: 3
    flip: true
    clip: true
    variance: 0.1
    variance: 0.1
    variance: 0.2
    variance: 0.2
    offset: 0.5
  }
}
layer {
  name: "pool6_mbox_loc_conf"
  type: "Convolution"
  bottom: "pool6"
  top: "pool6_mbox_loc_conf"
  param {
    lr_mult: 1
    decay_mult: 1
  }
  param {
    lr_mult: 2
    decay_mult: 0
  }
  convolution_param {
    num_output: 48
    pad: 1
    kernel_size: 3
    stride: 1
    weight_filler {
      type: "xavier"
    }
    bias_filler {
      type: "constant"
      value: 0
    }
  }
}
layer {
  name: "pool6_mbox_loc_conf_perm"
  type: "Permute"
  bottom: "pool6_mbox_loc_conf"
  top: "pool6_mbox_loc_conf_perm"
  permute_param {
    order: 0
    order: 2
    order: 3
    order: 1
  }
}
layer {
  name: "pool6_mbox_loc_perm"
  type: "Slice"
  bottom: "pool6_mbox_loc_conf_perm"
  top: "pool6_mbox_loc_perm"
  top: "pool6_mbox_conf_perm"
  slice_param {
    slice_point: 24
    axis: 3
  }
}
layer {
  name: "pool6_mbox_loc_flat"
  type: "Flatten"
  bottom: "pool6_mbox_loc_perm"
  top: "pool6_mbox_loc_flat"
  flatten_param {
    axis: 1
  }
}
layer {
  name: "pool6_mbox_conf_flat"
  type: "Flatten"
  bottom: "pool6_mbox_conf_perm"
  top: "pool6_mbox_conf_flat"
  flatten_param {
    axis: 1
  }
}
layer {
  name: "pool6_mbox_priorbox"
  type: "PriorBox"
  bottom: "pool6"
  bottom: "data"
  top: "pool6_mbox_priorbox"
  prior_box_param {
    min_size: 121.6
    max_size: 153.6
    aspect_ratio: 2
    aspect_ratio: 3
    flip: true
    clip: true
    variance: 0.1
    variance: 0.1
    variance: 0.2
    variance: 0.2
    offset: 0.5
  }
}
layer {
  name: "mbox_loc"
  type: "Concat"
  bottom: "conv4_3_norm_mbox_loc_flat"
  bottom: "fc7_conv_mbox_loc_flat"
  bottom: "conv6_2_mbox_loc_flat"
  bottom: "conv7_2_mbox_loc_flat"
  bottom: "pool6_mbox_loc_flat"
  top: "mbox_loc"
  concat_param {
    axis: 1
  }
}
layer {
  name: "mbox_conf"
  type: "Concat"
  bottom: "conv4_3_norm_mbox_conf_flat"
  bottom: "fc7_conv_mbox_conf_flat"
  bottom: "conv6_2_mbox_conf_flat"
  bottom: "conv7_2_mbox_conf_flat"
  bottom: "pool6_mbox_conf_flat"
  top: "mbox_conf"
  concat_param {
    axis: 1
  }
}
layer {
  name: "mbox_priorbox"
  type: "Concat"
  bottom: "conv4_3_norm_mbox_priorbox"
  bottom: "fc7_conv_mbox_priorbox"
  bottom: "conv6_2_mbox_priorbox"
  bottom: "conv7_2_mbox_priorbox"
  bottom: "pool6_mbox_priorbox"
  top: "mbox_priorbox"
  concat_param {
    axis: 2
  }
}
layer {
  name: "mbox_conf_reshape"
  type: "Reshape"
  bottom: "mbox_conf"
  top: "mbox_conf_reshape"
  reshape_param {
    shape {
      dim: 0
      dim: -1
      dim: 4
    }
  }
}
layer {
  name: "mbox_conf_softmax"
  type: "Softmax"
  bottom: "mbox_conf_reshape"
  top: "mbox_conf_softmax"
  softmax_param {
    axis: 2
  }
}
layer {
  name: "mbox_conf_flatten"
  type: "Flatten"
  bottom: "mbox_conf_softmax"
  top: "mbox_conf_flatten"
  flatten_param {
    axis: 1
  }
}
layer {
  name: "detection_out"
  type: "DetectionOutput"
  bottom: "mbox_loc"
  bottom: "mbox_conf_flatten"
  bottom: "mbox_priorbox"
  top: "detection_out"
  include {
    phase: TEST
  }
  detection_output_param {
    num_classes: 4
    share_location: true
    background_label_id: 0
    nms_param {
      nms_threshold: 0.3
      top_k: 200
    }
    save_output_param {
      output_directory: "jobs/ssd/v0327_smallssd_kitti_64x256_vgg16-channel16-nopooling12_smallssd_change_min_size_sample/output"
      output_name_prefix: "det_test_"
      output_format: "VOC"
      label_map_file: "/tmp/toqinhuan/labelmap.prototxt"
      name_size_file: "/tmp/toqinhuan/test_name_size.txt"
      num_test_image: 2245
    }
    code_type: CENTER_SIZE
    keep_top_k: 100
    confidence_threshold: 0.01
  }
}
layer {
  name: "detection_eval"
  type: "DetectionEvaluate"
  bottom: "detection_out"
  bottom: "label"
  top: "detection_eval"
  include {
    phase: TEST
  }
  detection_evaluate_param {
    num_classes: 4
    background_label_id: 0
    overlap_threshold: 0.5
    evaluate_difficult_gt: false
    name_size_file: "/tmp/toqinhuan/test_name_size.txt"
  }
}
I0407 15:42:16.655861  3579 layer_factory.hpp:77] Creating layer data
I0407 15:42:16.657658  3579 net.cpp:100] Creating Layer data
I0407 15:42:16.657673  3579 net.cpp:408] data -> data
I0407 15:42:16.657686  3579 net.cpp:408] data -> label
I0407 15:42:16.691757  3602 db_lmdb.cpp:35] Opened lmdb /home/work/wwl/data/kitti/data_object_image_2/training/test_lmdb
I0407 15:42:16.740510  3579 annotated_data_layer.cpp:62] output data size: 32,3,64,256
I0407 15:42:16.754885  3579 net.cpp:150] Setting up data
I0407 15:42:16.754909  3579 net.cpp:157] Top shape: 32 3 64 256 (1572864)
I0407 15:42:16.754915  3579 net.cpp:157] Top shape: 1 1 9 8 (72)
I0407 15:42:16.754918  3579 net.cpp:165] Memory required for data: 6291744
I0407 15:42:16.754923  3579 layer_factory.hpp:77] Creating layer data_data_0_split
I0407 15:42:16.754933  3579 net.cpp:100] Creating Layer data_data_0_split
I0407 15:42:16.754937  3579 net.cpp:434] data_data_0_split <- data
I0407 15:42:16.754945  3579 net.cpp:408] data_data_0_split -> data_data_0_split_0
I0407 15:42:16.754952  3579 net.cpp:408] data_data_0_split -> data_data_0_split_1
I0407 15:42:16.754958  3579 net.cpp:408] data_data_0_split -> data_data_0_split_2
I0407 15:42:16.754964  3579 net.cpp:408] data_data_0_split -> data_data_0_split_3
I0407 15:42:16.754969  3579 net.cpp:408] data_data_0_split -> data_data_0_split_4
I0407 15:42:16.754974  3579 net.cpp:408] data_data_0_split -> data_data_0_split_5
I0407 15:42:16.755102  3579 net.cpp:150] Setting up data_data_0_split
I0407 15:42:16.755108  3579 net.cpp:157] Top shape: 32 3 64 256 (1572864)
I0407 15:42:16.755113  3579 net.cpp:157] Top shape: 32 3 64 256 (1572864)
I0407 15:42:16.755117  3579 net.cpp:157] Top shape: 32 3 64 256 (1572864)
I0407 15:42:16.755121  3579 net.cpp:157] Top shape: 32 3 64 256 (1572864)
I0407 15:42:16.755125  3579 net.cpp:157] Top shape: 32 3 64 256 (1572864)
I0407 15:42:16.755129  3579 net.cpp:157] Top shape: 32 3 64 256 (1572864)
I0407 15:42:16.755132  3579 net.cpp:165] Memory required for data: 44040480
I0407 15:42:16.755136  3579 layer_factory.hpp:77] Creating layer conv1_1
I0407 15:42:16.755146  3579 net.cpp:100] Creating Layer conv1_1
I0407 15:42:16.755151  3579 net.cpp:434] conv1_1 <- data_data_0_split_0
I0407 15:42:16.755156  3579 net.cpp:408] conv1_1 -> conv1_1
I0407 15:42:16.755465  3579 net.cpp:150] Setting up conv1_1
I0407 15:42:16.755471  3579 net.cpp:157] Top shape: 32 16 64 256 (8388608)
I0407 15:42:16.755475  3579 net.cpp:165] Memory required for data: 77594912
I0407 15:42:16.755483  3579 layer_factory.hpp:77] Creating layer relu1_1
I0407 15:42:16.755489  3579 net.cpp:100] Creating Layer relu1_1
I0407 15:42:16.755493  3579 net.cpp:434] relu1_1 <- conv1_1
I0407 15:42:16.755497  3579 net.cpp:395] relu1_1 -> conv1_1 (in-place)
I0407 15:42:16.755503  3579 net.cpp:150] Setting up relu1_1
I0407 15:42:16.755508  3579 net.cpp:157] Top shape: 32 16 64 256 (8388608)
I0407 15:42:16.755517  3579 net.cpp:165] Memory required for data: 111149344
I0407 15:42:16.755520  3579 layer_factory.hpp:77] Creating layer conv1_2
I0407 15:42:16.755527  3579 net.cpp:100] Creating Layer conv1_2
I0407 15:42:16.755532  3579 net.cpp:434] conv1_2 <- conv1_1
I0407 15:42:16.755537  3579 net.cpp:408] conv1_2 -> conv1_2
I0407 15:42:16.755817  3579 net.cpp:150] Setting up conv1_2
I0407 15:42:16.755825  3579 net.cpp:157] Top shape: 32 16 32 128 (2097152)
I0407 15:42:16.755830  3579 net.cpp:165] Memory required for data: 119537952
I0407 15:42:16.755836  3579 layer_factory.hpp:77] Creating layer relu1_2
I0407 15:42:16.755841  3579 net.cpp:100] Creating Layer relu1_2
I0407 15:42:16.755844  3579 net.cpp:434] relu1_2 <- conv1_2
I0407 15:42:16.755849  3579 net.cpp:395] relu1_2 -> conv1_2 (in-place)
I0407 15:42:16.755854  3579 net.cpp:150] Setting up relu1_2
I0407 15:42:16.755859  3579 net.cpp:157] Top shape: 32 16 32 128 (2097152)
I0407 15:42:16.755862  3579 net.cpp:165] Memory required for data: 127926560
I0407 15:42:16.755867  3579 layer_factory.hpp:77] Creating layer conv2_1
I0407 15:42:16.755872  3579 net.cpp:100] Creating Layer conv2_1
I0407 15:42:16.755877  3579 net.cpp:434] conv2_1 <- conv1_2
I0407 15:42:16.755882  3579 net.cpp:408] conv2_1 -> conv2_1
I0407 15:42:16.756165  3579 net.cpp:150] Setting up conv2_1
I0407 15:42:16.756171  3579 net.cpp:157] Top shape: 32 32 32 128 (4194304)
I0407 15:42:16.756175  3579 net.cpp:165] Memory required for data: 144703776
I0407 15:42:16.756181  3579 layer_factory.hpp:77] Creating layer relu2_1
I0407 15:42:16.756186  3579 net.cpp:100] Creating Layer relu2_1
I0407 15:42:16.756191  3579 net.cpp:434] relu2_1 <- conv2_1
I0407 15:42:16.756194  3579 net.cpp:395] relu2_1 -> conv2_1 (in-place)
I0407 15:42:16.756199  3579 net.cpp:150] Setting up relu2_1
I0407 15:42:16.756204  3579 net.cpp:157] Top shape: 32 32 32 128 (4194304)
I0407 15:42:16.756207  3579 net.cpp:165] Memory required for data: 161480992
I0407 15:42:16.756211  3579 layer_factory.hpp:77] Creating layer conv2_2
I0407 15:42:16.756217  3579 net.cpp:100] Creating Layer conv2_2
I0407 15:42:16.756220  3579 net.cpp:434] conv2_2 <- conv2_1
I0407 15:42:16.756227  3579 net.cpp:408] conv2_2 -> conv2_2
I0407 15:42:16.756587  3579 net.cpp:150] Setting up conv2_2
I0407 15:42:16.756597  3579 net.cpp:157] Top shape: 32 32 16 64 (1048576)
I0407 15:42:16.756599  3579 net.cpp:165] Memory required for data: 165675296
I0407 15:42:16.756605  3579 layer_factory.hpp:77] Creating layer relu2_2
I0407 15:42:16.756610  3579 net.cpp:100] Creating Layer relu2_2
I0407 15:42:16.756614  3579 net.cpp:434] relu2_2 <- conv2_2
I0407 15:42:16.756619  3579 net.cpp:395] relu2_2 -> conv2_2 (in-place)
I0407 15:42:16.756624  3579 net.cpp:150] Setting up relu2_2
I0407 15:42:16.756628  3579 net.cpp:157] Top shape: 32 32 16 64 (1048576)
I0407 15:42:16.756631  3579 net.cpp:165] Memory required for data: 169869600
I0407 15:42:16.756635  3579 layer_factory.hpp:77] Creating layer conv3_1
I0407 15:42:16.756641  3579 net.cpp:100] Creating Layer conv3_1
I0407 15:42:16.756645  3579 net.cpp:434] conv3_1 <- conv2_2
I0407 15:42:16.756650  3579 net.cpp:408] conv3_1 -> conv3_1
I0407 15:42:16.756956  3579 net.cpp:150] Setting up conv3_1
I0407 15:42:16.756963  3579 net.cpp:157] Top shape: 32 64 16 64 (2097152)
I0407 15:42:16.756964  3579 net.cpp:165] Memory required for data: 178258208
I0407 15:42:16.756969  3579 layer_factory.hpp:77] Creating layer relu3_1
I0407 15:42:16.756973  3579 net.cpp:100] Creating Layer relu3_1
I0407 15:42:16.756976  3579 net.cpp:434] relu3_1 <- conv3_1
I0407 15:42:16.756979  3579 net.cpp:395] relu3_1 -> conv3_1 (in-place)
I0407 15:42:16.756983  3579 net.cpp:150] Setting up relu3_1
I0407 15:42:16.756988  3579 net.cpp:157] Top shape: 32 64 16 64 (2097152)
I0407 15:42:16.756989  3579 net.cpp:165] Memory required for data: 186646816
I0407 15:42:16.756991  3579 layer_factory.hpp:77] Creating layer conv3_2
I0407 15:42:16.756996  3579 net.cpp:100] Creating Layer conv3_2
I0407 15:42:16.756999  3579 net.cpp:434] conv3_2 <- conv3_1
I0407 15:42:16.757002  3579 net.cpp:408] conv3_2 -> conv3_2
I0407 15:42:16.757333  3579 net.cpp:150] Setting up conv3_2
I0407 15:42:16.757338  3579 net.cpp:157] Top shape: 32 64 16 64 (2097152)
I0407 15:42:16.757340  3579 net.cpp:165] Memory required for data: 195035424
I0407 15:42:16.757344  3579 layer_factory.hpp:77] Creating layer relu3_2
I0407 15:42:16.757347  3579 net.cpp:100] Creating Layer relu3_2
I0407 15:42:16.757350  3579 net.cpp:434] relu3_2 <- conv3_2
I0407 15:42:16.757354  3579 net.cpp:395] relu3_2 -> conv3_2 (in-place)
I0407 15:42:16.757357  3579 net.cpp:150] Setting up relu3_2
I0407 15:42:16.757361  3579 net.cpp:157] Top shape: 32 64 16 64 (2097152)
I0407 15:42:16.757364  3579 net.cpp:165] Memory required for data: 203424032
I0407 15:42:16.757366  3579 layer_factory.hpp:77] Creating layer conv3_3
I0407 15:42:16.757370  3579 net.cpp:100] Creating Layer conv3_3
I0407 15:42:16.757374  3579 net.cpp:434] conv3_3 <- conv3_2
I0407 15:42:16.757376  3579 net.cpp:408] conv3_3 -> conv3_3
I0407 15:42:16.757694  3579 net.cpp:150] Setting up conv3_3
I0407 15:42:16.757699  3579 net.cpp:157] Top shape: 32 64 16 64 (2097152)
I0407 15:42:16.757701  3579 net.cpp:165] Memory required for data: 211812640
I0407 15:42:16.757704  3579 layer_factory.hpp:77] Creating layer relu3_3
I0407 15:42:16.757709  3579 net.cpp:100] Creating Layer relu3_3
I0407 15:42:16.757710  3579 net.cpp:434] relu3_3 <- conv3_3
I0407 15:42:16.757714  3579 net.cpp:395] relu3_3 -> conv3_3 (in-place)
I0407 15:42:16.757717  3579 net.cpp:150] Setting up relu3_3
I0407 15:42:16.757720  3579 net.cpp:157] Top shape: 32 64 16 64 (2097152)
I0407 15:42:16.757722  3579 net.cpp:165] Memory required for data: 220201248
I0407 15:42:16.757725  3579 layer_factory.hpp:77] Creating layer pool3
I0407 15:42:16.757730  3579 net.cpp:100] Creating Layer pool3
I0407 15:42:16.757732  3579 net.cpp:434] pool3 <- conv3_3
I0407 15:42:16.757735  3579 net.cpp:408] pool3 -> pool3
I0407 15:42:16.757766  3579 net.cpp:150] Setting up pool3
I0407 15:42:16.757771  3579 net.cpp:157] Top shape: 32 64 8 32 (524288)
I0407 15:42:16.757772  3579 net.cpp:165] Memory required for data: 222298400
I0407 15:42:16.757774  3579 layer_factory.hpp:77] Creating layer conv4_1
I0407 15:42:16.757779  3579 net.cpp:100] Creating Layer conv4_1
I0407 15:42:16.757782  3579 net.cpp:434] conv4_1 <- pool3
I0407 15:42:16.757786  3579 net.cpp:408] conv4_1 -> conv4_1
I0407 15:42:16.758226  3579 net.cpp:150] Setting up conv4_1
I0407 15:42:16.758232  3579 net.cpp:157] Top shape: 32 128 8 32 (1048576)
I0407 15:42:16.758234  3579 net.cpp:165] Memory required for data: 226492704
I0407 15:42:16.758239  3579 layer_factory.hpp:77] Creating layer relu4_1
I0407 15:42:16.758242  3579 net.cpp:100] Creating Layer relu4_1
I0407 15:42:16.758244  3579 net.cpp:434] relu4_1 <- conv4_1
I0407 15:42:16.758247  3579 net.cpp:395] relu4_1 -> conv4_1 (in-place)
I0407 15:42:16.758251  3579 net.cpp:150] Setting up relu4_1
I0407 15:42:16.758255  3579 net.cpp:157] Top shape: 32 128 8 32 (1048576)
I0407 15:42:16.758257  3579 net.cpp:165] Memory required for data: 230687008
I0407 15:42:16.758260  3579 layer_factory.hpp:77] Creating layer conv4_2
I0407 15:42:16.758265  3579 net.cpp:100] Creating Layer conv4_2
I0407 15:42:16.758267  3579 net.cpp:434] conv4_2 <- conv4_1
I0407 15:42:16.758270  3579 net.cpp:408] conv4_2 -> conv4_2
I0407 15:42:16.758935  3579 net.cpp:150] Setting up conv4_2
I0407 15:42:16.758940  3579 net.cpp:157] Top shape: 32 128 8 32 (1048576)
I0407 15:42:16.758944  3579 net.cpp:165] Memory required for data: 234881312
I0407 15:42:16.758949  3579 layer_factory.hpp:77] Creating layer relu4_2
I0407 15:42:16.758952  3579 net.cpp:100] Creating Layer relu4_2
I0407 15:42:16.758955  3579 net.cpp:434] relu4_2 <- conv4_2
I0407 15:42:16.758957  3579 net.cpp:395] relu4_2 -> conv4_2 (in-place)
I0407 15:42:16.758961  3579 net.cpp:150] Setting up relu4_2
I0407 15:42:16.758965  3579 net.cpp:157] Top shape: 32 128 8 32 (1048576)
I0407 15:42:16.758966  3579 net.cpp:165] Memory required for data: 239075616
I0407 15:42:16.758970  3579 layer_factory.hpp:77] Creating layer conv4_3
I0407 15:42:16.758976  3579 net.cpp:100] Creating Layer conv4_3
I0407 15:42:16.758980  3579 net.cpp:434] conv4_3 <- conv4_2
I0407 15:42:16.758982  3579 net.cpp:408] conv4_3 -> conv4_3
I0407 15:42:16.760434  3579 net.cpp:150] Setting up conv4_3
I0407 15:42:16.760448  3579 net.cpp:157] Top shape: 32 128 8 32 (1048576)
I0407 15:42:16.760452  3579 net.cpp:165] Memory required for data: 243269920
I0407 15:42:16.760457  3579 layer_factory.hpp:77] Creating layer relu4_3
I0407 15:42:16.760462  3579 net.cpp:100] Creating Layer relu4_3
I0407 15:42:16.760464  3579 net.cpp:434] relu4_3 <- conv4_3
I0407 15:42:16.760468  3579 net.cpp:395] relu4_3 -> conv4_3 (in-place)
I0407 15:42:16.760473  3579 net.cpp:150] Setting up relu4_3
I0407 15:42:16.760476  3579 net.cpp:157] Top shape: 32 128 8 32 (1048576)
I0407 15:42:16.760478  3579 net.cpp:165] Memory required for data: 247464224
I0407 15:42:16.760481  3579 layer_factory.hpp:77] Creating layer conv4_3_relu4_3_0_split
I0407 15:42:16.760485  3579 net.cpp:100] Creating Layer conv4_3_relu4_3_0_split
I0407 15:42:16.760488  3579 net.cpp:434] conv4_3_relu4_3_0_split <- conv4_3
I0407 15:42:16.760490  3579 net.cpp:408] conv4_3_relu4_3_0_split -> conv4_3_relu4_3_0_split_0
I0407 15:42:16.760494  3579 net.cpp:408] conv4_3_relu4_3_0_split -> conv4_3_relu4_3_0_split_1
I0407 15:42:16.760522  3579 net.cpp:150] Setting up conv4_3_relu4_3_0_split
I0407 15:42:16.760526  3579 net.cpp:157] Top shape: 32 128 8 32 (1048576)
I0407 15:42:16.760529  3579 net.cpp:157] Top shape: 32 128 8 32 (1048576)
I0407 15:42:16.760531  3579 net.cpp:165] Memory required for data: 255852832
I0407 15:42:16.760534  3579 layer_factory.hpp:77] Creating layer pool4
I0407 15:42:16.760538  3579 net.cpp:100] Creating Layer pool4
I0407 15:42:16.760540  3579 net.cpp:434] pool4 <- conv4_3_relu4_3_0_split_0
I0407 15:42:16.760545  3579 net.cpp:408] pool4 -> pool4
I0407 15:42:16.760574  3579 net.cpp:150] Setting up pool4
I0407 15:42:16.760578  3579 net.cpp:157] Top shape: 32 128 4 16 (262144)
I0407 15:42:16.760581  3579 net.cpp:165] Memory required for data: 256901408
I0407 15:42:16.760582  3579 layer_factory.hpp:77] Creating layer conv5_1
I0407 15:42:16.760588  3579 net.cpp:100] Creating Layer conv5_1
I0407 15:42:16.760591  3579 net.cpp:434] conv5_1 <- pool4
I0407 15:42:16.760594  3579 net.cpp:408] conv5_1 -> conv5_1
I0407 15:42:16.761390  3579 net.cpp:150] Setting up conv5_1
I0407 15:42:16.761402  3579 net.cpp:157] Top shape: 32 128 4 16 (262144)
I0407 15:42:16.761407  3579 net.cpp:165] Memory required for data: 257949984
I0407 15:42:16.761415  3579 layer_factory.hpp:77] Creating layer relu5_1
I0407 15:42:16.761421  3579 net.cpp:100] Creating Layer relu5_1
I0407 15:42:16.761426  3579 net.cpp:434] relu5_1 <- conv5_1
I0407 15:42:16.761432  3579 net.cpp:395] relu5_1 -> conv5_1 (in-place)
I0407 15:42:16.761440  3579 net.cpp:150] Setting up relu5_1
I0407 15:42:16.761445  3579 net.cpp:157] Top shape: 32 128 4 16 (262144)
I0407 15:42:16.761447  3579 net.cpp:165] Memory required for data: 258998560
I0407 15:42:16.761451  3579 layer_factory.hpp:77] Creating layer conv5_2
I0407 15:42:16.761458  3579 net.cpp:100] Creating Layer conv5_2
I0407 15:42:16.761462  3579 net.cpp:434] conv5_2 <- conv5_1
I0407 15:42:16.761469  3579 net.cpp:408] conv5_2 -> conv5_2
I0407 15:42:16.762415  3579 net.cpp:150] Setting up conv5_2
I0407 15:42:16.762428  3579 net.cpp:157] Top shape: 32 128 4 16 (262144)
I0407 15:42:16.762431  3579 net.cpp:165] Memory required for data: 260047136
I0407 15:42:16.762436  3579 layer_factory.hpp:77] Creating layer relu5_2
I0407 15:42:16.762441  3579 net.cpp:100] Creating Layer relu5_2
I0407 15:42:16.762445  3579 net.cpp:434] relu5_2 <- conv5_2
I0407 15:42:16.762449  3579 net.cpp:395] relu5_2 -> conv5_2 (in-place)
I0407 15:42:16.762454  3579 net.cpp:150] Setting up relu5_2
I0407 15:42:16.762457  3579 net.cpp:157] Top shape: 32 128 4 16 (262144)
I0407 15:42:16.762459  3579 net.cpp:165] Memory required for data: 261095712
I0407 15:42:16.762461  3579 layer_factory.hpp:77] Creating layer conv5_3
I0407 15:42:16.762467  3579 net.cpp:100] Creating Layer conv5_3
I0407 15:42:16.762475  3579 net.cpp:434] conv5_3 <- conv5_2
I0407 15:42:16.762480  3579 net.cpp:408] conv5_3 -> conv5_3
I0407 15:42:16.764029  3579 net.cpp:150] Setting up conv5_3
I0407 15:42:16.764041  3579 net.cpp:157] Top shape: 32 128 4 16 (262144)
I0407 15:42:16.764045  3579 net.cpp:165] Memory required for data: 262144288
I0407 15:42:16.764050  3579 layer_factory.hpp:77] Creating layer relu5_3
I0407 15:42:16.764055  3579 net.cpp:100] Creating Layer relu5_3
I0407 15:42:16.764057  3579 net.cpp:434] relu5_3 <- conv5_3
I0407 15:42:16.764061  3579 net.cpp:395] relu5_3 -> conv5_3 (in-place)
I0407 15:42:16.764066  3579 net.cpp:150] Setting up relu5_3
I0407 15:42:16.764070  3579 net.cpp:157] Top shape: 32 128 4 16 (262144)
I0407 15:42:16.764072  3579 net.cpp:165] Memory required for data: 263192864
I0407 15:42:16.764075  3579 layer_factory.hpp:77] Creating layer pool5
I0407 15:42:16.764080  3579 net.cpp:100] Creating Layer pool5
I0407 15:42:16.764081  3579 net.cpp:434] pool5 <- conv5_3
I0407 15:42:16.764086  3579 net.cpp:408] pool5 -> pool5
I0407 15:42:16.764119  3579 net.cpp:150] Setting up pool5
I0407 15:42:16.764123  3579 net.cpp:157] Top shape: 32 128 4 16 (262144)
I0407 15:42:16.764127  3579 net.cpp:165] Memory required for data: 264241440
I0407 15:42:16.764128  3579 layer_factory.hpp:77] Creating layer fc6_conv
I0407 15:42:16.764137  3579 net.cpp:100] Creating Layer fc6_conv
I0407 15:42:16.764140  3579 net.cpp:434] fc6_conv <- pool5
I0407 15:42:16.764144  3579 net.cpp:408] fc6_conv -> fc6_conv
I0407 15:42:16.765275  3579 net.cpp:150] Setting up fc6_conv
I0407 15:42:16.765282  3579 net.cpp:157] Top shape: 32 256 4 16 (524288)
I0407 15:42:16.765285  3579 net.cpp:165] Memory required for data: 266338592
I0407 15:42:16.765288  3579 layer_factory.hpp:77] Creating layer relu6
I0407 15:42:16.765293  3579 net.cpp:100] Creating Layer relu6
I0407 15:42:16.765295  3579 net.cpp:434] relu6 <- fc6_conv
I0407 15:42:16.765300  3579 net.cpp:395] relu6 -> fc6_conv (in-place)
I0407 15:42:16.765303  3579 net.cpp:150] Setting up relu6
I0407 15:42:16.765306  3579 net.cpp:157] Top shape: 32 256 4 16 (524288)
I0407 15:42:16.765310  3579 net.cpp:165] Memory required for data: 268435744
I0407 15:42:16.765311  3579 layer_factory.hpp:77] Creating layer fc7_conv
I0407 15:42:16.765316  3579 net.cpp:100] Creating Layer fc7_conv
I0407 15:42:16.765318  3579 net.cpp:434] fc7_conv <- fc6_conv
I0407 15:42:16.765322  3579 net.cpp:408] fc7_conv -> fc7_conv
I0407 15:42:16.765738  3579 net.cpp:150] Setting up fc7_conv
I0407 15:42:16.765743  3579 net.cpp:157] Top shape: 32 256 4 16 (524288)
I0407 15:42:16.765745  3579 net.cpp:165] Memory required for data: 270532896
I0407 15:42:16.765748  3579 layer_factory.hpp:77] Creating layer relu7
I0407 15:42:16.765753  3579 net.cpp:100] Creating Layer relu7
I0407 15:42:16.765754  3579 net.cpp:434] relu7 <- fc7_conv
I0407 15:42:16.765758  3579 net.cpp:395] relu7 -> fc7_conv (in-place)
I0407 15:42:16.765761  3579 net.cpp:150] Setting up relu7
I0407 15:42:16.765765  3579 net.cpp:157] Top shape: 32 256 4 16 (524288)
I0407 15:42:16.765768  3579 net.cpp:165] Memory required for data: 272630048
I0407 15:42:16.765769  3579 layer_factory.hpp:77] Creating layer fc7_conv_relu7_0_split
I0407 15:42:16.765774  3579 net.cpp:100] Creating Layer fc7_conv_relu7_0_split
I0407 15:42:16.765776  3579 net.cpp:434] fc7_conv_relu7_0_split <- fc7_conv
I0407 15:42:16.765779  3579 net.cpp:408] fc7_conv_relu7_0_split -> fc7_conv_relu7_0_split_0
I0407 15:42:16.765784  3579 net.cpp:408] fc7_conv_relu7_0_split -> fc7_conv_relu7_0_split_1
I0407 15:42:16.765787  3579 net.cpp:408] fc7_conv_relu7_0_split -> fc7_conv_relu7_0_split_2
I0407 15:42:16.765828  3579 net.cpp:150] Setting up fc7_conv_relu7_0_split
I0407 15:42:16.765832  3579 net.cpp:157] Top shape: 32 256 4 16 (524288)
I0407 15:42:16.765836  3579 net.cpp:157] Top shape: 32 256 4 16 (524288)
I0407 15:42:16.765838  3579 net.cpp:157] Top shape: 32 256 4 16 (524288)
I0407 15:42:16.765841  3579 net.cpp:165] Memory required for data: 278921504
I0407 15:42:16.765842  3579 layer_factory.hpp:77] Creating layer conv6_1
I0407 15:42:16.765852  3579 net.cpp:100] Creating Layer conv6_1
I0407 15:42:16.765856  3579 net.cpp:434] conv6_1 <- fc7_conv_relu7_0_split_0
I0407 15:42:16.765859  3579 net.cpp:408] conv6_1 -> conv6_1
I0407 15:42:16.766105  3579 net.cpp:150] Setting up conv6_1
I0407 15:42:16.766110  3579 net.cpp:157] Top shape: 32 32 4 16 (65536)
I0407 15:42:16.766113  3579 net.cpp:165] Memory required for data: 279183648
I0407 15:42:16.766116  3579 layer_factory.hpp:77] Creating layer conv6_1_relu
I0407 15:42:16.766120  3579 net.cpp:100] Creating Layer conv6_1_relu
I0407 15:42:16.766124  3579 net.cpp:434] conv6_1_relu <- conv6_1
I0407 15:42:16.766126  3579 net.cpp:395] conv6_1_relu -> conv6_1 (in-place)
I0407 15:42:16.766130  3579 net.cpp:150] Setting up conv6_1_relu
I0407 15:42:16.766134  3579 net.cpp:157] Top shape: 32 32 4 16 (65536)
I0407 15:42:16.766135  3579 net.cpp:165] Memory required for data: 279445792
I0407 15:42:16.766139  3579 layer_factory.hpp:77] Creating layer conv6_2
I0407 15:42:16.766142  3579 net.cpp:100] Creating Layer conv6_2
I0407 15:42:16.766145  3579 net.cpp:434] conv6_2 <- conv6_1
I0407 15:42:16.766149  3579 net.cpp:408] conv6_2 -> conv6_2
I0407 15:42:16.766417  3579 net.cpp:150] Setting up conv6_2
I0407 15:42:16.766422  3579 net.cpp:157] Top shape: 32 64 2 8 (32768)
I0407 15:42:16.766423  3579 net.cpp:165] Memory required for data: 279576864
I0407 15:42:16.766430  3579 layer_factory.hpp:77] Creating layer conv6_2_relu
I0407 15:42:16.766433  3579 net.cpp:100] Creating Layer conv6_2_relu
I0407 15:42:16.766436  3579 net.cpp:434] conv6_2_relu <- conv6_2
I0407 15:42:16.766439  3579 net.cpp:395] conv6_2_relu -> conv6_2 (in-place)
I0407 15:42:16.766443  3579 net.cpp:150] Setting up conv6_2_relu
I0407 15:42:16.766446  3579 net.cpp:157] Top shape: 32 64 2 8 (32768)
I0407 15:42:16.766449  3579 net.cpp:165] Memory required for data: 279707936
I0407 15:42:16.766451  3579 layer_factory.hpp:77] Creating layer conv6_2_conv6_2_relu_0_split
I0407 15:42:16.766454  3579 net.cpp:100] Creating Layer conv6_2_conv6_2_relu_0_split
I0407 15:42:16.766456  3579 net.cpp:434] conv6_2_conv6_2_relu_0_split <- conv6_2
I0407 15:42:16.766460  3579 net.cpp:408] conv6_2_conv6_2_relu_0_split -> conv6_2_conv6_2_relu_0_split_0
I0407 15:42:16.766464  3579 net.cpp:408] conv6_2_conv6_2_relu_0_split -> conv6_2_conv6_2_relu_0_split_1
I0407 15:42:16.766469  3579 net.cpp:408] conv6_2_conv6_2_relu_0_split -> conv6_2_conv6_2_relu_0_split_2
I0407 15:42:16.766511  3579 net.cpp:150] Setting up conv6_2_conv6_2_relu_0_split
I0407 15:42:16.766515  3579 net.cpp:157] Top shape: 32 64 2 8 (32768)
I0407 15:42:16.766518  3579 net.cpp:157] Top shape: 32 64 2 8 (32768)
I0407 15:42:16.766521  3579 net.cpp:157] Top shape: 32 64 2 8 (32768)
I0407 15:42:16.766523  3579 net.cpp:165] Memory required for data: 280101152
I0407 15:42:16.766526  3579 layer_factory.hpp:77] Creating layer conv7_1
I0407 15:42:16.766530  3579 net.cpp:100] Creating Layer conv7_1
I0407 15:42:16.766533  3579 net.cpp:434] conv7_1 <- conv6_2_conv6_2_relu_0_split_0
I0407 15:42:16.766537  3579 net.cpp:408] conv7_1 -> conv7_1
I0407 15:42:16.766746  3579 net.cpp:150] Setting up conv7_1
I0407 15:42:16.766751  3579 net.cpp:157] Top shape: 32 16 2 8 (8192)
I0407 15:42:16.766753  3579 net.cpp:165] Memory required for data: 280133920
I0407 15:42:16.766757  3579 layer_factory.hpp:77] Creating layer conv7_1_relu
I0407 15:42:16.766760  3579 net.cpp:100] Creating Layer conv7_1_relu
I0407 15:42:16.766762  3579 net.cpp:434] conv7_1_relu <- conv7_1
I0407 15:42:16.766767  3579 net.cpp:395] conv7_1_relu -> conv7_1 (in-place)
I0407 15:42:16.766769  3579 net.cpp:150] Setting up conv7_1_relu
I0407 15:42:16.766773  3579 net.cpp:157] Top shape: 32 16 2 8 (8192)
I0407 15:42:16.766775  3579 net.cpp:165] Memory required for data: 280166688
I0407 15:42:16.766777  3579 layer_factory.hpp:77] Creating layer conv7_2
I0407 15:42:16.766782  3579 net.cpp:100] Creating Layer conv7_2
I0407 15:42:16.766784  3579 net.cpp:434] conv7_2 <- conv7_1
I0407 15:42:16.766788  3579 net.cpp:408] conv7_2 -> conv7_2
I0407 15:42:16.767014  3579 net.cpp:150] Setting up conv7_2
I0407 15:42:16.767020  3579 net.cpp:157] Top shape: 32 32 1 4 (4096)
I0407 15:42:16.767024  3579 net.cpp:165] Memory required for data: 280183072
I0407 15:42:16.767027  3579 layer_factory.hpp:77] Creating layer conv7_2_relu
I0407 15:42:16.767030  3579 net.cpp:100] Creating Layer conv7_2_relu
I0407 15:42:16.767033  3579 net.cpp:434] conv7_2_relu <- conv7_2
I0407 15:42:16.767036  3579 net.cpp:395] conv7_2_relu -> conv7_2 (in-place)
I0407 15:42:16.767040  3579 net.cpp:150] Setting up conv7_2_relu
I0407 15:42:16.767043  3579 net.cpp:157] Top shape: 32 32 1 4 (4096)
I0407 15:42:16.767045  3579 net.cpp:165] Memory required for data: 280199456
I0407 15:42:16.767047  3579 layer_factory.hpp:77] Creating layer conv7_2_conv7_2_relu_0_split
I0407 15:42:16.767050  3579 net.cpp:100] Creating Layer conv7_2_conv7_2_relu_0_split
I0407 15:42:16.767053  3579 net.cpp:434] conv7_2_conv7_2_relu_0_split <- conv7_2
I0407 15:42:16.767056  3579 net.cpp:408] conv7_2_conv7_2_relu_0_split -> conv7_2_conv7_2_relu_0_split_0
I0407 15:42:16.767060  3579 net.cpp:408] conv7_2_conv7_2_relu_0_split -> conv7_2_conv7_2_relu_0_split_1
I0407 15:42:16.767065  3579 net.cpp:408] conv7_2_conv7_2_relu_0_split -> conv7_2_conv7_2_relu_0_split_2
I0407 15:42:16.767104  3579 net.cpp:150] Setting up conv7_2_conv7_2_relu_0_split
I0407 15:42:16.767107  3579 net.cpp:157] Top shape: 32 32 1 4 (4096)
I0407 15:42:16.767110  3579 net.cpp:157] Top shape: 32 32 1 4 (4096)
I0407 15:42:16.767113  3579 net.cpp:157] Top shape: 32 32 1 4 (4096)
I0407 15:42:16.767117  3579 net.cpp:165] Memory required for data: 280248608
I0407 15:42:16.767118  3579 layer_factory.hpp:77] Creating layer pool6
I0407 15:42:16.767122  3579 net.cpp:100] Creating Layer pool6
I0407 15:42:16.767124  3579 net.cpp:434] pool6 <- conv7_2_conv7_2_relu_0_split_0
I0407 15:42:16.767128  3579 net.cpp:408] pool6 -> pool6
I0407 15:42:16.767145  3579 net.cpp:150] Setting up pool6
I0407 15:42:16.767149  3579 net.cpp:157] Top shape: 32 32 1 1 (1024)
I0407 15:42:16.767151  3579 net.cpp:165] Memory required for data: 280252704
I0407 15:42:16.767154  3579 layer_factory.hpp:77] Creating layer pool6_pool6_0_split
I0407 15:42:16.767158  3579 net.cpp:100] Creating Layer pool6_pool6_0_split
I0407 15:42:16.767159  3579 net.cpp:434] pool6_pool6_0_split <- pool6
I0407 15:42:16.767163  3579 net.cpp:408] pool6_pool6_0_split -> pool6_pool6_0_split_0
I0407 15:42:16.767166  3579 net.cpp:408] pool6_pool6_0_split -> pool6_pool6_0_split_1
I0407 15:42:16.767194  3579 net.cpp:150] Setting up pool6_pool6_0_split
I0407 15:42:16.767197  3579 net.cpp:157] Top shape: 32 32 1 1 (1024)
I0407 15:42:16.767200  3579 net.cpp:157] Top shape: 32 32 1 1 (1024)
I0407 15:42:16.767204  3579 net.cpp:165] Memory required for data: 280260896
I0407 15:42:16.767205  3579 layer_factory.hpp:77] Creating layer conv4_3_norm
I0407 15:42:16.767210  3579 net.cpp:100] Creating Layer conv4_3_norm
I0407 15:42:16.767212  3579 net.cpp:434] conv4_3_norm <- conv4_3_relu4_3_0_split_1
I0407 15:42:16.767215  3579 net.cpp:408] conv4_3_norm -> conv4_3_norm
I0407 15:42:16.767330  3579 net.cpp:150] Setting up conv4_3_norm
I0407 15:42:16.767334  3579 net.cpp:157] Top shape: 32 128 8 32 (1048576)
I0407 15:42:16.767338  3579 net.cpp:165] Memory required for data: 284455200
I0407 15:42:16.767340  3579 layer_factory.hpp:77] Creating layer conv4_3_norm_conv4_3_norm_0_split
I0407 15:42:16.767343  3579 net.cpp:100] Creating Layer conv4_3_norm_conv4_3_norm_0_split
I0407 15:42:16.767346  3579 net.cpp:434] conv4_3_norm_conv4_3_norm_0_split <- conv4_3_norm
I0407 15:42:16.767349  3579 net.cpp:408] conv4_3_norm_conv4_3_norm_0_split -> conv4_3_norm_conv4_3_norm_0_split_0
I0407 15:42:16.767354  3579 net.cpp:408] conv4_3_norm_conv4_3_norm_0_split -> conv4_3_norm_conv4_3_norm_0_split_1
I0407 15:42:16.767381  3579 net.cpp:150] Setting up conv4_3_norm_conv4_3_norm_0_split
I0407 15:42:16.767385  3579 net.cpp:157] Top shape: 32 128 8 32 (1048576)
I0407 15:42:16.767388  3579 net.cpp:157] Top shape: 32 128 8 32 (1048576)
I0407 15:42:16.767390  3579 net.cpp:165] Memory required for data: 292843808
I0407 15:42:16.767395  3579 layer_factory.hpp:77] Creating layer conv4_3_norm_mbox_loc_conf
I0407 15:42:16.767400  3579 net.cpp:100] Creating Layer conv4_3_norm_mbox_loc_conf
I0407 15:42:16.767405  3579 net.cpp:434] conv4_3_norm_mbox_loc_conf <- conv4_3_norm_conv4_3_norm_0_split_0
I0407 15:42:16.767410  3579 net.cpp:408] conv4_3_norm_mbox_loc_conf -> conv4_3_norm_mbox_loc_conf
I0407 15:42:16.767812  3579 net.cpp:150] Setting up conv4_3_norm_mbox_loc_conf
I0407 15:42:16.767819  3579 net.cpp:157] Top shape: 32 48 8 32 (393216)
I0407 15:42:16.767823  3579 net.cpp:165] Memory required for data: 294416672
I0407 15:42:16.767828  3579 layer_factory.hpp:77] Creating layer conv4_3_norm_mbox_loc_conf_perm
I0407 15:42:16.767835  3579 net.cpp:100] Creating Layer conv4_3_norm_mbox_loc_conf_perm
I0407 15:42:16.767839  3579 net.cpp:434] conv4_3_norm_mbox_loc_conf_perm <- conv4_3_norm_mbox_loc_conf
I0407 15:42:16.767844  3579 net.cpp:408] conv4_3_norm_mbox_loc_conf_perm -> conv4_3_norm_mbox_loc_conf_perm
I0407 15:42:16.767956  3579 net.cpp:150] Setting up conv4_3_norm_mbox_loc_conf_perm
I0407 15:42:16.767964  3579 net.cpp:157] Top shape: 32 8 32 48 (393216)
I0407 15:42:16.767968  3579 net.cpp:165] Memory required for data: 295989536
I0407 15:42:16.767972  3579 layer_factory.hpp:77] Creating layer conv4_3_norm_mbox_loc_perm
I0407 15:42:16.767978  3579 net.cpp:100] Creating Layer conv4_3_norm_mbox_loc_perm
I0407 15:42:16.767982  3579 net.cpp:434] conv4_3_norm_mbox_loc_perm <- conv4_3_norm_mbox_loc_conf_perm
I0407 15:42:16.767988  3579 net.cpp:408] conv4_3_norm_mbox_loc_perm -> conv4_3_norm_mbox_loc_perm
I0407 15:42:16.767995  3579 net.cpp:408] conv4_3_norm_mbox_loc_perm -> conv4_3_norm_mbox_conf_perm
I0407 15:42:16.768038  3579 net.cpp:150] Setting up conv4_3_norm_mbox_loc_perm
I0407 15:42:16.768045  3579 net.cpp:157] Top shape: 32 8 32 24 (196608)
I0407 15:42:16.768050  3579 net.cpp:157] Top shape: 32 8 32 24 (196608)
I0407 15:42:16.768054  3579 net.cpp:165] Memory required for data: 297562400
I0407 15:42:16.768057  3579 layer_factory.hpp:77] Creating layer conv4_3_norm_mbox_loc_flat
I0407 15:42:16.768064  3579 net.cpp:100] Creating Layer conv4_3_norm_mbox_loc_flat
I0407 15:42:16.768069  3579 net.cpp:434] conv4_3_norm_mbox_loc_flat <- conv4_3_norm_mbox_loc_perm
I0407 15:42:16.768074  3579 net.cpp:408] conv4_3_norm_mbox_loc_flat -> conv4_3_norm_mbox_loc_flat
I0407 15:42:16.768100  3579 net.cpp:150] Setting up conv4_3_norm_mbox_loc_flat
I0407 15:42:16.768107  3579 net.cpp:157] Top shape: 32 6144 (196608)
I0407 15:42:16.768111  3579 net.cpp:165] Memory required for data: 298348832
I0407 15:42:16.768115  3579 layer_factory.hpp:77] Creating layer conv4_3_norm_mbox_conf_flat
I0407 15:42:16.768121  3579 net.cpp:100] Creating Layer conv4_3_norm_mbox_conf_flat
I0407 15:42:16.768126  3579 net.cpp:434] conv4_3_norm_mbox_conf_flat <- conv4_3_norm_mbox_conf_perm
I0407 15:42:16.768131  3579 net.cpp:408] conv4_3_norm_mbox_conf_flat -> conv4_3_norm_mbox_conf_flat
I0407 15:42:16.768157  3579 net.cpp:150] Setting up conv4_3_norm_mbox_conf_flat
I0407 15:42:16.768163  3579 net.cpp:157] Top shape: 32 6144 (196608)
I0407 15:42:16.768167  3579 net.cpp:165] Memory required for data: 299135264
I0407 15:42:16.768172  3579 layer_factory.hpp:77] Creating layer conv4_3_norm_mbox_priorbox
I0407 15:42:16.768178  3579 net.cpp:100] Creating Layer conv4_3_norm_mbox_priorbox
I0407 15:42:16.768182  3579 net.cpp:434] conv4_3_norm_mbox_priorbox <- conv4_3_norm_conv4_3_norm_0_split_1
I0407 15:42:16.768187  3579 net.cpp:434] conv4_3_norm_mbox_priorbox <- data_data_0_split_1
I0407 15:42:16.768193  3579 net.cpp:408] conv4_3_norm_mbox_priorbox -> conv4_3_norm_mbox_priorbox
I0407 15:42:16.768221  3579 net.cpp:150] Setting up conv4_3_norm_mbox_priorbox
I0407 15:42:16.768227  3579 net.cpp:157] Top shape: 1 2 6144 (12288)
I0407 15:42:16.768231  3579 net.cpp:165] Memory required for data: 299184416
I0407 15:42:16.768235  3579 layer_factory.hpp:77] Creating layer fc7_conv_mbox_loc_conf
I0407 15:42:16.768244  3579 net.cpp:100] Creating Layer fc7_conv_mbox_loc_conf
I0407 15:42:16.768250  3579 net.cpp:434] fc7_conv_mbox_loc_conf <- fc7_conv_relu7_0_split_1
I0407 15:42:16.768257  3579 net.cpp:408] fc7_conv_mbox_loc_conf -> fc7_conv_mbox_loc_conf
I0407 15:42:16.771750  3579 net.cpp:150] Setting up fc7_conv_mbox_loc_conf
I0407 15:42:16.771769  3579 net.cpp:157] Top shape: 32 48 4 16 (98304)
I0407 15:42:16.771771  3579 net.cpp:165] Memory required for data: 299577632
I0407 15:42:16.771777  3579 layer_factory.hpp:77] Creating layer fc7_conv_mbox_loc_conf_perm
I0407 15:42:16.771785  3579 net.cpp:100] Creating Layer fc7_conv_mbox_loc_conf_perm
I0407 15:42:16.771788  3579 net.cpp:434] fc7_conv_mbox_loc_conf_perm <- fc7_conv_mbox_loc_conf
I0407 15:42:16.771793  3579 net.cpp:408] fc7_conv_mbox_loc_conf_perm -> fc7_conv_mbox_loc_conf_perm
I0407 15:42:16.771881  3579 net.cpp:150] Setting up fc7_conv_mbox_loc_conf_perm
I0407 15:42:16.771886  3579 net.cpp:157] Top shape: 32 4 16 48 (98304)
I0407 15:42:16.771889  3579 net.cpp:165] Memory required for data: 299970848
I0407 15:42:16.771891  3579 layer_factory.hpp:77] Creating layer fc7_conv_mbox_loc_perm
I0407 15:42:16.771896  3579 net.cpp:100] Creating Layer fc7_conv_mbox_loc_perm
I0407 15:42:16.771898  3579 net.cpp:434] fc7_conv_mbox_loc_perm <- fc7_conv_mbox_loc_conf_perm
I0407 15:42:16.771903  3579 net.cpp:408] fc7_conv_mbox_loc_perm -> fc7_conv_mbox_loc_perm
I0407 15:42:16.771908  3579 net.cpp:408] fc7_conv_mbox_loc_perm -> fc7_conv_mbox_conf_perm
I0407 15:42:16.771936  3579 net.cpp:150] Setting up fc7_conv_mbox_loc_perm
I0407 15:42:16.771940  3579 net.cpp:157] Top shape: 32 4 16 24 (49152)
I0407 15:42:16.771944  3579 net.cpp:157] Top shape: 32 4 16 24 (49152)
I0407 15:42:16.771946  3579 net.cpp:165] Memory required for data: 300364064
I0407 15:42:16.771948  3579 layer_factory.hpp:77] Creating layer fc7_conv_mbox_loc_flat
I0407 15:42:16.771953  3579 net.cpp:100] Creating Layer fc7_conv_mbox_loc_flat
I0407 15:42:16.771956  3579 net.cpp:434] fc7_conv_mbox_loc_flat <- fc7_conv_mbox_loc_perm
I0407 15:42:16.771960  3579 net.cpp:408] fc7_conv_mbox_loc_flat -> fc7_conv_mbox_loc_flat
I0407 15:42:16.771978  3579 net.cpp:150] Setting up fc7_conv_mbox_loc_flat
I0407 15:42:16.771982  3579 net.cpp:157] Top shape: 32 1536 (49152)
I0407 15:42:16.771984  3579 net.cpp:165] Memory required for data: 300560672
I0407 15:42:16.771987  3579 layer_factory.hpp:77] Creating layer fc7_conv_mbox_conf_flat
I0407 15:42:16.771991  3579 net.cpp:100] Creating Layer fc7_conv_mbox_conf_flat
I0407 15:42:16.771993  3579 net.cpp:434] fc7_conv_mbox_conf_flat <- fc7_conv_mbox_conf_perm
I0407 15:42:16.771996  3579 net.cpp:408] fc7_conv_mbox_conf_flat -> fc7_conv_mbox_conf_flat
I0407 15:42:16.772018  3579 net.cpp:150] Setting up fc7_conv_mbox_conf_flat
I0407 15:42:16.772023  3579 net.cpp:157] Top shape: 32 1536 (49152)
I0407 15:42:16.772025  3579 net.cpp:165] Memory required for data: 300757280
I0407 15:42:16.772028  3579 layer_factory.hpp:77] Creating layer fc7_conv_mbox_priorbox
I0407 15:42:16.772032  3579 net.cpp:100] Creating Layer fc7_conv_mbox_priorbox
I0407 15:42:16.772035  3579 net.cpp:434] fc7_conv_mbox_priorbox <- fc7_conv_relu7_0_split_2
I0407 15:42:16.772039  3579 net.cpp:434] fc7_conv_mbox_priorbox <- data_data_0_split_2
I0407 15:42:16.772042  3579 net.cpp:408] fc7_conv_mbox_priorbox -> fc7_conv_mbox_priorbox
I0407 15:42:16.772063  3579 net.cpp:150] Setting up fc7_conv_mbox_priorbox
I0407 15:42:16.772066  3579 net.cpp:157] Top shape: 1 2 1536 (3072)
I0407 15:42:16.772069  3579 net.cpp:165] Memory required for data: 300769568
I0407 15:42:16.772071  3579 layer_factory.hpp:77] Creating layer conv6_2_mbox_loc_conf
I0407 15:42:16.772078  3579 net.cpp:100] Creating Layer conv6_2_mbox_loc_conf
I0407 15:42:16.772081  3579 net.cpp:434] conv6_2_mbox_loc_conf <- conv6_2_conv6_2_relu_0_split_1
I0407 15:42:16.772086  3579 net.cpp:408] conv6_2_mbox_loc_conf -> conv6_2_mbox_loc_conf
I0407 15:42:16.772397  3579 net.cpp:150] Setting up conv6_2_mbox_loc_conf
I0407 15:42:16.772403  3579 net.cpp:157] Top shape: 32 48 2 8 (24576)
I0407 15:42:16.772406  3579 net.cpp:165] Memory required for data: 300867872
I0407 15:42:16.772415  3579 layer_factory.hpp:77] Creating layer conv6_2_mbox_loc_conf_perm
I0407 15:42:16.772424  3579 net.cpp:100] Creating Layer conv6_2_mbox_loc_conf_perm
I0407 15:42:16.772428  3579 net.cpp:434] conv6_2_mbox_loc_conf_perm <- conv6_2_mbox_loc_conf
I0407 15:42:16.772431  3579 net.cpp:408] conv6_2_mbox_loc_conf_perm -> conv6_2_mbox_loc_conf_perm
I0407 15:42:16.772526  3579 net.cpp:150] Setting up conv6_2_mbox_loc_conf_perm
I0407 15:42:16.772532  3579 net.cpp:157] Top shape: 32 2 8 48 (24576)
I0407 15:42:16.772534  3579 net.cpp:165] Memory required for data: 300966176
I0407 15:42:16.772537  3579 layer_factory.hpp:77] Creating layer conv6_2_mbox_loc_perm
I0407 15:42:16.772541  3579 net.cpp:100] Creating Layer conv6_2_mbox_loc_perm
I0407 15:42:16.772544  3579 net.cpp:434] conv6_2_mbox_loc_perm <- conv6_2_mbox_loc_conf_perm
I0407 15:42:16.772547  3579 net.cpp:408] conv6_2_mbox_loc_perm -> conv6_2_mbox_loc_perm
I0407 15:42:16.772552  3579 net.cpp:408] conv6_2_mbox_loc_perm -> conv6_2_mbox_conf_perm
I0407 15:42:16.772585  3579 net.cpp:150] Setting up conv6_2_mbox_loc_perm
I0407 15:42:16.772589  3579 net.cpp:157] Top shape: 32 2 8 24 (12288)
I0407 15:42:16.772593  3579 net.cpp:157] Top shape: 32 2 8 24 (12288)
I0407 15:42:16.772595  3579 net.cpp:165] Memory required for data: 301064480
I0407 15:42:16.772598  3579 layer_factory.hpp:77] Creating layer conv6_2_mbox_loc_flat
I0407 15:42:16.772600  3579 net.cpp:100] Creating Layer conv6_2_mbox_loc_flat
I0407 15:42:16.772603  3579 net.cpp:434] conv6_2_mbox_loc_flat <- conv6_2_mbox_loc_perm
I0407 15:42:16.772608  3579 net.cpp:408] conv6_2_mbox_loc_flat -> conv6_2_mbox_loc_flat
I0407 15:42:16.772625  3579 net.cpp:150] Setting up conv6_2_mbox_loc_flat
I0407 15:42:16.772629  3579 net.cpp:157] Top shape: 32 384 (12288)
I0407 15:42:16.772631  3579 net.cpp:165] Memory required for data: 301113632
I0407 15:42:16.772634  3579 layer_factory.hpp:77] Creating layer conv6_2_mbox_conf_flat
I0407 15:42:16.772637  3579 net.cpp:100] Creating Layer conv6_2_mbox_conf_flat
I0407 15:42:16.772639  3579 net.cpp:434] conv6_2_mbox_conf_flat <- conv6_2_mbox_conf_perm
I0407 15:42:16.772642  3579 net.cpp:408] conv6_2_mbox_conf_flat -> conv6_2_mbox_conf_flat
I0407 15:42:16.772661  3579 net.cpp:150] Setting up conv6_2_mbox_conf_flat
I0407 15:42:16.772665  3579 net.cpp:157] Top shape: 32 384 (12288)
I0407 15:42:16.772667  3579 net.cpp:165] Memory required for data: 301162784
I0407 15:42:16.772670  3579 layer_factory.hpp:77] Creating layer conv6_2_mbox_priorbox
I0407 15:42:16.772673  3579 net.cpp:100] Creating Layer conv6_2_mbox_priorbox
I0407 15:42:16.772676  3579 net.cpp:434] conv6_2_mbox_priorbox <- conv6_2_conv6_2_relu_0_split_2
I0407 15:42:16.772680  3579 net.cpp:434] conv6_2_mbox_priorbox <- data_data_0_split_3
I0407 15:42:16.772683  3579 net.cpp:408] conv6_2_mbox_priorbox -> conv6_2_mbox_priorbox
I0407 15:42:16.772701  3579 net.cpp:150] Setting up conv6_2_mbox_priorbox
I0407 15:42:16.772706  3579 net.cpp:157] Top shape: 1 2 384 (768)
I0407 15:42:16.772707  3579 net.cpp:165] Memory required for data: 301165856
I0407 15:42:16.772711  3579 layer_factory.hpp:77] Creating layer conv7_2_mbox_loc_conf
I0407 15:42:16.772716  3579 net.cpp:100] Creating Layer conv7_2_mbox_loc_conf
I0407 15:42:16.772718  3579 net.cpp:434] conv7_2_mbox_loc_conf <- conv7_2_conv7_2_relu_0_split_1
I0407 15:42:16.772722  3579 net.cpp:408] conv7_2_mbox_loc_conf -> conv7_2_mbox_loc_conf
I0407 15:42:16.772980  3579 net.cpp:150] Setting up conv7_2_mbox_loc_conf
I0407 15:42:16.772985  3579 net.cpp:157] Top shape: 32 48 1 4 (6144)
I0407 15:42:16.772989  3579 net.cpp:165] Memory required for data: 301190432
I0407 15:42:16.772991  3579 layer_factory.hpp:77] Creating layer conv7_2_mbox_loc_conf_perm
I0407 15:42:16.772995  3579 net.cpp:100] Creating Layer conv7_2_mbox_loc_conf_perm
I0407 15:42:16.772999  3579 net.cpp:434] conv7_2_mbox_loc_conf_perm <- conv7_2_mbox_loc_conf
I0407 15:42:16.773002  3579 net.cpp:408] conv7_2_mbox_loc_conf_perm -> conv7_2_mbox_loc_conf_perm
I0407 15:42:16.773085  3579 net.cpp:150] Setting up conv7_2_mbox_loc_conf_perm
I0407 15:42:16.773093  3579 net.cpp:157] Top shape: 32 1 4 48 (6144)
I0407 15:42:16.773095  3579 net.cpp:165] Memory required for data: 301215008
I0407 15:42:16.773098  3579 layer_factory.hpp:77] Creating layer conv7_2_mbox_loc_perm
I0407 15:42:16.773102  3579 net.cpp:100] Creating Layer conv7_2_mbox_loc_perm
I0407 15:42:16.773104  3579 net.cpp:434] conv7_2_mbox_loc_perm <- conv7_2_mbox_loc_conf_perm
I0407 15:42:16.773108  3579 net.cpp:408] conv7_2_mbox_loc_perm -> conv7_2_mbox_loc_perm
I0407 15:42:16.773113  3579 net.cpp:408] conv7_2_mbox_loc_perm -> conv7_2_mbox_conf_perm
I0407 15:42:16.773141  3579 net.cpp:150] Setting up conv7_2_mbox_loc_perm
I0407 15:42:16.773145  3579 net.cpp:157] Top shape: 32 1 4 24 (3072)
I0407 15:42:16.773149  3579 net.cpp:157] Top shape: 32 1 4 24 (3072)
I0407 15:42:16.773150  3579 net.cpp:165] Memory required for data: 301239584
I0407 15:42:16.773152  3579 layer_factory.hpp:77] Creating layer conv7_2_mbox_loc_flat
I0407 15:42:16.773156  3579 net.cpp:100] Creating Layer conv7_2_mbox_loc_flat
I0407 15:42:16.773159  3579 net.cpp:434] conv7_2_mbox_loc_flat <- conv7_2_mbox_loc_perm
I0407 15:42:16.773162  3579 net.cpp:408] conv7_2_mbox_loc_flat -> conv7_2_mbox_loc_flat
I0407 15:42:16.773180  3579 net.cpp:150] Setting up conv7_2_mbox_loc_flat
I0407 15:42:16.773183  3579 net.cpp:157] Top shape: 32 96 (3072)
I0407 15:42:16.773186  3579 net.cpp:165] Memory required for data: 301251872
I0407 15:42:16.773188  3579 layer_factory.hpp:77] Creating layer conv7_2_mbox_conf_flat
I0407 15:42:16.773191  3579 net.cpp:100] Creating Layer conv7_2_mbox_conf_flat
I0407 15:42:16.773195  3579 net.cpp:434] conv7_2_mbox_conf_flat <- conv7_2_mbox_conf_perm
I0407 15:42:16.773197  3579 net.cpp:408] conv7_2_mbox_conf_flat -> conv7_2_mbox_conf_flat
I0407 15:42:16.773216  3579 net.cpp:150] Setting up conv7_2_mbox_conf_flat
I0407 15:42:16.773219  3579 net.cpp:157] Top shape: 32 96 (3072)
I0407 15:42:16.773221  3579 net.cpp:165] Memory required for data: 301264160
I0407 15:42:16.773224  3579 layer_factory.hpp:77] Creating layer conv7_2_mbox_priorbox
I0407 15:42:16.773227  3579 net.cpp:100] Creating Layer conv7_2_mbox_priorbox
I0407 15:42:16.773231  3579 net.cpp:434] conv7_2_mbox_priorbox <- conv7_2_conv7_2_relu_0_split_2
I0407 15:42:16.773233  3579 net.cpp:434] conv7_2_mbox_priorbox <- data_data_0_split_4
I0407 15:42:16.773236  3579 net.cpp:408] conv7_2_mbox_priorbox -> conv7_2_mbox_priorbox
I0407 15:42:16.773255  3579 net.cpp:150] Setting up conv7_2_mbox_priorbox
I0407 15:42:16.773259  3579 net.cpp:157] Top shape: 1 2 96 (192)
I0407 15:42:16.773262  3579 net.cpp:165] Memory required for data: 301264928
I0407 15:42:16.773264  3579 layer_factory.hpp:77] Creating layer pool6_mbox_loc_conf
I0407 15:42:16.773268  3579 net.cpp:100] Creating Layer pool6_mbox_loc_conf
I0407 15:42:16.773272  3579 net.cpp:434] pool6_mbox_loc_conf <- pool6_pool6_0_split_0
I0407 15:42:16.773275  3579 net.cpp:408] pool6_mbox_loc_conf -> pool6_mbox_loc_conf
I0407 15:42:16.773540  3579 net.cpp:150] Setting up pool6_mbox_loc_conf
I0407 15:42:16.773545  3579 net.cpp:157] Top shape: 32 48 1 1 (1536)
I0407 15:42:16.773547  3579 net.cpp:165] Memory required for data: 301271072
I0407 15:42:16.773551  3579 layer_factory.hpp:77] Creating layer pool6_mbox_loc_conf_perm
I0407 15:42:16.773555  3579 net.cpp:100] Creating Layer pool6_mbox_loc_conf_perm
I0407 15:42:16.773558  3579 net.cpp:434] pool6_mbox_loc_conf_perm <- pool6_mbox_loc_conf
I0407 15:42:16.773561  3579 net.cpp:408] pool6_mbox_loc_conf_perm -> pool6_mbox_loc_conf_perm
I0407 15:42:16.773644  3579 net.cpp:150] Setting up pool6_mbox_loc_conf_perm
I0407 15:42:16.773649  3579 net.cpp:157] Top shape: 32 1 1 48 (1536)
I0407 15:42:16.773651  3579 net.cpp:165] Memory required for data: 301277216
I0407 15:42:16.773654  3579 layer_factory.hpp:77] Creating layer pool6_mbox_loc_perm
I0407 15:42:16.773658  3579 net.cpp:100] Creating Layer pool6_mbox_loc_perm
I0407 15:42:16.773660  3579 net.cpp:434] pool6_mbox_loc_perm <- pool6_mbox_loc_conf_perm
I0407 15:42:16.773663  3579 net.cpp:408] pool6_mbox_loc_perm -> pool6_mbox_loc_perm
I0407 15:42:16.773669  3579 net.cpp:408] pool6_mbox_loc_perm -> pool6_mbox_conf_perm
I0407 15:42:16.773699  3579 net.cpp:150] Setting up pool6_mbox_loc_perm
I0407 15:42:16.773702  3579 net.cpp:157] Top shape: 32 1 1 24 (768)
I0407 15:42:16.773705  3579 net.cpp:157] Top shape: 32 1 1 24 (768)
I0407 15:42:16.773707  3579 net.cpp:165] Memory required for data: 301283360
I0407 15:42:16.773710  3579 layer_factory.hpp:77] Creating layer pool6_mbox_loc_flat
I0407 15:42:16.773713  3579 net.cpp:100] Creating Layer pool6_mbox_loc_flat
I0407 15:42:16.773716  3579 net.cpp:434] pool6_mbox_loc_flat <- pool6_mbox_loc_perm
I0407 15:42:16.773720  3579 net.cpp:408] pool6_mbox_loc_flat -> pool6_mbox_loc_flat
I0407 15:42:16.773736  3579 net.cpp:150] Setting up pool6_mbox_loc_flat
I0407 15:42:16.773741  3579 net.cpp:157] Top shape: 32 24 (768)
I0407 15:42:16.773742  3579 net.cpp:165] Memory required for data: 301286432
I0407 15:42:16.773746  3579 layer_factory.hpp:77] Creating layer pool6_mbox_conf_flat
I0407 15:42:16.773748  3579 net.cpp:100] Creating Layer pool6_mbox_conf_flat
I0407 15:42:16.773751  3579 net.cpp:434] pool6_mbox_conf_flat <- pool6_mbox_conf_perm
I0407 15:42:16.773753  3579 net.cpp:408] pool6_mbox_conf_flat -> pool6_mbox_conf_flat
I0407 15:42:16.773772  3579 net.cpp:150] Setting up pool6_mbox_conf_flat
I0407 15:42:16.773775  3579 net.cpp:157] Top shape: 32 24 (768)
I0407 15:42:16.773778  3579 net.cpp:165] Memory required for data: 301289504
I0407 15:42:16.773780  3579 layer_factory.hpp:77] Creating layer pool6_mbox_priorbox
I0407 15:42:16.773784  3579 net.cpp:100] Creating Layer pool6_mbox_priorbox
I0407 15:42:16.773787  3579 net.cpp:434] pool6_mbox_priorbox <- pool6_pool6_0_split_1
I0407 15:42:16.773789  3579 net.cpp:434] pool6_mbox_priorbox <- data_data_0_split_5
I0407 15:42:16.773793  3579 net.cpp:408] pool6_mbox_priorbox -> pool6_mbox_priorbox
I0407 15:42:16.773813  3579 net.cpp:150] Setting up pool6_mbox_priorbox
I0407 15:42:16.773816  3579 net.cpp:157] Top shape: 1 2 24 (48)
I0407 15:42:16.773818  3579 net.cpp:165] Memory required for data: 301289696
I0407 15:42:16.773820  3579 layer_factory.hpp:77] Creating layer mbox_loc
I0407 15:42:16.773825  3579 net.cpp:100] Creating Layer mbox_loc
I0407 15:42:16.773828  3579 net.cpp:434] mbox_loc <- conv4_3_norm_mbox_loc_flat
I0407 15:42:16.773831  3579 net.cpp:434] mbox_loc <- fc7_conv_mbox_loc_flat
I0407 15:42:16.773834  3579 net.cpp:434] mbox_loc <- conv6_2_mbox_loc_flat
I0407 15:42:16.773838  3579 net.cpp:434] mbox_loc <- conv7_2_mbox_loc_flat
I0407 15:42:16.773840  3579 net.cpp:434] mbox_loc <- pool6_mbox_loc_flat
I0407 15:42:16.773844  3579 net.cpp:408] mbox_loc -> mbox_loc
I0407 15:42:16.773864  3579 net.cpp:150] Setting up mbox_loc
I0407 15:42:16.773867  3579 net.cpp:157] Top shape: 32 8184 (261888)
I0407 15:42:16.773869  3579 net.cpp:165] Memory required for data: 302337248
I0407 15:42:16.773871  3579 layer_factory.hpp:77] Creating layer mbox_conf
I0407 15:42:16.773875  3579 net.cpp:100] Creating Layer mbox_conf
I0407 15:42:16.773879  3579 net.cpp:434] mbox_conf <- conv4_3_norm_mbox_conf_flat
I0407 15:42:16.773881  3579 net.cpp:434] mbox_conf <- fc7_conv_mbox_conf_flat
I0407 15:42:16.773885  3579 net.cpp:434] mbox_conf <- conv6_2_mbox_conf_flat
I0407 15:42:16.773887  3579 net.cpp:434] mbox_conf <- conv7_2_mbox_conf_flat
I0407 15:42:16.773890  3579 net.cpp:434] mbox_conf <- pool6_mbox_conf_flat
I0407 15:42:16.773893  3579 net.cpp:408] mbox_conf -> mbox_conf
I0407 15:42:16.773910  3579 net.cpp:150] Setting up mbox_conf
I0407 15:42:16.773914  3579 net.cpp:157] Top shape: 32 8184 (261888)
I0407 15:42:16.773916  3579 net.cpp:165] Memory required for data: 303384800
I0407 15:42:16.773919  3579 layer_factory.hpp:77] Creating layer mbox_priorbox
I0407 15:42:16.773922  3579 net.cpp:100] Creating Layer mbox_priorbox
I0407 15:42:16.773926  3579 net.cpp:434] mbox_priorbox <- conv4_3_norm_mbox_priorbox
I0407 15:42:16.773928  3579 net.cpp:434] mbox_priorbox <- fc7_conv_mbox_priorbox
I0407 15:42:16.773931  3579 net.cpp:434] mbox_priorbox <- conv6_2_mbox_priorbox
I0407 15:42:16.773936  3579 net.cpp:434] mbox_priorbox <- conv7_2_mbox_priorbox
I0407 15:42:16.773939  3579 net.cpp:434] mbox_priorbox <- pool6_mbox_priorbox
I0407 15:42:16.773942  3579 net.cpp:408] mbox_priorbox -> mbox_priorbox
I0407 15:42:16.773962  3579 net.cpp:150] Setting up mbox_priorbox
I0407 15:42:16.773965  3579 net.cpp:157] Top shape: 1 2 8184 (16368)
I0407 15:42:16.773967  3579 net.cpp:165] Memory required for data: 303450272
I0407 15:42:16.773969  3579 layer_factory.hpp:77] Creating layer mbox_conf_reshape
I0407 15:42:16.773974  3579 net.cpp:100] Creating Layer mbox_conf_reshape
I0407 15:42:16.773977  3579 net.cpp:434] mbox_conf_reshape <- mbox_conf
I0407 15:42:16.773980  3579 net.cpp:408] mbox_conf_reshape -> mbox_conf_reshape
I0407 15:42:16.773999  3579 net.cpp:150] Setting up mbox_conf_reshape
I0407 15:42:16.774003  3579 net.cpp:157] Top shape: 32 2046 4 (261888)
I0407 15:42:16.774005  3579 net.cpp:165] Memory required for data: 304497824
I0407 15:42:16.774008  3579 layer_factory.hpp:77] Creating layer mbox_conf_softmax
I0407 15:42:16.774013  3579 net.cpp:100] Creating Layer mbox_conf_softmax
I0407 15:42:16.774014  3579 net.cpp:434] mbox_conf_softmax <- mbox_conf_reshape
I0407 15:42:16.774019  3579 net.cpp:408] mbox_conf_softmax -> mbox_conf_softmax
I0407 15:42:16.774070  3579 net.cpp:150] Setting up mbox_conf_softmax
I0407 15:42:16.774075  3579 net.cpp:157] Top shape: 32 2046 4 (261888)
I0407 15:42:16.774077  3579 net.cpp:165] Memory required for data: 305545376
I0407 15:42:16.774080  3579 layer_factory.hpp:77] Creating layer mbox_conf_flatten
I0407 15:42:16.774082  3579 net.cpp:100] Creating Layer mbox_conf_flatten
I0407 15:42:16.774085  3579 net.cpp:434] mbox_conf_flatten <- mbox_conf_softmax
I0407 15:42:16.774088  3579 net.cpp:408] mbox_conf_flatten -> mbox_conf_flatten
I0407 15:42:16.774106  3579 net.cpp:150] Setting up mbox_conf_flatten
I0407 15:42:16.774109  3579 net.cpp:157] Top shape: 32 8184 (261888)
I0407 15:42:16.774111  3579 net.cpp:165] Memory required for data: 306592928
I0407 15:42:16.774114  3579 layer_factory.hpp:77] Creating layer detection_out
I0407 15:42:16.774121  3579 net.cpp:100] Creating Layer detection_out
I0407 15:42:16.774123  3579 net.cpp:434] detection_out <- mbox_loc
I0407 15:42:16.774127  3579 net.cpp:434] detection_out <- mbox_conf_flatten
I0407 15:42:16.774128  3579 net.cpp:434] detection_out <- mbox_priorbox
I0407 15:42:16.774132  3579 net.cpp:408] detection_out -> detection_out
I0407 15:42:16.776824  3579 net.cpp:150] Setting up detection_out
I0407 15:42:16.776840  3579 net.cpp:157] Top shape: 1 1 1 7 (7)
I0407 15:42:16.776844  3579 net.cpp:165] Memory required for data: 306592956
I0407 15:42:16.776847  3579 layer_factory.hpp:77] Creating layer detection_eval
I0407 15:42:16.776855  3579 net.cpp:100] Creating Layer detection_eval
I0407 15:42:16.776859  3579 net.cpp:434] detection_eval <- detection_out
I0407 15:42:16.776865  3579 net.cpp:434] detection_eval <- label
I0407 15:42:16.776868  3579 net.cpp:408] detection_eval -> detection_eval
I0407 15:42:16.777190  3579 net.cpp:150] Setting up detection_eval
I0407 15:42:16.777199  3579 net.cpp:157] Top shape: 1 1 4 5 (20)
I0407 15:42:16.777202  3579 net.cpp:165] Memory required for data: 306593036
I0407 15:42:16.777206  3579 net.cpp:228] detection_eval does not need backward computation.
I0407 15:42:16.777211  3579 net.cpp:228] detection_out does not need backward computation.
I0407 15:42:16.777216  3579 net.cpp:228] mbox_conf_flatten does not need backward computation.
I0407 15:42:16.777220  3579 net.cpp:228] mbox_conf_softmax does not need backward computation.
…
