…
        max_scale: 0.5
        min_aspect_ratio: 0.5
        max_aspect_ratio: 2
      }
      sample_constraint {
        min_jaccard_overlap: 0.9
      }
      max_sample: 1
      max_trials: 50
    }
    batch_sampler {
      sampler {
        min_scale: 0.1
        max_scale: 0.5
        min_aspect_ratio: 0.5
        max_aspect_ratio: 2
      }
      sample_constraint {
        max_jaccard_overlap: 1
      }
      max_sample: 1
      max_trials: 50
    }
    label_map_file: "/home/work/wwl/code/vision-detector/data/KITTI/labelmap.prototxt"
  }
}
layer {
  name: "conv1_1"
  type: "Convolution"
  bottom: "data"
  top: "conv1_1"
  param {
    lr_mult: 1
    decay_mult: 1
  }
  param {
    lr_mult: 2
    decay_mult: 0
  }
  convolution_param {
    num_output: 16
    pad: 1
    kernel_size: 3
    weight_filler {
      type: "xavier"
    }
    bias_filler {
      type: "constant"
      value: 0
    }
  }
}
layer {
  name: "relu1_1"
  type: "ReLU"
  bottom: "conv1_1"
  top: "conv1_1"
}
layer {
  name: "conv1_2"
  type: "Convolution"
  bottom: "conv1_1"
  top: "conv1_2"
  param {
    lr_mult: 1
    decay_mult: 1
  }
  param {
    lr_mult: 2
    decay_mult: 0
  }
  convolution_param {
    num_output: 16
    pad: 1
    kernel_size: 3
    stride: 2
    weight_filler {
      type: "xavier"
    }
    bias_filler {
      type: "constant"
      value: 0
    }
  }
}
layer {
  name: "relu1_2"
  type: "ReLU"
  bottom: "conv1_2"
  top: "conv1_2"
}
layer {
  name: "conv2_1"
  type: "Convolution"
  bottom: "conv1_2"
  top: "conv2_1"
  param {
    lr_mult: 1
    decay_mult: 1
  }
  param {
    lr_mult: 2
    decay_mult: 0
  }
  convolution_param {
    num_output: 32
    pad: 1
    kernel_size: 3
    weight_filler {
      type: "xavier"
    }
    bias_filler {
      type: "constant"
      value: 0
    }
  }
}
layer {
  name: "relu2_1"
  type: "ReLU"
  bottom: "conv2_1"
  top: "conv2_1"
}
layer {
  name: "conv2_2"
  type: "Convolution"
  bottom: "conv2_1"
  top: "conv2_2"
  param {
    lr_mult: 1
    decay_mult: 1
  }
  param {
    lr_mult: 2
    decay_mult: 0
  }
  convolution_param {
    num_output: 32
    pad: 1
    kernel_size: 3
    stride: 2
    weight_filler {
      type: "xavier"
    }
    bias_filler {
      type: "constant"
      value: 0
    }
  }
}
layer {
  name: "relu2_2"
  type: "ReLU"
  bottom: "conv2_2"
  top: "conv2_2"
}
layer {
  name: "conv3_1"
  type: "Convolution"
  bottom: "conv2_2"
  top: "conv3_1"
  param {
    lr_mult: 1
    decay_mult: 1
  }
  param {
    lr_mult: 2
    decay_mult: 0
  }
  convolution_param {
    num_output: 64
    pad: 1
    kernel_size: 3
    weight_filler {
      type: "xavier"
    }
    bias_filler {
      type: "constant"
      value: 0
    }
  }
}
layer {
  name: "relu3_1"
  type: "ReLU"
  bottom: "conv3_1"
  top: "conv3_1"
}
layer {
  name: "conv3_2"
  type: "Convolution"
  bottom: "conv3_1"
  top: "conv3_2"
  param {
    lr_mult: 1
    decay_mult: 1
  }
  param {
    lr_mult: 2
    decay_mult: 0
  }
  convolution_param {
    num_output: 64
    pad: 1
    kernel_size: 3
    weight_filler {
      type: "xavier"
    }
    bias_filler {
      type: "constant"
      value: 0
    }
  }
}
layer {
  name: "relu3_2"
  type: "ReLU"
  bottom: "conv3_2"
  top: "conv3_2"
}
layer {
  name: "conv3_3"
  type: "Convolution"
  bottom: "conv3_2"
  top: "conv3_3"
  param {
    lr_mult: 1
    decay_mult: 1
  }
  param {
    lr_mult: 2
    decay_mult: 0
  }
  convolution_param {
    num_output: 64
    pad: 1
    kernel_size: 3
    weight_filler {
      type: "xavier"
    }
    bias_filler {
      type: "constant"
      value: 0
    }
  }
}
layer {
  name: "relu3_3"
  type: "ReLU"
  bottom: "conv3_3"
  top: "conv3_3"
}
layer {
  name: "pool3"
  type: "Pooling"
  bottom: "conv3_3"
  top: "pool3"
  pooling_param {
    pool: MAX
    kernel_size: 2
    stride: 2
  }
}
layer {
  name: "conv4_1"
  type: "Convolution"
  bottom: "pool3"
  top: "conv4_1"
  param {
    lr_mult: 1
    decay_mult: 1
  }
  param {
    lr_mult: 2
    decay_mult: 0
  }
  convolution_param {
    num_output: 128
    pad: 1
    kernel_size: 3
    weight_filler {
      type: "xavier"
    }
    bias_filler {
      type: "constant"
      value: 0
    }
  }
}
layer {
  name: "relu4_1"
  type: "ReLU"
  bottom: "conv4_1"
  top: "conv4_1"
}
layer {
  name: "conv4_2"
  type: "Convolution"
  bottom: "conv4_1"
  top: "conv4_2"
  param {
    lr_mult: 1
    decay_mult: 1
  }
  param {
    lr_mult: 2
    decay_mult: 0
  }
  convolution_param {
    num_output: 128
    pad: 1
    kernel_size: 3
    weight_filler {
      type: "xavier"
    }
    bias_filler {
      type: "constant"
      value: 0
    }
  }
}
layer {
  name: "relu4_2"
  type: "ReLU"
  bottom: "conv4_2"
  top: "conv4_2"
}
layer {
  name: "conv4_3"
  type: "Convolution"
  bottom: "conv4_2"
  top: "conv4_3"
  param {
    lr_mult: 1
    decay_mult: 1
  }
  param {
    lr_mult: 2
    decay_mult: 0
  }
  convolution_param {
    num_output: 128
    pad: 1
    kernel_size: 3
    weight_filler {
      type: "xavier"
    }
    bias_filler {
      type: "constant"
      value: 0
    }
  }
}
layer {
  name: "relu4_3"
  type: "ReLU"
  bottom: "conv4_3"
  top: "conv4_3"
}
layer {
  name: "pool4"
  type: "Pooling"
  bottom: "conv4_3"
  top: "pool4"
  pooling_param {
    pool: MAX
    kernel_size: 2
    stride: 2
  }
}
layer {
  name: "conv5_1"
  type: "Convolution"
  bottom: "pool4"
  top: "conv5_1"
  param {
    lr_mult: 1
    decay_mult: 1
  }
  param {
    lr_mult: 2
    decay_mult: 0
  }
  convolution_param {
    num_output: 128
    pad: 1
    kernel_size: 3
    weight_filler {
      type: "xavier"
    }
    bias_filler {
      type: "constant"
      value: 0
    }
    dilation: 1
  }
}
layer {
  name: "relu5_1"
  type: "ReLU"
  bottom: "conv5_1"
  top: "conv5_1"
}
layer {
  name: "conv5_2"
  type: "Convolution"
  bottom: "conv5_1"
  top: "conv5_2"
  param {
    lr_mult: 1
    decay_mult: 1
  }
  param {
    lr_mult: 2
    decay_mult: 0
  }
  convolution_param {
    num_output: 128
    pad: 1
    kernel_size: 3
    weight_filler {
      type: "xavier"
    }
    bias_filler {
      type: "constant"
      value: 0
    }
    dilation: 1
  }
}
layer {
  name: "relu5_2"
  type: "ReLU"
  bottom: "conv5_2"
  top: "conv5_2"
}
layer {
  name: "conv5_3"
  type: "Convolution"
  bottom: "conv5_2"
  top: "conv5_3"
  param {
    lr_mult: 1
    decay_mult: 1
  }
  param {
    lr_mult: 2
    decay_mult: 0
  }
  convolution_param {
    num_output: 128
    pad: 1
    kernel_size: 3
    weight_filler {
      type: "xavier"
    }
    bias_filler {
      type: "constant"
      value: 0
    }
    dilation: 1
  }
}
layer {
  name: "relu5_3"
  type: "ReLU"
  bottom: "conv5_3"
  top: "conv5_3"
}
layer {
  name: "pool5"
  type: "Pooling"
  bottom: "conv5_3"
  top: "pool5"
  pooling_param {
    pool: MAX
    kernel_size: 3
    stride: 1
    pad: 1
  }
}
layer {
  name: "fc6_conv"
  type: "Convolution"
  bottom: "pool5"
  top: "fc6_conv"
  param {
    lr_mult: 1
    decay_mult: 1
  }
  param {
    lr_mult: 2
    decay_mult: 0
  }
  convolution_param {
    num_output: 256
    pad: 6
    kernel_size: 3
    weight_filler {
      type: "xavier"
    }
    bias_filler {
      type: "constant"
      value: 0
    }
    dilation: 6
  }
}
layer {
  name: "relu6"
  type: "ReLU"
  bottom: "fc6_conv"
  top: "fc6_conv"
}
layer {
  name: "fc7_conv"
  type: "Convolution"
  bottom: "fc6_conv"
  top: "fc7_conv"
  param {
    lr_mult: 1
    decay_mult: 1
  }
  param {
    lr_mult: 2
    decay_mult: 0
  }
  convolution_param {
    num_output: 256
    kernel_size: 1
    weight_filler {
      type: "xavier"
    }
    bias_filler {
      type: "constant"
      value: 0
    }
  }
}
layer {
  name: "relu7"
  type: "ReLU"
  bottom: "fc7_conv"
  top: "fc7_conv"
}
layer {
  name: "conv6_1"
  type: "Convolution"
  bottom: "fc7_conv"
  top: "conv6_1"
  param {
    lr_mult: 1
    decay_mult: 1
  }
  param {
    lr_mult: 2
    decay_mult: 0
  }
  convolution_param {
    num_output: 32
    pad: 0
    kernel_size: 1
    stride: 1
    weight_filler {
      type: "xavier"
    }
    bias_filler {
      type: "constant"
      value: 0
    }
  }
}
layer {
  name: "conv6_1_relu"
  type: "ReLU"
  bottom: "conv6_1"
  top: "conv6_1"
}
layer {
  name: "conv6_2"
  type: "Convolution"
  bottom: "conv6_1"
  top: "conv6_2"
  param {
    lr_mult: 1
    decay_mult: 1
  }
  param {
    lr_mult: 2
    decay_mult: 0
  }
  convolution_param {
    num_output: 64
    pad: 1
    kernel_size: 3
    stride: 2
    weight_filler {
      type: "xavier"
    }
    bias_filler {
      type: "constant"
      value: 0
    }
  }
}
layer {
  name: "conv6_2_relu"
  type: "ReLU"
  bottom: "conv6_2"
  top: "conv6_2"
}
layer {
  name: "conv7_1"
  type: "Convolution"
  bottom: "conv6_2"
  top: "conv7_1"
  param {
    lr_mult: 1
    decay_mult: 1
  }
  param {
    lr_mult: 2
    decay_mult: 0
  }
  convolution_param {
    num_output: 16
    pad: 0
    kernel_size: 1
    stride: 1
    weight_filler {
      type: "xavier"
    }
    bias_filler {
      type: "constant"
      value: 0
    }
  }
}
layer {
  name: "conv7_1_relu"
  type: "ReLU"
  bottom: "conv7_1"
  top: "conv7_1"
}
layer {
  name: "conv7_2"
  type: "Convolution"
  bottom: "conv7_1"
  top: "conv7_2"
  param {
    lr_mult: 1
    decay_mult: 1
  }
  param {
    lr_mult: 2
    decay_mult: 0
  }
  convolution_param {
    num_output: 32
    pad: 1
    kernel_size: 3
    stride: 2
    weight_filler {
      type: "xavier"
    }
    bias_filler {
      type: "constant"
      value: 0
    }
  }
}
layer {
  name: "conv7_2_relu"
  type: "ReLU"
  bottom: "conv7_2"
  top: "conv7_2"
}
layer {
  name: "pool6"
  type: "Pooling"
  bottom: "conv7_2"
  top: "pool6"
  pooling_param {
    pool: AVE
    global_pooling: true
  }
}
layer {
  name: "conv4_3_norm"
  type: "Normalize"
  bottom: "conv4_3"
  top: "conv4_3_norm"
  norm_param {
    across_spatial: false
    scale_filler {
      type: "constant"
      value: 20
    }
    channel_shared: false
  }
}
layer {
  name: "conv4_3_norm_mbox_loc_conf"
  type: "Convolution"
  bottom: "conv4_3_norm"
  top: "conv4_3_norm_mbox_loc_conf"
  param {
    lr_mult: 1
    decay_mult: 1
  }
  param {
    lr_mult: 2
    decay_mult: 0
  }
  convolution_param {
    num_output: 48
    pad: 1
    kernel_size: 3
    stride: 1
    weight_filler {
      type: "xavier"
    }
    bias_filler {
      type: "constant"
      value: 0
    }
  }
}
layer {
  name: "conv4_3_norm_mbox_loc_conf_perm"
  type: "Permute"
  bottom: "conv4_3_norm_mbox_loc_conf"
  top: "conv4_3_norm_mbox_loc_conf_perm"
  permute_param {
    order: 0
    order: 2
    order: 3
    order: 1
  }
}
layer {
  name: "conv4_3_norm_mbox_loc_perm"
  type: "Slice"
  bottom: "conv4_3_norm_mbox_loc_conf_perm"
  top: "conv4_3_norm_mbox_loc_perm"
  top: "conv4_3_norm_mbox_conf_perm"
  slice_param {
    slice_point: 24
    axis: 3
  }
}
layer {
  name: "conv4_3_norm_mbox_loc_flat"
  type: "Flatten"
  bottom: "conv4_3_norm_mbox_loc_perm"
  top: "conv4_3_norm_mbox_loc_flat"
  flatten_param {
    axis: 1
  }
}
layer {
  name: "conv4_3_norm_mbox_conf_flat"
  type: "Flatten"
  bottom: "conv4_3_norm_mbox_conf_perm"
  top: "conv4_3_norm_mbox_conf_flat"
  flatten_param {
    axis: 1
  }
}
layer {
  name: "conv4_3_norm_mbox_priorbox"
  type: "PriorBox"
  bottom: "conv4_3_norm"
  bottom: "data"
  top: "conv4_3_norm_mbox_priorbox"
  prior_box_param {
    min_size: 19.2
    max_size: 32
    aspect_ratio: 2
    aspect_ratio: 3
    flip: true
    clip: true
    variance: 0.1
    variance: 0.1
    variance: 0.2
    variance: 0.2
    offset: 0.5
  }
}
layer {
  name: "fc7_conv_mbox_loc_conf"
  type: "Convolution"
  bottom: "fc7_conv"
  top: "fc7_conv_mbox_loc_conf"
  param {
    lr_mult: 1
    decay_mult: 1
  }
  param {
    lr_mult: 2
    decay_mult: 0
  }
  convolution_param {
    num_output: 48
    pad: 1
    kernel_size: 3
    stride: 1
    weight_filler {
      type: "xavier"
    }
    bias_filler {
      type: "constant"
      value: 0
    }
  }
}
layer {
  name: "fc7_conv_mbox_loc_conf_perm"
  type: "Permute"
  bottom: "fc7_conv_mbox_loc_conf"
  top: "fc7_conv_mbox_loc_conf_perm"
  permute_param {
    order: 0
    order: 2
    order: 3
    order: 1
  }
}
layer {
  name: "fc7_conv_mbox_loc_perm"
  type: "Slice"
  bottom: "fc7_conv_mbox_loc_conf_perm"
  top: "fc7_conv_mbox_loc_perm"
  top: "fc7_conv_mbox_conf_perm"
  slice_param {
    slice_point: 24
    axis: 3
  }
}
layer {
  name: "fc7_conv_mbox_loc_flat"
  type: "Flatten"
  bottom: "fc7_conv_mbox_loc_perm"
  top: "fc7_conv_mbox_loc_flat"
  flatten_param {
    axis: 1
  }
}
layer {
  name: "fc7_conv_mbox_conf_flat"
  type: "Flatten"
  bottom: "fc7_conv_mbox_conf_perm"
  top: "fc7_conv_mbox_conf_flat"
  flatten_param {
    axis: 1
  }
}
layer {
  name: "fc7_conv_mbox_priorbox"
  type: "PriorBox"
  bottom: "fc7_conv"
  bottom: "data"
  top: "fc7_conv_mbox_priorbox"
  prior_box_param {
    min_size: 32
    max_size: 61.44
    aspect_ratio: 2
    aspect_ratio: 3
    flip: true
    clip: true
    variance: 0.1
    variance: 0.1
    variance: 0.2
    variance: 0.2
    offset: 0.5
  }
}
layer {
  name: "conv6_2_mbox_loc_conf"
  type: "Convolution"
  bottom: "conv6_2"
  top: "conv6_2_mbox_loc_conf"
  param {
    lr_mult: 1
    decay_mult: 1
  }
  param {
    lr_mult: 2
    decay_mult: 0
  }
  convolution_param {
    num_output: 48
    pad: 1
    kernel_size: 3
    stride: 1
    weight_filler {
      type: "xavier"
    }
    bias_filler {
      type: "constant"
      value: 0
    }
  }
}
layer {
  name: "conv6_2_mbox_loc_conf_perm"
  type: "Permute"
  bottom: "conv6_2_mbox_loc_conf"
  top: "conv6_2_mbox_loc_conf_perm"
  permute_param {
    order: 0
    order: 2
    order: 3
    order: 1
  }
}
layer {
  name: "conv6_2_mbox_loc_perm"
  type: "Slice"
  bottom: "conv6_2_mbox_loc_conf_perm"
  top: "conv6_2_mbox_loc_perm"
  top: "conv6_2_mbox_conf_perm"
  slice_param {
    slice_point: 24
    axis: 3
  }
}
layer {
  name: "conv6_2_mbox_loc_flat"
  type: "Flatten"
  bottom: "conv6_2_mbox_loc_perm"
  top: "conv6_2_mbox_loc_flat"
  flatten_param {
    axis: 1
  }
}
layer {
  name: "conv6_2_mbox_conf_flat"
  type: "Flatten"
  bottom: "conv6_2_mbox_conf_perm"
  top: "conv6_2_mbox_conf_flat"
  flatten_param {
    axis: 1
  }
}
layer {
  name: "conv6_2_mbox_priorbox"
  type: "PriorBox"
  bottom: "conv6_2"
  bottom: "data"
  top: "conv6_2_mbox_priorbox"
  prior_box_param {
    min_size: 61.44
    max_size: 90.88
    aspect_ratio: 2
    aspect_ratio: 3
    flip: true
    clip: true
    variance: 0.1
    variance: 0.1
    variance: 0.2
    variance: 0.2
    offset: 0.5
  }
}
layer {
  name: "conv7_2_mbox_loc_conf"
  type: "Convolution"
  bottom: "conv7_2"
  top: "conv7_2_mbox_loc_conf"
  param {
    lr_mult: 1
    decay_mult: 1
  }
  param {
    lr_mult: 2
    decay_mult: 0
  }
  convolution_param {
    num_output: 48
    pad: 1
    kernel_size: 3
    stride: 1
    weight_filler {
      type: "xavier"
    }
    bias_filler {
      type: "constant"
      value: 0
    }
  }
}
layer {
  name: "conv7_2_mbox_loc_conf_perm"
  type: "Permute"
  bottom: "conv7_2_mbox_loc_conf"
  top: "conv7_2_mbox_loc_conf_perm"
  permute_param {
    order: 0
    order: 2
    order: 3
    order: 1
  }
}
layer {
  name: "conv7_2_mbox_loc_perm"
  type: "Slice"
  bottom: "conv7_2_mbox_loc_conf_perm"
  top: "conv7_2_mbox_loc_perm"
  top: "conv7_2_mbox_conf_perm"
  slice_param {
    slice_point: 24
    axis: 3
  }
}
layer {
  name: "conv7_2_mbox_loc_flat"
  type: "Flatten"
  bottom: "conv7_2_mbox_loc_perm"
  top: "conv7_2_mbox_loc_flat"
  flatten_param {
    axis: 1
  }
}
layer {
  name: "conv7_2_mbox_conf_flat"
  type: "Flatten"
  bottom: "conv7_2_mbox_conf_perm"
  top: "conv7_2_mbox_conf_flat"
  flatten_param {
    axis: 1
  }
}
layer {
  name: "conv7_2_mbox_priorbox"
  type: "PriorBox"
  bottom: "conv7_2"
  bottom: "data"
  top: "conv7_2_mbox_priorbox"
  prior_box_param {
    min_size: 90.88
    max_size: 120.32
    aspect_ratio: 2
    aspect_ratio: 3
    flip: true
    clip: true
    variance: 0.1
    variance: 0.1
    variance: 0.2
    variance: 0.2
    offset: 0.5
  }
}
layer {
  name: "pool6_mbox_loc_conf"
  type: "Convolution"
  bottom: "pool6"
  top: "pool6_mbox_loc_conf"
  param {
    lr_mult: 1
    decay_mult: 1
  }
  param {
    lr_mult: 2
    decay_mult: 0
  }
  convolution_param {
    num_output: 48
    pad: 1
    kernel_size: 3
    stride: 1
    weight_filler {
      type: "xavier"
    }
    bias_filler {
      type: "constant"
      value: 0
    }
  }
}
layer {
  name: "pool6_mbox_loc_conf_perm"
  type: "Permute"
  bottom: "pool6_mbox_loc_conf"
  top: "pool6_mbox_loc_conf_perm"
  permute_param {
    order: 0
    order: 2
    order: 3
    order: 1
  }
}
layer {
  name: "pool6_mbox_loc_perm"
  type: "Slice"
  bottom: "pool6_mbox_loc_conf_perm"
  top: "pool6_mbox_loc_perm"
  top: "pool6_mbox_conf_perm"
  slice_param {
    slice_point: 24
    axis: 3
  }
}
layer {
  name: "pool6_mbox_loc_flat"
  type: "Flatten"
  bottom: "pool6_mbox_loc_perm"
  top: "pool6_mbox_loc_flat"
  flatten_param {
    axis: 1
  }
}
layer {
  name: "pool6_mbox_conf_flat"
  type: "Flatten"
  bottom: "pool6_mbox_conf_perm"
  top: "pool6_mbox_conf_flat"
  flatten_param {
    axis: 1
  }
}
layer {
  name: "pool6_mbox_priorbox"
  type: "PriorBox"
  bottom: "pool6"
  bottom: "data"
  top: "pool6_mbox_priorbox"
  prior_box_param {
    min_size: 120.32
    max_size: 149.76
    aspect_ratio: 2
    aspect_ratio: 3
    flip: true
    clip: true
    variance: 0.1
    variance: 0.1
    variance: 0.2
    variance: 0.2
    offset: 0.5
  }
}
layer {
  name: "mbox_loc"
  type: "Concat"
  bottom: "conv4_3_norm_mbox_loc_flat"
  bottom: "fc7_conv_mbox_loc_flat"
  bottom: "conv6_2_mbox_loc_flat"
  bottom: "conv7_2_mbox_loc_flat"
  bottom: "pool6_mbox_loc_flat"
  top: "mbox_loc"
  concat_param {
    axis: 1
  }
}
layer {
  name: "mbox_conf"
  type: "Concat"
  bottom: "conv4_3_norm_mbox_conf_flat"
  bottom: "fc7_conv_mbox_conf_flat"
  bottom: "conv6_2_mbox_conf_flat"
  bottom: "conv7_2_mbox_conf_flat"
  bottom: "pool6_mbox_conf_flat"
  top: "mbox_conf"
  concat_param {
    axis: 1
  }
}
layer {
  name: "mbox_priorbox"
  type: "Concat"
  bottom: "conv4_3_norm_mbox_priorbox"
  bottom: "fc7_conv_mbox_priorbox"
  bottom: "conv6_2_mbox_priorbox"
  bottom: "conv7_2_mbox_priorbox"
  bottom: "pool6_mbox_priorbox"
  top: "mbox_priorbox"
  concat_param {
    axis: 2
  }
}
layer {
  name: "mbox_loss"
  type: "MultiBoxLoss"
  bottom: "mbox_loc"
  bottom: "mbox_conf"
  bottom: "mbox_priorbox"
  bottom: "label"
  top: "mbox_loss"
  include {
    phase: TRAIN
  }
  propagate_down: true
  propagate_down: true
  propagate_down: false
  propagate_down: false
  loss_param {
    normalization: VALID
  }
  multibox_loss_param {
    loc_loss_type: SMOOTH_L1
    conf_loss_type: SOFTMAX
    loc_weight: 1
    num_classes: 4
    share_location: true
    match_type: PER_PREDICTION
    overlap_threshold: 0.3
    use_prior_for_matching: true
    background_label_id: 0
    use_difficult_gt: true
    neg_pos_ratio: 3
    neg_overlap: 0.3
    code_type: CENTER_SIZE
    mining_type: MAX_NEGATIVE
  }
}
I0401 18:32:11.208819  3287 layer_factory.hpp:77] Creating layer data
I0401 18:32:11.209146  3287 net.cpp:100] Creating Layer data
I0401 18:32:11.209153  3287 net.cpp:408] data -> data
I0401 18:32:11.209164  3287 net.cpp:408] data -> label
I0401 18:32:11.209888  3308 db_lmdb.cpp:35] Opened lmdb /home/work/wwl/data/kitti/data_object_image_2/training/train_lmdb
I0401 18:32:11.231572  3287 annotated_data_layer.cpp:62] output data size: 32,3,64,256
I0401 18:32:11.244866  3287 net.cpp:150] Setting up data
I0401 18:32:11.244894  3287 net.cpp:157] Top shape: 32 3 64 256 (1572864)
I0401 18:32:11.244899  3287 net.cpp:157] Top shape: 1 1 11 8 (88)
I0401 18:32:11.244901  3287 net.cpp:165] Memory required for data: 6291808
I0401 18:32:11.244906  3287 layer_factory.hpp:77] Creating layer data_data_0_split
I0401 18:32:11.244915  3287 net.cpp:100] Creating Layer data_data_0_split
I0401 18:32:11.244918  3287 net.cpp:434] data_data_0_split <- data
I0401 18:32:11.244925  3287 net.cpp:408] data_data_0_split -> data_data_0_split_0
I0401 18:32:11.244932  3287 net.cpp:408] data_data_0_split -> data_data_0_split_1
I0401 18:32:11.244937  3287 net.cpp:408] data_data_0_split -> data_data_0_split_2
I0401 18:32:11.244941  3287 net.cpp:408] data_data_0_split -> data_data_0_split_3
I0401 18:32:11.244946  3287 net.cpp:408] data_data_0_split -> data_data_0_split_4
I0401 18:32:11.244949  3287 net.cpp:408] data_data_0_split -> data_data_0_split_5
I0401 18:32:11.245064  3287 net.cpp:150] Setting up data_data_0_split
I0401 18:32:11.245070  3287 net.cpp:157] Top shape: 32 3 64 256 (1572864)
I0401 18:32:11.245074  3287 net.cpp:157] Top shape: 32 3 64 256 (1572864)
I0401 18:32:11.245077  3287 net.cpp:157] Top shape: 32 3 64 256 (1572864)
I0401 18:32:11.245080  3287 net.cpp:157] Top shape: 32 3 64 256 (1572864)
I0401 18:32:11.245082  3287 net.cpp:157] Top shape: 32 3 64 256 (1572864)
I0401 18:32:11.245085  3287 net.cpp:157] Top shape: 32 3 64 256 (1572864)
I0401 18:32:11.245088  3287 net.cpp:165] Memory required for data: 44040544
I0401 18:32:11.245090  3287 layer_factory.hpp:77] Creating layer conv1_1
I0401 18:32:11.245101  3287 net.cpp:100] Creating Layer conv1_1
I0401 18:32:11.245110  3287 net.cpp:434] conv1_1 <- data_data_0_split_0
I0401 18:32:11.245116  3287 net.cpp:408] conv1_1 -> conv1_1
I0401 18:32:11.247679  3287 net.cpp:150] Setting up conv1_1
I0401 18:32:11.247704  3287 net.cpp:157] Top shape: 32 16 64 256 (8388608)
I0401 18:32:11.247706  3287 net.cpp:165] Memory required for data: 77594976
I0401 18:32:11.247717  3287 layer_factory.hpp:77] Creating layer relu1_1
I0401 18:32:11.247725  3287 net.cpp:100] Creating Layer relu1_1
I0401 18:32:11.247727  3287 net.cpp:434] relu1_1 <- conv1_1
I0401 18:32:11.247733  3287 net.cpp:395] relu1_1 -> conv1_1 (in-place)
I0401 18:32:11.247740  3287 net.cpp:150] Setting up relu1_1
I0401 18:32:11.247745  3287 net.cpp:157] Top shape: 32 16 64 256 (8388608)
I0401 18:32:11.247746  3287 net.cpp:165] Memory required for data: 111149408
I0401 18:32:11.247750  3287 layer_factory.hpp:77] Creating layer conv1_2
I0401 18:32:11.247758  3287 net.cpp:100] Creating Layer conv1_2
I0401 18:32:11.247761  3287 net.cpp:434] conv1_2 <- conv1_1
I0401 18:32:11.247766  3287 net.cpp:408] conv1_2 -> conv1_2
I0401 18:32:11.248756  3287 net.cpp:150] Setting up conv1_2
I0401 18:32:11.248776  3287 net.cpp:157] Top shape: 32 16 32 128 (2097152)
I0401 18:32:11.248778  3287 net.cpp:165] Memory required for data: 119538016
I0401 18:32:11.248786  3287 layer_factory.hpp:77] Creating layer relu1_2
I0401 18:32:11.248793  3287 net.cpp:100] Creating Layer relu1_2
I0401 18:32:11.248796  3287 net.cpp:434] relu1_2 <- conv1_2
I0401 18:32:11.248801  3287 net.cpp:395] relu1_2 -> conv1_2 (in-place)
I0401 18:32:11.248808  3287 net.cpp:150] Setting up relu1_2
I0401 18:32:11.248811  3287 net.cpp:157] Top shape: 32 16 32 128 (2097152)
I0401 18:32:11.248814  3287 net.cpp:165] Memory required for data: 127926624
I0401 18:32:11.248816  3287 layer_factory.hpp:77] Creating layer conv2_1
I0401 18:32:11.248823  3287 net.cpp:100] Creating Layer conv2_1
I0401 18:32:11.248826  3287 net.cpp:434] conv2_1 <- conv1_2
I0401 18:32:11.248831  3287 net.cpp:408] conv2_1 -> conv2_1
I0401 18:32:11.249048  3287 net.cpp:150] Setting up conv2_1
I0401 18:32:11.249054  3287 net.cpp:157] Top shape: 32 32 32 128 (4194304)
I0401 18:32:11.249058  3287 net.cpp:165] Memory required for data: 144703840
I0401 18:32:11.249063  3287 layer_factory.hpp:77] Creating layer relu2_1
I0401 18:32:11.249066  3287 net.cpp:100] Creating Layer relu2_1
I0401 18:32:11.249068  3287 net.cpp:434] relu2_1 <- conv2_1
I0401 18:32:11.249073  3287 net.cpp:395] relu2_1 -> conv2_1 (in-place)
I0401 18:32:11.249075  3287 net.cpp:150] Setting up relu2_1
I0401 18:32:11.249079  3287 net.cpp:157] Top shape: 32 32 32 128 (4194304)
I0401 18:32:11.249081  3287 net.cpp:165] Memory required for data: 161481056
I0401 18:32:11.249083  3287 layer_factory.hpp:77] Creating layer conv2_2
I0401 18:32:11.249091  3287 net.cpp:100] Creating Layer conv2_2
I0401 18:32:11.249094  3287 net.cpp:434] conv2_2 <- conv2_1
I0401 18:32:11.249099  3287 net.cpp:408] conv2_2 -> conv2_2
I0401 18:32:11.249337  3287 net.cpp:150] Setting up conv2_2
I0401 18:32:11.249342  3287 net.cpp:157] Top shape: 32 32 16 64 (1048576)
I0401 18:32:11.249346  3287 net.cpp:165] Memory required for data: 165675360
I0401 18:32:11.249349  3287 layer_factory.hpp:77] Creating layer relu2_2
I0401 18:32:11.249353  3287 net.cpp:100] Creating Layer relu2_2
I0401 18:32:11.249356  3287 net.cpp:434] relu2_2 <- conv2_2
I0401 18:32:11.249359  3287 net.cpp:395] relu2_2 -> conv2_2 (in-place)
I0401 18:32:11.249363  3287 net.cpp:150] Setting up relu2_2
I0401 18:32:11.249366  3287 net.cpp:157] Top shape: 32 32 16 64 (1048576)
I0401 18:32:11.249369  3287 net.cpp:165] Memory required for data: 169869664
I0401 18:32:11.249372  3287 layer_factory.hpp:77] Creating layer conv3_1
I0401 18:32:11.249378  3287 net.cpp:100] Creating Layer conv3_1
I0401 18:32:11.249382  3287 net.cpp:434] conv3_1 <- conv2_2
I0401 18:32:11.249384  3287 net.cpp:408] conv3_1 -> conv3_1
I0401 18:32:11.250372  3287 net.cpp:150] Setting up conv3_1
I0401 18:32:11.250382  3287 net.cpp:157] Top shape: 32 64 16 64 (2097152)
I0401 18:32:11.250385  3287 net.cpp:165] Memory required for data: 178258272
I0401 18:32:11.250397  3287 layer_factory.hpp:77] Creating layer relu3_1
I0401 18:32:11.250401  3287 net.cpp:100] Creating Layer relu3_1
I0401 18:32:11.250404  3287 net.cpp:434] relu3_1 <- conv3_1
I0401 18:32:11.250409  3287 net.cpp:395] relu3_1 -> conv3_1 (in-place)
I0401 18:32:11.250414  3287 net.cpp:150] Setting up relu3_1
I0401 18:32:11.250418  3287 net.cpp:157] Top shape: 32 64 16 64 (2097152)
I0401 18:32:11.250421  3287 net.cpp:165] Memory required for data: 186646880
I0401 18:32:11.250423  3287 layer_factory.hpp:77] Creating layer conv3_2
I0401 18:32:11.250429  3287 net.cpp:100] Creating Layer conv3_2
I0401 18:32:11.250432  3287 net.cpp:434] conv3_2 <- conv3_1
I0401 18:32:11.250435  3287 net.cpp:408] conv3_2 -> conv3_2
I0401 18:32:11.250747  3287 net.cpp:150] Setting up conv3_2
I0401 18:32:11.250752  3287 net.cpp:157] Top shape: 32 64 16 64 (2097152)
I0401 18:32:11.250756  3287 net.cpp:165] Memory required for data: 195035488
I0401 18:32:11.250759  3287 layer_factory.hpp:77] Creating layer relu3_2
I0401 18:32:11.250762  3287 net.cpp:100] Creating Layer relu3_2
I0401 18:32:11.250766  3287 net.cpp:434] relu3_2 <- conv3_2
I0401 18:32:11.250768  3287 net.cpp:395] relu3_2 -> conv3_2 (in-place)
I0401 18:32:11.250772  3287 net.cpp:150] Setting up relu3_2
I0401 18:32:11.250777  3287 net.cpp:157] Top shape: 32 64 16 64 (2097152)
I0401 18:32:11.250778  3287 net.cpp:165] Memory required for data: 203424096
I0401 18:32:11.250782  3287 layer_factory.hpp:77] Creating layer conv3_3
I0401 18:32:11.250787  3287 net.cpp:100] Creating Layer conv3_3
I0401 18:32:11.250789  3287 net.cpp:434] conv3_3 <- conv3_2
I0401 18:32:11.250794  3287 net.cpp:408] conv3_3 -> conv3_3
I0401 18:32:11.251104  3287 net.cpp:150] Setting up conv3_3
I0401 18:32:11.251111  3287 net.cpp:157] Top shape: 32 64 16 64 (2097152)
I0401 18:32:11.251113  3287 net.cpp:165] Memory required for data: 211812704
I0401 18:32:11.251116  3287 layer_factory.hpp:77] Creating layer relu3_3
I0401 18:32:11.251121  3287 net.cpp:100] Creating Layer relu3_3
I0401 18:32:11.251123  3287 net.cpp:434] relu3_3 <- conv3_3
I0401 18:32:11.251127  3287 net.cpp:395] relu3_3 -> conv3_3 (in-place)
I0401 18:32:11.251130  3287 net.cpp:150] Setting up relu3_3
I0401 18:32:11.251133  3287 net.cpp:157] Top shape: 32 64 16 64 (2097152)
I0401 18:32:11.251137  3287 net.cpp:165] Memory required for data: 220201312
I0401 18:32:11.251138  3287 layer_factory.hpp:77] Creating layer pool3
I0401 18:32:11.251145  3287 net.cpp:100] Creating Layer pool3
I0401 18:32:11.251147  3287 net.cpp:434] pool3 <- conv3_3
I0401 18:32:11.251152  3287 net.cpp:408] pool3 -> pool3
I0401 18:32:11.251184  3287 net.cpp:150] Setting up pool3
I0401 18:32:11.251188  3287 net.cpp:157] Top shape: 32 64 8 32 (524288)
I0401 18:32:11.251191  3287 net.cpp:165] Memory required for data: 222298464
I0401 18:32:11.251194  3287 layer_factory.hpp:77] Creating layer conv4_1
I0401 18:32:11.251199  3287 net.cpp:100] Creating Layer conv4_1
I0401 18:32:11.251202  3287 net.cpp:434] conv4_1 <- pool3
I0401 18:32:11.251207  3287 net.cpp:408] conv4_1 -> conv4_1
I0401 18:32:11.252292  3287 net.cpp:150] Setting up conv4_1
I0401 18:32:11.252302  3287 net.cpp:157] Top shape: 32 128 8 32 (1048576)
I0401 18:32:11.252305  3287 net.cpp:165] Memory required for data: 226492768
I0401 18:32:11.252310  3287 layer_factory.hpp:77] Creating layer relu4_1
I0401 18:32:11.252313  3287 net.cpp:100] Creating Layer relu4_1
I0401 18:32:11.252316  3287 net.cpp:434] relu4_1 <- conv4_1
I0401 18:32:11.252321  3287 net.cpp:395] relu4_1 -> conv4_1 (in-place)
I0401 18:32:11.252324  3287 net.cpp:150] Setting up relu4_1
I0401 18:32:11.252328  3287 net.cpp:157] Top shape: 32 128 8 32 (1048576)
I0401 18:32:11.252331  3287 net.cpp:165] Memory required for data: 230687072
I0401 18:32:11.252333  3287 layer_factory.hpp:77] Creating layer conv4_2
I0401 18:32:11.252346  3287 net.cpp:100] Creating Layer conv4_2
I0401 18:32:11.252348  3287 net.cpp:434] conv4_2 <- conv4_1
I0401 18:32:11.252353  3287 net.cpp:408] conv4_2 -> conv4_2
I0401 18:32:11.252993  3287 net.cpp:150] Setting up conv4_2
I0401 18:32:11.252998  3287 net.cpp:157] Top shape: 32 128 8 32 (1048576)
I0401 18:32:11.253001  3287 net.cpp:165] Memory required for data: 234881376
I0401 18:32:11.253008  3287 layer_factory.hpp:77] Creating layer relu4_2
I0401 18:32:11.253012  3287 net.cpp:100] Creating Layer relu4_2
I0401 18:32:11.253015  3287 net.cpp:434] relu4_2 <- conv4_2
I0401 18:32:11.253018  3287 net.cpp:395] relu4_2 -> conv4_2 (in-place)
I0401 18:32:11.253022  3287 net.cpp:150] Setting up relu4_2
I0401 18:32:11.253026  3287 net.cpp:157] Top shape: 32 128 8 32 (1048576)
I0401 18:32:11.253028  3287 net.cpp:165] Memory required for data: 239075680
I0401 18:32:11.253031  3287 layer_factory.hpp:77] Creating layer conv4_3
I0401 18:32:11.253036  3287 net.cpp:100] Creating Layer conv4_3
I0401 18:32:11.253039  3287 net.cpp:434] conv4_3 <- conv4_2
I0401 18:32:11.253043  3287 net.cpp:408] conv4_3 -> conv4_3
I0401 18:32:11.253676  3287 net.cpp:150] Setting up conv4_3
I0401 18:32:11.253681  3287 net.cpp:157] Top shape: 32 128 8 32 (1048576)
I0401 18:32:11.253684  3287 net.cpp:165] Memory required for data: 243269984
I0401 18:32:11.253689  3287 layer_factory.hpp:77] Creating layer relu4_3
I0401 18:32:11.253692  3287 net.cpp:100] Creating Layer relu4_3
I0401 18:32:11.253695  3287 net.cpp:434] relu4_3 <- conv4_3
I0401 18:32:11.253698  3287 net.cpp:395] relu4_3 -> conv4_3 (in-place)
I0401 18:32:11.253702  3287 net.cpp:150] Setting up relu4_3
I0401 18:32:11.253705  3287 net.cpp:157] Top shape: 32 128 8 32 (1048576)
I0401 18:32:11.253708  3287 net.cpp:165] Memory required for data: 247464288
I0401 18:32:11.253710  3287 layer_factory.hpp:77] Creating layer conv4_3_relu4_3_0_split
I0401 18:32:11.253715  3287 net.cpp:100] Creating Layer conv4_3_relu4_3_0_split
I0401 18:32:11.253717  3287 net.cpp:434] conv4_3_relu4_3_0_split <- conv4_3
I0401 18:32:11.253721  3287 net.cpp:408] conv4_3_relu4_3_0_split -> conv4_3_relu4_3_0_split_0
I0401 18:32:11.253726  3287 net.cpp:408] conv4_3_relu4_3_0_split -> conv4_3_relu4_3_0_split_1
I0401 18:32:11.253751  3287 net.cpp:150] Setting up conv4_3_relu4_3_0_split
I0401 18:32:11.253756  3287 net.cpp:157] Top shape: 32 128 8 32 (1048576)
I0401 18:32:11.253758  3287 net.cpp:157] Top shape: 32 128 8 32 (1048576)
I0401 18:32:11.253760  3287 net.cpp:165] Memory required for data: 255852896
I0401 18:32:11.253762  3287 layer_factory.hpp:77] Creating layer pool4
I0401 18:32:11.253767  3287 net.cpp:100] Creating Layer pool4
I0401 18:32:11.253770  3287 net.cpp:434] pool4 <- conv4_3_relu4_3_0_split_0
I0401 18:32:11.253774  3287 net.cpp:408] pool4 -> pool4
I0401 18:32:11.253803  3287 net.cpp:150] Setting up pool4
I0401 18:32:11.253806  3287 net.cpp:157] Top shape: 32 128 4 16 (262144)
I0401 18:32:11.253809  3287 net.cpp:165] Memory required for data: 256901472
I0401 18:32:11.253811  3287 layer_factory.hpp:77] Creating layer conv5_1
I0401 18:32:11.253818  3287 net.cpp:100] Creating Layer conv5_1
I0401 18:32:11.253820  3287 net.cpp:434] conv5_1 <- pool4
I0401 18:32:11.253824  3287 net.cpp:408] conv5_1 -> conv5_1
I0401 18:32:11.254464  3287 net.cpp:150] Setting up conv5_1
I0401 18:32:11.254470  3287 net.cpp:157] Top shape: 32 128 4 16 (262144)
I0401 18:32:11.254473  3287 net.cpp:165] Memory required for data: 257950048
I0401 18:32:11.254477  3287 layer_factory.hpp:77] Creating layer relu5_1
I0401 18:32:11.254482  3287 net.cpp:100] Creating Layer relu5_1
I0401 18:32:11.254484  3287 net.cpp:434] relu5_1 <- conv5_1
I0401 18:32:11.254487  3287 net.cpp:395] relu5_1 -> conv5_1 (in-place)
I0401 18:32:11.254492  3287 net.cpp:150] Setting up relu5_1
I0401 18:32:11.254494  3287 net.cpp:157] Top shape: 32 128 4 16 (262144)
I0401 18:32:11.254497  3287 net.cpp:165] Memory required for data: 258998624
I0401 18:32:11.254499  3287 layer_factory.hpp:77] Creating layer conv5_2
I0401 18:32:11.254504  3287 net.cpp:100] Creating Layer conv5_2
I0401 18:32:11.254508  3287 net.cpp:434] conv5_2 <- conv5_1
I0401 18:32:11.254513  3287 net.cpp:408] conv5_2 -> conv5_2
I0401 18:32:11.257199  3287 net.cpp:150] Setting up conv5_2
I0401 18:32:11.257211  3287 net.cpp:157] Top shape: 32 128 4 16 (262144)
I0401 18:32:11.257215  3287 net.cpp:165] Memory required for data: 260047200
I0401 18:32:11.257220  3287 layer_factory.hpp:77] Creating layer relu5_2
I0401 18:32:11.257223  3287 net.cpp:100] Creating Layer relu5_2
I0401 18:32:11.257226  3287 net.cpp:434] relu5_2 <- conv5_2
I0401 18:32:11.257230  3287 net.cpp:395] relu5_2 -> conv5_2 (in-place)
I0401 18:32:11.257235  3287 net.cpp:150] Setting up relu5_2
I0401 18:32:11.257238  3287 net.cpp:157] Top shape: 32 128 4 16 (262144)
I0401 18:32:11.257241  3287 net.cpp:165] Memory required for data: 261095776
I0401 18:32:11.257242  3287 layer_factory.hpp:77] Creating layer conv5_3
I0401 18:32:11.257248  3287 net.cpp:100] Creating Layer conv5_3
I0401 18:32:11.257251  3287 net.cpp:434] conv5_3 <- conv5_2
I0401 18:32:11.257256  3287 net.cpp:408] conv5_3 -> conv5_3
I0401 18:32:11.257925  3287 net.cpp:150] Setting up conv5_3
I0401 18:32:11.257933  3287 net.cpp:157] Top shape: 32 128 4 16 (262144)
I0401 18:32:11.257936  3287 net.cpp:165] Memory required for data: 262144352
I0401 18:32:11.257941  3287 layer_factory.hpp:77] Creating layer relu5_3
I0401 18:32:11.257946  3287 net.cpp:100] Creating Layer relu5_3
I0401 18:32:11.257948  3287 net.cpp:434] relu5_3 <- conv5_3
I0401 18:32:11.257951  3287 net.cpp:395] relu5_3 -> conv5_3 (in-place)
I0401 18:32:11.257956  3287 net.cpp:150] Setting up relu5_3
I0401 18:32:11.257959  3287 net.cpp:157] Top shape: 32 128 4 16 (262144)
I0401 18:32:11.257962  3287 net.cpp:165] Memory required for data: 263192928
I0401 18:32:11.257964  3287 layer_factory.hpp:77] Creating layer pool5
I0401 18:32:11.257968  3287 net.cpp:100] Creating Layer pool5
I0401 18:32:11.257972  3287 net.cpp:434] pool5 <- conv5_3
I0401 18:32:11.257975  3287 net.cpp:408] pool5 -> pool5
I0401 18:32:11.258008  3287 net.cpp:150] Setting up pool5
I0401 18:32:11.258011  3287 net.cpp:157] Top shape: 32 128 4 16 (262144)
I0401 18:32:11.258014  3287 net.cpp:165] Memory required for data: 264241504
I0401 18:32:11.258016  3287 layer_factory.hpp:77] Creating layer fc6_conv
I0401 18:32:11.258024  3287 net.cpp:100] Creating Layer fc6_conv
I0401 18:32:11.258028  3287 net.cpp:434] fc6_conv <- pool5
I0401 18:32:11.258033  3287 net.cpp:408] fc6_conv -> fc6_conv
I0401 18:32:11.259822  3287 net.cpp:150] Setting up fc6_conv
I0401 18:32:11.259838  3287 net.cpp:157] Top shape: 32 256 4 16 (524288)
I0401 18:32:11.259843  3287 net.cpp:165] Memory required for data: 266338656
I0401 18:32:11.259850  3287 layer_factory.hpp:77] Creating layer relu6
I0401 18:32:11.259855  3287 net.cpp:100] Creating Layer relu6
I0401 18:32:11.259857  3287 net.cpp:434] relu6 <- fc6_conv
I0401 18:32:11.259860  3287 net.cpp:395] relu6 -> fc6_conv (in-place)
I0401 18:32:11.259866  3287 net.cpp:150] Setting up relu6
I0401 18:32:11.259869  3287 net.cpp:157] Top shape: 32 256 4 16 (524288)
I0401 18:32:11.259872  3287 net.cpp:165] Memory required for data: 268435808
I0401 18:32:11.259874  3287 layer_factory.hpp:77] Creating layer fc7_conv
I0401 18:32:11.259881  3287 net.cpp:100] Creating Layer fc7_conv
I0401 18:32:11.259883  3287 net.cpp:434] fc7_conv <- fc6_conv
I0401 18:32:11.259888  3287 net.cpp:408] fc7_conv -> fc7_conv
I0401 18:32:11.260303  3287 net.cpp:150] Setting up fc7_conv
I0401 18:32:11.260308  3287 net.cpp:157] Top shape: 32 256 4 16 (524288)
I0401 18:32:11.260311  3287 net.cpp:165] Memory required for data: 270532960
I0401 18:32:11.260315  3287 layer_factory.hpp:77] Creating layer relu7
I0401 18:32:11.260318  3287 net.cpp:100] Creating Layer relu7
I0401 18:32:11.260321  3287 net.cpp:434] relu7 <- fc7_conv
I0401 18:32:11.260325  3287 net.cpp:395] relu7 -> fc7_conv (in-place)
I0401 18:32:11.260329  3287 net.cpp:150] Setting up relu7
I0401 18:32:11.260332  3287 net.cpp:157] Top shape: 32 256 4 16 (524288)
I0401 18:32:11.260335  3287 net.cpp:165] Memory required for data: 272630112
I0401 18:32:11.260344  3287 layer_factory.hpp:77] Creating layer fc7_conv_relu7_0_split
I0401 18:32:11.260347  3287 net.cpp:100] Creating Layer fc7_conv_relu7_0_split
I0401 18:32:11.260350  3287 net.cpp:434] fc7_conv_relu7_0_split <- fc7_conv
I0401 18:32:11.260357  3287 net.cpp:408] fc7_conv_relu7_0_split -> fc7_conv_relu7_0_split_0
I0401 18:32:11.260362  3287 net.cpp:408] fc7_conv_relu7_0_split -> fc7_conv_relu7_0_split_1
I0401 18:32:11.260367  3287 net.cpp:408] fc7_conv_relu7_0_split -> fc7_conv_relu7_0_split_2
I0401 18:32:11.260411  3287 net.cpp:150] Setting up fc7_conv_relu7_0_split
I0401 18:32:11.260416  3287 net.cpp:157] Top shape: 32 256 4 16 (524288)
I0401 18:32:11.260418  3287 net.cpp:157] Top shape: 32 256 4 16 (524288)
I0401 18:32:11.260421  3287 net.cpp:157] Top shape: 32 256 4 16 (524288)
I0401 18:32:11.260424  3287 net.cpp:165] Memory required for data: 278921568
I0401 18:32:11.260426  3287 layer_factory.hpp:77] Creating layer conv6_1
I0401 18:32:11.260432  3287 net.cpp:100] Creating Layer conv6_1
I0401 18:32:11.260435  3287 net.cpp:434] conv6_1 <- fc7_conv_relu7_0_split_0
I0401 18:32:11.260440  3287 net.cpp:408] conv6_1 -> conv6_1
I0401 18:32:11.260682  3287 net.cpp:150] Setting up conv6_1
I0401 18:32:11.260687  3287 net.cpp:157] Top shape: 32 32 4 16 (65536)
I0401 18:32:11.260689  3287 net.cpp:165] Memory required for data: 279183712
I0401 18:32:11.260694  3287 layer_factory.hpp:77] Creating layer conv6_1_relu
I0401 18:32:11.260697  3287 net.cpp:100] Creating Layer conv6_1_relu
I0401 18:32:11.260700  3287 net.cpp:434] conv6_1_relu <- conv6_1
I0401 18:32:11.260704  3287 net.cpp:395] conv6_1_relu -> conv6_1 (in-place)
I0401 18:32:11.260709  3287 net.cpp:150] Setting up conv6_1_relu
I0401 18:32:11.260712  3287 net.cpp:157] Top shape: 32 32 4 16 (65536)
I0401 18:32:11.260715  3287 net.cpp:165] Memory required for data: 279445856
I0401 18:32:11.260716  3287 layer_factory.hpp:77] Creating layer conv6_2
I0401 18:32:11.260721  3287 net.cpp:100] Creating Layer conv6_2
I0401 18:32:11.260725  3287 net.cpp:434] conv6_2 <- conv6_1
I0401 18:32:11.260728  3287 net.cpp:408] conv6_2 -> conv6_2
I0401 18:32:11.261003  3287 net.cpp:150] Setting up conv6_2
I0401 18:32:11.261010  3287 net.cpp:157] Top shape: 32 64 2 8 (32768)
I0401 18:32:11.261013  3287 net.cpp:165] Memory required for data: 279576928
I0401 18:32:11.261019  3287 layer_factory.hpp:77] Creating layer conv6_2_relu
I0401 18:32:11.261023  3287 net.cpp:100] Creating Layer conv6_2_relu
I0401 18:32:11.261026  3287 net.cpp:434] conv6_2_relu <- conv6_2
I0401 18:32:11.261029  3287 net.cpp:395] conv6_2_relu -> conv6_2 (in-place)
I0401 18:32:11.261034  3287 net.cpp:150] Setting up conv6_2_relu
I0401 18:32:11.261037  3287 net.cpp:157] Top shape: 32 64 2 8 (32768)
I0401 18:32:11.261039  3287 net.cpp:165] Memory required for data: 279708000
I0401 18:32:11.261041  3287 layer_factory.hpp:77] Creating layer conv6_2_conv6_2_relu_0_split
I0401 18:32:11.261045  3287 net.cpp:100] Creating Layer conv6_2_conv6_2_relu_0_split
I0401 18:32:11.261047  3287 net.cpp:434] conv6_2_conv6_2_relu_0_split <- conv6_2
I0401 18:32:11.261051  3287 net.cpp:408] conv6_2_conv6_2_relu_0_split -> conv6_2_conv6_2_relu_0_split_0
I0401 18:32:11.261056  3287 net.cpp:408] conv6_2_conv6_2_relu_0_split -> conv6_2_conv6_2_relu_0_split_1
I0401 18:32:11.261060  3287 net.cpp:408] conv6_2_conv6_2_relu_0_split -> conv6_2_conv6_2_relu_0_split_2
I0401 18:32:11.261103  3287 net.cpp:150] Setting up conv6_2_conv6_2_relu_0_split
I0401 18:32:11.261107  3287 net.cpp:157] Top shape: 32 64 2 8 (32768)
I0401 18:32:11.261111  3287 net.cpp:157] Top shape: 32 64 2 8 (32768)
I0401 18:32:11.261113  3287 net.cpp:157] Top shape: 32 64 2 8 (32768)
I0401 18:32:11.261116  3287 net.cpp:165] Memory required for data: 280101216
I0401 18:32:11.261118  3287 layer_factory.hpp:77] Creating layer conv7_1
I0401 18:32:11.261124  3287 net.cpp:100] Creating Layer conv7_1
I0401 18:32:11.261127  3287 net.cpp:434] conv7_1 <- conv6_2_conv6_2_relu_0_split_0
I0401 18:32:11.261132  3287 net.cpp:408] conv7_1 -> conv7_1
I0401 18:32:11.261342  3287 net.cpp:150] Setting up conv7_1
I0401 18:32:11.261346  3287 net.cpp:157] Top shape: 32 16 2 8 (8192)
I0401 18:32:11.261348  3287 net.cpp:165] Memory required for data: 280133984
I0401 18:32:11.261353  3287 layer_factory.hpp:77] Creating layer conv7_1_relu
I0401 18:32:11.261358  3287 net.cpp:100] Creating Layer conv7_1_relu
I0401 18:32:11.261363  3287 net.cpp:434] conv7_1_relu <- conv7_1
I0401 18:32:11.261366  3287 net.cpp:395] conv7_1_relu -> conv7_1 (in-place)
I0401 18:32:11.261370  3287 net.cpp:150] Setting up conv7_1_relu
I0401 18:32:11.261373  3287 net.cpp:157] Top shape: 32 16 2 8 (8192)
I0401 18:32:11.261376  3287 net.cpp:165] Memory required for data: 280166752
I0401 18:32:11.261379  3287 layer_factory.hpp:77] Creating layer conv7_2
I0401 18:32:11.261384  3287 net.cpp:100] Creating Layer conv7_2
I0401 18:32:11.261387  3287 net.cpp:434] conv7_2 <- conv7_1
I0401 18:32:11.261390  3287 net.cpp:408] conv7_2 -> conv7_2
I0401 18:32:11.261612  3287 net.cpp:150] Setting up conv7_2
I0401 18:32:11.261617  3287 net.cpp:157] Top shape: 32 32 1 4 (4096)
I0401 18:32:11.261620  3287 net.cpp:165] Memory required for data: 280183136
I0401 18:32:11.261623  3287 layer_factory.hpp:77] Creating layer conv7_2_relu
I0401 18:32:11.261627  3287 net.cpp:100] Creating Layer conv7_2_relu
I0401 18:32:11.261629  3287 net.cpp:434] conv7_2_relu <- conv7_2
I0401 18:32:11.261634  3287 net.cpp:395] conv7_2_relu -> conv7_2 (in-place)
I0401 18:32:11.261637  3287 net.cpp:150] Setting up conv7_2_relu
I0401 18:32:11.261641  3287 net.cpp:157] Top shape: 32 32 1 4 (4096)
I0401 18:32:11.261643  3287 net.cpp:165] Memory required for data: 280199520
I0401 18:32:11.261646  3287 layer_factory.hpp:77] Creating layer conv7_2_conv7_2_relu_0_split
I0401 18:32:11.261649  3287 net.cpp:100] Creating Layer conv7_2_conv7_2_relu_0_split
I0401 18:32:11.261651  3287 net.cpp:434] conv7_2_conv7_2_relu_0_split <- conv7_2
I0401 18:32:11.261656  3287 net.cpp:408] conv7_2_conv7_2_relu_0_split -> conv7_2_conv7_2_relu_0_split_0
I0401 18:32:11.261660  3287 net.cpp:408] conv7_2_conv7_2_relu_0_split -> conv7_2_conv7_2_relu_0_split_1
I0401 18:32:11.261664  3287 net.cpp:408] conv7_2_conv7_2_relu_0_split -> conv7_2_conv7_2_relu_0_split_2
I0401 18:32:11.261704  3287 net.cpp:150] Setting up conv7_2_conv7_2_relu_0_split
I0401 18:32:11.261709  3287 net.cpp:157] Top shape: 32 32 1 4 (4096)
I0401 18:32:11.261713  3287 net.cpp:157] Top shape: 32 32 1 4 (4096)
I0401 18:32:11.261715  3287 net.cpp:157] Top shape: 32 32 1 4 (4096)
I0401 18:32:11.261718  3287 net.cpp:165] Memory required for data: 280248672
I0401 18:32:11.261720  3287 layer_factory.hpp:77] Creating layer pool6
I0401 18:32:11.261724  3287 net.cpp:100] Creating Layer pool6
I0401 18:32:11.261728  3287 net.cpp:434] pool6 <- conv7_2_conv7_2_relu_0_split_0
I0401 18:32:11.261731  3287 net.cpp:408] pool6 -> pool6
I0401 18:32:11.261750  3287 net.cpp:150] Setting up pool6
I0401 18:32:11.261754  3287 net.cpp:157] Top shape: 32 32 1 1 (1024)
I0401 18:32:11.261757  3287 net.cpp:165] Memory required for data: 280252768
I0401 18:32:11.261759  3287 layer_factory.hpp:77] Creating layer pool6_pool6_0_split
I0401 18:32:11.261765  3287 net.cpp:100] Creating Layer pool6_pool6_0_split
I0401 18:32:11.261767  3287 net.cpp:434] pool6_pool6_0_split <- pool6
I0401 18:32:11.261771  3287 net.cpp:408] pool6_pool6_0_split -> pool6_pool6_0_split_0
I0401 18:32:11.261775  3287 net.cpp:408] pool6_pool6_0_split -> pool6_pool6_0_split_1
I0401 18:32:11.261803  3287 net.cpp:150] Setting up pool6_pool6_0_split
I0401 18:32:11.261808  3287 net.cpp:157] Top shape: 32 32 1 1 (1024)
I0401 18:32:11.261811  3287 net.cpp:157] Top shape: 32 32 1 1 (1024)
I0401 18:32:11.261813  3287 net.cpp:165] Memory required for data: 280260960
I0401 18:32:11.261816  3287 layer_factory.hpp:77] Creating layer conv4_3_norm
I0401 18:32:11.261822  3287 net.cpp:100] Creating Layer conv4_3_norm
I0401 18:32:11.261826  3287 net.cpp:434] conv4_3_norm <- conv4_3_relu4_3_0_split_1
I0401 18:32:11.261829  3287 net.cpp:408] conv4_3_norm -> conv4_3_norm
I0401 18:32:11.261940  3287 net.cpp:150] Setting up conv4_3_norm
I0401 18:32:11.261945  3287 net.cpp:157] Top shape: 32 128 8 32 (1048576)
I0401 18:32:11.261947  3287 net.cpp:165] Memory required for data: 284455264
I0401 18:32:11.261951  3287 layer_factory.hpp:77] Creating layer conv4_3_norm_conv4_3_norm_0_split
I0401 18:32:11.261957  3287 net.cpp:100] Creating Layer conv4_3_norm_conv4_3_norm_0_split
I0401 18:32:11.261960  3287 net.cpp:434] conv4_3_norm_conv4_3_norm_0_split <- conv4_3_norm
I0401 18:32:11.261965  3287 net.cpp:408] conv4_3_norm_conv4_3_norm_0_split -> conv4_3_norm_conv4_3_norm_0_split_0
I0401 18:32:11.261970  3287 net.cpp:408] conv4_3_norm_conv4_3_norm_0_split -> conv4_3_norm_conv4_3_norm_0_split_1
I0401 18:32:11.261998  3287 net.cpp:150] Setting up conv4_3_norm_conv4_3_norm_0_split
I0401 18:32:11.262003  3287 net.cpp:157] Top shape: 32 128 8 32 (1048576)
I0401 18:32:11.262006  3287 net.cpp:157] Top shape: 32 128 8 32 (1048576)
I0401 18:32:11.262008  3287 net.cpp:165] Memory required for data: 292843872
I0401 18:32:11.262012  3287 layer_factory.hpp:77] Creating layer conv4_3_norm_mbox_loc_conf
I0401 18:32:11.262017  3287 net.cpp:100] Creating Layer conv4_3_norm_mbox_loc_conf
I0401 18:32:11.262020  3287 net.cpp:434] conv4_3_norm_mbox_loc_conf <- conv4_3_norm_conv4_3_norm_0_split_0
I0401 18:32:11.262024  3287 net.cpp:408] conv4_3_norm_mbox_loc_conf -> conv4_3_norm_mbox_loc_conf
I0401 18:32:11.262408  3287 net.cpp:150] Setting up conv4_3_norm_mbox_loc_conf
I0401 18:32:11.262413  3287 net.cpp:157] Top shape: 32 48 8 32 (393216)
I0401 18:32:11.262415  3287 net.cpp:165] Memory required for data: 294416736
I0401 18:32:11.262419  3287 layer_factory.hpp:77] Creating layer conv4_3_norm_mbox_loc_conf_perm
I0401 18:32:11.262424  3287 net.cpp:100] Creating Layer conv4_3_norm_mbox_loc_conf_perm
I0401 18:32:11.262428  3287 net.cpp:434] conv4_3_norm_mbox_loc_conf_perm <- conv4_3_norm_mbox_loc_conf
I0401 18:32:11.262431  3287 net.cpp:408] conv4_3_norm_mbox_loc_conf_perm -> conv4_3_norm_mbox_loc_conf_perm
I0401 18:32:11.262512  3287 net.cpp:150] Setting up conv4_3_norm_mbox_loc_conf_perm
I0401 18:32:11.262517  3287 net.cpp:157] Top shape: 32 8 32 48 (393216)
I0401 18:32:11.262521  3287 net.cpp:165] Memory required for data: 295989600
I0401 18:32:11.262522  3287 layer_factory.hpp:77] Creating layer conv4_3_norm_mbox_loc_perm
I0401 18:32:11.262526  3287 net.cpp:100] Creating Layer conv4_3_norm_mbox_loc_perm
I0401 18:32:11.262529  3287 net.cpp:434] conv4_3_norm_mbox_loc_perm <- conv4_3_norm_mbox_loc_conf_perm
I0401 18:32:11.262533  3287 net.cpp:408] conv4_3_norm_mbox_loc_perm -> conv4_3_norm_mbox_loc_perm
I0401 18:32:11.262538  3287 net.cpp:408] conv4_3_norm_mbox_loc_perm -> conv4_3_norm_mbox_conf_perm
I0401 18:32:11.262567  3287 net.cpp:150] Setting up conv4_3_norm_mbox_loc_perm
I0401 18:32:11.262572  3287 net.cpp:157] Top shape: 32 8 32 24 (196608)
I0401 18:32:11.262574  3287 net.cpp:157] Top shape: 32 8 32 24 (196608)
I0401 18:32:11.262576  3287 net.cpp:165] Memory required for data: 297562464
I0401 18:32:11.262578  3287 layer_factory.hpp:77] Creating layer conv4_3_norm_mbox_loc_flat
I0401 18:32:11.262583  3287 net.cpp:100] Creating Layer conv4_3_norm_mbox_loc_flat
I0401 18:32:11.262585  3287 net.cpp:434] conv4_3_norm_mbox_loc_flat <- conv4_3_norm_mbox_loc_perm
I0401 18:32:11.262589  3287 net.cpp:408] conv4_3_norm_mbox_loc_flat -> conv4_3_norm_mbox_loc_flat
I0401 18:32:11.262608  3287 net.cpp:150] Setting up conv4_3_norm_mbox_loc_flat
I0401 18:32:11.262611  3287 net.cpp:157] Top shape: 32 6144 (196608)
I0401 18:32:11.262614  3287 net.cpp:165] Memory required for data: 298348896
I0401 18:32:11.262616  3287 layer_factory.hpp:77] Creating layer conv4_3_norm_mbox_conf_flat
I0401 18:32:11.262619  3287 net.cpp:100] Creating Layer conv4_3_norm_mbox_conf_flat
I0401 18:32:11.262622  3287 net.cpp:434] conv4_3_norm_mbox_conf_flat <- conv4_3_norm_mbox_conf_perm
I0401 18:32:11.262626  3287 net.cpp:408] conv4_3_norm_mbox_conf_flat -> conv4_3_norm_mbox_conf_flat
I0401 18:32:11.262646  3287 net.cpp:150] Setting up conv4_3_norm_mbox_conf_flat
I0401 18:32:11.262650  3287 net.cpp:157] Top shape: 32 6144 (196608)
I0401 18:32:11.262652  3287 net.cpp:165] Memory required for data: 299135328
I0401 18:32:11.262655  3287 layer_factory.hpp:77] Creating layer conv4_3_norm_mbox_priorbox
I0401 18:32:11.262662  3287 net.cpp:100] Creating Layer conv4_3_norm_mbox_priorbox
I0401 18:32:11.262665  3287 net.cpp:434] conv4_3_norm_mbox_priorbox <- conv4_3_norm_conv4_3_norm_0_split_1
I0401 18:32:11.262670  3287 net.cpp:434] conv4_3_norm_mbox_priorbox <- data_data_0_split_1
I0401 18:32:11.262672  3287 net.cpp:408] conv4_3_norm_mbox_priorbox -> conv4_3_norm_mbox_priorbox
I0401 18:32:11.262693  3287 net.cpp:150] Setting up conv4_3_norm_mbox_priorbox
I0401 18:32:11.262697  3287 net.cpp:157] Top shape: 1 2 6144 (12288)
I0401 18:32:11.262701  3287 net.cpp:165] Memory required for data: 299184480
I0401 18:32:11.262702  3287 layer_factory.hpp:77] Creating layer fc7_conv_mbox_loc_conf
I0401 18:32:11.262708  3287 net.cpp:100] Creating Layer fc7_conv_mbox_loc_conf
I0401 18:32:11.262712  3287 net.cpp:434] fc7_conv_mbox_loc_conf <- fc7_conv_relu7_0_split_1
I0401 18:32:11.262717  3287 net.cpp:408] fc7_conv_mbox_loc_conf -> fc7_conv_mbox_loc_conf
I0401 18:32:11.263264  3287 net.cpp:150] Setting up fc7_conv_mbox_loc_conf
I0401 18:32:11.263270  3287 net.cpp:157] Top shape: 32 48 4 16 (98304)
I0401 18:32:11.263273  3287 net.cpp:165] Memory required for data: 299577696
I0401 18:32:11.263278  3287 layer_factory.hpp:77] Creating layer fc7_conv_mbox_loc_conf_perm
I0401 18:32:11.263281  3287 net.cpp:100] Creating Layer fc7_conv_mbox_loc_conf_perm
I0401 18:32:11.263284  3287 net.cpp:434] fc7_conv_mbox_loc_conf_perm <- fc7_conv_mbox_loc_conf
I0401 18:32:11.263288  3287 net.cpp:408] fc7_conv_mbox_loc_conf_perm -> fc7_conv_mbox_loc_conf_perm
I0401 18:32:11.263370  3287 net.cpp:150] Setting up fc7_conv_mbox_loc_conf_perm
I0401 18:32:11.263375  3287 net.cpp:157] Top shape: 32 4 16 48 (98304)
I0401 18:32:11.263377  3287 net.cpp:165] Memory required for data: 299970912
I0401 18:32:11.263381  3287 layer_factory.hpp:77] Creating layer fc7_conv_mbox_loc_perm
I0401 18:32:11.263384  3287 net.cpp:100] Creating Layer fc7_conv_mbox_loc_perm
I0401 18:32:11.263387  3287 net.cpp:434] fc7_conv_mbox_loc_perm <- fc7_conv_mbox_loc_conf_perm
I0401 18:32:11.263392  3287 net.cpp:408] fc7_conv_mbox_loc_perm -> fc7_conv_mbox_loc_perm
I0401 18:32:11.263396  3287 net.cpp:408] fc7_conv_mbox_loc_perm -> fc7_conv_mbox_conf_perm
I0401 18:32:11.263423  3287 net.cpp:150] Setting up fc7_conv_mbox_loc_perm
I0401 18:32:11.263428  3287 net.cpp:157] Top shape: 32 4 16 24 (49152)
I0401 18:32:11.263432  3287 net.cpp:157] Top shape: 32 4 16 24 (49152)
I0401 18:32:11.263434  3287 net.cpp:165] Memory required for data: 300364128
I0401 18:32:11.263437  3287 layer_factory.hpp:77] Creating layer fc7_conv_mbox_loc_flat
I0401 18:32:11.263440  3287 net.cpp:100] Creating Layer fc7_conv_mbox_loc_flat
I0401 18:32:11.263443  3287 net.cpp:434] fc7_conv_mbox_loc_flat <- fc7_conv_mbox_loc_perm
I0401 18:32:11.263447  3287 net.cpp:408] fc7_conv_mbox_loc_flat -> fc7_conv_mbox_loc_flat
I0401 18:32:11.263464  3287 net.cpp:150] Setting up fc7_conv_mbox_loc_flat
I0401 18:32:11.263468  3287 net.cpp:157] Top shape: 32 1536 (49152)
I0401 18:32:11.263471  3287 net.cpp:165] Memory required for data: 300560736
I0401 18:32:11.263473  3287 layer_factory.hpp:77] Creating layer fc7_conv_mbox_conf_flat
I0401 18:32:11.263478  3287 net.cpp:100] Creating Layer fc7_conv_mbox_conf_flat
I0401 18:32:11.263480  3287 net.cpp:434] fc7_conv_mbox_conf_flat <- fc7_conv_mbox_conf_perm
I0401 18:32:11.263484  3287 net.cpp:408] fc7_conv_mbox_conf_flat -> fc7_conv_mbox_conf_flat
I0401 18:32:11.263502  3287 net.cpp:150] Setting up fc7_conv_mbox_conf_flat
I0401 18:32:11.263506  3287 net.cpp:157] Top shape: 32 1536 (49152)
I0401 18:32:11.263509  3287 net.cpp:165] Memory required for data: 300757344
I0401 18:32:11.263511  3287 layer_factory.hpp:77] Creating layer fc7_conv_mbox_priorbox
I0401 18:32:11.263515  3287 net.cpp:100] Creating Layer fc7_conv_mbox_priorbox
I0401 18:32:11.263519  3287 net.cpp:434] fc7_conv_mbox_priorbox <- fc7_conv_relu7_0_split_2
I0401 18:32:11.263521  3287 net.cpp:434] fc7_conv_mbox_priorbox <- data_data_0_split_2
I0401 18:32:11.263525  3287 net.cpp:408] fc7_conv_mbox_priorbox -> fc7_conv_mbox_priorbox
I0401 18:32:11.263543  3287 net.cpp:150] Setting up fc7_conv_mbox_priorbox
I0401 18:32:11.263550  3287 net.cpp:157] Top shape: 1 2 1536 (3072)
I0401 18:32:11.263553  3287 net.cpp:165] Memory required for data: 300769632
I0401 18:32:11.263556  3287 layer_factory.hpp:77] Creating layer conv6_2_mbox_loc_conf
I0401 18:32:11.263561  3287 net.cpp:100] Creating Layer conv6_2_mbox_loc_conf
I0401 18:32:11.263564  3287 net.cpp:434] conv6_2_mbox_loc_conf <- conv6_2_conv6_2_relu_0_split_1
I0401 18:32:11.263568  3287 net.cpp:408] conv6_2_mbox_loc_conf -> conv6_2_mbox_loc_conf
I0401 18:32:11.263856  3287 net.cpp:150] Setting up conv6_2_mbox_loc_conf
I0401 18:32:11.263862  3287 net.cpp:157] Top shape: 32 48 2 8 (24576)
I0401 18:32:11.263864  3287 net.cpp:165] Memory required for data: 300867936
I0401 18:32:11.263869  3287 layer_factory.hpp:77] Creating layer conv6_2_mbox_loc_conf_perm
I0401 18:32:11.263876  3287 net.cpp:100] Creating Layer conv6_2_mbox_loc_conf_perm
I0401 18:32:11.263880  3287 net.cpp:434] conv6_2_mbox_loc_conf_perm <- conv6_2_mbox_loc_conf
I0401 18:32:11.263885  3287 net.cpp:408] conv6_2_mbox_loc_conf_perm -> conv6_2_mbox_loc_conf_perm
I0401 18:32:11.263972  3287 net.cpp:150] Setting up conv6_2_mbox_loc_conf_perm
I0401 18:32:11.263977  3287 net.cpp:157] Top shape: 32 2 8 48 (24576)
I0401 18:32:11.263978  3287 net.cpp:165] Memory required for data: 300966240
I0401 18:32:11.263981  3287 layer_factory.hpp:77] Creating layer conv6_2_mbox_loc_perm
I0401 18:32:11.263984  3287 net.cpp:100] Creating Layer conv6_2_mbox_loc_perm
I0401 18:32:11.263988  3287 net.cpp:434] conv6_2_mbox_loc_perm <- conv6_2_mbox_loc_conf_perm
I0401 18:32:11.263993  3287 net.cpp:408] conv6_2_mbox_loc_perm -> conv6_2_mbox_loc_perm
I0401 18:32:11.263996  3287 net.cpp:408] conv6_2_mbox_loc_perm -> conv6_2_mbox_conf_perm
I0401 18:32:11.264026  3287 net.cpp:150] Setting up conv6_2_mbox_loc_perm
I0401 18:32:11.264031  3287 net.cpp:157] Top shape: 32 2 8 24 (12288)
I0401 18:32:11.264034  3287 net.cpp:157] Top shape: 32 2 8 24 (12288)
I0401 18:32:11.264036  3287 net.cpp:165] Memory required for data: 301064544
I0401 18:32:11.264039  3287 layer_factory.hpp:77] Creating layer conv6_2_mbox_loc_flat
I0401 18:32:11.264044  3287 net.cpp:100] Creating Layer conv6_2_mbox_loc_flat
I0401 18:32:11.264045  3287 net.cpp:434] conv6_2_mbox_loc_flat <- conv6_2_mbox_loc_perm
I0401 18:32:11.264050  3287 net.cpp:408] conv6_2_mbox_loc_flat -> conv6_2_mbox_loc_flat
I0401 18:32:11.264068  3287 net.cpp:150] Setting up conv6_2_mbox_loc_flat
I0401 18:32:11.264073  3287 net.cpp:157] Top shape: 32 384 (12288)
I0401 18:32:11.264075  3287 net.cpp:165] Memory required for data: 301113696
I0401 18:32:11.264077  3287 layer_factory.hpp:77] Creating layer conv6_2_mbox_conf_flat
I0401 18:32:11.264081  3287 net.cpp:100] Creating Layer conv6_2_mbox_conf_flat
I0401 18:32:11.264083  3287 net.cpp:434] conv6_2_mbox_conf_flat <- conv6_2_mbox_conf_perm
I0401 18:32:11.264088  3287 net.cpp:408] conv6_2_mbox_conf_flat -> conv6_2_mbox_conf_flat
I0401 18:32:11.264106  3287 net.cpp:150] Setting up conv6_2_mbox_conf_flat
I0401 18:32:11.264111  3287 net.cpp:157] Top shape: 32 384 (12288)
I0401 18:32:11.264112  3287 net.cpp:165] Memory required for data: 301162848
I0401 18:32:11.264116  3287 layer_factory.hpp:77] Creating layer conv6_2_mbox_priorbox
I0401 18:32:11.264120  3287 net.cpp:100] Creating Layer conv6_2_mbox_priorbox
I0401 18:32:11.264122  3287 net.cpp:434] conv6_2_mbox_priorbox <- conv6_2_conv6_2_relu_0_split_2
I0401 18:32:11.264127  3287 net.cpp:434] conv6_2_mbox_priorbox <- data_data_0_split_3
I0401 18:32:11.264130  3287 net.cpp:408] conv6_2_mbox_priorbox -> conv6_2_mbox_priorbox
I0401 18:32:11.264149  3287 net.cpp:150] Setting up conv6_2_mbox_priorbox
I0401 18:32:11.264153  3287 net.cpp:157] Top shape: 1 2 384 (768)
I0401 18:32:11.264155  3287 net.cpp:165] Memory required for data: 301165920
I0401 18:32:11.264158  3287 layer_factory.hpp:77] Creating layer conv7_2_mbox_loc_conf
I0401 18:32:11.264163  3287 net.cpp:100] Creating Layer conv7_2_mbox_loc_conf
I0401 18:32:11.264166  3287 net.cpp:434] conv7_2_mbox_loc_conf <- conv7_2_conv7_2_relu_0_split_1
I0401 18:32:11.264174  3287 net.cpp:408] conv7_2_mbox_loc_conf -> conv7_2_mbox_loc_conf
I0401 18:32:11.264425  3287 net.cpp:150] Setting up conv7_2_mbox_loc_conf
I0401 18:32:11.264431  3287 net.cpp:157] Top shape: 32 48 1 4 (6144)
I0401 18:32:11.264434  3287 net.cpp:165] Memory required for data: 301190496
I0401 18:32:11.264438  3287 layer_factory.hpp:77] Creating layer conv7_2_mbox_loc_conf_perm
I0401 18:32:11.264443  3287 net.cpp:100] Creating Layer conv7_2_mbox_loc_conf_perm
I0401 18:32:11.264446  3287 net.cpp:434] conv7_2_mbox_loc_conf_perm <- conv7_2_mbox_loc_conf
I0401 18:32:11.264449  3287 net.cpp:408] conv7_2_mbox_loc_conf_perm -> conv7_2_mbox_loc_conf_perm
I0401 18:32:11.264533  3287 net.cpp:150] Setting up conv7_2_mbox_loc_conf_perm
I0401 18:32:11.264539  3287 net.cpp:157] Top shape: 32 1 4 48 (6144)
I0401 18:32:11.264541  3287 net.cpp:165] Memory required for data: 301215072
I0401 18:32:11.264544  3287 layer_factory.hpp:77] Creating layer conv7_2_mbox_loc_perm
I0401 18:32:11.264547  3287 net.cpp:100] Creating Layer conv7_2_mbox_loc_perm
I0401 18:32:11.264550  3287 net.cpp:434] conv7_2_mbox_loc_perm <- conv7_2_mbox_loc_conf_perm
I0401 18:32:11.264554  3287 net.cpp:408] conv7_2_mbox_loc_perm -> conv7_2_mbox_loc_perm
I0401 18:32:11.264559  3287 net.cpp:408] conv7_2_mbox_loc_perm -> conv7_2_mbox_conf_perm
I0401 18:32:11.264588  3287 net.cpp:150] Setting up conv7_2_mbox_loc_perm
I0401 18:32:11.264592  3287 net.cpp:157] Top shape: 32 1 4 24 (3072)
I0401 18:32:11.264595  3287 net.cpp:157] Top shape: 32 1 4 24 (3072)
I0401 18:32:11.264598  3287 net.cpp:165] Memory required for data: 301239648
I0401 18:32:11.264600  3287 layer_factory.hpp:77] Creating layer conv7_2_mbox_loc_flat
I0401 18:32:11.264605  3287 net.cpp:100] Creating Layer conv7_2_mbox_loc_flat
I0401 18:32:11.264606  3287 net.cpp:434] conv7_2_mbox_loc_flat <- conv7_2_mbox_loc_perm
I0401 18:32:11.264611  3287 net.cpp:408] conv7_2_mbox_loc_flat -> conv7_2_mbox_loc_flat
I0401 18:32:11.264628  3287 net.cpp:150] Setting up conv7_2_mbox_loc_flat
I0401 18:32:11.264632  3287 net.cpp:157] Top shape: 32 96 (3072)
I0401 18:32:11.264636  3287 net.cpp:165] Memory required for data: 301251936
I0401 18:32:11.264637  3287 layer_factory.hpp:77] Creating layer conv7_2_mbox_conf_flat
I0401 18:32:11.264641  3287 net.cpp:100] Creating Layer conv7_2_mbox_conf_flat
I0401 18:32:11.264643  3287 net.cpp:434] conv7_2_mbox_conf_flat <- conv7_2_mbox_conf_perm
I0401 18:32:11.264647  3287 net.cpp:408] conv7_2_mbox_conf_flat -> conv7_2_mbox_conf_flat
I0401 18:32:11.264665  3287 net.cpp:150] Setting up conv7_2_mbox_conf_flat
I0401 18:32:11.264669  3287 net.cpp:157] Top shape: 32 96 (3072)
I0401 18:32:11.264672  3287 net.cpp:165] Memory required for data: 301264224
I0401 18:32:11.264674  3287 layer_factory.hpp:77] Creating layer conv7_2_mbox_priorbox
I0401 18:32:11.264679  3287 net.cpp:100] Creating Layer conv7_2_mbox_priorbox
I0401 18:32:11.264683  3287 net.cpp:434] conv7_2_mbox_priorbox <- conv7_2_conv7_2_relu_0_split_2
I0401 18:32:11.264685  3287 net.cpp:434] conv7_2_mbox_priorbox <- data_data_0_split_4
I0401 18:32:11.264688  3287 net.cpp:408] conv7_2_mbox_priorbox -> conv7_2_mbox_priorbox
I0401 18:32:11.264708  3287 net.cpp:150] Setting up conv7_2_mbox_priorbox
I0401 18:32:11.264711  3287 net.cpp:157] Top shape: 1 2 96 (192)
I0401 18:32:11.264714  3287 net.cpp:165] Memory required for data: 301264992
I0401 18:32:11.264716  3287 layer_factory.hpp:77] Creating layer pool6_mbox_loc_conf
I0401 18:32:11.264722  3287 net.cpp:100] Creating Layer pool6_mbox_loc_conf
I0401 18:32:11.264725  3287 net.cpp:434] pool6_mbox_loc_conf <- pool6_pool6_0_split_0
I0401 18:32:11.264729  3287 net.cpp:408] pool6_mbox_loc_conf -> pool6_mbox_loc_conf
I0401 18:32:11.264974  3287 net.cpp:150] Setting up pool6_mbox_loc_conf
I0401 18:32:11.264979  3287 net.cpp:157] Top shape: 32 48 1 1 (1536)
I0401 18:32:11.264981  3287 net.cpp:165] Memory required for data: 301271136
I0401 18:32:11.264986  3287 layer_factory.hpp:77] Creating layer pool6_mbox_loc_conf_perm
I0401 18:32:11.264991  3287 net.cpp:100] Creating Layer pool6_mbox_loc_conf_perm
I0401 18:32:11.264995  3287 net.cpp:434] pool6_mbox_loc_conf_perm <- pool6_mbox_loc_conf
I0401 18:32:11.264999  3287 net.cpp:408] pool6_mbox_loc_conf_perm -> pool6_mbox_loc_conf_perm
I0401 18:32:11.265082  3287 net.cpp:150] Setting up pool6_mbox_loc_conf_perm
I0401 18:32:11.265086  3287 net.cpp:157] Top shape: 32 1 1 48 (1536)
I0401 18:32:11.265089  3287 net.cpp:165] Memory required for data: 301277280
I0401 18:32:11.265091  3287 layer_factory.hpp:77] Creating layer pool6_mbox_loc_perm
I0401 18:32:11.265096  3287 net.cpp:100] Creating Layer pool6_mbox_loc_perm
I0401 18:32:11.265100  3287 net.cpp:434] pool6_mbox_loc_perm <- pool6_mbox_loc_conf_perm
I0401 18:32:11.265102  3287 net.cpp:408] pool6_mbox_loc_perm -> pool6_mbox_loc_perm
I0401 18:32:11.265106  3287 net.cpp:408] pool6_mbox_loc_perm -> pool6_mbox_conf_perm
I0401 18:32:11.265135  3287 net.cpp:150] Setting up pool6_mbox_loc_perm
I0401 18:32:11.265138  3287 net.cpp:157] Top shape: 32 1 1 24 (768)
I0401 18:32:11.265141  3287 net.cpp:157] Top shape: 32 1 1 24 (768)
I0401 18:32:11.265143  3287 net.cpp:165] Memory required for data: 301283424
I0401 18:32:11.265146  3287 layer_factory.hpp:77] Creating layer pool6_mbox_loc_flat
I0401 18:32:11.265151  3287 net.cpp:100] Creating Layer pool6_mbox_loc_flat
I0401 18:32:11.265152  3287 net.cpp:434] pool6_mbox_loc_flat <- pool6_mbox_loc_perm
I0401 18:32:11.265156  3287 net.cpp:408] pool6_mbox_loc_flat -> pool6_mbox_loc_flat
I0401 18:32:11.265174  3287 net.cpp:150] Setting up pool6_mbox_loc_flat
I0401 18:32:11.265178  3287 net.cpp:157] Top shape: 32 24 (768)
I0401 18:32:11.265182  3287 net.cpp:165] Memory required for data: 301286496
I0401 18:32:11.265184  3287 layer_factory.hpp:77] Creating layer pool6_mbox_conf_flat
I0401 18:32:11.265187  3287 net.cpp:100] Creating Layer pool6_mbox_conf_flat
I0401 18:32:11.265189  3287 net.cpp:434] pool6_mbox_conf_flat <- pool6_mbox_conf_perm
I0401 18:32:11.265193  3287 net.cpp:408] pool6_mbox_conf_flat -> pool6_mbox_conf_flat
I0401 18:32:11.265211  3287 net.cpp:150] Setting up pool6_mbox_conf_flat
I0401 18:32:11.265216  3287 net.cpp:157] Top shape: 32 24 (768)
I0401 18:32:11.265218  3287 net.cpp:165] Memory required for data: 301289568
I0401 18:32:11.265220  3287 layer_factory.hpp:77] Creating layer pool6_mbox_priorbox
I0401 18:32:11.265224  3287 net.cpp:100] Creating Layer pool6_mbox_priorbox
I0401 18:32:11.265228  3287 net.cpp:434] pool6_mbox_priorbox <- pool6_pool6_0_split_1
I0401 18:32:11.265230  3287 net.cpp:434] pool6_mbox_priorbox <- data_data_0_split_5
I0401 18:32:11.265234  3287 net.cpp:408] pool6_mbox_priorbox -> pool6_mbox_priorbox
I0401 18:32:11.265254  3287 net.cpp:150] Setting up pool6_mbox_priorbox
I0401 18:32:11.265257  3287 net.cpp:157] Top shape: 1 2 24 (48)
I0401 18:32:11.265259  3287 net.cpp:165] Memory required for data: 301289760
I0401 18:32:11.265262  3287 layer_factory.hpp:77] Creating layer mbox_loc
I0401 18:32:11.265266  3287 net.cpp:100] Creating Layer mbox_loc
I0401 18:32:11.265270  3287 net.cpp:434] mbox_loc <- conv4_3_norm_mbox_loc_flat
I0401 18:32:11.265274  3287 net.cpp:434] mbox_loc <- fc7_conv_mbox_loc_flat
I0401 18:32:11.265276  3287 net.cpp:434] mbox_loc <- conv6_2_mbox_loc_flat
I0401 18:32:11.265280  3287 net.cpp:434] mbox_loc <- conv7_2_mbox_loc_flat
I0401 18:32:11.265282  3287 net.cpp:434] mbox_loc <- pool6_mbox_loc_flat
I0401 18:32:11.265286  3287 net.cpp:408] mbox_loc -> mbox_loc
I0401 18:32:11.265305  3287 net.cpp:150] Setting up mbox_loc
I0401 18:32:11.265310  3287 net.cpp:157] Top shape: 32 8184 (261888)
I0401 18:32:11.265311  3287 net.cpp:165] Memory required for data: 302337312
I0401 18:32:11.265313  3287 layer_factory.hpp:77] Creating layer mbox_conf
I0401 18:32:11.265318  3287 net.cpp:100] Creating Layer mbox_conf
I0401 18:32:11.265321  3287 net.cpp:434] mbox_conf <- conv4_3_norm_mbox_conf_flat
I0401 18:32:11.265324  3287 net.cpp:434] mbox_conf <- fc7_conv_mbox_conf_flat
I0401 18:32:11.265327  3287 net.cpp:434] mbox_conf <- conv6_2_mbox_conf_flat
I0401 18:32:11.265331  3287 net.cpp:434] mbox_conf <- conv7_2_mbox_conf_flat
I0401 18:32:11.265336  3287 net.cpp:434] mbox_conf <- pool6_mbox_conf_flat
I0401 18:32:11.265339  3287 net.cpp:408] mbox_conf -> mbox_conf
I0401 18:32:11.265357  3287 net.cpp:150] Setting up mbox_conf
I0401 18:32:11.265362  3287 net.cpp:157] Top shape: 32 8184 (261888)
I0401 18:32:11.265364  3287 net.cpp:165] Memory required for data: 303384864
I0401 18:32:11.265367  3287 layer_factory.hpp:77] Creating layer mbox_priorbox
I0401 18:32:11.265370  3287 net.cpp:100] Creating Layer mbox_priorbox
I0401 18:32:11.265372  3287 net.cpp:434] mbox_priorbox <- conv4_3_norm_mbox_priorbox
I0401 18:32:11.265377  3287 net.cpp:434] mbox_priorbox <- fc7_conv_mbox_priorbox
I0401 18:32:11.265379  3287 net.cpp:434] mbox_priorbox <- conv6_2_mbox_priorbox
I0401 18:32:11.265382  3287 net.cpp:434] mbox_priorbox <- conv7_2_mbox_priorbox
I0401 18:32:11.265384  3287 net.cpp:434] mbox_priorbox <- pool6_mbox_priorbox
I0401 18:32:11.265388  3287 net.cpp:408] mbox_priorbox -> mbox_priorbox
I0401 18:32:11.265406  3287 net.cpp:150] Setting up mbox_priorbox
I0401 18:32:11.265411  3287 net.cpp:157] Top shape: 1 2 8184 (16368)
I0401 18:32:11.265413  3287 net.cpp:165] Memory required for data: 303450336
I0401 18:32:11.265416  3287 layer_factory.hpp:77] Creating layer mbox_loss
I0401 18:32:11.265420  3287 net.cpp:100] Creating Layer mbox_loss
I0401 18:32:11.265424  3287 net.cpp:434] mbox_loss <- mbox_loc
I0401 18:32:11.265426  3287 net.cpp:434] mbox_loss <- mbox_conf
I0401 18:32:11.265429  3287 net.cpp:434] mbox_loss <- mbox_priorbox
…
  type: "AnnotatedData"
  top: "data"
  top: "label"
  include {
    phase: TEST
  }
  transform_param {
    mean_value: 114
    mean_value: 115
    mean_value: 108
    resize_param {
      prob: 1
      resize_mode: WARP
      height: 64
      width: 256
      interp_mode: LINEAR
    }
  }
  data_param {
    source: "/home/work/wwl/data/kitti/data_object_image_2/training/test_lmdb"
    batch_size: 32
    backend: LMDB
  }
  annotated_data_param {
    batch_sampler {
    }
    label_map_file: "/home/work/wwl/code/vision-detector/data/KITTI/labelmap.prototxt"
  }
}
layer {
  name: "conv1_1"
  type: "Convolution"
  bottom: "data"
  top: "conv1_1"
  param {
    lr_mult: 1
    decay_mult: 1
  }
  param {
    lr_mult: 2
    decay_mult: 0
  }
  convolution_param {
    num_output: 16
    pad: 1
    kernel_size: 3
    weight_filler {
      type: "xavier"
    }
    bias_filler {
      type: "constant"
      value: 0
    }
  }
}
layer {
  name: "relu1_1"
  type: "ReLU"
  bottom: "conv1_1"
  top: "conv1_1"
}
layer {
  name: "conv1_2"
  type: "Convolution"
  bottom: "conv1_1"
  top: "conv1_2"
  param {
    lr_mult: 1
    decay_mult: 1
  }
  param {
    lr_mult: 2
    decay_mult: 0
  }
  convolution_param {
    num_output: 16
    pad: 1
    kernel_size: 3
    stride: 2
    weight_filler {
      type: "xavier"
    }
    bias_filler {
      type: "constant"
      value: 0
    }
  }
}
layer {
  name: "relu1_2"
  type: "ReLU"
  bottom: "conv1_2"
  top: "conv1_2"
}
layer {
  name: "conv2_1"
  type: "Convolution"
  bottom: "conv1_2"
  top: "conv2_1"
  param {
    lr_mult: 1
    decay_mult: 1
  }
  param {
    lr_mult: 2
    decay_mult: 0
  }
  convolution_param {
    num_output: 32
    pad: 1
    kernel_size: 3
    weight_filler {
      type: "xavier"
    }
    bias_filler {
      type: "constant"
      value: 0
    }
  }
}
layer {
  name: "relu2_1"
  type: "ReLU"
  bottom: "conv2_1"
  top: "conv2_1"
}
layer {
  name: "conv2_2"
  type: "Convolution"
  bottom: "conv2_1"
  top: "conv2_2"
  param {
    lr_mult: 1
    decay_mult: 1
  }
  param {
    lr_mult: 2
    decay_mult: 0
  }
  convolution_param {
    num_output: 32
    pad: 1
    kernel_size: 3
    stride: 2
    weight_filler {
      type: "xavier"
    }
    bias_filler {
      type: "constant"
      value: 0
    }
  }
}
layer {
  name: "relu2_2"
  type: "ReLU"
  bottom: "conv2_2"
  top: "conv2_2"
}
layer {
  name: "conv3_1"
  type: "Convolution"
  bottom: "conv2_2"
  top: "conv3_1"
  param {
    lr_mult: 1
    decay_mult: 1
  }
  param {
    lr_mult: 2
    decay_mult: 0
  }
  convolution_param {
    num_output: 64
    pad: 1
    kernel_size: 3
    weight_filler {
      type: "xavier"
    }
    bias_filler {
      type: "constant"
      value: 0
    }
  }
}
layer {
  name: "relu3_1"
  type: "ReLU"
  bottom: "conv3_1"
  top: "conv3_1"
}
layer {
  name: "conv3_2"
  type: "Convolution"
  bottom: "conv3_1"
  top: "conv3_2"
  param {
    lr_mult: 1
    decay_mult: 1
  }
  param {
    lr_mult: 2
    decay_mult: 0
  }
  convolution_param {
    num_output: 64
    pad: 1
    kernel_size: 3
    weight_filler {
      type: "xavier"
    }
    bias_filler {
      type: "constant"
      value: 0
    }
  }
}
layer {
  name: "relu3_2"
  type: "ReLU"
  bottom: "conv3_2"
  top: "conv3_2"
}
layer {
  name: "conv3_3"
  type: "Convolution"
  bottom: "conv3_2"
  top: "conv3_3"
  param {
    lr_mult: 1
    decay_mult: 1
  }
  param {
    lr_mult: 2
    decay_mult: 0
  }
  convolution_param {
    num_output: 64
    pad: 1
    kernel_size: 3
    weight_filler {
      type: "xavier"
    }
    bias_filler {
      type: "constant"
      value: 0
    }
  }
}
layer {
  name: "relu3_3"
  type: "ReLU"
  bottom: "conv3_3"
  top: "conv3_3"
}
layer {
  name: "pool3"
  type: "Pooling"
  bottom: "conv3_3"
  top: "pool3"
  pooling_param {
    pool: MAX
    kernel_size: 2
    stride: 2
  }
}
layer {
  name: "conv4_1"
  type: "Convolution"
  bottom: "pool3"
  top: "conv4_1"
  param {
    lr_mult: 1
    decay_mult: 1
  }
  param {
    lr_mult: 2
    decay_mult: 0
  }
  convolution_param {
    num_output: 128
    pad: 1
    kernel_size: 3
    weight_filler {
      type: "xavier"
    }
    bias_filler {
      type: "constant"
      value: 0
    }
  }
}
layer {
  name: "relu4_1"
  type: "ReLU"
  bottom: "conv4_1"
  top: "conv4_1"
}
layer {
  name: "conv4_2"
  type: "Convolution"
  bottom: "conv4_1"
  top: "conv4_2"
  param {
    lr_mult: 1
    decay_mult: 1
  }
  param {
    lr_mult: 2
    decay_mult: 0
  }
  convolution_param {
    num_output: 128
    pad: 1
    kernel_size: 3
    weight_filler {
      type: "xavier"
    }
    bias_filler {
      type: "constant"
      value: 0
    }
  }
}
layer {
  name: "relu4_2"
  type: "ReLU"
  bottom: "conv4_2"
  top: "conv4_2"
}
layer {
  name: "conv4_3"
  type: "Convolution"
  bottom: "conv4_2"
  top: "conv4_3"
  param {
    lr_mult: 1
    decay_mult: 1
  }
  param {
    lr_mult: 2
    decay_mult: 0
  }
  convolution_param {
    num_output: 128
    pad: 1
    kernel_size: 3
    weight_filler {
      type: "xavier"
    }
    bias_filler {
      type: "constant"
      value: 0
    }
  }
}
layer {
  name: "relu4_3"
  type: "ReLU"
  bottom: "conv4_3"
  top: "conv4_3"
}
layer {
  name: "pool4"
  type: "Pooling"
  bottom: "conv4_3"
  top: "pool4"
  pooling_param {
    pool: MAX
    kernel_size: 2
    stride: 2
  }
}
layer {
  name: "conv5_1"
  type: "Convolution"
  bottom: "pool4"
  top: "conv5_1"
  param {
    lr_mult: 1
    decay_mult: 1
  }
  param {
    lr_mult: 2
    decay_mult: 0
  }
  convolution_param {
    num_output: 128
    pad: 1
    kernel_size: 3
    weight_filler {
      type: "xavier"
    }
    bias_filler {
      type: "constant"
      value: 0
    }
    dilation: 1
  }
}
layer {
  name: "relu5_1"
  type: "ReLU"
  bottom: "conv5_1"
  top: "conv5_1"
}
layer {
  name: "conv5_2"
  type: "Convolution"
  bottom: "conv5_1"
  top: "conv5_2"
  param {
    lr_mult: 1
    decay_mult: 1
  }
  param {
    lr_mult: 2
    decay_mult: 0
  }
  convolution_param {
    num_output: 128
    pad: 1
    kernel_size: 3
    weight_filler {
      type: "xavier"
    }
    bias_filler {
      type: "constant"
      value: 0
    }
    dilation: 1
  }
}
layer {
  name: "relu5_2"
  type: "ReLU"
  bottom: "conv5_2"
  top: "conv5_2"
}
layer {
  name: "conv5_3"
  type: "Convolution"
  bottom: "conv5_2"
  top: "conv5_3"
  param {
    lr_mult: 1
    decay_mult: 1
  }
  param {
    lr_mult: 2
    decay_mult: 0
  }
  convolution_param {
    num_output: 128
    pad: 1
    kernel_size: 3
    weight_filler {
      type: "xavier"
    }
    bias_filler {
      type: "constant"
      value: 0
    }
    dilation: 1
  }
}
layer {
  name: "relu5_3"
  type: "ReLU"
  bottom: "conv5_3"
  top: "conv5_3"
}
layer {
  name: "pool5"
  type: "Pooling"
  bottom: "conv5_3"
  top: "pool5"
  pooling_param {
    pool: MAX
    kernel_size: 3
    stride: 1
    pad: 1
  }
}
layer {
  name: "fc6_conv"
  type: "Convolution"
  bottom: "pool5"
  top: "fc6_conv"
  param {
    lr_mult: 1
    decay_mult: 1
  }
  param {
    lr_mult: 2
    decay_mult: 0
  }
  convolution_param {
    num_output: 256
    pad: 6
    kernel_size: 3
    weight_filler {
      type: "xavier"
    }
    bias_filler {
      type: "constant"
      value: 0
    }
    dilation: 6
  }
}
layer {
  name: "relu6"
  type: "ReLU"
  bottom: "fc6_conv"
  top: "fc6_conv"
}
layer {
  name: "fc7_conv"
  type: "Convolution"
  bottom: "fc6_conv"
  top: "fc7_conv"
  param {
    lr_mult: 1
    decay_mult: 1
  }
  param {
    lr_mult: 2
    decay_mult: 0
  }
  convolution_param {
    num_output: 256
    kernel_size: 1
    weight_filler {
      type: "xavier"
    }
    bias_filler {
      type: "constant"
      value: 0
    }
  }
}
layer {
  name: "relu7"
  type: "ReLU"
  bottom: "fc7_conv"
  top: "fc7_conv"
}
layer {
  name: "conv6_1"
  type: "Convolution"
  bottom: "fc7_conv"
  top: "conv6_1"
  param {
    lr_mult: 1
    decay_mult: 1
  }
  param {
    lr_mult: 2
    decay_mult: 0
  }
  convolution_param {
    num_output: 32
    pad: 0
    kernel_size: 1
    stride: 1
    weight_filler {
      type: "xavier"
    }
    bias_filler {
      type: "constant"
      value: 0
    }
  }
}
layer {
  name: "conv6_1_relu"
  type: "ReLU"
  bottom: "conv6_1"
  top: "conv6_1"
}
layer {
  name: "conv6_2"
  type: "Convolution"
  bottom: "conv6_1"
  top: "conv6_2"
  param {
    lr_mult: 1
    decay_mult: 1
  }
  param {
    lr_mult: 2
    decay_mult: 0
  }
  convolution_param {
    num_output: 64
    pad: 1
    kernel_size: 3
    stride: 2
    weight_filler {
      type: "xavier"
    }
    bias_filler {
      type: "constant"
      value: 0
    }
  }
}
layer {
  name: "conv6_2_relu"
  type: "ReLU"
  bottom: "conv6_2"
  top: "conv6_2"
}
layer {
  name: "conv7_1"
  type: "Convolution"
  bottom: "conv6_2"
  top: "conv7_1"
  param {
    lr_mult: 1
    decay_mult: 1
  }
  param {
    lr_mult: 2
    decay_mult: 0
  }
  convolution_param {
    num_output: 16
    pad: 0
    kernel_size: 1
    stride: 1
    weight_filler {
      type: "xavier"
    }
    bias_filler {
      type: "constant"
      value: 0
    }
  }
}
layer {
  name: "conv7_1_relu"
  type: "ReLU"
  bottom: "conv7_1"
  top: "conv7_1"
}
layer {
  name: "conv7_2"
  type: "Convolution"
  bottom: "conv7_1"
  top: "conv7_2"
  param {
    lr_mult: 1
    decay_mult: 1
  }
  param {
    lr_mult: 2
    decay_mult: 0
  }
  convolution_param {
    num_output: 32
    pad: 1
    kernel_size: 3
    stride: 2
    weight_filler {
      type: "xavier"
    }
    bias_filler {
      type: "constant"
      value: 0
    }
  }
}
layer {
  name: "conv7_2_relu"
  type: "ReLU"
  bottom: "conv7_2"
  top: "conv7_2"
}
layer {
  name: "pool6"
  type: "Pooling"
  bottom: "conv7_2"
  top: "pool6"
  pooling_param {
    pool: AVE
    global_pooling: true
  }
}
layer {
  name: "conv4_3_norm"
  type: "Normalize"
  bottom: "conv4_3"
  top: "conv4_3_norm"
  norm_param {
    across_spatial: false
    scale_filler {
      type: "constant"
      value: 20
    }
    channel_shared: false
  }
}
layer {
  name: "conv4_3_norm_mbox_loc_conf"
  type: "Convolution"
  bottom: "conv4_3_norm"
  top: "conv4_3_norm_mbox_loc_conf"
  param {
    lr_mult: 1
    decay_mult: 1
  }
  param {
    lr_mult: 2
    decay_mult: 0
  }
  convolution_param {
    num_output: 48
    pad: 1
    kernel_size: 3
    stride: 1
    weight_filler {
      type: "xavier"
    }
    bias_filler {
      type: "constant"
      value: 0
    }
  }
}
layer {
  name: "conv4_3_norm_mbox_loc_conf_perm"
  type: "Permute"
  bottom: "conv4_3_norm_mbox_loc_conf"
  top: "conv4_3_norm_mbox_loc_conf_perm"
  permute_param {
    order: 0
    order: 2
    order: 3
    order: 1
  }
}
layer {
  name: "conv4_3_norm_mbox_loc_perm"
  type: "Slice"
  bottom: "conv4_3_norm_mbox_loc_conf_perm"
  top: "conv4_3_norm_mbox_loc_perm"
  top: "conv4_3_norm_mbox_conf_perm"
  slice_param {
    slice_point: 24
    axis: 3
  }
}
layer {
  name: "conv4_3_norm_mbox_loc_flat"
  type: "Flatten"
  bottom: "conv4_3_norm_mbox_loc_perm"
  top: "conv4_3_norm_mbox_loc_flat"
  flatten_param {
    axis: 1
  }
}
layer {
  name: "conv4_3_norm_mbox_conf_flat"
  type: "Flatten"
  bottom: "conv4_3_norm_mbox_conf_perm"
  top: "conv4_3_norm_mbox_conf_flat"
  flatten_param {
    axis: 1
  }
}
layer {
  name: "conv4_3_norm_mbox_priorbox"
  type: "PriorBox"
  bottom: "conv4_3_norm"
  bottom: "data"
  top: "conv4_3_norm_mbox_priorbox"
  prior_box_param {
    min_size: 19.2
    max_size: 32
    aspect_ratio: 2
    aspect_ratio: 3
    flip: true
    clip: true
    variance: 0.1
    variance: 0.1
    variance: 0.2
    variance: 0.2
    offset: 0.5
  }
}
layer {
  name: "fc7_conv_mbox_loc_conf"
  type: "Convolution"
  bottom: "fc7_conv"
  top: "fc7_conv_mbox_loc_conf"
  param {
    lr_mult: 1
    decay_mult: 1
  }
  param {
    lr_mult: 2
    decay_mult: 0
  }
  convolution_param {
    num_output: 48
    pad: 1
    kernel_size: 3
    stride: 1
    weight_filler {
      type: "xavier"
    }
    bias_filler {
      type: "constant"
      value: 0
    }
  }
}
layer {
  name: "fc7_conv_mbox_loc_conf_perm"
  type: "Permute"
  bottom: "fc7_conv_mbox_loc_conf"
  top: "fc7_conv_mbox_loc_conf_perm"
  permute_param {
    order: 0
    order: 2
    order: 3
    order: 1
  }
}
layer {
  name: "fc7_conv_mbox_loc_perm"
  type: "Slice"
  bottom: "fc7_conv_mbox_loc_conf_perm"
  top: "fc7_conv_mbox_loc_perm"
  top: "fc7_conv_mbox_conf_perm"
  slice_param {
    slice_point: 24
    axis: 3
  }
}
layer {
  name: "fc7_conv_mbox_loc_flat"
  type: "Flatten"
  bottom: "fc7_conv_mbox_loc_perm"
  top: "fc7_conv_mbox_loc_flat"
  flatten_param {
    axis: 1
  }
}
layer {
  name: "fc7_conv_mbox_conf_flat"
  type: "Flatten"
  bottom: "fc7_conv_mbox_conf_perm"
  top: "fc7_conv_mbox_conf_flat"
  flatten_param {
    axis: 1
  }
}
layer {
  name: "fc7_conv_mbox_priorbox"
  type: "PriorBox"
  bottom: "fc7_conv"
  bottom: "data"
  top: "fc7_conv_mbox_priorbox"
  prior_box_param {
    min_size: 32
    max_size: 61.44
    aspect_ratio: 2
    aspect_ratio: 3
    flip: true
    clip: true
    variance: 0.1
    variance: 0.1
    variance: 0.2
    variance: 0.2
    offset: 0.5
  }
}
layer {
  name: "conv6_2_mbox_loc_conf"
  type: "Convolution"
  bottom: "conv6_2"
  top: "conv6_2_mbox_loc_conf"
  param {
    lr_mult: 1
    decay_mult: 1
  }
  param {
    lr_mult: 2
    decay_mult: 0
  }
  convolution_param {
    num_output: 48
    pad: 1
    kernel_size: 3
    stride: 1
    weight_filler {
      type: "xavier"
    }
    bias_filler {
      type: "constant"
      value: 0
    }
  }
}
layer {
  name: "conv6_2_mbox_loc_conf_perm"
  type: "Permute"
  bottom: "conv6_2_mbox_loc_conf"
  top: "conv6_2_mbox_loc_conf_perm"
  permute_param {
    order: 0
    order: 2
    order: 3
    order: 1
  }
}
layer {
  name: "conv6_2_mbox_loc_perm"
  type: "Slice"
  bottom: "conv6_2_mbox_loc_conf_perm"
  top: "conv6_2_mbox_loc_perm"
  top: "conv6_2_mbox_conf_perm"
  slice_param {
    slice_point: 24
    axis: 3
  }
}
layer {
  name: "conv6_2_mbox_loc_flat"
  type: "Flatten"
  bottom: "conv6_2_mbox_loc_perm"
  top: "conv6_2_mbox_loc_flat"
  flatten_param {
    axis: 1
  }
}
layer {
  name: "conv6_2_mbox_conf_flat"
  type: "Flatten"
  bottom: "conv6_2_mbox_conf_perm"
  top: "conv6_2_mbox_conf_flat"
  flatten_param {
    axis: 1
  }
}
layer {
  name: "conv6_2_mbox_priorbox"
  type: "PriorBox"
  bottom: "conv6_2"
  bottom: "data"
  top: "conv6_2_mbox_priorbox"
  prior_box_param {
    min_size: 61.44
    max_size: 90.88
    aspect_ratio: 2
    aspect_ratio: 3
    flip: true
    clip: true
    variance: 0.1
    variance: 0.1
    variance: 0.2
    variance: 0.2
    offset: 0.5
  }
}
layer {
  name: "conv7_2_mbox_loc_conf"
  type: "Convolution"
  bottom: "conv7_2"
  top: "conv7_2_mbox_loc_conf"
  param {
    lr_mult: 1
    decay_mult: 1
  }
  param {
    lr_mult: 2
    decay_mult: 0
  }
  convolution_param {
    num_output: 48
    pad: 1
    kernel_size: 3
    stride: 1
    weight_filler {
      type: "xavier"
    }
    bias_filler {
      type: "constant"
      value: 0
    }
  }
}
layer {
  name: "conv7_2_mbox_loc_conf_perm"
  type: "Permute"
  bottom: "conv7_2_mbox_loc_conf"
  top: "conv7_2_mbox_loc_conf_perm"
  permute_param {
    order: 0
    order: 2
    order: 3
    order: 1
  }
}
layer {
  name: "conv7_2_mbox_loc_perm"
  type: "Slice"
  bottom: "conv7_2_mbox_loc_conf_perm"
  top: "conv7_2_mbox_loc_perm"
  top: "conv7_2_mbox_conf_perm"
  slice_param {
    slice_point: 24
    axis: 3
  }
}
layer {
  name: "conv7_2_mbox_loc_flat"
  type: "Flatten"
  bottom: "conv7_2_mbox_loc_perm"
  top: "conv7_2_mbox_loc_flat"
  flatten_param {
    axis: 1
  }
}
layer {
  name: "conv7_2_mbox_conf_flat"
  type: "Flatten"
  bottom: "conv7_2_mbox_conf_perm"
  top: "conv7_2_mbox_conf_flat"
  flatten_param {
    axis: 1
  }
}
layer {
  name: "conv7_2_mbox_priorbox"
  type: "PriorBox"
  bottom: "conv7_2"
  bottom: "data"
  top: "conv7_2_mbox_priorbox"
  prior_box_param {
    min_size: 90.88
    max_size: 120.32
    aspect_ratio: 2
    aspect_ratio: 3
    flip: true
    clip: true
    variance: 0.1
    variance: 0.1
    variance: 0.2
    variance: 0.2
    offset: 0.5
  }
}
layer {
  name: "pool6_mbox_loc_conf"
  type: "Convolution"
  bottom: "pool6"
  top: "pool6_mbox_loc_conf"
  param {
    lr_mult: 1
    decay_mult: 1
  }
  param {
    lr_mult: 2
    decay_mult: 0
  }
  convolution_param {
    num_output: 48
    pad: 1
    kernel_size: 3
    stride: 1
    weight_filler {
      type: "xavier"
    }
    bias_filler {
      type: "constant"
      value: 0
    }
  }
}
layer {
  name: "pool6_mbox_loc_conf_perm"
  type: "Permute"
  bottom: "pool6_mbox_loc_conf"
  top: "pool6_mbox_loc_conf_perm"
  permute_param {
    order: 0
    order: 2
    order: 3
    order: 1
  }
}
layer {
  name: "pool6_mbox_loc_perm"
  type: "Slice"
  bottom: "pool6_mbox_loc_conf_perm"
  top: "pool6_mbox_loc_perm"
  top: "pool6_mbox_conf_perm"
  slice_param {
    slice_point: 24
    axis: 3
  }
}
layer {
  name: "pool6_mbox_loc_flat"
  type: "Flatten"
  bottom: "pool6_mbox_loc_perm"
  top: "pool6_mbox_loc_flat"
  flatten_param {
    axis: 1
  }
}
layer {
  name: "pool6_mbox_conf_flat"
  type: "Flatten"
  bottom: "pool6_mbox_conf_perm"
  top: "pool6_mbox_conf_flat"
  flatten_param {
    axis: 1
  }
}
layer {
  name: "pool6_mbox_priorbox"
  type: "PriorBox"
  bottom: "pool6"
  bottom: "data"
  top: "pool6_mbox_priorbox"
  prior_box_param {
    min_size: 120.32
    max_size: 149.76
    aspect_ratio: 2
    aspect_ratio: 3
    flip: true
    clip: true
    variance: 0.1
    variance: 0.1
    variance: 0.2
    variance: 0.2
    offset: 0.5
  }
}
layer {
  name: "mbox_loc"
  type: "Concat"
  bottom: "conv4_3_norm_mbox_loc_flat"
  bottom: "fc7_conv_mbox_loc_flat"
  bottom: "conv6_2_mbox_loc_flat"
  bottom: "conv7_2_mbox_loc_flat"
  bottom: "pool6_mbox_loc_flat"
  top: "mbox_loc"
  concat_param {
    axis: 1
  }
}
layer {
  name: "mbox_conf"
  type: "Concat"
  bottom: "conv4_3_norm_mbox_conf_flat"
  bottom: "fc7_conv_mbox_conf_flat"
  bottom: "conv6_2_mbox_conf_flat"
  bottom: "conv7_2_mbox_conf_flat"
  bottom: "pool6_mbox_conf_flat"
  top: "mbox_conf"
  concat_param {
    axis: 1
  }
}
layer {
  name: "mbox_priorbox"
  type: "Concat"
  bottom: "conv4_3_norm_mbox_priorbox"
  bottom: "fc7_conv_mbox_priorbox"
  bottom: "conv6_2_mbox_priorbox"
  bottom: "conv7_2_mbox_priorbox"
  bottom: "pool6_mbox_priorbox"
  top: "mbox_priorbox"
  concat_param {
    axis: 2
  }
}
layer {
  name: "mbox_conf_reshape"
  type: "Reshape"
  bottom: "mbox_conf"
  top: "mbox_conf_reshape"
  reshape_param {
    shape {
      dim: 0
      dim: -1
      dim: 4
    }
  }
}
layer {
  name: "mbox_conf_softmax"
  type: "Softmax"
  bottom: "mbox_conf_reshape"
  top: "mbox_conf_softmax"
  softmax_param {
    axis: 2
  }
}
layer {
  name: "mbox_conf_flatten"
  type: "Flatten"
  bottom: "mbox_conf_softmax"
  top: "mbox_conf_flatten"
  flatten_param {
    axis: 1
  }
}
layer {
  name: "detection_out"
  type: "DetectionOutput"
  bottom: "mbox_loc"
  bottom: "mbox_conf_flatten"
  bottom: "mbox_priorbox"
  top: "detection_out"
  include {
    phase: TEST
  }
  detection_output_param {
    num_classes: 4
    share_location: true
    background_label_id: 0
    nms_param {
      nms_threshold: 0.3
      top_k: 200
    }
    save_output_param {
      output_directory: "jobs/ssd/v0327_smallssd_kitti_64x256_vgg16-channel16-nopooling12_normal_cutRandOne/output"
      output_name_prefix: "det_test_"
      output_format: "VOC"
      label_map_file: "/home/work/wwl/code/vision-detector/data/KITTI/labelmap.prototxt"
      name_size_file: "/home/work/wwl/code/vision-detector/data/KITTI/test_name_size.txt"
      num_test_image: 2245
    }
    code_type: CENTER_SIZE
    keep_top_k: 100
    confidence_threshold: 0.01
  }
}
layer {
  name: "detection_eval"
  type: "DetectionEvaluate"
  bottom: "detection_out"
  bottom: "label"
  top: "detection_eval"
  include {
    phase: TEST
  }
  detection_evaluate_param {
    num_classes: 4
    background_label_id: 0
    overlap_threshold: 0.5
    evaluate_difficult_gt: false
    name_size_file: "/home/work/wwl/code/vision-detector/data/KITTI/test_name_size.txt"
  }
}
I0401 18:32:11.267570  3287 layer_factory.hpp:77] Creating layer data
I0401 18:32:11.267616  3287 net.cpp:100] Creating Layer data
I0401 18:32:11.267622  3287 net.cpp:408] data -> data
I0401 18:32:11.267629  3287 net.cpp:408] data -> label
I0401 18:32:11.268435  3310 db_lmdb.cpp:35] Opened lmdb /home/work/wwl/data/kitti/data_object_image_2/training/test_lmdb
I0401 18:32:11.277375  3287 annotated_data_layer.cpp:62] output data size: 32,3,64,256
I0401 18:32:11.291097  3287 net.cpp:150] Setting up data
I0401 18:32:11.291131  3287 net.cpp:157] Top shape: 32 3 64 256 (1572864)
I0401 18:32:11.291138  3287 net.cpp:157] Top shape: 1 1 9 8 (72)
I0401 18:32:11.291142  3287 net.cpp:165] Memory required for data: 6291744
I0401 18:32:11.291149  3287 layer_factory.hpp:77] Creating layer data_data_0_split
I0401 18:32:11.291162  3287 net.cpp:100] Creating Layer data_data_0_split
I0401 18:32:11.291168  3287 net.cpp:434] data_data_0_split <- data
I0401 18:32:11.291177  3287 net.cpp:408] data_data_0_split -> data_data_0_split_0
I0401 18:32:11.291185  3287 net.cpp:408] data_data_0_split -> data_data_0_split_1
I0401 18:32:11.291193  3287 net.cpp:408] data_data_0_split -> data_data_0_split_2
I0401 18:32:11.291199  3287 net.cpp:408] data_data_0_split -> data_data_0_split_3
I0401 18:32:11.291205  3287 net.cpp:408] data_data_0_split -> data_data_0_split_4
I0401 18:32:11.291210  3287 net.cpp:408] data_data_0_split -> data_data_0_split_5
I0401 18:32:11.291342  3287 net.cpp:150] Setting up data_data_0_split
I0401 18:32:11.291349  3287 net.cpp:157] Top shape: 32 3 64 256 (1572864)
I0401 18:32:11.291354  3287 net.cpp:157] Top shape: 32 3 64 256 (1572864)
I0401 18:32:11.291358  3287 net.cpp:157] Top shape: 32 3 64 256 (1572864)
I0401 18:32:11.291363  3287 net.cpp:157] Top shape: 32 3 64 256 (1572864)
I0401 18:32:11.291368  3287 net.cpp:157] Top shape: 32 3 64 256 (1572864)
I0401 18:32:11.291371  3287 net.cpp:157] Top shape: 32 3 64 256 (1572864)
I0401 18:32:11.291375  3287 net.cpp:165] Memory required for data: 44040480
I0401 18:32:11.291379  3287 layer_factory.hpp:77] Creating layer conv1_1
I0401 18:32:11.291390  3287 net.cpp:100] Creating Layer conv1_1
I0401 18:32:11.291395  3287 net.cpp:434] conv1_1 <- data_data_0_split_0
I0401 18:32:11.291400  3287 net.cpp:408] conv1_1 -> conv1_1
I0401 18:32:11.291715  3287 net.cpp:150] Setting up conv1_1
I0401 18:32:11.291724  3287 net.cpp:157] Top shape: 32 16 64 256 (8388608)
I0401 18:32:11.291728  3287 net.cpp:165] Memory required for data: 77594912
I0401 18:32:11.291738  3287 layer_factory.hpp:77] Creating layer relu1_1
I0401 18:32:11.291743  3287 net.cpp:100] Creating Layer relu1_1
I0401 18:32:11.291754  3287 net.cpp:434] relu1_1 <- conv1_1
I0401 18:32:11.291760  3287 net.cpp:395] relu1_1 -> conv1_1 (in-place)
I0401 18:32:11.291766  3287 net.cpp:150] Setting up relu1_1
I0401 18:32:11.291771  3287 net.cpp:157] Top shape: 32 16 64 256 (8388608)
I0401 18:32:11.291774  3287 net.cpp:165] Memory required for data: 111149344
I0401 18:32:11.291779  3287 layer_factory.hpp:77] Creating layer conv1_2
I0401 18:32:11.291786  3287 net.cpp:100] Creating Layer conv1_2
I0401 18:32:11.291790  3287 net.cpp:434] conv1_2 <- conv1_1
I0401 18:32:11.291795  3287 net.cpp:408] conv1_2 -> conv1_2
I0401 18:32:11.292148  3287 net.cpp:150] Setting up conv1_2
I0401 18:32:11.292160  3287 net.cpp:157] Top shape: 32 16 32 128 (2097152)
I0401 18:32:11.292163  3287 net.cpp:165] Memory required for data: 119537952
I0401 18:32:11.292172  3287 layer_factory.hpp:77] Creating layer relu1_2
I0401 18:32:11.292179  3287 net.cpp:100] Creating Layer relu1_2
I0401 18:32:11.292183  3287 net.cpp:434] relu1_2 <- conv1_2
I0401 18:32:11.292188  3287 net.cpp:395] relu1_2 -> conv1_2 (in-place)
I0401 18:32:11.292196  3287 net.cpp:150] Setting up relu1_2
I0401 18:32:11.292201  3287 net.cpp:157] Top shape: 32 16 32 128 (2097152)
I0401 18:32:11.292204  3287 net.cpp:165] Memory required for data: 127926560
I0401 18:32:11.292208  3287 layer_factory.hpp:77] Creating layer conv2_1
I0401 18:32:11.292217  3287 net.cpp:100] Creating Layer conv2_1
I0401 18:32:11.292222  3287 net.cpp:434] conv2_1 <- conv1_2
I0401 18:32:11.292227  3287 net.cpp:408] conv2_1 -> conv2_1
I0401 18:32:11.292579  3287 net.cpp:150] Setting up conv2_1
I0401 18:32:11.292592  3287 net.cpp:157] Top shape: 32 32 32 128 (4194304)
I0401 18:32:11.292595  3287 net.cpp:165] Memory required for data: 144703776
I0401 18:32:11.292603  3287 layer_factory.hpp:77] Creating layer relu2_1
I0401 18:32:11.292609  3287 net.cpp:100] Creating Layer relu2_1
I0401 18:32:11.292614  3287 net.cpp:434] relu2_1 <- conv2_1
I0401 18:32:11.292619  3287 net.cpp:395] relu2_1 -> conv2_1 (in-place)
I0401 18:32:11.292625  3287 net.cpp:150] Setting up relu2_1
I0401 18:32:11.292630  3287 net.cpp:157] Top shape: 32 32 32 128 (4194304)
I0401 18:32:11.292634  3287 net.cpp:165] Memory required for data: 161480992
I0401 18:32:11.292637  3287 layer_factory.hpp:77] Creating layer conv2_2
I0401 18:32:11.292645  3287 net.cpp:100] Creating Layer conv2_2
I0401 18:32:11.292649  3287 net.cpp:434] conv2_2 <- conv2_1
I0401 18:32:11.292655  3287 net.cpp:408] conv2_2 -> conv2_2
I0401 18:32:11.293014  3287 net.cpp:150] Setting up conv2_2
I0401 18:32:11.293021  3287 net.cpp:157] Top shape: 32 32 16 64 (1048576)
I0401 18:32:11.293025  3287 net.cpp:165] Memory required for data: 165675296
I0401 18:32:11.293031  3287 layer_factory.hpp:77] Creating layer relu2_2
I0401 18:32:11.293037  3287 net.cpp:100] Creating Layer relu2_2
I0401 18:32:11.293041  3287 net.cpp:434] relu2_2 <- conv2_2
I0401 18:32:11.293046  3287 net.cpp:395] relu2_2 -> conv2_2 (in-place)
I0401 18:32:11.293052  3287 net.cpp:150] Setting up relu2_2
I0401 18:32:11.293057  3287 net.cpp:157] Top shape: 32 32 16 64 (1048576)
I0401 18:32:11.293061  3287 net.cpp:165] Memory required for data: 169869600
I0401 18:32:11.293064  3287 layer_factory.hpp:77] Creating layer conv3_1
I0401 18:32:11.293071  3287 net.cpp:100] Creating Layer conv3_1
I0401 18:32:11.293076  3287 net.cpp:434] conv3_1 <- conv2_2
I0401 18:32:11.293082  3287 net.cpp:408] conv3_1 -> conv3_1
I0401 18:32:11.293496  3287 net.cpp:150] Setting up conv3_1
I0401 18:32:11.293504  3287 net.cpp:157] Top shape: 32 64 16 64 (2097152)
I0401 18:32:11.293509  3287 net.cpp:165] Memory required for data: 178258208
I0401 18:32:11.293516  3287 layer_factory.hpp:77] Creating layer relu3_1
I0401 18:32:11.293522  3287 net.cpp:100] Creating Layer relu3_1
I0401 18:32:11.293526  3287 net.cpp:434] relu3_1 <- conv3_1
I0401 18:32:11.293531  3287 net.cpp:395] relu3_1 -> conv3_1 (in-place)
I0401 18:32:11.293539  3287 net.cpp:150] Setting up relu3_1
I0401 18:32:11.293542  3287 net.cpp:157] Top shape: 32 64 16 64 (2097152)
I0401 18:32:11.293546  3287 net.cpp:165] Memory required for data: 186646816
I0401 18:32:11.293556  3287 layer_factory.hpp:77] Creating layer conv3_2
I0401 18:32:11.293565  3287 net.cpp:100] Creating Layer conv3_2
I0401 18:32:11.293568  3287 net.cpp:434] conv3_2 <- conv3_1
I0401 18:32:11.293573  3287 net.cpp:408] conv3_2 -> conv3_2
I0401 18:32:11.294095  3287 net.cpp:150] Setting up conv3_2
I0401 18:32:11.294104  3287 net.cpp:157] Top shape: 32 64 16 64 (2097152)
I0401 18:32:11.294108  3287 net.cpp:165] Memory required for data: 195035424
I0401 18:32:11.294114  3287 layer_factory.hpp:77] Creating layer relu3_2
I0401 18:32:11.294121  3287 net.cpp:100] Creating Layer relu3_2
I0401 18:32:11.294124  3287 net.cpp:434] relu3_2 <- conv3_2
I0401 18:32:11.294128  3287 net.cpp:395] relu3_2 -> conv3_2 (in-place)
I0401 18:32:11.294134  3287 net.cpp:150] Setting up relu3_2
I0401 18:32:11.294140  3287 net.cpp:157] Top shape: 32 64 16 64 (2097152)
I0401 18:32:11.294143  3287 net.cpp:165] Memory required for data: 203424032
I0401 18:32:11.294147  3287 layer_factory.hpp:77] Creating layer conv3_3
I0401 18:32:11.294154  3287 net.cpp:100] Creating Layer conv3_3
I0401 18:32:11.294158  3287 net.cpp:434] conv3_3 <- conv3_2
I0401 18:32:11.294164  3287 net.cpp:408] conv3_3 -> conv3_3
I0401 18:32:11.294683  3287 net.cpp:150] Setting up conv3_3
I0401 18:32:11.294692  3287 net.cpp:157] Top shape: 32 64 16 64 (2097152)
I0401 18:32:11.294697  3287 net.cpp:165] Memory required for data: 211812640
I0401 18:32:11.294703  3287 layer_factory.hpp:77] Creating layer relu3_3
I0401 18:32:11.294708  3287 net.cpp:100] Creating Layer relu3_3
I0401 18:32:11.294713  3287 net.cpp:434] relu3_3 <- conv3_3
I0401 18:32:11.294718  3287 net.cpp:395] relu3_3 -> conv3_3 (in-place)
I0401 18:32:11.294723  3287 net.cpp:150] Setting up relu3_3
I0401 18:32:11.294728  3287 net.cpp:157] Top shape: 32 64 16 64 (2097152)
I0401 18:32:11.294731  3287 net.cpp:165] Memory required for data: 220201248
I0401 18:32:11.294735  3287 layer_factory.hpp:77] Creating layer pool3
I0401 18:32:11.294744  3287 net.cpp:100] Creating Layer pool3
I0401 18:32:11.294747  3287 net.cpp:434] pool3 <- conv3_3
I0401 18:32:11.294752  3287 net.cpp:408] pool3 -> pool3
I0401 18:32:11.294797  3287 net.cpp:150] Setting up pool3
I0401 18:32:11.294803  3287 net.cpp:157] Top shape: 32 64 8 32 (524288)
I0401 18:32:11.294807  3287 net.cpp:165] Memory required for data: 222298400
I0401 18:32:11.294811  3287 layer_factory.hpp:77] Creating layer conv4_1
I0401 18:32:11.294819  3287 net.cpp:100] Creating Layer conv4_1
I0401 18:32:11.294823  3287 net.cpp:434] conv4_1 <- pool3
I0401 18:32:11.294829  3287 net.cpp:408] conv4_1 -> conv4_1
I0401 18:32:11.295605  3287 net.cpp:150] Setting up conv4_1
I0401 18:32:11.295616  3287 net.cpp:157] Top shape: 32 128 8 32 (1048576)
I0401 18:32:11.295620  3287 net.cpp:165] Memory required for data: 226492704
I0401 18:32:11.295626  3287 layer_factory.hpp:77] Creating layer relu4_1
I0401 18:32:11.295632  3287 net.cpp:100] Creating Layer relu4_1
I0401 18:32:11.295636  3287 net.cpp:434] relu4_1 <- conv4_1
I0401 18:32:11.295641  3287 net.cpp:395] relu4_1 -> conv4_1 (in-place)
I0401 18:32:11.295647  3287 net.cpp:150] Setting up relu4_1
I0401 18:32:11.295652  3287 net.cpp:157] Top shape: 32 128 8 32 (1048576)
I0401 18:32:11.295656  3287 net.cpp:165] Memory required for data: 230687008
I0401 18:32:11.295660  3287 layer_factory.hpp:77] Creating layer conv4_2
I0401 18:32:11.295668  3287 net.cpp:100] Creating Layer conv4_2
I0401 18:32:11.295672  3287 net.cpp:434] conv4_2 <- conv4_1
I0401 18:32:11.295677  3287 net.cpp:408] conv4_2 -> conv4_2
I0401 18:32:11.296892  3287 net.cpp:150] Setting up conv4_2
I0401 18:32:11.296910  3287 net.cpp:157] Top shape: 32 128 8 32 (1048576)
I0401 18:32:11.296913  3287 net.cpp:165] Memory required for data: 234881312
I0401 18:32:11.296924  3287 layer_factory.hpp:77] Creating layer relu4_2
I0401 18:32:11.296931  3287 net.cpp:100] Creating Layer relu4_2
I0401 18:32:11.296936  3287 net.cpp:434] relu4_2 <- conv4_2
I0401 18:32:11.296943  3287 net.cpp:395] relu4_2 -> conv4_2 (in-place)
I0401 18:32:11.296950  3287 net.cpp:150] Setting up relu4_2
I0401 18:32:11.296962  3287 net.cpp:157] Top shape: 32 128 8 32 (1048576)
I0401 18:32:11.296967  3287 net.cpp:165] Memory required for data: 239075616
I0401 18:32:11.296970  3287 layer_factory.hpp:77] Creating layer conv4_3
I0401 18:32:11.296980  3287 net.cpp:100] Creating Layer conv4_3
I0401 18:32:11.296988  3287 net.cpp:434] conv4_3 <- conv4_2
I0401 18:32:11.296994  3287 net.cpp:408] conv4_3 -> conv4_3
I0401 18:32:11.299216  3287 net.cpp:150] Setting up conv4_3
I0401 18:32:11.299244  3287 net.cpp:157] Top shape: 32 128 8 32 (1048576)
I0401 18:32:11.299249  3287 net.cpp:165] Memory required for data: 243269920
I0401 18:32:11.299258  3287 layer_factory.hpp:77] Creating layer relu4_3
I0401 18:32:11.299268  3287 net.cpp:100] Creating Layer relu4_3
I0401 18:32:11.299273  3287 net.cpp:434] relu4_3 <- conv4_3
I0401 18:32:11.299280  3287 net.cpp:395] relu4_3 -> conv4_3 (in-place)
I0401 18:32:11.299290  3287 net.cpp:150] Setting up relu4_3
I0401 18:32:11.299295  3287 net.cpp:157] Top shape: 32 128 8 32 (1048576)
I0401 18:32:11.299299  3287 net.cpp:165] Memory required for data: 247464224
I0401 18:32:11.299304  3287 layer_factory.hpp:77] Creating layer conv4_3_relu4_3_0_split
I0401 18:32:11.299309  3287 net.cpp:100] Creating Layer conv4_3_relu4_3_0_split
I0401 18:32:11.299314  3287 net.cpp:434] conv4_3_relu4_3_0_split <- conv4_3
I0401 18:32:11.299319  3287 net.cpp:408] conv4_3_relu4_3_0_split -> conv4_3_relu4_3_0_split_0
I0401 18:32:11.299324  3287 net.cpp:408] conv4_3_relu4_3_0_split -> conv4_3_relu4_3_0_split_1
I0401 18:32:11.299367  3287 net.cpp:150] Setting up conv4_3_relu4_3_0_split
I0401 18:32:11.299373  3287 net.cpp:157] Top shape: 32 128 8 32 (1048576)
I0401 18:32:11.299378  3287 net.cpp:157] Top shape: 32 128 8 32 (1048576)
I0401 18:32:11.299382  3287 net.cpp:165] Memory required for data: 255852832
I0401 18:32:11.299386  3287 layer_factory.hpp:77] Creating layer pool4
I0401 18:32:11.299392  3287 net.cpp:100] Creating Layer pool4
I0401 18:32:11.299396  3287 net.cpp:434] pool4 <- conv4_3_relu4_3_0_split_0
I0401 18:32:11.299401  3287 net.cpp:408] pool4 -> pool4
I0401 18:32:11.299444  3287 net.cpp:150] Setting up pool4
I0401 18:32:11.299450  3287 net.cpp:157] Top shape: 32 128 4 16 (262144)
I0401 18:32:11.299453  3287 net.cpp:165] Memory required for data: 256901408
I0401 18:32:11.299458  3287 layer_factory.hpp:77] Creating layer conv5_1
I0401 18:32:11.299466  3287 net.cpp:100] Creating Layer conv5_1
I0401 18:32:11.299470  3287 net.cpp:434] conv5_1 <- pool4
I0401 18:32:11.299476  3287 net.cpp:408] conv5_1 -> conv5_1
I0401 18:32:11.300701  3287 net.cpp:150] Setting up conv5_1
I0401 18:32:11.300714  3287 net.cpp:157] Top shape: 32 128 4 16 (262144)
I0401 18:32:11.300719  3287 net.cpp:165] Memory required for data: 257949984
I0401 18:32:11.300725  3287 layer_factory.hpp:77] Creating layer relu5_1
I0401 18:32:11.300731  3287 net.cpp:100] Creating Layer relu5_1
I0401 18:32:11.300735  3287 net.cpp:434] relu5_1 <- conv5_1
I0401 18:32:11.300740  3287 net.cpp:395] relu5_1 -> conv5_1 (in-place)
I0401 18:32:11.300747  3287 net.cpp:150] Setting up relu5_1
I0401 18:32:11.300752  3287 net.cpp:157] Top shape: 32 128 4 16 (262144)
I0401 18:32:11.300756  3287 net.cpp:165] Memory required for data: 258998560
I0401 18:32:11.300760  3287 layer_factory.hpp:77] Creating layer conv5_2
I0401 18:32:11.300767  3287 net.cpp:100] Creating Layer conv5_2
I0401 18:32:11.300771  3287 net.cpp:434] conv5_2 <- conv5_1
I0401 18:32:11.300777  3287 net.cpp:408] conv5_2 -> conv5_2
I0401 18:32:11.301981  3287 net.cpp:150] Setting up conv5_2
I0401 18:32:11.301995  3287 net.cpp:157] Top shape: 32 128 4 16 (262144)
I0401 18:32:11.302000  3287 net.cpp:165] Memory required for data: 260047136
I0401 18:32:11.302006  3287 layer_factory.hpp:77] Creating layer relu5_2
I0401 18:32:11.302012  3287 net.cpp:100] Creating Layer relu5_2
I0401 18:32:11.302017  3287 net.cpp:434] relu5_2 <- conv5_2
I0401 18:32:11.302022  3287 net.cpp:395] relu5_2 -> conv5_2 (in-place)
I0401 18:32:11.302029  3287 net.cpp:150] Setting up relu5_2
I0401 18:32:11.302034  3287 net.cpp:157] Top shape: 32 128 4 16 (262144)
I0401 18:32:11.302044  3287 net.cpp:165] Memory required for data: 261095712
I0401 18:32:11.302048  3287 layer_factory.hpp:77] Creating layer conv5_3
I0401 18:32:11.302057  3287 net.cpp:100] Creating Layer conv5_3
I0401 18:32:11.302060  3287 net.cpp:434] conv5_3 <- conv5_2
I0401 18:32:11.302067  3287 net.cpp:408] conv5_3 -> conv5_3
I0401 18:32:11.305363  3287 net.cpp:150] Setting up conv5_3
I0401 18:32:11.305392  3287 net.cpp:157] Top shape: 32 128 4 16 (262144)
I0401 18:32:11.305397  3287 net.cpp:165] Memory required for data: 262144288
I0401 18:32:11.305407  3287 layer_factory.hpp:77] Creating layer relu5_3
I0401 18:32:11.305415  3287 net.cpp:100] Creating Layer relu5_3
I0401 18:32:11.305421  3287 net.cpp:434] relu5_3 <- conv5_3
I0401 18:32:11.305428  3287 net.cpp:395] relu5_3 -> conv5_3 (in-place)
I0401 18:32:11.305438  3287 net.cpp:150] Setting up relu5_3
I0401 18:32:11.305443  3287 net.cpp:157] Top shape: 32 128 4 16 (262144)
I0401 18:32:11.305446  3287 net.cpp:165] Memory required for data: 263192864
I0401 18:32:11.305451  3287 layer_factory.hpp:77] Creating layer pool5
I0401 18:32:11.305459  3287 net.cpp:100] Creating Layer pool5
I0401 18:32:11.305462  3287 net.cpp:434] pool5 <- conv5_3
I0401 18:32:11.305467  3287 net.cpp:408] pool5 -> pool5
I0401 18:32:11.305517  3287 net.cpp:150] Setting up pool5
I0401 18:32:11.305523  3287 net.cpp:157] Top shape: 32 128 4 16 (262144)
I0401 18:32:11.305527  3287 net.cpp:165] Memory required for data: 264241440
I0401 18:32:11.305531  3287 layer_factory.hpp:77] Creating layer fc6_conv
I0401 18:32:11.305543  3287 net.cpp:100] Creating Layer fc6_conv
I0401 18:32:11.305547  3287 net.cpp:434] fc6_conv <- pool5
I0401 18:32:11.305554  3287 net.cpp:408] fc6_conv -> fc6_conv
I0401 18:32:11.307696  3287 net.cpp:150] Setting up fc6_conv
I0401 18:32:11.307718  3287 net.cpp:157] Top shape: 32 256 4 16 (524288)
I0401 18:32:11.307723  3287 net.cpp:165] Memory required for data: 266338592
I0401 18:32:11.307730  3287 layer_factory.hpp:77] Creating layer relu6
I0401 18:32:11.307739  3287 net.cpp:100] Creating Layer relu6
I0401 18:32:11.307744  3287 net.cpp:434] relu6 <- fc6_conv
I0401 18:32:11.307749  3287 net.cpp:395] relu6 -> fc6_conv (in-place)
I0401 18:32:11.307757  3287 net.cpp:150] Setting up relu6
I0401 18:32:11.307762  3287 net.cpp:157] Top shape: 32 256 4 16 (524288)
I0401 18:32:11.307766  3287 net.cpp:165] Memory required for data: 268435744
I0401 18:32:11.307770  3287 layer_factory.hpp:77] Creating layer fc7_conv
I0401 18:32:11.307780  3287 net.cpp:100] Creating Layer fc7_conv
I0401 18:32:11.307782  3287 net.cpp:434] fc7_conv <- fc6_conv
I0401 18:32:11.307790  3287 net.cpp:408] fc7_conv -> fc7_conv
I0401 18:32:11.308526  3287 net.cpp:150] Setting up fc7_conv
I0401 18:32:11.308542  3287 net.cpp:157] Top shape: 32 256 4 16 (524288)
I0401 18:32:11.308545  3287 net.cpp:165] Memory required for data: 270532896
I0401 18:32:11.308552  3287 layer_factory.hpp:77] Creating layer relu7
I0401 18:32:11.308559  3287 net.cpp:100] Creating Layer relu7
I0401 18:32:11.308564  3287 net.cpp:434] relu7 <- fc7_conv
I0401 18:32:11.308569  3287 net.cpp:395] relu7 -> fc7_conv (in-place)
I0401 18:32:11.308576  3287 net.cpp:150] Setting up relu7
I0401 18:32:11.308581  3287 net.cpp:157] Top shape: 32 256 4 16 (524288)
I0401 18:32:11.308585  3287 net.cpp:165] Memory required for data: 272630048
I0401 18:32:11.308589  3287 layer_factory.hpp:77] Creating layer fc7_conv_relu7_0_split
I0401 18:32:11.308595  3287 net.cpp:100] Creating Layer fc7_conv_relu7_0_split
I0401 18:32:11.308599  3287 net.cpp:434] fc7_conv_relu7_0_split <- fc7_conv
I0401 18:32:11.308604  3287 net.cpp:408] fc7_conv_relu7_0_split -> fc7_conv_relu7_0_split_0
I0401 18:32:11.308610  3287 net.cpp:408] fc7_conv_relu7_0_split -> fc7_conv_relu7_0_split_1
I0401 18:32:11.308616  3287 net.cpp:408] fc7_conv_relu7_0_split -> fc7_conv_relu7_0_split_2
I0401 18:32:11.308676  3287 net.cpp:150] Setting up fc7_conv_relu7_0_split
I0401 18:32:11.308681  3287 net.cpp:157] Top shape: 32 256 4 16 (524288)
I0401 18:32:11.308687  3287 net.cpp:157] Top shape: 32 256 4 16 (524288)
I0401 18:32:11.308698  3287 net.cpp:157] Top shape: 32 256 4 16 (524288)
I0401 18:32:11.308702  3287 net.cpp:165] Memory required for data: 278921504
I0401 18:32:11.308706  3287 layer_factory.hpp:77] Creating layer conv6_1
I0401 18:32:11.308714  3287 net.cpp:100] Creating Layer conv6_1
I0401 18:32:11.308718  3287 net.cpp:434] conv6_1 <- fc7_conv_relu7_0_split_0
I0401 18:32:11.308725  3287 net.cpp:408] conv6_1 -> conv6_1
I0401 18:32:11.309090  3287 net.cpp:150] Setting up conv6_1
I0401 18:32:11.309098  3287 net.cpp:157] Top shape: 32 32 4 16 (65536)
I0401 18:32:11.309101  3287 net.cpp:165] Memory required for data: 279183648
I0401 18:32:11.309108  3287 layer_factory.hpp:77] Creating layer conv6_1_relu
I0401 18:32:11.309113  3287 net.cpp:100] Creating Layer conv6_1_relu
I0401 18:32:11.309118  3287 net.cpp:434] conv6_1_relu <- conv6_1
I0401 18:32:11.309123  3287 net.cpp:395] conv6_1_relu -> conv6_1 (in-place)
I0401 18:32:11.309129  3287 net.cpp:150] Setting up conv6_1_relu
I0401 18:32:11.309134  3287 net.cpp:157] Top shape: 32 32 4 16 (65536)
I0401 18:32:11.309137  3287 net.cpp:165] Memory required for data: 279445792
I0401 18:32:11.309141  3287 layer_factory.hpp:77] Creating layer conv6_2
I0401 18:32:11.309149  3287 net.cpp:100] Creating Layer conv6_2
I0401 18:32:11.309152  3287 net.cpp:434] conv6_2 <- conv6_1
I0401 18:32:11.309159  3287 net.cpp:408] conv6_2 -> conv6_2
I0401 18:32:11.309587  3287 net.cpp:150] Setting up conv6_2
I0401 18:32:11.309595  3287 net.cpp:157] Top shape: 32 64 2 8 (32768)
I0401 18:32:11.309599  3287 net.cpp:165] Memory required for data: 279576864
I0401 18:32:11.309610  3287 layer_factory.hpp:77] Creating layer conv6_2_relu
I0401 18:32:11.309615  3287 net.cpp:100] Creating Layer conv6_2_relu
I0401 18:32:11.309619  3287 net.cpp:434] conv6_2_relu <- conv6_2
I0401 18:32:11.309624  3287 net.cpp:395] conv6_2_relu -> conv6_2 (in-place)
I0401 18:32:11.309630  3287 net.cpp:150] Setting up conv6_2_relu
I0401 18:32:11.309635  3287 net.cpp:157] Top shape: 32 64 2 8 (32768)
I0401 18:32:11.309638  3287 net.cpp:165] Memory required for data: 279707936
I0401 18:32:11.309643  3287 layer_factory.hpp:77] Creating layer conv6_2_conv6_2_relu_0_split
I0401 18:32:11.309648  3287 net.cpp:100] Creating Layer conv6_2_conv6_2_relu_0_split
I0401 18:32:11.309651  3287 net.cpp:434] conv6_2_conv6_2_relu_0_split <- conv6_2
I0401 18:32:11.309656  3287 net.cpp:408] conv6_2_conv6_2_relu_0_split -> conv6_2_conv6_2_relu_0_split_0
I0401 18:32:11.309664  3287 net.cpp:408] conv6_2_conv6_2_relu_0_split -> conv6_2_conv6_2_relu_0_split_1
I0401 18:32:11.309669  3287 net.cpp:408] conv6_2_conv6_2_relu_0_split -> conv6_2_conv6_2_relu_0_split_2
I0401 18:32:11.309731  3287 net.cpp:150] Setting up conv6_2_conv6_2_relu_0_split
I0401 18:32:11.309737  3287 net.cpp:157] Top shape: 32 64 2 8 (32768)
I0401 18:32:11.309742  3287 net.cpp:157] Top shape: 32 64 2 8 (32768)
I0401 18:32:11.309746  3287 net.cpp:157] Top shape: 32 64 2 8 (32768)
I0401 18:32:11.309751  3287 net.cpp:165] Memory required for data: 280101152
I0401 18:32:11.309754  3287 layer_factory.hpp:77] Creating layer conv7_1
I0401 18:32:11.309762  3287 net.cpp:100] Creating Layer conv7_1
I0401 18:32:11.309765  3287 net.cpp:434] conv7_1 <- conv6_2_conv6_2_relu_0_split_0
I0401 18:32:11.309772  3287 net.cpp:408] conv7_1 -> conv7_1
I0401 18:32:11.310073  3287 net.cpp:150] Setting up conv7_1
I0401 18:32:11.310081  3287 net.cpp:157] Top shape: 32 16 2 8 (8192)
I0401 18:32:11.310086  3287 net.cpp:165] Memory required for data: 280133920
I0401 18:32:11.310091  3287 layer_factory.hpp:77] Creating layer conv7_1_relu
I0401 18:32:11.310096  3287 net.cpp:100] Creating Layer conv7_1_relu
I0401 18:32:11.310101  3287 net.cpp:434] conv7_1_relu <- conv7_1
I0401 18:32:11.310106  3287 net.cpp:395] conv7_1_relu -> conv7_1 (in-place)
I0401 18:32:11.310111  3287 net.cpp:150] Setting up conv7_1_relu
I0401 18:32:11.310117  3287 net.cpp:157] Top shape: 32 16 2 8 (8192)
I0401 18:32:11.310119  3287 net.cpp:165] Memory required for data: 280166688
I0401 18:32:11.310123  3287 layer_factory.hpp:77] Creating layer conv7_2
I0401 18:32:11.310133  3287 net.cpp:100] Creating Layer conv7_2
I0401 18:32:11.310138  3287 net.cpp:434] conv7_2 <- conv7_1
I0401 18:32:11.310144  3287 net.cpp:408] conv7_2 -> conv7_2
I0401 18:32:11.310470  3287 net.cpp:150] Setting up conv7_2
I0401 18:32:11.310478  3287 net.cpp:157] Top shape: 32 32 1 4 (4096)
I0401 18:32:11.310482  3287 net.cpp:165] Memory required for data: 280183072
I0401 18:32:11.310488  3287 layer_factory.hpp:77] Creating layer conv7_2_relu
I0401 18:32:11.310494  3287 net.cpp:100] Creating Layer conv7_2_relu
I0401 18:32:11.310498  3287 net.cpp:434] conv7_2_relu <- conv7_2
I0401 18:32:11.310503  3287 net.cpp:395] conv7_2_relu -> conv7_2 (in-place)
I0401 18:32:11.310509  3287 net.cpp:150] Setting up conv7_2_relu
I0401 18:32:11.310514  3287 net.cpp:157] Top shape: 32 32 1 4 (4096)
I0401 18:32:11.310518  3287 net.cpp:165] Memory required for data: 280199456
I0401 18:32:11.310521  3287 layer_factory.hpp:77] Creating layer conv7_2_conv7_2_relu_0_split
I0401 18:32:11.310526  3287 net.cpp:100] Creating Layer conv7_2_conv7_2_relu_0_split
I0401 18:32:11.310530  3287 net.cpp:434] conv7_2_conv7_2_relu_0_split <- conv7_2
I0401 18:32:11.310536  3287 net.cpp:408] conv7_2_conv7_2_relu_0_split -> conv7_2_conv7_2_relu_0_split_0
I0401 18:32:11.310542  3287 net.cpp:408] conv7_2_conv7_2_relu_0_split -> conv7_2_conv7_2_relu_0_split_1
I0401 18:32:11.310549  3287 net.cpp:408] conv7_2_conv7_2_relu_0_split -> conv7_2_conv7_2_relu_0_split_2
I0401 18:32:11.310606  3287 net.cpp:150] Setting up conv7_2_conv7_2_relu_0_split
I0401 18:32:11.310611  3287 net.cpp:157] Top shape: 32 32 1 4 (4096)
I0401 18:32:11.310616  3287 net.cpp:157] Top shape: 32 32 1 4 (4096)
I0401 18:32:11.310621  3287 net.cpp:157] Top shape: 32 32 1 4 (4096)
I0401 18:32:11.310624  3287 net.cpp:165] Memory required for data: 280248608
I0401 18:32:11.310628  3287 layer_factory.hpp:77] Creating layer pool6
I0401 18:32:11.310634  3287 net.cpp:100] Creating Layer pool6
I0401 18:32:11.310638  3287 net.cpp:434] pool6 <- conv7_2_conv7_2_relu_0_split_0
I0401 18:32:11.310643  3287 net.cpp:408] pool6 -> pool6
I0401 18:32:11.310669  3287 net.cpp:150] Setting up pool6
I0401 18:32:11.310675  3287 net.cpp:157] Top shape: 32 32 1 1 (1024)
I0401 18:32:11.310678  3287 net.cpp:165] Memory required for data: 280252704
I0401 18:32:11.310683  3287 layer_factory.hpp:77] Creating layer pool6_pool6_0_split
I0401 18:32:11.310688  3287 net.cpp:100] Creating Layer pool6_pool6_0_split
I0401 18:32:11.310691  3287 net.cpp:434] pool6_pool6_0_split <- pool6
I0401 18:32:11.310696  3287 net.cpp:408] pool6_pool6_0_split -> pool6_pool6_0_split_0
I0401 18:32:11.310701  3287 net.cpp:408] pool6_pool6_0_split -> pool6_pool6_0_split_1
I0401 18:32:11.310739  3287 net.cpp:150] Setting up pool6_pool6_0_split
I0401 18:32:11.310745  3287 net.cpp:157] Top shape: 32 32 1 1 (1024)
I0401 18:32:11.310750  3287 net.cpp:157] Top shape: 32 32 1 1 (1024)
I0401 18:32:11.310753  3287 net.cpp:165] Memory required for data: 280260896
I0401 18:32:11.310757  3287 layer_factory.hpp:77] Creating layer conv4_3_norm
I0401 18:32:11.310763  3287 net.cpp:100] Creating Layer conv4_3_norm
I0401 18:32:11.310767  3287 net.cpp:434] conv4_3_norm <- conv4_3_relu4_3_0_split_1
I0401 18:32:11.310773  3287 net.cpp:408] conv4_3_norm -> conv4_3_norm
I0401 18:32:11.310937  3287 net.cpp:150] Setting up conv4_3_norm
I0401 18:32:11.310945  3287 net.cpp:157] Top shape: 32 128 8 32 (1048576)
I0401 18:32:11.310948  3287 net.cpp:165] Memory required for data: 284455200
I0401 18:32:11.310953  3287 layer_factory.hpp:77] Creating layer conv4_3_norm_conv4_3_norm_0_split
I0401 18:32:11.310958  3287 net.cpp:100] Creating Layer conv4_3_norm_conv4_3_norm_0_split
I0401 18:32:11.310962  3287 net.cpp:434] conv4_3_norm_conv4_3_norm_0_split <- conv4_3_norm
I0401 18:32:11.310967  3287 net.cpp:408] conv4_3_norm_conv4_3_norm_0_split -> conv4_3_norm_conv4_3_norm_0_split_0
I0401 18:32:11.310973  3287 net.cpp:408] conv4_3_norm_conv4_3_norm_0_split -> conv4_3_norm_conv4_3_norm_0_split_1
I0401 18:32:11.311012  3287 net.cpp:150] Setting up conv4_3_norm_conv4_3_norm_0_split
I0401 18:32:11.311022  3287 net.cpp:157] Top shape: 32 128 8 32 (1048576)
I0401 18:32:11.311027  3287 net.cpp:157] Top shape: 32 128 8 32 (1048576)
I0401 18:32:11.311029  3287 net.cpp:165] Memory required for data: 292843808
I0401 18:32:11.311033  3287 layer_factory.hpp:77] Creating layer conv4_3_norm_mbox_loc_conf
I0401 18:32:11.311041  3287 net.cpp:100] Creating Layer conv4_3_norm_mbox_loc_conf
I0401 18:32:11.311045  3287 net.cpp:434] conv4_3_norm_mbox_loc_conf <- conv4_3_norm_conv4_3_norm_0_split_0
I0401 18:32:11.311051  3287 net.cpp:408] conv4_3_norm_mbox_loc_conf -> conv4_3_norm_mbox_loc_conf
I0401 18:32:11.311688  3287 net.cpp:150] Setting up conv4_3_norm_mbox_loc_conf
I0401 18:32:11.311695  3287 net.cpp:157] Top shape: 32 48 8 32 (393216)
I0401 18:32:11.311699  3287 net.cpp:165] Memory required for data: 294416672
I0401 18:32:11.311705  3287 layer_factory.hpp:77] Creating layer conv4_3_norm_mbox_loc_conf_perm
I0401 18:32:11.311712  3287 net.cpp:100] Creating Layer conv4_3_norm_mbox_loc_conf_perm
I0401 18:32:11.311717  3287 net.cpp:434] conv4_3_norm_mbox_loc_conf_perm <- conv4_3_norm_mbox_loc_conf
I0401 18:32:11.311722  3287 net.cpp:408] conv4_3_norm_mbox_loc_conf_perm -> conv4_3_norm_mbox_loc_conf_perm
I0401 18:32:11.311833  3287 net.cpp:150] Setting up conv4_3_norm_mbox_loc_conf_perm
I0401 18:32:11.311841  3287 net.cpp:157] Top shape: 32 8 32 48 (393216)
I0401 18:32:11.311844  3287 net.cpp:165] Memory required for data: 295989536
I0401 18:32:11.311847  3287 layer_factory.hpp:77] Creating layer conv4_3_norm_mbox_loc_perm
I0401 18:32:11.311854  3287 net.cpp:100] Creating Layer conv4_3_norm_mbox_loc_perm
I0401 18:32:11.311858  3287 net.cpp:434] conv4_3_norm_mbox_loc_perm <- conv4_3_norm_mbox_loc_conf_perm
I0401 18:32:11.311863  3287 net.cpp:408] conv4_3_norm_mbox_loc_perm -> conv4_3_norm_mbox_loc_perm
I0401 18:32:11.311870  3287 net.cpp:408] conv4_3_norm_mbox_loc_perm -> conv4_3_norm_mbox_conf_perm
I0401 18:32:11.311910  3287 net.cpp:150] Setting up conv4_3_norm_mbox_loc_perm
I0401 18:32:11.311916  3287 net.cpp:157] Top shape: 32 8 32 24 (196608)
I0401 18:32:11.311921  3287 net.cpp:157] Top shape: 32 8 32 24 (196608)
I0401 18:32:11.311924  3287 net.cpp:165] Memory required for data: 297562400
I0401 18:32:11.311928  3287 layer_factory.hpp:77] Creating layer conv4_3_norm_mbox_loc_flat
I0401 18:32:11.311934  3287 net.cpp:100] Creating Layer conv4_3_norm_mbox_loc_flat
I0401 18:32:11.311939  3287 net.cpp:434] conv4_3_norm_mbox_loc_flat <- conv4_3_norm_mbox_loc_perm
I0401 18:32:11.311944  3287 net.cpp:408] conv4_3_norm_mbox_loc_flat -> conv4_3_norm_mbox_loc_flat
I0401 18:32:11.311969  3287 net.cpp:150] Setting up conv4_3_norm_mbox_loc_flat
I0401 18:32:11.311975  3287 net.cpp:157] Top shape: 32 6144 (196608)
I0401 18:32:11.311978  3287 net.cpp:165] Memory required for data: 298348832
I0401 18:32:11.311982  3287 layer_factory.hpp:77] Creating layer conv4_3_norm_mbox_conf_flat
I0401 18:32:11.311987  3287 net.cpp:100] Creating Layer conv4_3_norm_mbox_conf_flat
I0401 18:32:11.311991  3287 net.cpp:434] conv4_3_norm_mbox_conf_flat <- conv4_3_norm_mbox_conf_perm
I0401 18:32:11.311996  3287 net.cpp:408] conv4_3_norm_mbox_conf_flat -> conv4_3_norm_mbox_conf_flat
I0401 18:32:11.312021  3287 net.cpp:150] Setting up conv4_3_norm_mbox_conf_flat
I0401 18:32:11.312027  3287 net.cpp:157] Top shape: 32 6144 (196608)
I0401 18:32:11.312031  3287 net.cpp:165] Memory required for data: 299135264
I0401 18:32:11.312036  3287 layer_factory.hpp:77] Creating layer conv4_3_norm_mbox_priorbox
I0401 18:32:11.312041  3287 net.cpp:100] Creating Layer conv4_3_norm_mbox_priorbox
I0401 18:32:11.312046  3287 net.cpp:434] conv4_3_norm_mbox_priorbox <- conv4_3_norm_conv4_3_norm_0_split_1
I0401 18:32:11.312049  3287 net.cpp:434] conv4_3_norm_mbox_priorbox <- data_data_0_split_1
I0401 18:32:11.312055  3287 net.cpp:408] conv4_3_norm_mbox_priorbox -> conv4_3_norm_mbox_priorbox
I0401 18:32:11.312081  3287 net.cpp:150] Setting up conv4_3_norm_mbox_priorbox
I0401 18:32:11.312088  3287 net.cpp:157] Top shape: 1 2 6144 (12288)
I0401 18:32:11.312095  3287 net.cpp:165] Memory required for data: 299184416
I0401 18:32:11.312099  3287 layer_factory.hpp:77] Creating layer fc7_conv_mbox_loc_conf
I0401 18:32:11.312106  3287 net.cpp:100] Creating Layer fc7_conv_mbox_loc_conf
I0401 18:32:11.312110  3287 net.cpp:434] fc7_conv_mbox_loc_conf <- fc7_conv_relu7_0_split_1
I0401 18:32:11.312116  3287 net.cpp:408] fc7_conv_mbox_loc_conf -> fc7_conv_mbox_loc_conf
I0401 18:32:11.314062  3287 net.cpp:150] Setting up fc7_conv_mbox_loc_conf
I0401 18:32:11.314075  3287 net.cpp:157] Top shape: 32 48 4 16 (98304)
I0401 18:32:11.314079  3287 net.cpp:165] Memory required for data: 299577632
I0401 18:32:11.314086  3287 layer_factory.hpp:77] Creating layer fc7_conv_mbox_loc_conf_perm
I0401 18:32:11.314092  3287 net.cpp:100] Creating Layer fc7_conv_mbox_loc_conf_perm
I0401 18:32:11.314097  3287 net.cpp:434] fc7_conv_mbox_loc_conf_perm <- fc7_conv_mbox_loc_conf
I0401 18:32:11.314102  3287 net.cpp:408] fc7_conv_mbox_loc_conf_perm -> fc7_conv_mbox_loc_conf_perm
I0401 18:32:11.314219  3287 net.cpp:150] Setting up fc7_conv_mbox_loc_conf_perm
I0401 18:32:11.314226  3287 net.cpp:157] Top shape: 32 4 16 48 (98304)
I0401 18:32:11.314230  3287 net.cpp:165] Memory required for data: 299970848
I0401 18:32:11.314234  3287 layer_factory.hpp:77] Creating layer fc7_conv_mbox_loc_perm
I0401 18:32:11.314239  3287 net.cpp:100] Creating Layer fc7_conv_mbox_loc_perm
I0401 18:32:11.314244  3287 net.cpp:434] fc7_conv_mbox_loc_perm <- fc7_conv_mbox_loc_conf_perm
I0401 18:32:11.314249  3287 net.cpp:408] fc7_conv_mbox_loc_perm -> fc7_conv_mbox_loc_perm
I0401 18:32:11.314255  3287 net.cpp:408] fc7_conv_mbox_loc_perm -> fc7_conv_mbox_conf_perm
I0401 18:32:11.314294  3287 net.cpp:150] Setting up fc7_conv_mbox_loc_perm
I0401 18:32:11.314301  3287 net.cpp:157] Top shape: 32 4 16 24 (49152)
I0401 18:32:11.314306  3287 net.cpp:157] Top shape: 32 4 16 24 (49152)
I0401 18:32:11.314309  3287 net.cpp:165] Memory required for data: 300364064
I0401 18:32:11.314313  3287 layer_factory.hpp:77] Creating layer fc7_conv_mbox_loc_flat
I0401 18:32:11.314318  3287 net.cpp:100] Creating Layer fc7_conv_mbox_loc_flat
I0401 18:32:11.314322  3287 net.cpp:434] fc7_conv_mbox_loc_flat <- fc7_conv_mbox_loc_perm
I0401 18:32:11.314327  3287 net.cpp:408] fc7_conv_mbox_loc_flat -> fc7_conv_mbox_loc_flat
I0401 18:32:11.314352  3287 net.cpp:150] Setting up fc7_conv_mbox_loc_flat
I0401 18:32:11.314357  3287 net.cpp:157] Top shape: 32 1536 (49152)
I0401 18:32:11.314362  3287 net.cpp:165] Memory required for data: 300560672
I0401 18:32:11.314365  3287 layer_factory.hpp:77] Creating layer fc7_conv_mbox_conf_flat
I0401 18:32:11.314370  3287 net.cpp:100] Creating Layer fc7_conv_mbox_conf_flat
I0401 18:32:11.314374  3287 net.cpp:434] fc7_conv_mbox_conf_flat <- fc7_conv_mbox_conf_perm
I0401 18:32:11.314379  3287 net.cpp:408] fc7_conv_mbox_conf_flat -> fc7_conv_mbox_conf_flat
I0401 18:32:11.314404  3287 net.cpp:150] Setting up fc7_conv_mbox_conf_flat
I0401 18:32:11.314410  3287 net.cpp:157] Top shape: 32 1536 (49152)
I0401 18:32:11.314414  3287 net.cpp:165] Memory required for data: 300757280
I0401 18:32:11.314419  3287 layer_factory.hpp:77] Creating layer fc7_conv_mbox_priorbox
I0401 18:32:11.314424  3287 net.cpp:100] Creating Layer fc7_conv_mbox_priorbox
I0401 18:32:11.314429  3287 net.cpp:434] fc7_conv_mbox_priorbox <- fc7_conv_relu7_0_split_2
I0401 18:32:11.314434  3287 net.cpp:434] fc7_conv_mbox_priorbox <- data_data_0_split_2
I0401 18:32:11.314438  3287 net.cpp:408] fc7_conv_mbox_priorbox -> fc7_conv_mbox_priorbox
I0401 18:32:11.314465  3287 net.cpp:150] Setting up fc7_conv_mbox_priorbox
I0401 18:32:11.314471  3287 net.cpp:157] Top shape: 1 2 1536 (3072)
I0401 18:32:11.314474  3287 net.cpp:165] Memory required for data: 300769568
I0401 18:32:11.314478  3287 layer_factory.hpp:77] Creating layer conv6_2_mbox_loc_conf
I0401 18:32:11.314486  3287 net.cpp:100] Creating Layer conv6_2_mbox_loc_conf
I0401 18:32:11.314491  3287 net.cpp:434] conv6_2_mbox_loc_conf <- conv6_2_conv6_2_relu_0_split_1
I0401 18:32:11.314496  3287 net.cpp:408] conv6_2_mbox_loc_conf -> conv6_2_mbox_loc_conf
I0401 18:32:11.314970  3287 net.cpp:150] Setting up conv6_2_mbox_loc_conf
I0401 18:32:11.314977  3287 net.cpp:157] Top shape: 32 48 2 8 (24576)
I0401 18:32:11.314981  3287 net.cpp:165] Memory required for data: 300867872
I0401 18:32:11.314987  3287 layer_factory.hpp:77] Creating layer conv6_2_mbox_loc_conf_perm
I0401 18:32:11.314998  3287 net.cpp:100] Creating Layer conv6_2_mbox_loc_conf_perm
I0401 18:32:11.315003  3287 net.cpp:434] conv6_2_mbox_loc_conf_perm <- conv6_2_mbox_loc_conf
I0401 18:32:11.315009  3287 net.cpp:408] conv6_2_mbox_loc_conf_perm -> conv6_2_mbox_loc_conf_perm
I0401 18:32:11.315137  3287 net.cpp:150] Setting up conv6_2_mbox_loc_conf_perm
I0401 18:32:11.315143  3287 net.cpp:157] Top shape: 32 2 8 48 (24576)
I0401 18:32:11.315148  3287 net.cpp:165] Memory required for data: 300966176
I0401 18:32:11.315152  3287 layer_factory.hpp:77] Creating layer conv6_2_mbox_loc_perm
I0401 18:32:11.315157  3287 net.cpp:100] Creating Layer conv6_2_mbox_loc_perm
I0401 18:32:11.315161  3287 net.cpp:434] conv6_2_mbox_loc_perm <- conv6_2_mbox_loc_conf_perm
I0401 18:32:11.315166  3287 net.cpp:408] conv6_2_mbox_loc_perm -> conv6_2_mbox_loc_perm
I0401 18:32:11.315173  3287 net.cpp:408] conv6_2_mbox_loc_perm -> conv6_2_mbox_conf_perm
I0401 18:32:11.315217  3287 net.cpp:150] Setting up conv6_2_mbox_loc_perm
I0401 18:32:11.315223  3287 net.cpp:157] Top shape: 32 2 8 24 (12288)
I0401 18:32:11.315228  3287 net.cpp:157] Top shape: 32 2 8 24 (12288)
I0401 18:32:11.315232  3287 net.cpp:165] Memory required for data: 301064480
I0401 18:32:11.315237  3287 layer_factory.hpp:77] Creating layer conv6_2_mbox_loc_flat
I0401 18:32:11.315241  3287 net.cpp:100] Creating Layer conv6_2_mbox_loc_flat
I0401 18:32:11.315245  3287 net.cpp:434] conv6_2_mbox_loc_flat <- conv6_2_mbox_loc_perm
I0401 18:32:11.315251  3287 net.cpp:408] conv6_2_mbox_loc_flat -> conv6_2_mbox_loc_flat
I0401 18:32:11.315275  3287 net.cpp:150] Setting up conv6_2_mbox_loc_flat
I0401 18:32:11.315281  3287 net.cpp:157] Top shape: 32 384 (12288)
I0401 18:32:11.315285  3287 net.cpp:165] Memory required for data: 301113632
I0401 18:32:11.315289  3287 layer_factory.hpp:77] Creating layer conv6_2_mbox_conf_flat
I0401 18:32:11.315294  3287 net.cpp:100] Creating Layer conv6_2_mbox_conf_flat
I0401 18:32:11.315299  3287 net.cpp:434] conv6_2_mbox_conf_flat <- conv6_2_mbox_conf_perm
I0401 18:32:11.315304  3287 net.cpp:408] conv6_2_mbox_conf_flat -> conv6_2_mbox_conf_flat
I0401 18:32:11.315328  3287 net.cpp:150] Setting up conv6_2_mbox_conf_flat
I0401 18:32:11.315335  3287 net.cpp:157] Top shape: 32 384 (12288)
I0401 18:32:11.315338  3287 net.cpp:165] Memory required for data: 301162784
I0401 18:32:11.315341  3287 layer_factory.hpp:77] Creating layer conv6_2_mbox_priorbox
I0401 18:32:11.315347  3287 net.cpp:100] Creating Layer conv6_2_mbox_priorbox
I0401 18:32:11.315351  3287 net.cpp:434] conv6_2_mbox_priorbox <- conv6_2_conv6_2_relu_0_split_2
I0401 18:32:11.315356  3287 net.cpp:434] conv6_2_mbox_priorbox <- data_data_0_split_3
I0401 18:32:11.315361  3287 net.cpp:408] conv6_2_mbox_priorbox -> conv6_2_mbox_priorbox
I0401 18:32:11.315387  3287 net.cpp:150] Setting up conv6_2_mbox_priorbox
I0401 18:32:11.315392  3287 net.cpp:157] Top shape: 1 2 384 (768)
I0401 18:32:11.315397  3287 net.cpp:165] Memory required for data: 301165856
I0401 18:32:11.315399  3287 layer_factory.hpp:77] Creating layer conv7_2_mbox_loc_conf
I0401 18:32:11.315407  3287 net.cpp:100] Creating Layer conv7_2_mbox_loc_conf
I0401 18:32:11.315412  3287 net.cpp:434] conv7_2_mbox_loc_conf <- conv7_2_conv7_2_relu_0_split_1
I0401 18:32:11.315418  3287 net.cpp:408] conv7_2_mbox_loc_conf -> conv7_2_mbox_loc_conf
I0401 18:32:11.315798  3287 net.cpp:150] Setting up conv7_2_mbox_loc_conf
I0401 18:32:11.315804  3287 net.cpp:157] Top shape: 32 48 1 4 (6144)
I0401 18:32:11.315809  3287 net.cpp:165] Memory required for data: 301190432
I0401 18:32:11.315814  3287 layer_factory.hpp:77] Creating layer conv7_2_mbox_loc_conf_perm
I0401 18:32:11.315820  3287 net.cpp:100] Creating Layer conv7_2_mbox_loc_conf_perm
I0401 18:32:11.315827  3287 net.cpp:434] conv7_2_mbox_loc_conf_perm <- conv7_2_mbox_loc_conf
I0401 18:32:11.315834  3287 net.cpp:408] conv7_2_mbox_loc_conf_perm -> conv7_2_mbox_loc_conf_perm
I0401 18:32:11.315948  3287 net.cpp:150] Setting up conv7_2_mbox_loc_conf_perm
I0401 18:32:11.315954  3287 net.cpp:157] Top shape: 32 1 4 48 (6144)
I0401 18:32:11.315958  3287 net.cpp:165] Memory required for data: 301215008
I0401 18:32:11.315961  3287 layer_factory.hpp:77] Creating layer conv7_2_mbox_loc_perm
I0401 18:32:11.315966  3287 net.cpp:100] Creating Layer conv7_2_mbox_loc_perm
I0401 18:32:11.315971  3287 net.cpp:434] conv7_2_mbox_loc_perm <- conv7_2_mbox_loc_conf_perm
I0401 18:32:11.315976  3287 net.cpp:408] conv7_2_mbox_loc_perm -> conv7_2_mbox_loc_perm
I0401 18:32:11.315982  3287 net.cpp:408] conv7_2_mbox_loc_perm -> conv7_2_mbox_conf_perm
I0401 18:32:11.316022  3287 net.cpp:150] Setting up conv7_2_mbox_loc_perm
I0401 18:32:11.316028  3287 net.cpp:157] Top shape: 32 1 4 24 (3072)
I0401 18:32:11.316033  3287 net.cpp:157] Top shape: 32 1 4 24 (3072)
I0401 18:32:11.316037  3287 net.cpp:165] Memory required for data: 301239584
I0401 18:32:11.316040  3287 layer_factory.hpp:77] Creating layer conv7_2_mbox_loc_flat
I0401 18:32:11.316045  3287 net.cpp:100] Creating Layer conv7_2_mbox_loc_flat
I0401 18:32:11.316049  3287 net.cpp:434] conv7_2_mbox_loc_flat <- conv7_2_mbox_loc_perm
I0401 18:32:11.316054  3287 net.cpp:408] conv7_2_mbox_loc_flat -> conv7_2_mbox_loc_flat
I0401 18:32:11.316081  3287 net.cpp:150] Setting up conv7_2_mbox_loc_flat
I0401 18:32:11.316087  3287 net.cpp:157] Top shape: 32 96 (3072)
I0401 18:32:11.316090  3287 net.cpp:165] Memory required for data: 301251872
I0401 18:32:11.316094  3287 layer_factory.hpp:77] Creating layer conv7_2_mbox_conf_flat
I0401 18:32:11.316100  3287 net.cpp:100] Creating Layer conv7_2_mbox_conf_flat
I0401 18:32:11.316104  3287 net.cpp:434] conv7_2_mbox_conf_flat <- conv7_2_mbox_conf_perm
I0401 18:32:11.316110  3287 net.cpp:408] conv7_2_mbox_conf_flat -> conv7_2_mbox_conf_flat
I0401 18:32:11.316138  3287 net.cpp:150] Setting up conv7_2_mbox_conf_flat
I0401 18:32:11.316143  3287 net.cpp:157] Top shape: 32 96 (3072)
I0401 18:32:11.316148  3287 net.cpp:165] Memory required for data: 301264160
I0401 18:32:11.316151  3287 layer_factory.hpp:77] Creating layer conv7_2_mbox_priorbox
I0401 18:32:11.316156  3287 net.cpp:100] Creating Layer conv7_2_mbox_priorbox
I0401 18:32:11.316160  3287 net.cpp:434] conv7_2_mbox_priorbox <- conv7_2_conv7_2_relu_0_split_2
I0401 18:32:11.316165  3287 net.cpp:434] conv7_2_mbox_priorbox <- data_data_0_split_4
I0401 18:32:11.316171  3287 net.cpp:408] conv7_2_mbox_priorbox -> conv7_2_mbox_priorbox
I0401 18:32:11.316200  3287 net.cpp:150] Setting up conv7_2_mbox_priorbox
I0401 18:32:11.316205  3287 net.cpp:157] Top shape: 1 2 96 (192)
I0401 18:32:11.316210  3287 net.cpp:165] Memory required for data: 301264928
I0401 18:32:11.316213  3287 layer_factory.hpp:77] Creating layer pool6_mbox_loc_conf
I0401 18:32:11.316221  3287 net.cpp:100] Creating Layer pool6_mbox_loc_conf
I0401 18:32:11.316226  3287 net.cpp:434] pool6_mbox_loc_conf <- pool6_pool6_0_split_0
I0401 18:32:11.316232  3287 net.cpp:408] pool6_mbox_loc_conf -> pool6_mbox_loc_conf
I0401 18:32:11.316632  3287 net.cpp:150] Setting up pool6_mbox_loc_conf
I0401 18:32:11.316642  3287 net.cpp:157] Top shape: 32 48 1 1 (1536)
I0401 18:32:11.316646  3287 net.cpp:165] Memory required for data: 301271072
I0401 18:32:11.316653  3287 layer_factory.hpp:77] Creating layer pool6_mbox_loc_conf_perm
I0401 18:32:11.316659  3287 net.cpp:100] Creating Layer pool6_mbox_loc_conf_perm
I0401 18:32:11.316664  3287 net.cpp:434] pool6_mbox_loc_conf_perm <- pool6_mbox_loc_conf
I0401 18:32:11.316670  3287 net.cpp:408] pool6_mbox_loc_conf_perm -> pool6_mbox_loc_conf_perm
I0401 18:32:11.316788  3287 net.cpp:150] Setting up pool6_mbox_loc_conf_perm
I0401 18:32:11.316795  3287 net.cpp:157] Top shape: 32 1 1 48 (1536)
I0401 18:32:11.316800  3287 net.cpp:165] Memory required for data: 301277216
I0401 18:32:11.316804  3287 layer_factory.hpp:77] Creating layer pool6_mbox_loc_perm
I0401 18:32:11.316812  3287 net.cpp:100] Creating Layer pool6_mbox_loc_perm
I0401 18:32:11.316817  3287 net.cpp:434] pool6_mbox_loc_perm <- pool6_mbox_loc_conf_perm
I0401 18:32:11.316823  3287 net.cpp:408] pool6_mbox_loc_perm -> pool6_mbox_loc_perm
I0401 18:32:11.316829  3287 net.cpp:408] pool6_mbox_loc_perm -> pool6_mbox_conf_perm
I0401 18:32:11.316870  3287 net.cpp:150] Setting up pool6_mbox_loc_perm
I0401 18:32:11.316876  3287 net.cpp:157] Top shape: 32 1 1 24 (768)
I0401 18:32:11.316881  3287 net.cpp:157] Top shape: 32 1 1 24 (768)
I0401 18:32:11.316885  3287 net.cpp:165] Memory required for data: 301283360
I0401 18:32:11.316890  3287 layer_factory.hpp:77] Creating layer pool6_mbox_loc_flat
I0401 18:32:11.316895  3287 net.cpp:100] Creating Layer pool6_mbox_loc_flat
I0401 18:32:11.316900  3287 net.cpp:434] pool6_mbox_loc_flat <- pool6_mbox_loc_perm
I0401 18:32:11.316905  3287 net.cpp:408] pool6_mbox_loc_flat -> pool6_mbox_loc_flat
I0401 18:32:11.316929  3287 net.cpp:150] Setting up pool6_mbox_loc_flat
I0401 18:32:11.316936  3287 net.cpp:157] Top shape: 32 24 (768)
I0401 18:32:11.316938  3287 net.cpp:165] Memory required for data: 301286432
I0401 18:32:11.316942  3287 layer_factory.hpp:77] Creating layer pool6_mbox_conf_flat
I0401 18:32:11.316947  3287 net.cpp:100] Creating Layer pool6_mbox_conf_flat
I0401 18:32:11.316951  3287 net.cpp:434] pool6_mbox_conf_flat <- pool6_mbox_conf_perm
I0401 18:32:11.316956  3287 net.cpp:408] pool6_mbox_conf_flat -> pool6_mbox_conf_flat
I0401 18:32:11.316982  3287 net.cpp:150] Setting up pool6_mbox_conf_flat
I0401 18:32:11.316988  3287 net.cpp:157] Top shape: 32 24 (768)
I0401 18:32:11.316992  3287 net.cpp:165] Memory required for data: 301289504
I0401 18:32:11.316997  3287 layer_factory.hpp:77] Creating layer pool6_mbox_priorbox
I0401 18:32:11.317003  3287 net.cpp:100] Creating Layer pool6_mbox_priorbox
I0401 18:32:11.317006  3287 net.cpp:434] pool6_mbox_priorbox <- pool6_pool6_0_split_1
I0401 18:32:11.317011  3287 net.cpp:434] pool6_mbox_priorbox <- data_data_0_split_5
I0401 18:32:11.317016  3287 net.cpp:408] pool6_mbox_priorbox -> pool6_mbox_priorbox
I0401 18:32:11.317044  3287 net.cpp:150] Setting up pool6_mbox_priorbox
I0401 18:32:11.317050  3287 net.cpp:157] Top shape: 1 2 24 (48)
I0401 18:32:11.317054  3287 net.cpp:165] Memory required for data: 301289696
I0401 18:32:11.317057  3287 layer_factory.hpp:77] Creating layer mbox_loc
I0401 18:32:11.317065  3287 net.cpp:100] Creating Layer mbox_loc
I0401 18:32:11.317068  3287 net.cpp:434] mbox_loc <- conv4_3_norm_mbox_loc_flat
I0401 18:32:11.317075  3287 net.cpp:434] mbox_loc <- fc7_conv_mbox_loc_flat
I0401 18:32:11.317080  3287 net.cpp:434] mbox_loc <- conv6_2_mbox_loc_flat
I0401 18:32:11.317085  3287 net.cpp:434] mbox_loc <- conv7_2_mbox_loc_flat
I0401 18:32:11.317088  3287 net.cpp:434] mbox_loc <- pool6_mbox_loc_flat
I0401 18:32:11.317095  3287 net.cpp:408] mbox_loc -> mbox_loc
I0401 18:32:11.317121  3287 net.cpp:150] Setting up mbox_loc
I0401 18:32:11.317127  3287 net.cpp:157] Top shape: 32 8184 (261888)
I0401 18:32:11.317131  3287 net.cpp:165] Memory required for data: 302337248
I0401 18:32:11.317134  3287 layer_factory.hpp:77] Creating layer mbox_conf
I0401 18:32:11.317140  3287 net.cpp:100] Creating Layer mbox_conf
I0401 18:32:11.317144  3287 net.cpp:434] mbox_conf <- conv4_3_norm_mbox_conf_flat
I0401 18:32:11.317149  3287 net.cpp:434] mbox_conf <- fc7_conv_mbox_conf_flat
I0401 18:32:11.317154  3287 net.cpp:434] mbox_conf <- conv6_2_mbox_conf_flat
I0401 18:32:11.317158  3287 net.cpp:434] mbox_conf <- conv7_2_mbox_conf_flat
I0401 18:32:11.317163  3287 net.cpp:434] mbox_conf <- pool6_mbox_conf_flat
I0401 18:32:11.317168  3287 net.cpp:408] mbox_conf -> mbox_conf
I0401 18:32:11.317193  3287 net.cpp:150] Setting up mbox_conf
I0401 18:32:11.317198  3287 net.cpp:157] Top shape: 32 8184 (261888)
I0401 18:32:11.317203  3287 net.cpp:165] Memory required for data: 303384800
I0401 18:32:11.317206  3287 layer_factory.hpp:77] Creating layer mbox_priorbox
I0401 18:32:11.317212  3287 net.cpp:100] Creating Layer mbox_priorbox
I0401 18:32:11.317219  3287 net.cpp:434] mbox_priorbox <- conv4_3_norm_mbox_priorbox
I0401 18:32:11.317224  3287 net.cpp:434] mbox_priorbox <- fc7_conv_mbox_priorbox
I0401 18:32:11.317229  3287 net.cpp:434] mbox_priorbox <- conv6_2_mbox_priorbox
I0401 18:32:11.317234  3287 net.cpp:434] mbox_priorbox <- conv7_2_mbox_priorbox
I0401 18:32:11.317239  3287 net.cpp:434] mbox_priorbox <- pool6_mbox_priorbox
I0401 18:32:11.317243  3287 net.cpp:408] mbox_priorbox -> mbox_priorbox
I0401 18:32:11.317270  3287 net.cpp:150] Setting up mbox_priorbox
I0401 18:32:11.317276  3287 net.cpp:157] Top shape: 1 2 8184 (16368)
I0401 18:32:11.317281  3287 net.cpp:165] Memory required for data: 303450272
I0401 18:32:11.317284  3287 layer_factory.hpp:77] Creating layer mbox_conf_reshape
I0401 18:32:11.317291  3287 net.cpp:100] Creating Layer mbox_conf_reshape
I0401 18:32:11.317296  3287 net.cpp:434] mbox_conf_reshape <- mbox_conf
I0401 18:32:11.317301  3287 net.cpp:408] mbox_conf_reshape -> mbox_conf_reshape
I0401 18:32:11.317327  3287 net.cpp:150] Setting up mbox_conf_reshape
I0401 18:32:11.317334  3287 net.cpp:157] Top shape: 32 2046 4 (261888)
I0401 18:32:11.317338  3287 net.cpp:165] Memory required for data: 304497824
I0401 18:32:11.317342  3287 layer_factory.hpp:77] Creating layer mbox_conf_softmax
I0401 18:32:11.317348  3287 net.cpp:100] Creating Layer mbox_conf_softmax
I0401 18:32:11.317353  3287 net.cpp:434] mbox_conf_softmax <- mbox_conf_reshape
I0401 18:32:11.317358  3287 net.cpp:408] mbox_conf_softmax -> mbox_conf_softmax
I0401 18:32:11.317430  3287 net.cpp:150] Setting up mbox_conf_softmax
I0401 18:32:11.317436  3287 net.cpp:157] Top shape: 32 2046 4 (261888)
I0401 18:32:11.317441  3287 net.cpp:165] Memory required for data: 305545376
I0401 18:32:11.317445  3287 layer_factory.hpp:77] Creating layer mbox_conf_flatten
I0401 18:32:11.317451  3287 net.cpp:100] Creating Layer mbox_conf_flatten
I0401 18:32:11.317454  3287 net.cpp:434] mbox_conf_flatten <- mbox_conf_softmax
I0401 18:32:11.317459  3287 net.cpp:408] mbox_conf_flatten -> mbox_conf_flatten
I0401 18:32:11.317484  3287 net.cpp:150] Setting up mbox_conf_flatten
I0401 18:32:11.317492  3287 net.cpp:157] Top shape: 32 8184 (261888)
I0401 18:32:11.317495  3287 net.cpp:165] Memory required for data: 306592928
I0401 18:32:11.317499  3287 layer_factory.hpp:77] Creating layer detection_out
I0401 18:32:11.317508  3287 net.cpp:100] Creating Layer detection_out
I0401 18:32:11.317513  3287 net.cpp:434] detection_out <- mbox_loc
I0401 18:32:11.317518  3287 net.cpp:434] detection_out <- mbox_conf_flatten
I0401 18:32:11.317523  3287 net.cpp:434] detection_out <- mbox_priorbox
I0401 18:32:11.317528  3287 net.cpp:408] detection_out -> detection_out
I0401 18:32:11.318687  3287 net.cpp:150] Setting up detection_out
I0401 18:32:11.318697  3287 net.cpp:157] Top shape: 1 1 1 7 (7)
I0401 18:32:11.318702  3287 net.cpp:165] Memory required for data: 306592956
I0401 18:32:11.318706  3287 layer_factory.hpp:77] Creating layer detection_eval
I0401 18:32:11.318714  3287 net.cpp:100] Creating Layer detection_eval
I0401 18:32:11.318719  3287 net.cpp:434] detection_eval <- detection_out
I0401 18:32:11.318724  3287 net.cpp:434] detection_eval <- label
I0401 18:32:11.318730  3287 net.cpp:408] detection_eval -> detection_eval
I0401 18:32:11.319329  3287 net.cpp:150] Setting up detection_eval
I0401 18:32:11.319337  3287 net.cpp:157] Top shape: 1 1 4 5 (20)
I0401 18:32:11.319342  3287 net.cpp:165] Memory required for data: 306593036
I0401 18:32:11.319346  3287 net.cpp:228] detection_eval does not need backward computation.
I0401 18:32:11.319351  3287 net.cpp:228] detection_out does not need backward computation.
I0401 18:32:11.319356  3287 net.cpp:228] mbox_conf_flatten does not need backward computation.
I0401 18:32:11.319360  3287 net.cpp:228] mbox_conf_softmax does not need backward computation.
…
