…
      sampler {
        min_scale: 0.3
        max_scale: 1
        min_aspect_ratio: 0.5
        max_aspect_ratio: 2
      }
      sample_constraint {
        min_jaccard_overlap: 0.9
      }
      max_sample: 1
      max_trials: 50
    }
    batch_sampler {
      sampler {
        min_scale: 0.3
        max_scale: 1
        min_aspect_ratio: 0.5
        max_aspect_ratio: 2
      }
      sample_constraint {
        max_jaccard_overlap: 1
      }
      max_sample: 1
      max_trials: 50
    }
    label_map_file: "/tmp/toqinhuan/labelmap.prototxt"
  }
}
layer {
  name: "conv1_1"
  type: "Convolution"
  bottom: "data"
  top: "conv1_1"
  param {
    lr_mult: 1
    decay_mult: 1
  }
  param {
    lr_mult: 2
    decay_mult: 0
  }
  convolution_param {
    num_output: 16
    pad: 1
    kernel_size: 3
    weight_filler {
      type: "xavier"
    }
    bias_filler {
      type: "constant"
      value: 0
    }
  }
}
layer {
  name: "relu1_1"
  type: "ReLU"
  bottom: "conv1_1"
  top: "conv1_1"
}
layer {
  name: "conv1_2"
  type: "Convolution"
  bottom: "conv1_1"
  top: "conv1_2"
  param {
    lr_mult: 1
    decay_mult: 1
  }
  param {
    lr_mult: 2
    decay_mult: 0
  }
  convolution_param {
    num_output: 16
    pad: 1
    kernel_size: 3
    stride: 2
    weight_filler {
      type: "xavier"
    }
    bias_filler {
      type: "constant"
      value: 0
    }
  }
}
layer {
  name: "relu1_2"
  type: "ReLU"
  bottom: "conv1_2"
  top: "conv1_2"
}
layer {
  name: "conv2_1"
  type: "Convolution"
  bottom: "conv1_2"
  top: "conv2_1"
  param {
    lr_mult: 1
    decay_mult: 1
  }
  param {
    lr_mult: 2
    decay_mult: 0
  }
  convolution_param {
    num_output: 32
    pad: 1
    kernel_size: 3
    weight_filler {
      type: "xavier"
    }
    bias_filler {
      type: "constant"
      value: 0
    }
  }
}
layer {
  name: "relu2_1"
  type: "ReLU"
  bottom: "conv2_1"
  top: "conv2_1"
}
layer {
  name: "conv2_2"
  type: "Convolution"
  bottom: "conv2_1"
  top: "conv2_2"
  param {
    lr_mult: 1
    decay_mult: 1
  }
  param {
    lr_mult: 2
    decay_mult: 0
  }
  convolution_param {
    num_output: 32
    pad: 1
    kernel_size: 3
    stride: 2
    weight_filler {
      type: "xavier"
    }
    bias_filler {
      type: "constant"
      value: 0
    }
  }
}
layer {
  name: "relu2_2"
  type: "ReLU"
  bottom: "conv2_2"
  top: "conv2_2"
}
layer {
  name: "conv3_1"
  type: "Convolution"
  bottom: "conv2_2"
  top: "conv3_1"
  param {
    lr_mult: 1
    decay_mult: 1
  }
  param {
    lr_mult: 2
    decay_mult: 0
  }
  convolution_param {
    num_output: 64
    pad: 1
    kernel_size: 3
    weight_filler {
      type: "xavier"
    }
    bias_filler {
      type: "constant"
      value: 0
    }
  }
}
layer {
  name: "relu3_1"
  type: "ReLU"
  bottom: "conv3_1"
  top: "conv3_1"
}
layer {
  name: "conv3_2"
  type: "Convolution"
  bottom: "conv3_1"
  top: "conv3_2"
  param {
    lr_mult: 1
    decay_mult: 1
  }
  param {
    lr_mult: 2
    decay_mult: 0
  }
  convolution_param {
    num_output: 64
    pad: 1
    kernel_size: 3
    weight_filler {
      type: "xavier"
    }
    bias_filler {
      type: "constant"
      value: 0
    }
  }
}
layer {
  name: "relu3_2"
  type: "ReLU"
  bottom: "conv3_2"
  top: "conv3_2"
}
layer {
  name: "conv3_3"
  type: "Convolution"
  bottom: "conv3_2"
  top: "conv3_3"
  param {
    lr_mult: 1
    decay_mult: 1
  }
  param {
    lr_mult: 2
    decay_mult: 0
  }
  convolution_param {
    num_output: 64
    pad: 1
    kernel_size: 3
    weight_filler {
      type: "xavier"
    }
    bias_filler {
      type: "constant"
      value: 0
    }
  }
}
layer {
  name: "relu3_3"
  type: "ReLU"
  bottom: "conv3_3"
  top: "conv3_3"
}
layer {
  name: "pool3"
  type: "Pooling"
  bottom: "conv3_3"
  top: "pool3"
  pooling_param {
    pool: MAX
    kernel_size: 2
    stride: 2
  }
}
layer {
  name: "conv4_1"
  type: "Convolution"
  bottom: "pool3"
  top: "conv4_1"
  param {
    lr_mult: 1
    decay_mult: 1
  }
  param {
    lr_mult: 2
    decay_mult: 0
  }
  convolution_param {
    num_output: 128
    pad: 1
    kernel_size: 3
    weight_filler {
      type: "xavier"
    }
    bias_filler {
      type: "constant"
      value: 0
    }
  }
}
layer {
  name: "relu4_1"
  type: "ReLU"
  bottom: "conv4_1"
  top: "conv4_1"
}
layer {
  name: "conv4_2"
  type: "Convolution"
  bottom: "conv4_1"
  top: "conv4_2"
  param {
    lr_mult: 1
    decay_mult: 1
  }
  param {
    lr_mult: 2
    decay_mult: 0
  }
  convolution_param {
    num_output: 128
    pad: 1
    kernel_size: 3
    weight_filler {
      type: "xavier"
    }
    bias_filler {
      type: "constant"
      value: 0
    }
  }
}
layer {
  name: "relu4_2"
  type: "ReLU"
  bottom: "conv4_2"
  top: "conv4_2"
}
layer {
  name: "conv4_3"
  type: "Convolution"
  bottom: "conv4_2"
  top: "conv4_3"
  param {
    lr_mult: 1
    decay_mult: 1
  }
  param {
    lr_mult: 2
    decay_mult: 0
  }
  convolution_param {
    num_output: 128
    pad: 1
    kernel_size: 3
    weight_filler {
      type: "xavier"
    }
    bias_filler {
      type: "constant"
      value: 0
    }
  }
}
layer {
  name: "relu4_3"
  type: "ReLU"
  bottom: "conv4_3"
  top: "conv4_3"
}
layer {
  name: "pool4"
  type: "Pooling"
  bottom: "conv4_3"
  top: "pool4"
  pooling_param {
    pool: MAX
    kernel_size: 2
    stride: 2
  }
}
layer {
  name: "conv5_1"
  type: "Convolution"
  bottom: "pool4"
  top: "conv5_1"
  param {
    lr_mult: 1
    decay_mult: 1
  }
  param {
    lr_mult: 2
    decay_mult: 0
  }
  convolution_param {
    num_output: 128
    pad: 1
    kernel_size: 3
    weight_filler {
      type: "xavier"
    }
    bias_filler {
      type: "constant"
      value: 0
    }
    dilation: 1
  }
}
layer {
  name: "relu5_1"
  type: "ReLU"
  bottom: "conv5_1"
  top: "conv5_1"
}
layer {
  name: "conv5_2"
  type: "Convolution"
  bottom: "conv5_1"
  top: "conv5_2"
  param {
    lr_mult: 1
    decay_mult: 1
  }
  param {
    lr_mult: 2
    decay_mult: 0
  }
  convolution_param {
    num_output: 128
    pad: 1
    kernel_size: 3
    weight_filler {
      type: "xavier"
    }
    bias_filler {
      type: "constant"
      value: 0
    }
    dilation: 1
  }
}
layer {
  name: "relu5_2"
  type: "ReLU"
  bottom: "conv5_2"
  top: "conv5_2"
}
layer {
  name: "conv5_3"
  type: "Convolution"
  bottom: "conv5_2"
  top: "conv5_3"
  param {
    lr_mult: 1
    decay_mult: 1
  }
  param {
    lr_mult: 2
    decay_mult: 0
  }
  convolution_param {
    num_output: 128
    pad: 1
    kernel_size: 3
    weight_filler {
      type: "xavier"
    }
    bias_filler {
      type: "constant"
      value: 0
    }
    dilation: 1
  }
}
layer {
  name: "relu5_3"
  type: "ReLU"
  bottom: "conv5_3"
  top: "conv5_3"
}
layer {
  name: "pool5"
  type: "Pooling"
  bottom: "conv5_3"
  top: "pool5"
  pooling_param {
    pool: MAX
    kernel_size: 3
    stride: 1
    pad: 1
  }
}
layer {
  name: "fc6_conv"
  type: "Convolution"
  bottom: "pool5"
  top: "fc6_conv"
  param {
    lr_mult: 1
    decay_mult: 1
  }
  param {
    lr_mult: 2
    decay_mult: 0
  }
  convolution_param {
    num_output: 256
    pad: 6
    kernel_size: 3
    weight_filler {
      type: "xavier"
    }
    bias_filler {
      type: "constant"
      value: 0
    }
    dilation: 6
  }
}
layer {
  name: "relu6"
  type: "ReLU"
  bottom: "fc6_conv"
  top: "fc6_conv"
}
layer {
  name: "fc7_conv"
  type: "Convolution"
  bottom: "fc6_conv"
  top: "fc7_conv"
  param {
    lr_mult: 1
    decay_mult: 1
  }
  param {
    lr_mult: 2
    decay_mult: 0
  }
  convolution_param {
    num_output: 256
    kernel_size: 1
    weight_filler {
      type: "xavier"
    }
    bias_filler {
      type: "constant"
      value: 0
    }
  }
}
layer {
  name: "relu7"
  type: "ReLU"
  bottom: "fc7_conv"
  top: "fc7_conv"
}
layer {
  name: "conv6_1"
  type: "Convolution"
  bottom: "fc7_conv"
  top: "conv6_1"
  param {
    lr_mult: 1
    decay_mult: 1
  }
  param {
    lr_mult: 2
    decay_mult: 0
  }
  convolution_param {
    num_output: 32
    pad: 0
    kernel_size: 1
    stride: 1
    weight_filler {
      type: "xavier"
    }
    bias_filler {
      type: "constant"
      value: 0
    }
  }
}
layer {
  name: "conv6_1_relu"
  type: "ReLU"
  bottom: "conv6_1"
  top: "conv6_1"
}
layer {
  name: "conv6_2"
  type: "Convolution"
  bottom: "conv6_1"
  top: "conv6_2"
  param {
    lr_mult: 1
    decay_mult: 1
  }
  param {
    lr_mult: 2
    decay_mult: 0
  }
  convolution_param {
    num_output: 64
    pad: 1
    kernel_size: 3
    stride: 2
    weight_filler {
      type: "xavier"
    }
    bias_filler {
      type: "constant"
      value: 0
    }
  }
}
layer {
  name: "conv6_2_relu"
  type: "ReLU"
  bottom: "conv6_2"
  top: "conv6_2"
}
layer {
  name: "conv7_1"
  type: "Convolution"
  bottom: "conv6_2"
  top: "conv7_1"
  param {
    lr_mult: 1
    decay_mult: 1
  }
  param {
    lr_mult: 2
    decay_mult: 0
  }
  convolution_param {
    num_output: 16
    pad: 0
    kernel_size: 1
    stride: 1
    weight_filler {
      type: "xavier"
    }
    bias_filler {
      type: "constant"
      value: 0
    }
  }
}
layer {
  name: "conv7_1_relu"
  type: "ReLU"
  bottom: "conv7_1"
  top: "conv7_1"
}
layer {
  name: "conv7_2"
  type: "Convolution"
  bottom: "conv7_1"
  top: "conv7_2"
  param {
    lr_mult: 1
    decay_mult: 1
  }
  param {
    lr_mult: 2
    decay_mult: 0
  }
  convolution_param {
    num_output: 32
    pad: 1
    kernel_size: 3
    stride: 2
    weight_filler {
      type: "xavier"
    }
    bias_filler {
      type: "constant"
      value: 0
    }
  }
}
layer {
  name: "conv7_2_relu"
  type: "ReLU"
  bottom: "conv7_2"
  top: "conv7_2"
}
layer {
  name: "pool6"
  type: "Pooling"
  bottom: "conv7_2"
  top: "pool6"
  pooling_param {
    pool: AVE
    global_pooling: true
  }
}
layer {
  name: "conv4_3_norm"
  type: "Normalize"
  bottom: "conv4_3"
  top: "conv4_3_norm"
  norm_param {
    across_spatial: false
    scale_filler {
      type: "constant"
      value: 20
    }
    channel_shared: false
  }
}
layer {
  name: "conv4_3_norm_mbox_loc_conf"
  type: "Convolution"
  bottom: "conv4_3_norm"
  top: "conv4_3_norm_mbox_loc_conf"
  param {
    lr_mult: 1
    decay_mult: 1
  }
  param {
    lr_mult: 2
    decay_mult: 0
  }
  convolution_param {
    num_output: 48
    pad: 1
    kernel_size: 3
    stride: 1
    weight_filler {
      type: "xavier"
    }
    bias_filler {
      type: "constant"
      value: 0
    }
  }
}
layer {
  name: "conv4_3_norm_mbox_loc_conf_perm"
  type: "Permute"
  bottom: "conv4_3_norm_mbox_loc_conf"
  top: "conv4_3_norm_mbox_loc_conf_perm"
  permute_param {
    order: 0
    order: 2
    order: 3
    order: 1
  }
}
layer {
  name: "conv4_3_norm_mbox_loc_perm"
  type: "Slice"
  bottom: "conv4_3_norm_mbox_loc_conf_perm"
  top: "conv4_3_norm_mbox_loc_perm"
  top: "conv4_3_norm_mbox_conf_perm"
  slice_param {
    slice_point: 24
    axis: 3
  }
}
layer {
  name: "conv4_3_norm_mbox_loc_flat"
  type: "Flatten"
  bottom: "conv4_3_norm_mbox_loc_perm"
  top: "conv4_3_norm_mbox_loc_flat"
  flatten_param {
    axis: 1
  }
}
layer {
  name: "conv4_3_norm_mbox_conf_flat"
  type: "Flatten"
  bottom: "conv4_3_norm_mbox_conf_perm"
  top: "conv4_3_norm_mbox_conf_flat"
  flatten_param {
    axis: 1
  }
}
layer {
  name: "conv4_3_norm_mbox_priorbox"
  type: "PriorBox"
  bottom: "conv4_3_norm"
  bottom: "data"
  top: "conv4_3_norm_mbox_priorbox"
  prior_box_param {
    min_size: 11.52
    max_size: 25.6
    aspect_ratio: 2
    aspect_ratio: 3
    flip: true
    clip: true
    variance: 0.1
    variance: 0.1
    variance: 0.2
    variance: 0.2
    offset: 0.5
  }
}
layer {
  name: "fc7_conv_mbox_loc_conf"
  type: "Convolution"
  bottom: "fc7_conv"
  top: "fc7_conv_mbox_loc_conf"
  param {
    lr_mult: 1
    decay_mult: 1
  }
  param {
    lr_mult: 2
    decay_mult: 0
  }
  convolution_param {
    num_output: 48
    pad: 1
    kernel_size: 3
    stride: 1
    weight_filler {
      type: "xavier"
    }
    bias_filler {
      type: "constant"
      value: 0
    }
  }
}
layer {
  name: "fc7_conv_mbox_loc_conf_perm"
  type: "Permute"
  bottom: "fc7_conv_mbox_loc_conf"
  top: "fc7_conv_mbox_loc_conf_perm"
  permute_param {
    order: 0
    order: 2
    order: 3
    order: 1
  }
}
layer {
  name: "fc7_conv_mbox_loc_perm"
  type: "Slice"
  bottom: "fc7_conv_mbox_loc_conf_perm"
  top: "fc7_conv_mbox_loc_perm"
  top: "fc7_conv_mbox_conf_perm"
  slice_param {
    slice_point: 24
    axis: 3
  }
}
layer {
  name: "fc7_conv_mbox_loc_flat"
  type: "Flatten"
  bottom: "fc7_conv_mbox_loc_perm"
  top: "fc7_conv_mbox_loc_flat"
  flatten_param {
    axis: 1
  }
}
layer {
  name: "fc7_conv_mbox_conf_flat"
  type: "Flatten"
  bottom: "fc7_conv_mbox_conf_perm"
  top: "fc7_conv_mbox_conf_flat"
  flatten_param {
    axis: 1
  }
}
layer {
  name: "fc7_conv_mbox_priorbox"
  type: "PriorBox"
  bottom: "fc7_conv"
  bottom: "data"
  top: "fc7_conv_mbox_priorbox"
  prior_box_param {
    min_size: 25.6
    max_size: 57.6
    aspect_ratio: 2
    aspect_ratio: 3
    flip: true
    clip: true
    variance: 0.1
    variance: 0.1
    variance: 0.2
    variance: 0.2
    offset: 0.5
  }
}
layer {
  name: "conv6_2_mbox_loc_conf"
  type: "Convolution"
  bottom: "conv6_2"
  top: "conv6_2_mbox_loc_conf"
  param {
    lr_mult: 1
    decay_mult: 1
  }
  param {
    lr_mult: 2
    decay_mult: 0
  }
  convolution_param {
    num_output: 48
    pad: 1
    kernel_size: 3
    stride: 1
    weight_filler {
      type: "xavier"
    }
    bias_filler {
      type: "constant"
      value: 0
    }
  }
}
layer {
  name: "conv6_2_mbox_loc_conf_perm"
  type: "Permute"
  bottom: "conv6_2_mbox_loc_conf"
  top: "conv6_2_mbox_loc_conf_perm"
  permute_param {
    order: 0
    order: 2
    order: 3
    order: 1
  }
}
layer {
  name: "conv6_2_mbox_loc_perm"
  type: "Slice"
  bottom: "conv6_2_mbox_loc_conf_perm"
  top: "conv6_2_mbox_loc_perm"
  top: "conv6_2_mbox_conf_perm"
  slice_param {
    slice_point: 24
    axis: 3
  }
}
layer {
  name: "conv6_2_mbox_loc_flat"
  type: "Flatten"
  bottom: "conv6_2_mbox_loc_perm"
  top: "conv6_2_mbox_loc_flat"
  flatten_param {
    axis: 1
  }
}
layer {
  name: "conv6_2_mbox_conf_flat"
  type: "Flatten"
  bottom: "conv6_2_mbox_conf_perm"
  top: "conv6_2_mbox_conf_flat"
  flatten_param {
    axis: 1
  }
}
layer {
  name: "conv6_2_mbox_priorbox"
  type: "PriorBox"
  bottom: "conv6_2"
  bottom: "data"
  top: "conv6_2_mbox_priorbox"
  prior_box_param {
    min_size: 57.6
    max_size: 89.6
    aspect_ratio: 2
    aspect_ratio: 3
    flip: true
    clip: true
    variance: 0.1
    variance: 0.1
    variance: 0.2
    variance: 0.2
    offset: 0.5
  }
}
layer {
  name: "conv7_2_mbox_loc_conf"
  type: "Convolution"
  bottom: "conv7_2"
  top: "conv7_2_mbox_loc_conf"
  param {
    lr_mult: 1
    decay_mult: 1
  }
  param {
    lr_mult: 2
    decay_mult: 0
  }
  convolution_param {
    num_output: 48
    pad: 1
    kernel_size: 3
    stride: 1
    weight_filler {
      type: "xavier"
    }
    bias_filler {
      type: "constant"
      value: 0
    }
  }
}
layer {
  name: "conv7_2_mbox_loc_conf_perm"
  type: "Permute"
  bottom: "conv7_2_mbox_loc_conf"
  top: "conv7_2_mbox_loc_conf_perm"
  permute_param {
    order: 0
    order: 2
    order: 3
    order: 1
  }
}
layer {
  name: "conv7_2_mbox_loc_perm"
  type: "Slice"
  bottom: "conv7_2_mbox_loc_conf_perm"
  top: "conv7_2_mbox_loc_perm"
  top: "conv7_2_mbox_conf_perm"
  slice_param {
    slice_point: 24
    axis: 3
  }
}
layer {
  name: "conv7_2_mbox_loc_flat"
  type: "Flatten"
  bottom: "conv7_2_mbox_loc_perm"
  top: "conv7_2_mbox_loc_flat"
  flatten_param {
    axis: 1
  }
}
layer {
  name: "conv7_2_mbox_conf_flat"
  type: "Flatten"
  bottom: "conv7_2_mbox_conf_perm"
  top: "conv7_2_mbox_conf_flat"
  flatten_param {
    axis: 1
  }
}
layer {
  name: "conv7_2_mbox_priorbox"
  type: "PriorBox"
  bottom: "conv7_2"
  bottom: "data"
  top: "conv7_2_mbox_priorbox"
  prior_box_param {
    min_size: 89.6
    max_size: 121.6
    aspect_ratio: 2
    aspect_ratio: 3
    flip: true
    clip: true
    variance: 0.1
    variance: 0.1
    variance: 0.2
    variance: 0.2
    offset: 0.5
  }
}
layer {
  name: "pool6_mbox_loc_conf"
  type: "Convolution"
  bottom: "pool6"
  top: "pool6_mbox_loc_conf"
  param {
    lr_mult: 1
    decay_mult: 1
  }
  param {
    lr_mult: 2
    decay_mult: 0
  }
  convolution_param {
    num_output: 48
    pad: 1
    kernel_size: 3
    stride: 1
    weight_filler {
      type: "xavier"
    }
    bias_filler {
      type: "constant"
      value: 0
    }
  }
}
layer {
  name: "pool6_mbox_loc_conf_perm"
  type: "Permute"
  bottom: "pool6_mbox_loc_conf"
  top: "pool6_mbox_loc_conf_perm"
  permute_param {
    order: 0
    order: 2
    order: 3
    order: 1
  }
}
layer {
  name: "pool6_mbox_loc_perm"
  type: "Slice"
  bottom: "pool6_mbox_loc_conf_perm"
  top: "pool6_mbox_loc_perm"
  top: "pool6_mbox_conf_perm"
  slice_param {
    slice_point: 24
    axis: 3
  }
}
layer {
  name: "pool6_mbox_loc_flat"
  type: "Flatten"
  bottom: "pool6_mbox_loc_perm"
  top: "pool6_mbox_loc_flat"
  flatten_param {
    axis: 1
  }
}
layer {
  name: "pool6_mbox_conf_flat"
  type: "Flatten"
  bottom: "pool6_mbox_conf_perm"
  top: "pool6_mbox_conf_flat"
  flatten_param {
    axis: 1
  }
}
layer {
  name: "pool6_mbox_priorbox"
  type: "PriorBox"
  bottom: "pool6"
  bottom: "data"
  top: "pool6_mbox_priorbox"
  prior_box_param {
    min_size: 121.6
    max_size: 153.6
    aspect_ratio: 2
    aspect_ratio: 3
    flip: true
    clip: true
    variance: 0.1
    variance: 0.1
    variance: 0.2
    variance: 0.2
    offset: 0.5
  }
}
layer {
  name: "mbox_loc"
  type: "Concat"
  bottom: "conv4_3_norm_mbox_loc_flat"
  bottom: "fc7_conv_mbox_loc_flat"
  bottom: "conv6_2_mbox_loc_flat"
  bottom: "conv7_2_mbox_loc_flat"
  bottom: "pool6_mbox_loc_flat"
  top: "mbox_loc"
  concat_param {
    axis: 1
  }
}
layer {
  name: "mbox_conf"
  type: "Concat"
  bottom: "conv4_3_norm_mbox_conf_flat"
  bottom: "fc7_conv_mbox_conf_flat"
  bottom: "conv6_2_mbox_conf_flat"
  bottom: "conv7_2_mbox_conf_flat"
  bottom: "pool6_mbox_conf_flat"
  top: "mbox_conf"
  concat_param {
    axis: 1
  }
}
layer {
  name: "mbox_priorbox"
  type: "Concat"
  bottom: "conv4_3_norm_mbox_priorbox"
  bottom: "fc7_conv_mbox_priorbox"
  bottom: "conv6_2_mbox_priorbox"
  bottom: "conv7_2_mbox_priorbox"
  bottom: "pool6_mbox_priorbox"
  top: "mbox_priorbox"
  concat_param {
    axis: 2
  }
}
layer {
  name: "mbox_loss"
  type: "MultiBoxLoss"
  bottom: "mbox_loc"
  bottom: "mbox_conf"
  bottom: "mbox_priorbox"
  bottom: "label"
  top: "mbox_loss"
  include {
    phase: TRAIN
  }
  propagate_down: true
  propagate_down: true
  propagate_down: false
  propagate_down: false
  loss_param {
    normalization: VALID
  }
  multibox_loss_param {
    loc_loss_type: SMOOTH_L1
    conf_loss_type: SOFTMAX
    loc_weight: 1
    num_classes: 4
    share_location: true
    match_type: PER_PREDICTION
    overlap_threshold: 0.3
    use_prior_for_matching: true
    background_label_id: 0
    use_difficult_gt: true
    neg_pos_ratio: 3
    neg_overlap: 0.3
    code_type: CENTER_SIZE
    mining_type: MAX_NEGATIVE
  }
}
I0406 00:09:33.659229 19531 layer_factory.hpp:77] Creating layer data
I0406 00:09:33.659541 19531 net.cpp:100] Creating Layer data
I0406 00:09:33.659551 19531 net.cpp:408] data -> data
I0406 00:09:33.659565 19531 net.cpp:408] data -> label
I0406 00:09:33.660326 19559 db_lmdb.cpp:35] Opened lmdb /home/work/wwl/data/kitti/data_object_image_2/training/train_lmdb
I0406 00:09:33.682719 19531 annotated_data_layer.cpp:62] output data size: 32,3,64,256
I0406 00:09:33.703208 19531 net.cpp:150] Setting up data
I0406 00:09:33.703234 19531 net.cpp:157] Top shape: 32 3 64 256 (1572864)
I0406 00:09:33.703238 19531 net.cpp:157] Top shape: 1 1 11 8 (88)
I0406 00:09:33.703241 19531 net.cpp:165] Memory required for data: 6291808
I0406 00:09:33.703246 19531 layer_factory.hpp:77] Creating layer data_data_0_split
I0406 00:09:33.703255 19531 net.cpp:100] Creating Layer data_data_0_split
I0406 00:09:33.703259 19531 net.cpp:434] data_data_0_split <- data
I0406 00:09:33.703264 19531 net.cpp:408] data_data_0_split -> data_data_0_split_0
I0406 00:09:33.703271 19531 net.cpp:408] data_data_0_split -> data_data_0_split_1
I0406 00:09:33.703276 19531 net.cpp:408] data_data_0_split -> data_data_0_split_2
I0406 00:09:33.703280 19531 net.cpp:408] data_data_0_split -> data_data_0_split_3
I0406 00:09:33.703284 19531 net.cpp:408] data_data_0_split -> data_data_0_split_4
I0406 00:09:33.703289 19531 net.cpp:408] data_data_0_split -> data_data_0_split_5
I0406 00:09:33.703378 19531 net.cpp:150] Setting up data_data_0_split
I0406 00:09:33.703383 19531 net.cpp:157] Top shape: 32 3 64 256 (1572864)
I0406 00:09:33.703387 19531 net.cpp:157] Top shape: 32 3 64 256 (1572864)
I0406 00:09:33.703389 19531 net.cpp:157] Top shape: 32 3 64 256 (1572864)
I0406 00:09:33.703392 19531 net.cpp:157] Top shape: 32 3 64 256 (1572864)
I0406 00:09:33.703395 19531 net.cpp:157] Top shape: 32 3 64 256 (1572864)
I0406 00:09:33.703398 19531 net.cpp:157] Top shape: 32 3 64 256 (1572864)
I0406 00:09:33.703400 19531 net.cpp:165] Memory required for data: 44040544
I0406 00:09:33.703403 19531 layer_factory.hpp:77] Creating layer conv1_1
I0406 00:09:33.703411 19531 net.cpp:100] Creating Layer conv1_1
I0406 00:09:33.703414 19531 net.cpp:434] conv1_1 <- data_data_0_split_0
I0406 00:09:33.703419 19531 net.cpp:408] conv1_1 -> conv1_1
I0406 00:09:33.705080 19531 net.cpp:150] Setting up conv1_1
I0406 00:09:33.705091 19531 net.cpp:157] Top shape: 32 16 64 256 (8388608)
I0406 00:09:33.705094 19531 net.cpp:165] Memory required for data: 77594976
I0406 00:09:33.705102 19531 layer_factory.hpp:77] Creating layer relu1_1
I0406 00:09:33.705108 19531 net.cpp:100] Creating Layer relu1_1
I0406 00:09:33.705116 19531 net.cpp:434] relu1_1 <- conv1_1
I0406 00:09:33.705121 19531 net.cpp:395] relu1_1 -> conv1_1 (in-place)
I0406 00:09:33.705127 19531 net.cpp:150] Setting up relu1_1
I0406 00:09:33.705129 19531 net.cpp:157] Top shape: 32 16 64 256 (8388608)
I0406 00:09:33.705132 19531 net.cpp:165] Memory required for data: 111149408
I0406 00:09:33.705134 19531 layer_factory.hpp:77] Creating layer conv1_2
I0406 00:09:33.705140 19531 net.cpp:100] Creating Layer conv1_2
I0406 00:09:33.705143 19531 net.cpp:434] conv1_2 <- conv1_1
I0406 00:09:33.705148 19531 net.cpp:408] conv1_2 -> conv1_2
I0406 00:09:33.706044 19531 net.cpp:150] Setting up conv1_2
I0406 00:09:33.706053 19531 net.cpp:157] Top shape: 32 16 32 128 (2097152)
I0406 00:09:33.706056 19531 net.cpp:165] Memory required for data: 119538016
I0406 00:09:33.706061 19531 layer_factory.hpp:77] Creating layer relu1_2
I0406 00:09:33.706066 19531 net.cpp:100] Creating Layer relu1_2
I0406 00:09:33.706069 19531 net.cpp:434] relu1_2 <- conv1_2
I0406 00:09:33.706073 19531 net.cpp:395] relu1_2 -> conv1_2 (in-place)
I0406 00:09:33.706079 19531 net.cpp:150] Setting up relu1_2
I0406 00:09:33.706081 19531 net.cpp:157] Top shape: 32 16 32 128 (2097152)
I0406 00:09:33.706084 19531 net.cpp:165] Memory required for data: 127926624
I0406 00:09:33.706086 19531 layer_factory.hpp:77] Creating layer conv2_1
I0406 00:09:33.706091 19531 net.cpp:100] Creating Layer conv2_1
I0406 00:09:33.706094 19531 net.cpp:434] conv2_1 <- conv1_2
I0406 00:09:33.706099 19531 net.cpp:408] conv2_1 -> conv2_1
I0406 00:09:33.706300 19531 net.cpp:150] Setting up conv2_1
I0406 00:09:33.706305 19531 net.cpp:157] Top shape: 32 32 32 128 (4194304)
I0406 00:09:33.706307 19531 net.cpp:165] Memory required for data: 144703840
I0406 00:09:33.706312 19531 layer_factory.hpp:77] Creating layer relu2_1
I0406 00:09:33.706316 19531 net.cpp:100] Creating Layer relu2_1
I0406 00:09:33.706320 19531 net.cpp:434] relu2_1 <- conv2_1
I0406 00:09:33.706322 19531 net.cpp:395] relu2_1 -> conv2_1 (in-place)
I0406 00:09:33.706326 19531 net.cpp:150] Setting up relu2_1
I0406 00:09:33.706329 19531 net.cpp:157] Top shape: 32 32 32 128 (4194304)
I0406 00:09:33.706331 19531 net.cpp:165] Memory required for data: 161481056
I0406 00:09:33.706334 19531 layer_factory.hpp:77] Creating layer conv2_2
I0406 00:09:33.706339 19531 net.cpp:100] Creating Layer conv2_2
I0406 00:09:33.706342 19531 net.cpp:434] conv2_2 <- conv2_1
I0406 00:09:33.706346 19531 net.cpp:408] conv2_2 -> conv2_2
I0406 00:09:33.706568 19531 net.cpp:150] Setting up conv2_2
I0406 00:09:33.706573 19531 net.cpp:157] Top shape: 32 32 16 64 (1048576)
I0406 00:09:33.706574 19531 net.cpp:165] Memory required for data: 165675360
I0406 00:09:33.706578 19531 layer_factory.hpp:77] Creating layer relu2_2
I0406 00:09:33.706583 19531 net.cpp:100] Creating Layer relu2_2
I0406 00:09:33.706585 19531 net.cpp:434] relu2_2 <- conv2_2
I0406 00:09:33.706588 19531 net.cpp:395] relu2_2 -> conv2_2 (in-place)
I0406 00:09:33.706593 19531 net.cpp:150] Setting up relu2_2
I0406 00:09:33.706595 19531 net.cpp:157] Top shape: 32 32 16 64 (1048576)
I0406 00:09:33.706598 19531 net.cpp:165] Memory required for data: 169869664
I0406 00:09:33.706599 19531 layer_factory.hpp:77] Creating layer conv3_1
I0406 00:09:33.706604 19531 net.cpp:100] Creating Layer conv3_1
I0406 00:09:33.706607 19531 net.cpp:434] conv3_1 <- conv2_2
I0406 00:09:33.706610 19531 net.cpp:408] conv3_1 -> conv3_1
I0406 00:09:33.707535 19531 net.cpp:150] Setting up conv3_1
I0406 00:09:33.707545 19531 net.cpp:157] Top shape: 32 64 16 64 (2097152)
I0406 00:09:33.707547 19531 net.cpp:165] Memory required for data: 178258272
I0406 00:09:33.707553 19531 layer_factory.hpp:77] Creating layer relu3_1
I0406 00:09:33.707557 19531 net.cpp:100] Creating Layer relu3_1
I0406 00:09:33.707561 19531 net.cpp:434] relu3_1 <- conv3_1
I0406 00:09:33.707564 19531 net.cpp:395] relu3_1 -> conv3_1 (in-place)
I0406 00:09:33.707568 19531 net.cpp:150] Setting up relu3_1
I0406 00:09:33.707571 19531 net.cpp:157] Top shape: 32 64 16 64 (2097152)
I0406 00:09:33.707577 19531 net.cpp:165] Memory required for data: 186646880
I0406 00:09:33.707581 19531 layer_factory.hpp:77] Creating layer conv3_2
I0406 00:09:33.707587 19531 net.cpp:100] Creating Layer conv3_2
I0406 00:09:33.707588 19531 net.cpp:434] conv3_2 <- conv3_1
I0406 00:09:33.707592 19531 net.cpp:408] conv3_2 -> conv3_2
I0406 00:09:33.707890 19531 net.cpp:150] Setting up conv3_2
I0406 00:09:33.707895 19531 net.cpp:157] Top shape: 32 64 16 64 (2097152)
I0406 00:09:33.707897 19531 net.cpp:165] Memory required for data: 195035488
I0406 00:09:33.707901 19531 layer_factory.hpp:77] Creating layer relu3_2
I0406 00:09:33.707904 19531 net.cpp:100] Creating Layer relu3_2
I0406 00:09:33.707907 19531 net.cpp:434] relu3_2 <- conv3_2
I0406 00:09:33.707911 19531 net.cpp:395] relu3_2 -> conv3_2 (in-place)
I0406 00:09:33.707914 19531 net.cpp:150] Setting up relu3_2
I0406 00:09:33.707918 19531 net.cpp:157] Top shape: 32 64 16 64 (2097152)
I0406 00:09:33.707921 19531 net.cpp:165] Memory required for data: 203424096
I0406 00:09:33.707922 19531 layer_factory.hpp:77] Creating layer conv3_3
I0406 00:09:33.707927 19531 net.cpp:100] Creating Layer conv3_3
I0406 00:09:33.707929 19531 net.cpp:434] conv3_3 <- conv3_2
I0406 00:09:33.707933 19531 net.cpp:408] conv3_3 -> conv3_3
I0406 00:09:33.708227 19531 net.cpp:150] Setting up conv3_3
I0406 00:09:33.708232 19531 net.cpp:157] Top shape: 32 64 16 64 (2097152)
I0406 00:09:33.708235 19531 net.cpp:165] Memory required for data: 211812704
I0406 00:09:33.708238 19531 layer_factory.hpp:77] Creating layer relu3_3
I0406 00:09:33.708242 19531 net.cpp:100] Creating Layer relu3_3
I0406 00:09:33.708245 19531 net.cpp:434] relu3_3 <- conv3_3
I0406 00:09:33.708248 19531 net.cpp:395] relu3_3 -> conv3_3 (in-place)
I0406 00:09:33.708252 19531 net.cpp:150] Setting up relu3_3
I0406 00:09:33.708256 19531 net.cpp:157] Top shape: 32 64 16 64 (2097152)
I0406 00:09:33.708257 19531 net.cpp:165] Memory required for data: 220201312
I0406 00:09:33.708261 19531 layer_factory.hpp:77] Creating layer pool3
I0406 00:09:33.708264 19531 net.cpp:100] Creating Layer pool3
I0406 00:09:33.708267 19531 net.cpp:434] pool3 <- conv3_3
I0406 00:09:33.708271 19531 net.cpp:408] pool3 -> pool3
I0406 00:09:33.708302 19531 net.cpp:150] Setting up pool3
I0406 00:09:33.708305 19531 net.cpp:157] Top shape: 32 64 8 32 (524288)
I0406 00:09:33.708308 19531 net.cpp:165] Memory required for data: 222298464
I0406 00:09:33.708310 19531 layer_factory.hpp:77] Creating layer conv4_1
I0406 00:09:33.708315 19531 net.cpp:100] Creating Layer conv4_1
I0406 00:09:33.708318 19531 net.cpp:434] conv4_1 <- pool3
I0406 00:09:33.708323 19531 net.cpp:408] conv4_1 -> conv4_1
I0406 00:09:33.709429 19531 net.cpp:150] Setting up conv4_1
I0406 00:09:33.709439 19531 net.cpp:157] Top shape: 32 128 8 32 (1048576)
I0406 00:09:33.709441 19531 net.cpp:165] Memory required for data: 226492768
I0406 00:09:33.709445 19531 layer_factory.hpp:77] Creating layer relu4_1
I0406 00:09:33.709450 19531 net.cpp:100] Creating Layer relu4_1
I0406 00:09:33.709453 19531 net.cpp:434] relu4_1 <- conv4_1
I0406 00:09:33.709457 19531 net.cpp:395] relu4_1 -> conv4_1 (in-place)
I0406 00:09:33.709461 19531 net.cpp:150] Setting up relu4_1
I0406 00:09:33.709465 19531 net.cpp:157] Top shape: 32 128 8 32 (1048576)
I0406 00:09:33.709467 19531 net.cpp:165] Memory required for data: 230687072
I0406 00:09:33.709470 19531 layer_factory.hpp:77] Creating layer conv4_2
I0406 00:09:33.709476 19531 net.cpp:100] Creating Layer conv4_2
I0406 00:09:33.709480 19531 net.cpp:434] conv4_2 <- conv4_1
I0406 00:09:33.709483 19531 net.cpp:408] conv4_2 -> conv4_2
I0406 00:09:33.710114 19531 net.cpp:150] Setting up conv4_2
I0406 00:09:33.710120 19531 net.cpp:157] Top shape: 32 128 8 32 (1048576)
I0406 00:09:33.710122 19531 net.cpp:165] Memory required for data: 234881376
I0406 00:09:33.710129 19531 layer_factory.hpp:77] Creating layer relu4_2
I0406 00:09:33.710131 19531 net.cpp:100] Creating Layer relu4_2
I0406 00:09:33.710134 19531 net.cpp:434] relu4_2 <- conv4_2
I0406 00:09:33.710139 19531 net.cpp:395] relu4_2 -> conv4_2 (in-place)
I0406 00:09:33.710145 19531 net.cpp:150] Setting up relu4_2
I0406 00:09:33.710149 19531 net.cpp:157] Top shape: 32 128 8 32 (1048576)
I0406 00:09:33.710150 19531 net.cpp:165] Memory required for data: 239075680
I0406 00:09:33.710153 19531 layer_factory.hpp:77] Creating layer conv4_3
I0406 00:09:33.710158 19531 net.cpp:100] Creating Layer conv4_3
I0406 00:09:33.710161 19531 net.cpp:434] conv4_3 <- conv4_2
I0406 00:09:33.710165 19531 net.cpp:408] conv4_3 -> conv4_3
I0406 00:09:33.710798 19531 net.cpp:150] Setting up conv4_3
I0406 00:09:33.710803 19531 net.cpp:157] Top shape: 32 128 8 32 (1048576)
I0406 00:09:33.710806 19531 net.cpp:165] Memory required for data: 243269984
I0406 00:09:33.710810 19531 layer_factory.hpp:77] Creating layer relu4_3
I0406 00:09:33.710814 19531 net.cpp:100] Creating Layer relu4_3
I0406 00:09:33.710817 19531 net.cpp:434] relu4_3 <- conv4_3
I0406 00:09:33.710820 19531 net.cpp:395] relu4_3 -> conv4_3 (in-place)
I0406 00:09:33.710824 19531 net.cpp:150] Setting up relu4_3
I0406 00:09:33.710827 19531 net.cpp:157] Top shape: 32 128 8 32 (1048576)
I0406 00:09:33.710830 19531 net.cpp:165] Memory required for data: 247464288
I0406 00:09:33.710832 19531 layer_factory.hpp:77] Creating layer conv4_3_relu4_3_0_split
I0406 00:09:33.710836 19531 net.cpp:100] Creating Layer conv4_3_relu4_3_0_split
I0406 00:09:33.710839 19531 net.cpp:434] conv4_3_relu4_3_0_split <- conv4_3
I0406 00:09:33.710841 19531 net.cpp:408] conv4_3_relu4_3_0_split -> conv4_3_relu4_3_0_split_0
I0406 00:09:33.710846 19531 net.cpp:408] conv4_3_relu4_3_0_split -> conv4_3_relu4_3_0_split_1
I0406 00:09:33.710871 19531 net.cpp:150] Setting up conv4_3_relu4_3_0_split
I0406 00:09:33.710876 19531 net.cpp:157] Top shape: 32 128 8 32 (1048576)
I0406 00:09:33.710880 19531 net.cpp:157] Top shape: 32 128 8 32 (1048576)
I0406 00:09:33.710881 19531 net.cpp:165] Memory required for data: 255852896
I0406 00:09:33.710883 19531 layer_factory.hpp:77] Creating layer pool4
I0406 00:09:33.710888 19531 net.cpp:100] Creating Layer pool4
I0406 00:09:33.710891 19531 net.cpp:434] pool4 <- conv4_3_relu4_3_0_split_0
I0406 00:09:33.710894 19531 net.cpp:408] pool4 -> pool4
I0406 00:09:33.710922 19531 net.cpp:150] Setting up pool4
I0406 00:09:33.710927 19531 net.cpp:157] Top shape: 32 128 4 16 (262144)
I0406 00:09:33.710929 19531 net.cpp:165] Memory required for data: 256901472
I0406 00:09:33.710932 19531 layer_factory.hpp:77] Creating layer conv5_1
I0406 00:09:33.710937 19531 net.cpp:100] Creating Layer conv5_1
I0406 00:09:33.710940 19531 net.cpp:434] conv5_1 <- pool4
I0406 00:09:33.710945 19531 net.cpp:408] conv5_1 -> conv5_1
I0406 00:09:33.711583 19531 net.cpp:150] Setting up conv5_1
I0406 00:09:33.711590 19531 net.cpp:157] Top shape: 32 128 4 16 (262144)
I0406 00:09:33.711591 19531 net.cpp:165] Memory required for data: 257950048
I0406 00:09:33.711596 19531 layer_factory.hpp:77] Creating layer relu5_1
I0406 00:09:33.711598 19531 net.cpp:100] Creating Layer relu5_1
I0406 00:09:33.711601 19531 net.cpp:434] relu5_1 <- conv5_1
I0406 00:09:33.711606 19531 net.cpp:395] relu5_1 -> conv5_1 (in-place)
I0406 00:09:33.711609 19531 net.cpp:150] Setting up relu5_1
I0406 00:09:33.711612 19531 net.cpp:157] Top shape: 32 128 4 16 (262144)
I0406 00:09:33.711616 19531 net.cpp:165] Memory required for data: 258998624
I0406 00:09:33.711617 19531 layer_factory.hpp:77] Creating layer conv5_2
I0406 00:09:33.711623 19531 net.cpp:100] Creating Layer conv5_2
I0406 00:09:33.711625 19531 net.cpp:434] conv5_2 <- conv5_1
I0406 00:09:33.711629 19531 net.cpp:408] conv5_2 -> conv5_2
I0406 00:09:33.716802 19531 net.cpp:150] Setting up conv5_2
I0406 00:09:33.716812 19531 net.cpp:157] Top shape: 32 128 4 16 (262144)
I0406 00:09:33.716814 19531 net.cpp:165] Memory required for data: 260047200
I0406 00:09:33.716820 19531 layer_factory.hpp:77] Creating layer relu5_2
I0406 00:09:33.716823 19531 net.cpp:100] Creating Layer relu5_2
I0406 00:09:33.716826 19531 net.cpp:434] relu5_2 <- conv5_2
I0406 00:09:33.716832 19531 net.cpp:395] relu5_2 -> conv5_2 (in-place)
I0406 00:09:33.716837 19531 net.cpp:150] Setting up relu5_2
I0406 00:09:33.716843 19531 net.cpp:157] Top shape: 32 128 4 16 (262144)
I0406 00:09:33.716845 19531 net.cpp:165] Memory required for data: 261095776
I0406 00:09:33.716848 19531 layer_factory.hpp:77] Creating layer conv5_3
I0406 00:09:33.716855 19531 net.cpp:100] Creating Layer conv5_3
I0406 00:09:33.716857 19531 net.cpp:434] conv5_3 <- conv5_2
I0406 00:09:33.716861 19531 net.cpp:408] conv5_3 -> conv5_3
I0406 00:09:33.717505 19531 net.cpp:150] Setting up conv5_3
I0406 00:09:33.717511 19531 net.cpp:157] Top shape: 32 128 4 16 (262144)
I0406 00:09:33.717514 19531 net.cpp:165] Memory required for data: 262144352
I0406 00:09:33.717517 19531 layer_factory.hpp:77] Creating layer relu5_3
I0406 00:09:33.717520 19531 net.cpp:100] Creating Layer relu5_3
I0406 00:09:33.717524 19531 net.cpp:434] relu5_3 <- conv5_3
I0406 00:09:33.717526 19531 net.cpp:395] relu5_3 -> conv5_3 (in-place)
I0406 00:09:33.717530 19531 net.cpp:150] Setting up relu5_3
I0406 00:09:33.717535 19531 net.cpp:157] Top shape: 32 128 4 16 (262144)
I0406 00:09:33.717536 19531 net.cpp:165] Memory required for data: 263192928
I0406 00:09:33.717538 19531 layer_factory.hpp:77] Creating layer pool5
I0406 00:09:33.717543 19531 net.cpp:100] Creating Layer pool5
I0406 00:09:33.717546 19531 net.cpp:434] pool5 <- conv5_3
I0406 00:09:33.717550 19531 net.cpp:408] pool5 -> pool5
I0406 00:09:33.717581 19531 net.cpp:150] Setting up pool5
I0406 00:09:33.717586 19531 net.cpp:157] Top shape: 32 128 4 16 (262144)
I0406 00:09:33.717587 19531 net.cpp:165] Memory required for data: 264241504
I0406 00:09:33.717591 19531 layer_factory.hpp:77] Creating layer fc6_conv
I0406 00:09:33.717598 19531 net.cpp:100] Creating Layer fc6_conv
I0406 00:09:33.717602 19531 net.cpp:434] fc6_conv <- pool5
I0406 00:09:33.717605 19531 net.cpp:408] fc6_conv -> fc6_conv
I0406 00:09:33.719384 19531 net.cpp:150] Setting up fc6_conv
I0406 00:09:33.719393 19531 net.cpp:157] Top shape: 32 256 4 16 (524288)
I0406 00:09:33.719395 19531 net.cpp:165] Memory required for data: 266338656
I0406 00:09:33.719399 19531 layer_factory.hpp:77] Creating layer relu6
I0406 00:09:33.719403 19531 net.cpp:100] Creating Layer relu6
I0406 00:09:33.719406 19531 net.cpp:434] relu6 <- fc6_conv
I0406 00:09:33.719410 19531 net.cpp:395] relu6 -> fc6_conv (in-place)
I0406 00:09:33.719415 19531 net.cpp:150] Setting up relu6
I0406 00:09:33.719419 19531 net.cpp:157] Top shape: 32 256 4 16 (524288)
I0406 00:09:33.719421 19531 net.cpp:165] Memory required for data: 268435808
I0406 00:09:33.719424 19531 layer_factory.hpp:77] Creating layer fc7_conv
I0406 00:09:33.719429 19531 net.cpp:100] Creating Layer fc7_conv
I0406 00:09:33.719432 19531 net.cpp:434] fc7_conv <- fc6_conv
I0406 00:09:33.719435 19531 net.cpp:408] fc7_conv -> fc7_conv
I0406 00:09:33.719852 19531 net.cpp:150] Setting up fc7_conv
I0406 00:09:33.719858 19531 net.cpp:157] Top shape: 32 256 4 16 (524288)
I0406 00:09:33.719861 19531 net.cpp:165] Memory required for data: 270532960
I0406 00:09:33.719866 19531 layer_factory.hpp:77] Creating layer relu7
I0406 00:09:33.719868 19531 net.cpp:100] Creating Layer relu7
I0406 00:09:33.719871 19531 net.cpp:434] relu7 <- fc7_conv
I0406 00:09:33.719874 19531 net.cpp:395] relu7 -> fc7_conv (in-place)
I0406 00:09:33.719878 19531 net.cpp:150] Setting up relu7
I0406 00:09:33.719882 19531 net.cpp:157] Top shape: 32 256 4 16 (524288)
I0406 00:09:33.719883 19531 net.cpp:165] Memory required for data: 272630112
I0406 00:09:33.719887 19531 layer_factory.hpp:77] Creating layer fc7_conv_relu7_0_split
I0406 00:09:33.719890 19531 net.cpp:100] Creating Layer fc7_conv_relu7_0_split
I0406 00:09:33.719893 19531 net.cpp:434] fc7_conv_relu7_0_split <- fc7_conv
I0406 00:09:33.719897 19531 net.cpp:408] fc7_conv_relu7_0_split -> fc7_conv_relu7_0_split_0
I0406 00:09:33.719900 19531 net.cpp:408] fc7_conv_relu7_0_split -> fc7_conv_relu7_0_split_1
I0406 00:09:33.719905 19531 net.cpp:408] fc7_conv_relu7_0_split -> fc7_conv_relu7_0_split_2
I0406 00:09:33.719946 19531 net.cpp:150] Setting up fc7_conv_relu7_0_split
I0406 00:09:33.719950 19531 net.cpp:157] Top shape: 32 256 4 16 (524288)
I0406 00:09:33.719956 19531 net.cpp:157] Top shape: 32 256 4 16 (524288)
I0406 00:09:33.719959 19531 net.cpp:157] Top shape: 32 256 4 16 (524288)
I0406 00:09:33.719961 19531 net.cpp:165] Memory required for data: 278921568
I0406 00:09:33.719964 19531 layer_factory.hpp:77] Creating layer conv6_1
I0406 00:09:33.719969 19531 net.cpp:100] Creating Layer conv6_1
I0406 00:09:33.719972 19531 net.cpp:434] conv6_1 <- fc7_conv_relu7_0_split_0
I0406 00:09:33.719977 19531 net.cpp:408] conv6_1 -> conv6_1
I0406 00:09:33.720214 19531 net.cpp:150] Setting up conv6_1
I0406 00:09:33.720221 19531 net.cpp:157] Top shape: 32 32 4 16 (65536)
I0406 00:09:33.720222 19531 net.cpp:165] Memory required for data: 279183712
I0406 00:09:33.720227 19531 layer_factory.hpp:77] Creating layer conv6_1_relu
I0406 00:09:33.720230 19531 net.cpp:100] Creating Layer conv6_1_relu
I0406 00:09:33.720232 19531 net.cpp:434] conv6_1_relu <- conv6_1
I0406 00:09:33.720237 19531 net.cpp:395] conv6_1_relu -> conv6_1 (in-place)
I0406 00:09:33.720240 19531 net.cpp:150] Setting up conv6_1_relu
I0406 00:09:33.720243 19531 net.cpp:157] Top shape: 32 32 4 16 (65536)
I0406 00:09:33.720245 19531 net.cpp:165] Memory required for data: 279445856
I0406 00:09:33.720248 19531 layer_factory.hpp:77] Creating layer conv6_2
I0406 00:09:33.720253 19531 net.cpp:100] Creating Layer conv6_2
I0406 00:09:33.720257 19531 net.cpp:434] conv6_2 <- conv6_1
I0406 00:09:33.720260 19531 net.cpp:408] conv6_2 -> conv6_2
I0406 00:09:33.720546 19531 net.cpp:150] Setting up conv6_2
I0406 00:09:33.720552 19531 net.cpp:157] Top shape: 32 64 2 8 (32768)
I0406 00:09:33.720556 19531 net.cpp:165] Memory required for data: 279576928
I0406 00:09:33.720562 19531 layer_factory.hpp:77] Creating layer conv6_2_relu
I0406 00:09:33.720566 19531 net.cpp:100] Creating Layer conv6_2_relu
I0406 00:09:33.720569 19531 net.cpp:434] conv6_2_relu <- conv6_2
I0406 00:09:33.720573 19531 net.cpp:395] conv6_2_relu -> conv6_2 (in-place)
I0406 00:09:33.720577 19531 net.cpp:150] Setting up conv6_2_relu
I0406 00:09:33.720580 19531 net.cpp:157] Top shape: 32 64 2 8 (32768)
I0406 00:09:33.720582 19531 net.cpp:165] Memory required for data: 279708000
I0406 00:09:33.720585 19531 layer_factory.hpp:77] Creating layer conv6_2_conv6_2_relu_0_split
I0406 00:09:33.720588 19531 net.cpp:100] Creating Layer conv6_2_conv6_2_relu_0_split
I0406 00:09:33.720592 19531 net.cpp:434] conv6_2_conv6_2_relu_0_split <- conv6_2
I0406 00:09:33.720594 19531 net.cpp:408] conv6_2_conv6_2_relu_0_split -> conv6_2_conv6_2_relu_0_split_0
I0406 00:09:33.720598 19531 net.cpp:408] conv6_2_conv6_2_relu_0_split -> conv6_2_conv6_2_relu_0_split_1
I0406 00:09:33.720603 19531 net.cpp:408] conv6_2_conv6_2_relu_0_split -> conv6_2_conv6_2_relu_0_split_2
I0406 00:09:33.720645 19531 net.cpp:150] Setting up conv6_2_conv6_2_relu_0_split
I0406 00:09:33.720649 19531 net.cpp:157] Top shape: 32 64 2 8 (32768)
I0406 00:09:33.720652 19531 net.cpp:157] Top shape: 32 64 2 8 (32768)
I0406 00:09:33.720655 19531 net.cpp:157] Top shape: 32 64 2 8 (32768)
I0406 00:09:33.720657 19531 net.cpp:165] Memory required for data: 280101216
I0406 00:09:33.720660 19531 layer_factory.hpp:77] Creating layer conv7_1
I0406 00:09:33.720665 19531 net.cpp:100] Creating Layer conv7_1
I0406 00:09:33.720669 19531 net.cpp:434] conv7_1 <- conv6_2_conv6_2_relu_0_split_0
I0406 00:09:33.720674 19531 net.cpp:408] conv7_1 -> conv7_1
I0406 00:09:33.720880 19531 net.cpp:150] Setting up conv7_1
I0406 00:09:33.720885 19531 net.cpp:157] Top shape: 32 16 2 8 (8192)
I0406 00:09:33.720887 19531 net.cpp:165] Memory required for data: 280133984
I0406 00:09:33.720891 19531 layer_factory.hpp:77] Creating layer conv7_1_relu
I0406 00:09:33.720896 19531 net.cpp:100] Creating Layer conv7_1_relu
I0406 00:09:33.720897 19531 net.cpp:434] conv7_1_relu <- conv7_1
I0406 00:09:33.720901 19531 net.cpp:395] conv7_1_relu -> conv7_1 (in-place)
I0406 00:09:33.720906 19531 net.cpp:150] Setting up conv7_1_relu
I0406 00:09:33.720909 19531 net.cpp:157] Top shape: 32 16 2 8 (8192)
I0406 00:09:33.720911 19531 net.cpp:165] Memory required for data: 280166752
I0406 00:09:33.720916 19531 layer_factory.hpp:77] Creating layer conv7_2
I0406 00:09:33.720921 19531 net.cpp:100] Creating Layer conv7_2
I0406 00:09:33.720924 19531 net.cpp:434] conv7_2 <- conv7_1
I0406 00:09:33.720928 19531 net.cpp:408] conv7_2 -> conv7_2
I0406 00:09:33.721149 19531 net.cpp:150] Setting up conv7_2
I0406 00:09:33.721155 19531 net.cpp:157] Top shape: 32 32 1 4 (4096)
I0406 00:09:33.721158 19531 net.cpp:165] Memory required for data: 280183136
I0406 00:09:33.721163 19531 layer_factory.hpp:77] Creating layer conv7_2_relu
I0406 00:09:33.721165 19531 net.cpp:100] Creating Layer conv7_2_relu
I0406 00:09:33.721168 19531 net.cpp:434] conv7_2_relu <- conv7_2
I0406 00:09:33.721173 19531 net.cpp:395] conv7_2_relu -> conv7_2 (in-place)
I0406 00:09:33.721176 19531 net.cpp:150] Setting up conv7_2_relu
I0406 00:09:33.721179 19531 net.cpp:157] Top shape: 32 32 1 4 (4096)
I0406 00:09:33.721181 19531 net.cpp:165] Memory required for data: 280199520
I0406 00:09:33.721184 19531 layer_factory.hpp:77] Creating layer conv7_2_conv7_2_relu_0_split
I0406 00:09:33.721186 19531 net.cpp:100] Creating Layer conv7_2_conv7_2_relu_0_split
I0406 00:09:33.721189 19531 net.cpp:434] conv7_2_conv7_2_relu_0_split <- conv7_2
I0406 00:09:33.721192 19531 net.cpp:408] conv7_2_conv7_2_relu_0_split -> conv7_2_conv7_2_relu_0_split_0
I0406 00:09:33.721196 19531 net.cpp:408] conv7_2_conv7_2_relu_0_split -> conv7_2_conv7_2_relu_0_split_1
I0406 00:09:33.721200 19531 net.cpp:408] conv7_2_conv7_2_relu_0_split -> conv7_2_conv7_2_relu_0_split_2
I0406 00:09:33.721241 19531 net.cpp:150] Setting up conv7_2_conv7_2_relu_0_split
I0406 00:09:33.721246 19531 net.cpp:157] Top shape: 32 32 1 4 (4096)
I0406 00:09:33.721248 19531 net.cpp:157] Top shape: 32 32 1 4 (4096)
I0406 00:09:33.721251 19531 net.cpp:157] Top shape: 32 32 1 4 (4096)
I0406 00:09:33.721253 19531 net.cpp:165] Memory required for data: 280248672
I0406 00:09:33.721256 19531 layer_factory.hpp:77] Creating layer pool6
I0406 00:09:33.721261 19531 net.cpp:100] Creating Layer pool6
I0406 00:09:33.721263 19531 net.cpp:434] pool6 <- conv7_2_conv7_2_relu_0_split_0
I0406 00:09:33.721266 19531 net.cpp:408] pool6 -> pool6
I0406 00:09:33.721285 19531 net.cpp:150] Setting up pool6
I0406 00:09:33.721289 19531 net.cpp:157] Top shape: 32 32 1 1 (1024)
I0406 00:09:33.721292 19531 net.cpp:165] Memory required for data: 280252768
I0406 00:09:33.721294 19531 layer_factory.hpp:77] Creating layer pool6_pool6_0_split
I0406 00:09:33.721297 19531 net.cpp:100] Creating Layer pool6_pool6_0_split
I0406 00:09:33.721300 19531 net.cpp:434] pool6_pool6_0_split <- pool6
I0406 00:09:33.721303 19531 net.cpp:408] pool6_pool6_0_split -> pool6_pool6_0_split_0
I0406 00:09:33.721307 19531 net.cpp:408] pool6_pool6_0_split -> pool6_pool6_0_split_1
I0406 00:09:33.721334 19531 net.cpp:150] Setting up pool6_pool6_0_split
I0406 00:09:33.721338 19531 net.cpp:157] Top shape: 32 32 1 1 (1024)
I0406 00:09:33.721341 19531 net.cpp:157] Top shape: 32 32 1 1 (1024)
I0406 00:09:33.721344 19531 net.cpp:165] Memory required for data: 280260960
I0406 00:09:33.721346 19531 layer_factory.hpp:77] Creating layer conv4_3_norm
I0406 00:09:33.721350 19531 net.cpp:100] Creating Layer conv4_3_norm
I0406 00:09:33.721352 19531 net.cpp:434] conv4_3_norm <- conv4_3_relu4_3_0_split_1
I0406 00:09:33.721356 19531 net.cpp:408] conv4_3_norm -> conv4_3_norm
I0406 00:09:33.721469 19531 net.cpp:150] Setting up conv4_3_norm
I0406 00:09:33.721474 19531 net.cpp:157] Top shape: 32 128 8 32 (1048576)
I0406 00:09:33.721477 19531 net.cpp:165] Memory required for data: 284455264
I0406 00:09:33.721480 19531 layer_factory.hpp:77] Creating layer conv4_3_norm_conv4_3_norm_0_split
I0406 00:09:33.721484 19531 net.cpp:100] Creating Layer conv4_3_norm_conv4_3_norm_0_split
I0406 00:09:33.721487 19531 net.cpp:434] conv4_3_norm_conv4_3_norm_0_split <- conv4_3_norm
I0406 00:09:33.721490 19531 net.cpp:408] conv4_3_norm_conv4_3_norm_0_split -> conv4_3_norm_conv4_3_norm_0_split_0
I0406 00:09:33.721494 19531 net.cpp:408] conv4_3_norm_conv4_3_norm_0_split -> conv4_3_norm_conv4_3_norm_0_split_1
I0406 00:09:33.721525 19531 net.cpp:150] Setting up conv4_3_norm_conv4_3_norm_0_split
I0406 00:09:33.721529 19531 net.cpp:157] Top shape: 32 128 8 32 (1048576)
I0406 00:09:33.721532 19531 net.cpp:157] Top shape: 32 128 8 32 (1048576)
I0406 00:09:33.721535 19531 net.cpp:165] Memory required for data: 292843872
I0406 00:09:33.721537 19531 layer_factory.hpp:77] Creating layer conv4_3_norm_mbox_loc_conf
I0406 00:09:33.721544 19531 net.cpp:100] Creating Layer conv4_3_norm_mbox_loc_conf
I0406 00:09:33.721547 19531 net.cpp:434] conv4_3_norm_mbox_loc_conf <- conv4_3_norm_conv4_3_norm_0_split_0
I0406 00:09:33.721552 19531 net.cpp:408] conv4_3_norm_mbox_loc_conf -> conv4_3_norm_mbox_loc_conf
I0406 00:09:33.721937 19531 net.cpp:150] Setting up conv4_3_norm_mbox_loc_conf
I0406 00:09:33.721943 19531 net.cpp:157] Top shape: 32 48 8 32 (393216)
I0406 00:09:33.721946 19531 net.cpp:165] Memory required for data: 294416736
I0406 00:09:33.721949 19531 layer_factory.hpp:77] Creating layer conv4_3_norm_mbox_loc_conf_perm
I0406 00:09:33.721954 19531 net.cpp:100] Creating Layer conv4_3_norm_mbox_loc_conf_perm
I0406 00:09:33.721957 19531 net.cpp:434] conv4_3_norm_mbox_loc_conf_perm <- conv4_3_norm_mbox_loc_conf
I0406 00:09:33.721962 19531 net.cpp:408] conv4_3_norm_mbox_loc_conf_perm -> conv4_3_norm_mbox_loc_conf_perm
I0406 00:09:33.722043 19531 net.cpp:150] Setting up conv4_3_norm_mbox_loc_conf_perm
I0406 00:09:33.722048 19531 net.cpp:157] Top shape: 32 8 32 48 (393216)
I0406 00:09:33.722050 19531 net.cpp:165] Memory required for data: 295989600
I0406 00:09:33.722053 19531 layer_factory.hpp:77] Creating layer conv4_3_norm_mbox_loc_perm
I0406 00:09:33.722056 19531 net.cpp:100] Creating Layer conv4_3_norm_mbox_loc_perm
I0406 00:09:33.722059 19531 net.cpp:434] conv4_3_norm_mbox_loc_perm <- conv4_3_norm_mbox_loc_conf_perm
I0406 00:09:33.722062 19531 net.cpp:408] conv4_3_norm_mbox_loc_perm -> conv4_3_norm_mbox_loc_perm
I0406 00:09:33.722067 19531 net.cpp:408] conv4_3_norm_mbox_loc_perm -> conv4_3_norm_mbox_conf_perm
I0406 00:09:33.722095 19531 net.cpp:150] Setting up conv4_3_norm_mbox_loc_perm
I0406 00:09:33.722100 19531 net.cpp:157] Top shape: 32 8 32 24 (196608)
I0406 00:09:33.722102 19531 net.cpp:157] Top shape: 32 8 32 24 (196608)
I0406 00:09:33.722105 19531 net.cpp:165] Memory required for data: 297562464
I0406 00:09:33.722106 19531 layer_factory.hpp:77] Creating layer conv4_3_norm_mbox_loc_flat
I0406 00:09:33.722110 19531 net.cpp:100] Creating Layer conv4_3_norm_mbox_loc_flat
I0406 00:09:33.722113 19531 net.cpp:434] conv4_3_norm_mbox_loc_flat <- conv4_3_norm_mbox_loc_perm
I0406 00:09:33.722116 19531 net.cpp:408] conv4_3_norm_mbox_loc_flat -> conv4_3_norm_mbox_loc_flat
I0406 00:09:33.722136 19531 net.cpp:150] Setting up conv4_3_norm_mbox_loc_flat
I0406 00:09:33.722139 19531 net.cpp:157] Top shape: 32 6144 (196608)
I0406 00:09:33.722142 19531 net.cpp:165] Memory required for data: 298348896
I0406 00:09:33.722144 19531 layer_factory.hpp:77] Creating layer conv4_3_norm_mbox_conf_flat
I0406 00:09:33.722148 19531 net.cpp:100] Creating Layer conv4_3_norm_mbox_conf_flat
I0406 00:09:33.722151 19531 net.cpp:434] conv4_3_norm_mbox_conf_flat <- conv4_3_norm_mbox_conf_perm
I0406 00:09:33.722154 19531 net.cpp:408] conv4_3_norm_mbox_conf_flat -> conv4_3_norm_mbox_conf_flat
I0406 00:09:33.722172 19531 net.cpp:150] Setting up conv4_3_norm_mbox_conf_flat
I0406 00:09:33.722177 19531 net.cpp:157] Top shape: 32 6144 (196608)
I0406 00:09:33.722179 19531 net.cpp:165] Memory required for data: 299135328
I0406 00:09:33.722182 19531 layer_factory.hpp:77] Creating layer conv4_3_norm_mbox_priorbox
I0406 00:09:33.722187 19531 net.cpp:100] Creating Layer conv4_3_norm_mbox_priorbox
I0406 00:09:33.722188 19531 net.cpp:434] conv4_3_norm_mbox_priorbox <- conv4_3_norm_conv4_3_norm_0_split_1
I0406 00:09:33.722192 19531 net.cpp:434] conv4_3_norm_mbox_priorbox <- data_data_0_split_1
I0406 00:09:33.722196 19531 net.cpp:408] conv4_3_norm_mbox_priorbox -> conv4_3_norm_mbox_priorbox
I0406 00:09:33.722215 19531 net.cpp:150] Setting up conv4_3_norm_mbox_priorbox
I0406 00:09:33.722220 19531 net.cpp:157] Top shape: 1 2 6144 (12288)
I0406 00:09:33.722224 19531 net.cpp:165] Memory required for data: 299184480
I0406 00:09:33.722226 19531 layer_factory.hpp:77] Creating layer fc7_conv_mbox_loc_conf
I0406 00:09:33.722234 19531 net.cpp:100] Creating Layer fc7_conv_mbox_loc_conf
I0406 00:09:33.722236 19531 net.cpp:434] fc7_conv_mbox_loc_conf <- fc7_conv_relu7_0_split_1
I0406 00:09:33.722240 19531 net.cpp:408] fc7_conv_mbox_loc_conf -> fc7_conv_mbox_loc_conf
I0406 00:09:33.722777 19531 net.cpp:150] Setting up fc7_conv_mbox_loc_conf
I0406 00:09:33.722784 19531 net.cpp:157] Top shape: 32 48 4 16 (98304)
I0406 00:09:33.722785 19531 net.cpp:165] Memory required for data: 299577696
I0406 00:09:33.722790 19531 layer_factory.hpp:77] Creating layer fc7_conv_mbox_loc_conf_perm
I0406 00:09:33.722793 19531 net.cpp:100] Creating Layer fc7_conv_mbox_loc_conf_perm
I0406 00:09:33.722796 19531 net.cpp:434] fc7_conv_mbox_loc_conf_perm <- fc7_conv_mbox_loc_conf
I0406 00:09:33.722800 19531 net.cpp:408] fc7_conv_mbox_loc_conf_perm -> fc7_conv_mbox_loc_conf_perm
I0406 00:09:33.722884 19531 net.cpp:150] Setting up fc7_conv_mbox_loc_conf_perm
I0406 00:09:33.722888 19531 net.cpp:157] Top shape: 32 4 16 48 (98304)
I0406 00:09:33.722892 19531 net.cpp:165] Memory required for data: 299970912
I0406 00:09:33.722893 19531 layer_factory.hpp:77] Creating layer fc7_conv_mbox_loc_perm
I0406 00:09:33.722898 19531 net.cpp:100] Creating Layer fc7_conv_mbox_loc_perm
I0406 00:09:33.722900 19531 net.cpp:434] fc7_conv_mbox_loc_perm <- fc7_conv_mbox_loc_conf_perm
I0406 00:09:33.722904 19531 net.cpp:408] fc7_conv_mbox_loc_perm -> fc7_conv_mbox_loc_perm
I0406 00:09:33.722908 19531 net.cpp:408] fc7_conv_mbox_loc_perm -> fc7_conv_mbox_conf_perm
I0406 00:09:33.722935 19531 net.cpp:150] Setting up fc7_conv_mbox_loc_perm
I0406 00:09:33.722939 19531 net.cpp:157] Top shape: 32 4 16 24 (49152)
I0406 00:09:33.722942 19531 net.cpp:157] Top shape: 32 4 16 24 (49152)
I0406 00:09:33.722945 19531 net.cpp:165] Memory required for data: 300364128
I0406 00:09:33.722947 19531 layer_factory.hpp:77] Creating layer fc7_conv_mbox_loc_flat
I0406 00:09:33.722950 19531 net.cpp:100] Creating Layer fc7_conv_mbox_loc_flat
I0406 00:09:33.722954 19531 net.cpp:434] fc7_conv_mbox_loc_flat <- fc7_conv_mbox_loc_perm
I0406 00:09:33.722956 19531 net.cpp:408] fc7_conv_mbox_loc_flat -> fc7_conv_mbox_loc_flat
I0406 00:09:33.722975 19531 net.cpp:150] Setting up fc7_conv_mbox_loc_flat
I0406 00:09:33.722980 19531 net.cpp:157] Top shape: 32 1536 (49152)
I0406 00:09:33.722982 19531 net.cpp:165] Memory required for data: 300560736
I0406 00:09:33.722985 19531 layer_factory.hpp:77] Creating layer fc7_conv_mbox_conf_flat
I0406 00:09:33.722988 19531 net.cpp:100] Creating Layer fc7_conv_mbox_conf_flat
I0406 00:09:33.722990 19531 net.cpp:434] fc7_conv_mbox_conf_flat <- fc7_conv_mbox_conf_perm
I0406 00:09:33.722995 19531 net.cpp:408] fc7_conv_mbox_conf_flat -> fc7_conv_mbox_conf_flat
I0406 00:09:33.723012 19531 net.cpp:150] Setting up fc7_conv_mbox_conf_flat
I0406 00:09:33.723016 19531 net.cpp:157] Top shape: 32 1536 (49152)
I0406 00:09:33.723019 19531 net.cpp:165] Memory required for data: 300757344
I0406 00:09:33.723021 19531 layer_factory.hpp:77] Creating layer fc7_conv_mbox_priorbox
I0406 00:09:33.723024 19531 net.cpp:100] Creating Layer fc7_conv_mbox_priorbox
I0406 00:09:33.723027 19531 net.cpp:434] fc7_conv_mbox_priorbox <- fc7_conv_relu7_0_split_2
I0406 00:09:33.723031 19531 net.cpp:434] fc7_conv_mbox_priorbox <- data_data_0_split_2
I0406 00:09:33.723034 19531 net.cpp:408] fc7_conv_mbox_priorbox -> fc7_conv_mbox_priorbox
I0406 00:09:33.723053 19531 net.cpp:150] Setting up fc7_conv_mbox_priorbox
I0406 00:09:33.723057 19531 net.cpp:157] Top shape: 1 2 1536 (3072)
I0406 00:09:33.723060 19531 net.cpp:165] Memory required for data: 300769632
I0406 00:09:33.723062 19531 layer_factory.hpp:77] Creating layer conv6_2_mbox_loc_conf
I0406 00:09:33.723068 19531 net.cpp:100] Creating Layer conv6_2_mbox_loc_conf
I0406 00:09:33.723071 19531 net.cpp:434] conv6_2_mbox_loc_conf <- conv6_2_conv6_2_relu_0_split_1
I0406 00:09:33.723078 19531 net.cpp:408] conv6_2_mbox_loc_conf -> conv6_2_mbox_loc_conf
I0406 00:09:33.723369 19531 net.cpp:150] Setting up conv6_2_mbox_loc_conf
I0406 00:09:33.723376 19531 net.cpp:157] Top shape: 32 48 2 8 (24576)
I0406 00:09:33.723377 19531 net.cpp:165] Memory required for data: 300867936
I0406 00:09:33.723381 19531 layer_factory.hpp:77] Creating layer conv6_2_mbox_loc_conf_perm
I0406 00:09:33.723388 19531 net.cpp:100] Creating Layer conv6_2_mbox_loc_conf_perm
I0406 00:09:33.723392 19531 net.cpp:434] conv6_2_mbox_loc_conf_perm <- conv6_2_mbox_loc_conf
I0406 00:09:33.723397 19531 net.cpp:408] conv6_2_mbox_loc_conf_perm -> conv6_2_mbox_loc_conf_perm
I0406 00:09:33.723482 19531 net.cpp:150] Setting up conv6_2_mbox_loc_conf_perm
I0406 00:09:33.723487 19531 net.cpp:157] Top shape: 32 2 8 48 (24576)
I0406 00:09:33.723489 19531 net.cpp:165] Memory required for data: 300966240
I0406 00:09:33.723492 19531 layer_factory.hpp:77] Creating layer conv6_2_mbox_loc_perm
I0406 00:09:33.723495 19531 net.cpp:100] Creating Layer conv6_2_mbox_loc_perm
I0406 00:09:33.723498 19531 net.cpp:434] conv6_2_mbox_loc_perm <- conv6_2_mbox_loc_conf_perm
I0406 00:09:33.723503 19531 net.cpp:408] conv6_2_mbox_loc_perm -> conv6_2_mbox_loc_perm
I0406 00:09:33.723507 19531 net.cpp:408] conv6_2_mbox_loc_perm -> conv6_2_mbox_conf_perm
I0406 00:09:33.723537 19531 net.cpp:150] Setting up conv6_2_mbox_loc_perm
I0406 00:09:33.723542 19531 net.cpp:157] Top shape: 32 2 8 24 (12288)
I0406 00:09:33.723546 19531 net.cpp:157] Top shape: 32 2 8 24 (12288)
I0406 00:09:33.723547 19531 net.cpp:165] Memory required for data: 301064544
I0406 00:09:33.723551 19531 layer_factory.hpp:77] Creating layer conv6_2_mbox_loc_flat
I0406 00:09:33.723554 19531 net.cpp:100] Creating Layer conv6_2_mbox_loc_flat
I0406 00:09:33.723557 19531 net.cpp:434] conv6_2_mbox_loc_flat <- conv6_2_mbox_loc_perm
I0406 00:09:33.723561 19531 net.cpp:408] conv6_2_mbox_loc_flat -> conv6_2_mbox_loc_flat
I0406 00:09:33.723579 19531 net.cpp:150] Setting up conv6_2_mbox_loc_flat
I0406 00:09:33.723583 19531 net.cpp:157] Top shape: 32 384 (12288)
I0406 00:09:33.723585 19531 net.cpp:165] Memory required for data: 301113696
I0406 00:09:33.723588 19531 layer_factory.hpp:77] Creating layer conv6_2_mbox_conf_flat
I0406 00:09:33.723592 19531 net.cpp:100] Creating Layer conv6_2_mbox_conf_flat
I0406 00:09:33.723594 19531 net.cpp:434] conv6_2_mbox_conf_flat <- conv6_2_mbox_conf_perm
I0406 00:09:33.723598 19531 net.cpp:408] conv6_2_mbox_conf_flat -> conv6_2_mbox_conf_flat
I0406 00:09:33.723616 19531 net.cpp:150] Setting up conv6_2_mbox_conf_flat
I0406 00:09:33.723620 19531 net.cpp:157] Top shape: 32 384 (12288)
I0406 00:09:33.723623 19531 net.cpp:165] Memory required for data: 301162848
I0406 00:09:33.723625 19531 layer_factory.hpp:77] Creating layer conv6_2_mbox_priorbox
I0406 00:09:33.723629 19531 net.cpp:100] Creating Layer conv6_2_mbox_priorbox
I0406 00:09:33.723633 19531 net.cpp:434] conv6_2_mbox_priorbox <- conv6_2_conv6_2_relu_0_split_2
I0406 00:09:33.723635 19531 net.cpp:434] conv6_2_mbox_priorbox <- data_data_0_split_3
I0406 00:09:33.723639 19531 net.cpp:408] conv6_2_mbox_priorbox -> conv6_2_mbox_priorbox
I0406 00:09:33.723659 19531 net.cpp:150] Setting up conv6_2_mbox_priorbox
I0406 00:09:33.723662 19531 net.cpp:157] Top shape: 1 2 384 (768)
I0406 00:09:33.723664 19531 net.cpp:165] Memory required for data: 301165920
I0406 00:09:33.723666 19531 layer_factory.hpp:77] Creating layer conv7_2_mbox_loc_conf
I0406 00:09:33.723672 19531 net.cpp:100] Creating Layer conv7_2_mbox_loc_conf
I0406 00:09:33.723675 19531 net.cpp:434] conv7_2_mbox_loc_conf <- conv7_2_conv7_2_relu_0_split_1
I0406 00:09:33.723680 19531 net.cpp:408] conv7_2_mbox_loc_conf -> conv7_2_mbox_loc_conf
I0406 00:09:33.723927 19531 net.cpp:150] Setting up conv7_2_mbox_loc_conf
I0406 00:09:33.723933 19531 net.cpp:157] Top shape: 32 48 1 4 (6144)
I0406 00:09:33.723935 19531 net.cpp:165] Memory required for data: 301190496
I0406 00:09:33.723939 19531 layer_factory.hpp:77] Creating layer conv7_2_mbox_loc_conf_perm
I0406 00:09:33.723943 19531 net.cpp:100] Creating Layer conv7_2_mbox_loc_conf_perm
I0406 00:09:33.723948 19531 net.cpp:434] conv7_2_mbox_loc_conf_perm <- conv7_2_mbox_loc_conf
I0406 00:09:33.723953 19531 net.cpp:408] conv7_2_mbox_loc_conf_perm -> conv7_2_mbox_loc_conf_perm
I0406 00:09:33.724036 19531 net.cpp:150] Setting up conv7_2_mbox_loc_conf_perm
I0406 00:09:33.724040 19531 net.cpp:157] Top shape: 32 1 4 48 (6144)
I0406 00:09:33.724043 19531 net.cpp:165] Memory required for data: 301215072
I0406 00:09:33.724045 19531 layer_factory.hpp:77] Creating layer conv7_2_mbox_loc_perm
I0406 00:09:33.724050 19531 net.cpp:100] Creating Layer conv7_2_mbox_loc_perm
I0406 00:09:33.724053 19531 net.cpp:434] conv7_2_mbox_loc_perm <- conv7_2_mbox_loc_conf_perm
I0406 00:09:33.724056 19531 net.cpp:408] conv7_2_mbox_loc_perm -> conv7_2_mbox_loc_perm
I0406 00:09:33.724061 19531 net.cpp:408] conv7_2_mbox_loc_perm -> conv7_2_mbox_conf_perm
I0406 00:09:33.724089 19531 net.cpp:150] Setting up conv7_2_mbox_loc_perm
I0406 00:09:33.724093 19531 net.cpp:157] Top shape: 32 1 4 24 (3072)
I0406 00:09:33.724097 19531 net.cpp:157] Top shape: 32 1 4 24 (3072)
I0406 00:09:33.724099 19531 net.cpp:165] Memory required for data: 301239648
I0406 00:09:33.724102 19531 layer_factory.hpp:77] Creating layer conv7_2_mbox_loc_flat
I0406 00:09:33.724104 19531 net.cpp:100] Creating Layer conv7_2_mbox_loc_flat
I0406 00:09:33.724107 19531 net.cpp:434] conv7_2_mbox_loc_flat <- conv7_2_mbox_loc_perm
I0406 00:09:33.724112 19531 net.cpp:408] conv7_2_mbox_loc_flat -> conv7_2_mbox_loc_flat
I0406 00:09:33.724128 19531 net.cpp:150] Setting up conv7_2_mbox_loc_flat
I0406 00:09:33.724133 19531 net.cpp:157] Top shape: 32 96 (3072)
I0406 00:09:33.724135 19531 net.cpp:165] Memory required for data: 301251936
I0406 00:09:33.724138 19531 layer_factory.hpp:77] Creating layer conv7_2_mbox_conf_flat
I0406 00:09:33.724141 19531 net.cpp:100] Creating Layer conv7_2_mbox_conf_flat
I0406 00:09:33.724144 19531 net.cpp:434] conv7_2_mbox_conf_flat <- conv7_2_mbox_conf_perm
I0406 00:09:33.724148 19531 net.cpp:408] conv7_2_mbox_conf_flat -> conv7_2_mbox_conf_flat
I0406 00:09:33.724166 19531 net.cpp:150] Setting up conv7_2_mbox_conf_flat
I0406 00:09:33.724170 19531 net.cpp:157] Top shape: 32 96 (3072)
I0406 00:09:33.724172 19531 net.cpp:165] Memory required for data: 301264224
I0406 00:09:33.724174 19531 layer_factory.hpp:77] Creating layer conv7_2_mbox_priorbox
I0406 00:09:33.724179 19531 net.cpp:100] Creating Layer conv7_2_mbox_priorbox
I0406 00:09:33.724181 19531 net.cpp:434] conv7_2_mbox_priorbox <- conv7_2_conv7_2_relu_0_split_2
I0406 00:09:33.724184 19531 net.cpp:434] conv7_2_mbox_priorbox <- data_data_0_split_4
I0406 00:09:33.724189 19531 net.cpp:408] conv7_2_mbox_priorbox -> conv7_2_mbox_priorbox
I0406 00:09:33.724206 19531 net.cpp:150] Setting up conv7_2_mbox_priorbox
I0406 00:09:33.724210 19531 net.cpp:157] Top shape: 1 2 96 (192)
I0406 00:09:33.724213 19531 net.cpp:165] Memory required for data: 301264992
I0406 00:09:33.724215 19531 layer_factory.hpp:77] Creating layer pool6_mbox_loc_conf
I0406 00:09:33.724221 19531 net.cpp:100] Creating Layer pool6_mbox_loc_conf
I0406 00:09:33.724223 19531 net.cpp:434] pool6_mbox_loc_conf <- pool6_pool6_0_split_0
I0406 00:09:33.724228 19531 net.cpp:408] pool6_mbox_loc_conf -> pool6_mbox_loc_conf
I0406 00:09:33.724480 19531 net.cpp:150] Setting up pool6_mbox_loc_conf
I0406 00:09:33.724486 19531 net.cpp:157] Top shape: 32 48 1 1 (1536)
I0406 00:09:33.724489 19531 net.cpp:165] Memory required for data: 301271136
I0406 00:09:33.724493 19531 layer_factory.hpp:77] Creating layer pool6_mbox_loc_conf_perm
I0406 00:09:33.724496 19531 net.cpp:100] Creating Layer pool6_mbox_loc_conf_perm
I0406 00:09:33.724499 19531 net.cpp:434] pool6_mbox_loc_conf_perm <- pool6_mbox_loc_conf
I0406 00:09:33.724503 19531 net.cpp:408] pool6_mbox_loc_conf_perm -> pool6_mbox_loc_conf_perm
I0406 00:09:33.724586 19531 net.cpp:150] Setting up pool6_mbox_loc_conf_perm
I0406 00:09:33.724591 19531 net.cpp:157] Top shape: 32 1 1 48 (1536)
I0406 00:09:33.724593 19531 net.cpp:165] Memory required for data: 301277280
I0406 00:09:33.724598 19531 layer_factory.hpp:77] Creating layer pool6_mbox_loc_perm
I0406 00:09:33.724602 19531 net.cpp:100] Creating Layer pool6_mbox_loc_perm
I0406 00:09:33.724606 19531 net.cpp:434] pool6_mbox_loc_perm <- pool6_mbox_loc_conf_perm
I0406 00:09:33.724609 19531 net.cpp:408] pool6_mbox_loc_perm -> pool6_mbox_loc_perm
I0406 00:09:33.724613 19531 net.cpp:408] pool6_mbox_loc_perm -> pool6_mbox_conf_perm
I0406 00:09:33.724642 19531 net.cpp:150] Setting up pool6_mbox_loc_perm
I0406 00:09:33.724647 19531 net.cpp:157] Top shape: 32 1 1 24 (768)
I0406 00:09:33.724649 19531 net.cpp:157] Top shape: 32 1 1 24 (768)
I0406 00:09:33.724653 19531 net.cpp:165] Memory required for data: 301283424
I0406 00:09:33.724654 19531 layer_factory.hpp:77] Creating layer pool6_mbox_loc_flat
I0406 00:09:33.724658 19531 net.cpp:100] Creating Layer pool6_mbox_loc_flat
I0406 00:09:33.724660 19531 net.cpp:434] pool6_mbox_loc_flat <- pool6_mbox_loc_perm
I0406 00:09:33.724664 19531 net.cpp:408] pool6_mbox_loc_flat -> pool6_mbox_loc_flat
I0406 00:09:33.724683 19531 net.cpp:150] Setting up pool6_mbox_loc_flat
I0406 00:09:33.724686 19531 net.cpp:157] Top shape: 32 24 (768)
I0406 00:09:33.724689 19531 net.cpp:165] Memory required for data: 301286496
I0406 00:09:33.724690 19531 layer_factory.hpp:77] Creating layer pool6_mbox_conf_flat
I0406 00:09:33.724694 19531 net.cpp:100] Creating Layer pool6_mbox_conf_flat
I0406 00:09:33.724696 19531 net.cpp:434] pool6_mbox_conf_flat <- pool6_mbox_conf_perm
I0406 00:09:33.724700 19531 net.cpp:408] pool6_mbox_conf_flat -> pool6_mbox_conf_flat
I0406 00:09:33.724720 19531 net.cpp:150] Setting up pool6_mbox_conf_flat
I0406 00:09:33.724723 19531 net.cpp:157] Top shape: 32 24 (768)
I0406 00:09:33.724725 19531 net.cpp:165] Memory required for data: 301289568
I0406 00:09:33.724727 19531 layer_factory.hpp:77] Creating layer pool6_mbox_priorbox
I0406 00:09:33.724732 19531 net.cpp:100] Creating Layer pool6_mbox_priorbox
I0406 00:09:33.724735 19531 net.cpp:434] pool6_mbox_priorbox <- pool6_pool6_0_split_1
I0406 00:09:33.724738 19531 net.cpp:434] pool6_mbox_priorbox <- data_data_0_split_5
I0406 00:09:33.724742 19531 net.cpp:408] pool6_mbox_priorbox -> pool6_mbox_priorbox
I0406 00:09:33.724761 19531 net.cpp:150] Setting up pool6_mbox_priorbox
I0406 00:09:33.724766 19531 net.cpp:157] Top shape: 1 2 24 (48)
I0406 00:09:33.724767 19531 net.cpp:165] Memory required for data: 301289760
I0406 00:09:33.724771 19531 layer_factory.hpp:77] Creating layer mbox_loc
I0406 00:09:33.724774 19531 net.cpp:100] Creating Layer mbox_loc
I0406 00:09:33.724778 19531 net.cpp:434] mbox_loc <- conv4_3_norm_mbox_loc_flat
I0406 00:09:33.724781 19531 net.cpp:434] mbox_loc <- fc7_conv_mbox_loc_flat
I0406 00:09:33.724784 19531 net.cpp:434] mbox_loc <- conv6_2_mbox_loc_flat
I0406 00:09:33.724787 19531 net.cpp:434] mbox_loc <- conv7_2_mbox_loc_flat
I0406 00:09:33.724791 19531 net.cpp:434] mbox_loc <- pool6_mbox_loc_flat
I0406 00:09:33.724793 19531 net.cpp:408] mbox_loc -> mbox_loc
I0406 00:09:33.724813 19531 net.cpp:150] Setting up mbox_loc
I0406 00:09:33.724817 19531 net.cpp:157] Top shape: 32 8184 (261888)
I0406 00:09:33.724819 19531 net.cpp:165] Memory required for data: 302337312
I0406 00:09:33.724822 19531 layer_factory.hpp:77] Creating layer mbox_conf
I0406 00:09:33.724824 19531 net.cpp:100] Creating Layer mbox_conf
I0406 00:09:33.724828 19531 net.cpp:434] mbox_conf <- conv4_3_norm_mbox_conf_flat
I0406 00:09:33.724831 19531 net.cpp:434] mbox_conf <- fc7_conv_mbox_conf_flat
I0406 00:09:33.724834 19531 net.cpp:434] mbox_conf <- conv6_2_mbox_conf_flat
I0406 00:09:33.724838 19531 net.cpp:434] mbox_conf <- conv7_2_mbox_conf_flat
I0406 00:09:33.724840 19531 net.cpp:434] mbox_conf <- pool6_mbox_conf_flat
I0406 00:09:33.724843 19531 net.cpp:408] mbox_conf -> mbox_conf
I0406 00:09:33.724861 19531 net.cpp:150] Setting up mbox_conf
I0406 00:09:33.724865 19531 net.cpp:157] Top shape: 32 8184 (261888)
I0406 00:09:33.724867 19531 net.cpp:165] Memory required for data: 303384864
I0406 00:09:33.724869 19531 layer_factory.hpp:77] Creating layer mbox_priorbox
I0406 00:09:33.724875 19531 net.cpp:100] Creating Layer mbox_priorbox
I0406 00:09:33.724879 19531 net.cpp:434] mbox_priorbox <- conv4_3_norm_mbox_priorbox
I0406 00:09:33.724881 19531 net.cpp:434] mbox_priorbox <- fc7_conv_mbox_priorbox
I0406 00:09:33.724884 19531 net.cpp:434] mbox_priorbox <- conv6_2_mbox_priorbox
I0406 00:09:33.724887 19531 net.cpp:434] mbox_priorbox <- conv7_2_mbox_priorbox
I0406 00:09:33.724889 19531 net.cpp:434] mbox_priorbox <- pool6_mbox_priorbox
I0406 00:09:33.724894 19531 net.cpp:408] mbox_priorbox -> mbox_priorbox
I0406 00:09:33.724911 19531 net.cpp:150] Setting up mbox_priorbox
I0406 00:09:33.724915 19531 net.cpp:157] Top shape: 1 2 8184 (16368)
I0406 00:09:33.724917 19531 net.cpp:165] Memory required for data: 303450336
I0406 00:09:33.724920 19531 layer_factory.hpp:77] Creating layer mbox_loss
I0406 00:09:33.724925 19531 net.cpp:100] Creating Layer mbox_loss
I0406 00:09:33.724928 19531 net.cpp:434] mbox_loss <- mbox_loc
I0406 00:09:33.724931 19531 net.cpp:434] mbox_loss <- mbox_conf
I0406 00:09:33.724934 19531 net.cpp:434] mbox_loss <- mbox_priorbox
…
  name: "data"
  type: "AnnotatedData"
  top: "data"
  top: "label"
  include {
    phase: TEST
  }
  transform_param {
    mean_value: 114
    mean_value: 115
    mean_value: 108
    resize_param {
      prob: 1
      resize_mode: WARP
      height: 64
      width: 256
      interp_mode: LINEAR
    }
  }
  data_param {
    source: "/home/work/wwl/data/kitti/data_object_image_2/training/test_lmdb"
    batch_size: 32
    backend: LMDB
  }
  annotated_data_param {
    batch_sampler {
    }
    label_map_file: "/tmp/toqinhuan/labelmap.prototxt"
  }
}
layer {
  name: "conv1_1"
  type: "Convolution"
  bottom: "data"
  top: "conv1_1"
  param {
    lr_mult: 1
    decay_mult: 1
  }
  param {
    lr_mult: 2
    decay_mult: 0
  }
  convolution_param {
    num_output: 16
    pad: 1
    kernel_size: 3
    weight_filler {
      type: "xavier"
    }
    bias_filler {
      type: "constant"
      value: 0
    }
  }
}
layer {
  name: "relu1_1"
  type: "ReLU"
  bottom: "conv1_1"
  top: "conv1_1"
}
layer {
  name: "conv1_2"
  type: "Convolution"
  bottom: "conv1_1"
  top: "conv1_2"
  param {
    lr_mult: 1
    decay_mult: 1
  }
  param {
    lr_mult: 2
    decay_mult: 0
  }
  convolution_param {
    num_output: 16
    pad: 1
    kernel_size: 3
    stride: 2
    weight_filler {
      type: "xavier"
    }
    bias_filler {
      type: "constant"
      value: 0
    }
  }
}
layer {
  name: "relu1_2"
  type: "ReLU"
  bottom: "conv1_2"
  top: "conv1_2"
}
layer {
  name: "conv2_1"
  type: "Convolution"
  bottom: "conv1_2"
  top: "conv2_1"
  param {
    lr_mult: 1
    decay_mult: 1
  }
  param {
    lr_mult: 2
    decay_mult: 0
  }
  convolution_param {
    num_output: 32
    pad: 1
    kernel_size: 3
    weight_filler {
      type: "xavier"
    }
    bias_filler {
      type: "constant"
      value: 0
    }
  }
}
layer {
  name: "relu2_1"
  type: "ReLU"
  bottom: "conv2_1"
  top: "conv2_1"
}
layer {
  name: "conv2_2"
  type: "Convolution"
  bottom: "conv2_1"
  top: "conv2_2"
  param {
    lr_mult: 1
    decay_mult: 1
  }
  param {
    lr_mult: 2
    decay_mult: 0
  }
  convolution_param {
    num_output: 32
    pad: 1
    kernel_size: 3
    stride: 2
    weight_filler {
      type: "xavier"
    }
    bias_filler {
      type: "constant"
      value: 0
    }
  }
}
layer {
  name: "relu2_2"
  type: "ReLU"
  bottom: "conv2_2"
  top: "conv2_2"
}
layer {
  name: "conv3_1"
  type: "Convolution"
  bottom: "conv2_2"
  top: "conv3_1"
  param {
    lr_mult: 1
    decay_mult: 1
  }
  param {
    lr_mult: 2
    decay_mult: 0
  }
  convolution_param {
    num_output: 64
    pad: 1
    kernel_size: 3
    weight_filler {
      type: "xavier"
    }
    bias_filler {
      type: "constant"
      value: 0
    }
  }
}
layer {
  name: "relu3_1"
  type: "ReLU"
  bottom: "conv3_1"
  top: "conv3_1"
}
layer {
  name: "conv3_2"
  type: "Convolution"
  bottom: "conv3_1"
  top: "conv3_2"
  param {
    lr_mult: 1
    decay_mult: 1
  }
  param {
    lr_mult: 2
    decay_mult: 0
  }
  convolution_param {
    num_output: 64
    pad: 1
    kernel_size: 3
    weight_filler {
      type: "xavier"
    }
    bias_filler {
      type: "constant"
      value: 0
    }
  }
}
layer {
  name: "relu3_2"
  type: "ReLU"
  bottom: "conv3_2"
  top: "conv3_2"
}
layer {
  name: "conv3_3"
  type: "Convolution"
  bottom: "conv3_2"
  top: "conv3_3"
  param {
    lr_mult: 1
    decay_mult: 1
  }
  param {
    lr_mult: 2
    decay_mult: 0
  }
  convolution_param {
    num_output: 64
    pad: 1
    kernel_size: 3
    weight_filler {
      type: "xavier"
    }
    bias_filler {
      type: "constant"
      value: 0
    }
  }
}
layer {
  name: "relu3_3"
  type: "ReLU"
  bottom: "conv3_3"
  top: "conv3_3"
}
layer {
  name: "pool3"
  type: "Pooling"
  bottom: "conv3_3"
  top: "pool3"
  pooling_param {
    pool: MAX
    kernel_size: 2
    stride: 2
  }
}
layer {
  name: "conv4_1"
  type: "Convolution"
  bottom: "pool3"
  top: "conv4_1"
  param {
    lr_mult: 1
    decay_mult: 1
  }
  param {
    lr_mult: 2
    decay_mult: 0
  }
  convolution_param {
    num_output: 128
    pad: 1
    kernel_size: 3
    weight_filler {
      type: "xavier"
    }
    bias_filler {
      type: "constant"
      value: 0
    }
  }
}
layer {
  name: "relu4_1"
  type: "ReLU"
  bottom: "conv4_1"
  top: "conv4_1"
}
layer {
  name: "conv4_2"
  type: "Convolution"
  bottom: "conv4_1"
  top: "conv4_2"
  param {
    lr_mult: 1
    decay_mult: 1
  }
  param {
    lr_mult: 2
    decay_mult: 0
  }
  convolution_param {
    num_output: 128
    pad: 1
    kernel_size: 3
    weight_filler {
      type: "xavier"
    }
    bias_filler {
      type: "constant"
      value: 0
    }
  }
}
layer {
  name: "relu4_2"
  type: "ReLU"
  bottom: "conv4_2"
  top: "conv4_2"
}
layer {
  name: "conv4_3"
  type: "Convolution"
  bottom: "conv4_2"
  top: "conv4_3"
  param {
    lr_mult: 1
    decay_mult: 1
  }
  param {
    lr_mult: 2
    decay_mult: 0
  }
  convolution_param {
    num_output: 128
    pad: 1
    kernel_size: 3
    weight_filler {
      type: "xavier"
    }
    bias_filler {
      type: "constant"
      value: 0
    }
  }
}
layer {
  name: "relu4_3"
  type: "ReLU"
  bottom: "conv4_3"
  top: "conv4_3"
}
layer {
  name: "pool4"
  type: "Pooling"
  bottom: "conv4_3"
  top: "pool4"
  pooling_param {
    pool: MAX
    kernel_size: 2
    stride: 2
  }
}
layer {
  name: "conv5_1"
  type: "Convolution"
  bottom: "pool4"
  top: "conv5_1"
  param {
    lr_mult: 1
    decay_mult: 1
  }
  param {
    lr_mult: 2
    decay_mult: 0
  }
  convolution_param {
    num_output: 128
    pad: 1
    kernel_size: 3
    weight_filler {
      type: "xavier"
    }
    bias_filler {
      type: "constant"
      value: 0
    }
    dilation: 1
  }
}
layer {
  name: "relu5_1"
  type: "ReLU"
  bottom: "conv5_1"
  top: "conv5_1"
}
layer {
  name: "conv5_2"
  type: "Convolution"
  bottom: "conv5_1"
  top: "conv5_2"
  param {
    lr_mult: 1
    decay_mult: 1
  }
  param {
    lr_mult: 2
    decay_mult: 0
  }
  convolution_param {
    num_output: 128
    pad: 1
    kernel_size: 3
    weight_filler {
      type: "xavier"
    }
    bias_filler {
      type: "constant"
      value: 0
    }
    dilation: 1
  }
}
layer {
  name: "relu5_2"
  type: "ReLU"
  bottom: "conv5_2"
  top: "conv5_2"
}
layer {
  name: "conv5_3"
  type: "Convolution"
  bottom: "conv5_2"
  top: "conv5_3"
  param {
    lr_mult: 1
    decay_mult: 1
  }
  param {
    lr_mult: 2
    decay_mult: 0
  }
  convolution_param {
    num_output: 128
    pad: 1
    kernel_size: 3
    weight_filler {
      type: "xavier"
    }
    bias_filler {
      type: "constant"
      value: 0
    }
    dilation: 1
  }
}
layer {
  name: "relu5_3"
  type: "ReLU"
  bottom: "conv5_3"
  top: "conv5_3"
}
layer {
  name: "pool5"
  type: "Pooling"
  bottom: "conv5_3"
  top: "pool5"
  pooling_param {
    pool: MAX
    kernel_size: 3
    stride: 1
    pad: 1
  }
}
layer {
  name: "fc6_conv"
  type: "Convolution"
  bottom: "pool5"
  top: "fc6_conv"
  param {
    lr_mult: 1
    decay_mult: 1
  }
  param {
    lr_mult: 2
    decay_mult: 0
  }
  convolution_param {
    num_output: 256
    pad: 6
    kernel_size: 3
    weight_filler {
      type: "xavier"
    }
    bias_filler {
      type: "constant"
      value: 0
    }
    dilation: 6
  }
}
layer {
  name: "relu6"
  type: "ReLU"
  bottom: "fc6_conv"
  top: "fc6_conv"
}
layer {
  name: "fc7_conv"
  type: "Convolution"
  bottom: "fc6_conv"
  top: "fc7_conv"
  param {
    lr_mult: 1
    decay_mult: 1
  }
  param {
    lr_mult: 2
    decay_mult: 0
  }
  convolution_param {
    num_output: 256
    kernel_size: 1
    weight_filler {
      type: "xavier"
    }
    bias_filler {
      type: "constant"
      value: 0
    }
  }
}
layer {
  name: "relu7"
  type: "ReLU"
  bottom: "fc7_conv"
  top: "fc7_conv"
}
layer {
  name: "conv6_1"
  type: "Convolution"
  bottom: "fc7_conv"
  top: "conv6_1"
  param {
    lr_mult: 1
    decay_mult: 1
  }
  param {
    lr_mult: 2
    decay_mult: 0
  }
  convolution_param {
    num_output: 32
    pad: 0
    kernel_size: 1
    stride: 1
    weight_filler {
      type: "xavier"
    }
    bias_filler {
      type: "constant"
      value: 0
    }
  }
}
layer {
  name: "conv6_1_relu"
  type: "ReLU"
  bottom: "conv6_1"
  top: "conv6_1"
}
layer {
  name: "conv6_2"
  type: "Convolution"
  bottom: "conv6_1"
  top: "conv6_2"
  param {
    lr_mult: 1
    decay_mult: 1
  }
  param {
    lr_mult: 2
    decay_mult: 0
  }
  convolution_param {
    num_output: 64
    pad: 1
    kernel_size: 3
    stride: 2
    weight_filler {
      type: "xavier"
    }
    bias_filler {
      type: "constant"
      value: 0
    }
  }
}
layer {
  name: "conv6_2_relu"
  type: "ReLU"
  bottom: "conv6_2"
  top: "conv6_2"
}
layer {
  name: "conv7_1"
  type: "Convolution"
  bottom: "conv6_2"
  top: "conv7_1"
  param {
    lr_mult: 1
    decay_mult: 1
  }
  param {
    lr_mult: 2
    decay_mult: 0
  }
  convolution_param {
    num_output: 16
    pad: 0
    kernel_size: 1
    stride: 1
    weight_filler {
      type: "xavier"
    }
    bias_filler {
      type: "constant"
      value: 0
    }
  }
}
layer {
  name: "conv7_1_relu"
  type: "ReLU"
  bottom: "conv7_1"
  top: "conv7_1"
}
layer {
  name: "conv7_2"
  type: "Convolution"
  bottom: "conv7_1"
  top: "conv7_2"
  param {
    lr_mult: 1
    decay_mult: 1
  }
  param {
    lr_mult: 2
    decay_mult: 0
  }
  convolution_param {
    num_output: 32
    pad: 1
    kernel_size: 3
    stride: 2
    weight_filler {
      type: "xavier"
    }
    bias_filler {
      type: "constant"
      value: 0
    }
  }
}
layer {
  name: "conv7_2_relu"
  type: "ReLU"
  bottom: "conv7_2"
  top: "conv7_2"
}
layer {
  name: "pool6"
  type: "Pooling"
  bottom: "conv7_2"
  top: "pool6"
  pooling_param {
    pool: AVE
    global_pooling: true
  }
}
layer {
  name: "conv4_3_norm"
  type: "Normalize"
  bottom: "conv4_3"
  top: "conv4_3_norm"
  norm_param {
    across_spatial: false
    scale_filler {
      type: "constant"
      value: 20
    }
    channel_shared: false
  }
}
layer {
  name: "conv4_3_norm_mbox_loc_conf"
  type: "Convolution"
  bottom: "conv4_3_norm"
  top: "conv4_3_norm_mbox_loc_conf"
  param {
    lr_mult: 1
    decay_mult: 1
  }
  param {
    lr_mult: 2
    decay_mult: 0
  }
  convolution_param {
    num_output: 48
    pad: 1
    kernel_size: 3
    stride: 1
    weight_filler {
      type: "xavier"
    }
    bias_filler {
      type: "constant"
      value: 0
    }
  }
}
layer {
  name: "conv4_3_norm_mbox_loc_conf_perm"
  type: "Permute"
  bottom: "conv4_3_norm_mbox_loc_conf"
  top: "conv4_3_norm_mbox_loc_conf_perm"
  permute_param {
    order: 0
    order: 2
    order: 3
    order: 1
  }
}
layer {
  name: "conv4_3_norm_mbox_loc_perm"
  type: "Slice"
  bottom: "conv4_3_norm_mbox_loc_conf_perm"
  top: "conv4_3_norm_mbox_loc_perm"
  top: "conv4_3_norm_mbox_conf_perm"
  slice_param {
    slice_point: 24
    axis: 3
  }
}
layer {
  name: "conv4_3_norm_mbox_loc_flat"
  type: "Flatten"
  bottom: "conv4_3_norm_mbox_loc_perm"
  top: "conv4_3_norm_mbox_loc_flat"
  flatten_param {
    axis: 1
  }
}
layer {
  name: "conv4_3_norm_mbox_conf_flat"
  type: "Flatten"
  bottom: "conv4_3_norm_mbox_conf_perm"
  top: "conv4_3_norm_mbox_conf_flat"
  flatten_param {
    axis: 1
  }
}
layer {
  name: "conv4_3_norm_mbox_priorbox"
  type: "PriorBox"
  bottom: "conv4_3_norm"
  bottom: "data"
  top: "conv4_3_norm_mbox_priorbox"
  prior_box_param {
    min_size: 11.52
    max_size: 25.6
    aspect_ratio: 2
    aspect_ratio: 3
    flip: true
    clip: true
    variance: 0.1
    variance: 0.1
    variance: 0.2
    variance: 0.2
    offset: 0.5
  }
}
layer {
  name: "fc7_conv_mbox_loc_conf"
  type: "Convolution"
  bottom: "fc7_conv"
  top: "fc7_conv_mbox_loc_conf"
  param {
    lr_mult: 1
    decay_mult: 1
  }
  param {
    lr_mult: 2
    decay_mult: 0
  }
  convolution_param {
    num_output: 48
    pad: 1
    kernel_size: 3
    stride: 1
    weight_filler {
      type: "xavier"
    }
    bias_filler {
      type: "constant"
      value: 0
    }
  }
}
layer {
  name: "fc7_conv_mbox_loc_conf_perm"
  type: "Permute"
  bottom: "fc7_conv_mbox_loc_conf"
  top: "fc7_conv_mbox_loc_conf_perm"
  permute_param {
    order: 0
    order: 2
    order: 3
    order: 1
  }
}
layer {
  name: "fc7_conv_mbox_loc_perm"
  type: "Slice"
  bottom: "fc7_conv_mbox_loc_conf_perm"
  top: "fc7_conv_mbox_loc_perm"
  top: "fc7_conv_mbox_conf_perm"
  slice_param {
    slice_point: 24
    axis: 3
  }
}
layer {
  name: "fc7_conv_mbox_loc_flat"
  type: "Flatten"
  bottom: "fc7_conv_mbox_loc_perm"
  top: "fc7_conv_mbox_loc_flat"
  flatten_param {
    axis: 1
  }
}
layer {
  name: "fc7_conv_mbox_conf_flat"
  type: "Flatten"
  bottom: "fc7_conv_mbox_conf_perm"
  top: "fc7_conv_mbox_conf_flat"
  flatten_param {
    axis: 1
  }
}
layer {
  name: "fc7_conv_mbox_priorbox"
  type: "PriorBox"
  bottom: "fc7_conv"
  bottom: "data"
  top: "fc7_conv_mbox_priorbox"
  prior_box_param {
    min_size: 25.6
    max_size: 57.6
    aspect_ratio: 2
    aspect_ratio: 3
    flip: true
    clip: true
    variance: 0.1
    variance: 0.1
    variance: 0.2
    variance: 0.2
    offset: 0.5
  }
}
layer {
  name: "conv6_2_mbox_loc_conf"
  type: "Convolution"
  bottom: "conv6_2"
  top: "conv6_2_mbox_loc_conf"
  param {
    lr_mult: 1
    decay_mult: 1
  }
  param {
    lr_mult: 2
    decay_mult: 0
  }
  convolution_param {
    num_output: 48
    pad: 1
    kernel_size: 3
    stride: 1
    weight_filler {
      type: "xavier"
    }
    bias_filler {
      type: "constant"
      value: 0
    }
  }
}
layer {
  name: "conv6_2_mbox_loc_conf_perm"
  type: "Permute"
  bottom: "conv6_2_mbox_loc_conf"
  top: "conv6_2_mbox_loc_conf_perm"
  permute_param {
    order: 0
    order: 2
    order: 3
    order: 1
  }
}
layer {
  name: "conv6_2_mbox_loc_perm"
  type: "Slice"
  bottom: "conv6_2_mbox_loc_conf_perm"
  top: "conv6_2_mbox_loc_perm"
  top: "conv6_2_mbox_conf_perm"
  slice_param {
    slice_point: 24
    axis: 3
  }
}
layer {
  name: "conv6_2_mbox_loc_flat"
  type: "Flatten"
  bottom: "conv6_2_mbox_loc_perm"
  top: "conv6_2_mbox_loc_flat"
  flatten_param {
    axis: 1
  }
}
layer {
  name: "conv6_2_mbox_conf_flat"
  type: "Flatten"
  bottom: "conv6_2_mbox_conf_perm"
  top: "conv6_2_mbox_conf_flat"
  flatten_param {
    axis: 1
  }
}
layer {
  name: "conv6_2_mbox_priorbox"
  type: "PriorBox"
  bottom: "conv6_2"
  bottom: "data"
  top: "conv6_2_mbox_priorbox"
  prior_box_param {
    min_size: 57.6
    max_size: 89.6
    aspect_ratio: 2
    aspect_ratio: 3
    flip: true
    clip: true
    variance: 0.1
    variance: 0.1
    variance: 0.2
    variance: 0.2
    offset: 0.5
  }
}
layer {
  name: "conv7_2_mbox_loc_conf"
  type: "Convolution"
  bottom: "conv7_2"
  top: "conv7_2_mbox_loc_conf"
  param {
    lr_mult: 1
    decay_mult: 1
  }
  param {
    lr_mult: 2
    decay_mult: 0
  }
  convolution_param {
    num_output: 48
    pad: 1
    kernel_size: 3
    stride: 1
    weight_filler {
      type: "xavier"
    }
    bias_filler {
      type: "constant"
      value: 0
    }
  }
}
layer {
  name: "conv7_2_mbox_loc_conf_perm"
  type: "Permute"
  bottom: "conv7_2_mbox_loc_conf"
  top: "conv7_2_mbox_loc_conf_perm"
  permute_param {
    order: 0
    order: 2
    order: 3
    order: 1
  }
}
layer {
  name: "conv7_2_mbox_loc_perm"
  type: "Slice"
  bottom: "conv7_2_mbox_loc_conf_perm"
  top: "conv7_2_mbox_loc_perm"
  top: "conv7_2_mbox_conf_perm"
  slice_param {
    slice_point: 24
    axis: 3
  }
}
layer {
  name: "conv7_2_mbox_loc_flat"
  type: "Flatten"
  bottom: "conv7_2_mbox_loc_perm"
  top: "conv7_2_mbox_loc_flat"
  flatten_param {
    axis: 1
  }
}
layer {
  name: "conv7_2_mbox_conf_flat"
  type: "Flatten"
  bottom: "conv7_2_mbox_conf_perm"
  top: "conv7_2_mbox_conf_flat"
  flatten_param {
    axis: 1
  }
}
layer {
  name: "conv7_2_mbox_priorbox"
  type: "PriorBox"
  bottom: "conv7_2"
  bottom: "data"
  top: "conv7_2_mbox_priorbox"
  prior_box_param {
    min_size: 89.6
    max_size: 121.6
    aspect_ratio: 2
    aspect_ratio: 3
    flip: true
    clip: true
    variance: 0.1
    variance: 0.1
    variance: 0.2
    variance: 0.2
    offset: 0.5
  }
}
layer {
  name: "pool6_mbox_loc_conf"
  type: "Convolution"
  bottom: "pool6"
  top: "pool6_mbox_loc_conf"
  param {
    lr_mult: 1
    decay_mult: 1
  }
  param {
    lr_mult: 2
    decay_mult: 0
  }
  convolution_param {
    num_output: 48
    pad: 1
    kernel_size: 3
    stride: 1
    weight_filler {
      type: "xavier"
    }
    bias_filler {
      type: "constant"
      value: 0
    }
  }
}
layer {
  name: "pool6_mbox_loc_conf_perm"
  type: "Permute"
  bottom: "pool6_mbox_loc_conf"
  top: "pool6_mbox_loc_conf_perm"
  permute_param {
    order: 0
    order: 2
    order: 3
    order: 1
  }
}
layer {
  name: "pool6_mbox_loc_perm"
  type: "Slice"
  bottom: "pool6_mbox_loc_conf_perm"
  top: "pool6_mbox_loc_perm"
  top: "pool6_mbox_conf_perm"
  slice_param {
    slice_point: 24
    axis: 3
  }
}
layer {
  name: "pool6_mbox_loc_flat"
  type: "Flatten"
  bottom: "pool6_mbox_loc_perm"
  top: "pool6_mbox_loc_flat"
  flatten_param {
    axis: 1
  }
}
layer {
  name: "pool6_mbox_conf_flat"
  type: "Flatten"
  bottom: "pool6_mbox_conf_perm"
  top: "pool6_mbox_conf_flat"
  flatten_param {
    axis: 1
  }
}
layer {
  name: "pool6_mbox_priorbox"
  type: "PriorBox"
  bottom: "pool6"
  bottom: "data"
  top: "pool6_mbox_priorbox"
  prior_box_param {
    min_size: 121.6
    max_size: 153.6
    aspect_ratio: 2
    aspect_ratio: 3
    flip: true
    clip: true
    variance: 0.1
    variance: 0.1
    variance: 0.2
    variance: 0.2
    offset: 0.5
  }
}
layer {
  name: "mbox_loc"
  type: "Concat"
  bottom: "conv4_3_norm_mbox_loc_flat"
  bottom: "fc7_conv_mbox_loc_flat"
  bottom: "conv6_2_mbox_loc_flat"
  bottom: "conv7_2_mbox_loc_flat"
  bottom: "pool6_mbox_loc_flat"
  top: "mbox_loc"
  concat_param {
    axis: 1
  }
}
layer {
  name: "mbox_conf"
  type: "Concat"
  bottom: "conv4_3_norm_mbox_conf_flat"
  bottom: "fc7_conv_mbox_conf_flat"
  bottom: "conv6_2_mbox_conf_flat"
  bottom: "conv7_2_mbox_conf_flat"
  bottom: "pool6_mbox_conf_flat"
  top: "mbox_conf"
  concat_param {
    axis: 1
  }
}
layer {
  name: "mbox_priorbox"
  type: "Concat"
  bottom: "conv4_3_norm_mbox_priorbox"
  bottom: "fc7_conv_mbox_priorbox"
  bottom: "conv6_2_mbox_priorbox"
  bottom: "conv7_2_mbox_priorbox"
  bottom: "pool6_mbox_priorbox"
  top: "mbox_priorbox"
  concat_param {
    axis: 2
  }
}
layer {
  name: "mbox_conf_reshape"
  type: "Reshape"
  bottom: "mbox_conf"
  top: "mbox_conf_reshape"
  reshape_param {
    shape {
      dim: 0
      dim: -1
      dim: 4
    }
  }
}
layer {
  name: "mbox_conf_softmax"
  type: "Softmax"
  bottom: "mbox_conf_reshape"
  top: "mbox_conf_softmax"
  softmax_param {
    axis: 2
  }
}
layer {
  name: "mbox_conf_flatten"
  type: "Flatten"
  bottom: "mbox_conf_softmax"
  top: "mbox_conf_flatten"
  flatten_param {
    axis: 1
  }
}
layer {
  name: "detection_out"
  type: "DetectionOutput"
  bottom: "mbox_loc"
  bottom: "mbox_conf_flatten"
  bottom: "mbox_priorbox"
  top: "detection_out"
  include {
    phase: TEST
  }
  detection_output_param {
    num_classes: 4
    share_location: true
    background_label_id: 0
    nms_param {
      nms_threshold: 0.3
      top_k: 200
    }
    save_output_param {
      output_directory: "jobs/ssd/v0327_smallssd_kitti_64x256_vgg16-channel16-nopooling12_smallssd_change_min_size/output"
      output_name_prefix: "det_test_"
      output_format: "VOC"
      label_map_file: "/tmp/toqinhuan/labelmap.prototxt"
      name_size_file: "/tmp/toqinhuan/test_name_size.txt"
      num_test_image: 2245
    }
    code_type: CENTER_SIZE
    keep_top_k: 100
    confidence_threshold: 0.01
  }
}
layer {
  name: "detection_eval"
  type: "DetectionEvaluate"
  bottom: "detection_out"
  bottom: "label"
  top: "detection_eval"
  include {
    phase: TEST
  }
  detection_evaluate_param {
    num_classes: 4
    background_label_id: 0
    overlap_threshold: 0.5
    evaluate_difficult_gt: false
    name_size_file: "/tmp/toqinhuan/test_name_size.txt"
  }
}
I0406 00:09:33.727038 19531 layer_factory.hpp:77] Creating layer data
I0406 00:09:33.727087 19531 net.cpp:100] Creating Layer data
I0406 00:09:33.727093 19531 net.cpp:408] data -> data
I0406 00:09:33.727100 19531 net.cpp:408] data -> label
I0406 00:09:33.727901 19561 db_lmdb.cpp:35] Opened lmdb /home/work/wwl/data/kitti/data_object_image_2/training/test_lmdb
I0406 00:09:33.736979 19531 annotated_data_layer.cpp:62] output data size: 32,3,64,256
I0406 00:09:33.756345 19531 net.cpp:150] Setting up data
I0406 00:09:33.756374 19531 net.cpp:157] Top shape: 32 3 64 256 (1572864)
I0406 00:09:33.756379 19531 net.cpp:157] Top shape: 1 1 9 8 (72)
I0406 00:09:33.756382 19531 net.cpp:165] Memory required for data: 6291744
I0406 00:09:33.756387 19531 layer_factory.hpp:77] Creating layer data_data_0_split
I0406 00:09:33.756399 19531 net.cpp:100] Creating Layer data_data_0_split
I0406 00:09:33.756403 19531 net.cpp:434] data_data_0_split <- data
I0406 00:09:33.756408 19531 net.cpp:408] data_data_0_split -> data_data_0_split_0
I0406 00:09:33.756415 19531 net.cpp:408] data_data_0_split -> data_data_0_split_1
I0406 00:09:33.756419 19531 net.cpp:408] data_data_0_split -> data_data_0_split_2
I0406 00:09:33.756424 19531 net.cpp:408] data_data_0_split -> data_data_0_split_3
I0406 00:09:33.756428 19531 net.cpp:408] data_data_0_split -> data_data_0_split_4
I0406 00:09:33.756431 19531 net.cpp:408] data_data_0_split -> data_data_0_split_5
I0406 00:09:33.756570 19531 net.cpp:150] Setting up data_data_0_split
I0406 00:09:33.756577 19531 net.cpp:157] Top shape: 32 3 64 256 (1572864)
I0406 00:09:33.756582 19531 net.cpp:157] Top shape: 32 3 64 256 (1572864)
I0406 00:09:33.756584 19531 net.cpp:157] Top shape: 32 3 64 256 (1572864)
I0406 00:09:33.756587 19531 net.cpp:157] Top shape: 32 3 64 256 (1572864)
I0406 00:09:33.756590 19531 net.cpp:157] Top shape: 32 3 64 256 (1572864)
I0406 00:09:33.756593 19531 net.cpp:157] Top shape: 32 3 64 256 (1572864)
I0406 00:09:33.756595 19531 net.cpp:165] Memory required for data: 44040480
I0406 00:09:33.756598 19531 layer_factory.hpp:77] Creating layer conv1_1
I0406 00:09:33.756606 19531 net.cpp:100] Creating Layer conv1_1
I0406 00:09:33.756610 19531 net.cpp:434] conv1_1 <- data_data_0_split_0
I0406 00:09:33.756614 19531 net.cpp:408] conv1_1 -> conv1_1
I0406 00:09:33.756865 19531 net.cpp:150] Setting up conv1_1
I0406 00:09:33.756871 19531 net.cpp:157] Top shape: 32 16 64 256 (8388608)
I0406 00:09:33.756875 19531 net.cpp:165] Memory required for data: 77594912
I0406 00:09:33.756880 19531 layer_factory.hpp:77] Creating layer relu1_1
I0406 00:09:33.756886 19531 net.cpp:100] Creating Layer relu1_1
I0406 00:09:33.756888 19531 net.cpp:434] relu1_1 <- conv1_1
I0406 00:09:33.756891 19531 net.cpp:395] relu1_1 -> conv1_1 (in-place)
I0406 00:09:33.756896 19531 net.cpp:150] Setting up relu1_1
I0406 00:09:33.756899 19531 net.cpp:157] Top shape: 32 16 64 256 (8388608)
I0406 00:09:33.756901 19531 net.cpp:165] Memory required for data: 111149344
I0406 00:09:33.756904 19531 layer_factory.hpp:77] Creating layer conv1_2
I0406 00:09:33.756911 19531 net.cpp:100] Creating Layer conv1_2
I0406 00:09:33.756913 19531 net.cpp:434] conv1_2 <- conv1_1
I0406 00:09:33.756916 19531 net.cpp:408] conv1_2 -> conv1_2
I0406 00:09:33.757146 19531 net.cpp:150] Setting up conv1_2
I0406 00:09:33.757153 19531 net.cpp:157] Top shape: 32 16 32 128 (2097152)
I0406 00:09:33.757154 19531 net.cpp:165] Memory required for data: 119537952
I0406 00:09:33.757159 19531 layer_factory.hpp:77] Creating layer relu1_2
I0406 00:09:33.757164 19531 net.cpp:100] Creating Layer relu1_2
I0406 00:09:33.757166 19531 net.cpp:434] relu1_2 <- conv1_2
I0406 00:09:33.757169 19531 net.cpp:395] relu1_2 -> conv1_2 (in-place)
I0406 00:09:33.757174 19531 net.cpp:150] Setting up relu1_2
I0406 00:09:33.757176 19531 net.cpp:157] Top shape: 32 16 32 128 (2097152)
I0406 00:09:33.757179 19531 net.cpp:165] Memory required for data: 127926560
I0406 00:09:33.757181 19531 layer_factory.hpp:77] Creating layer conv2_1
I0406 00:09:33.757186 19531 net.cpp:100] Creating Layer conv2_1
I0406 00:09:33.757189 19531 net.cpp:434] conv2_1 <- conv1_2
I0406 00:09:33.757192 19531 net.cpp:408] conv2_1 -> conv2_1
I0406 00:09:33.757467 19531 net.cpp:150] Setting up conv2_1
I0406 00:09:33.757473 19531 net.cpp:157] Top shape: 32 32 32 128 (4194304)
I0406 00:09:33.757477 19531 net.cpp:165] Memory required for data: 144703776
I0406 00:09:33.757481 19531 layer_factory.hpp:77] Creating layer relu2_1
I0406 00:09:33.757485 19531 net.cpp:100] Creating Layer relu2_1
I0406 00:09:33.757488 19531 net.cpp:434] relu2_1 <- conv2_1
I0406 00:09:33.757491 19531 net.cpp:395] relu2_1 -> conv2_1 (in-place)
I0406 00:09:33.757495 19531 net.cpp:150] Setting up relu2_1
I0406 00:09:33.757498 19531 net.cpp:157] Top shape: 32 32 32 128 (4194304)
I0406 00:09:33.757500 19531 net.cpp:165] Memory required for data: 161480992
I0406 00:09:33.757503 19531 layer_factory.hpp:77] Creating layer conv2_2
I0406 00:09:33.757509 19531 net.cpp:100] Creating Layer conv2_2
I0406 00:09:33.757513 19531 net.cpp:434] conv2_2 <- conv2_1
I0406 00:09:33.757515 19531 net.cpp:408] conv2_2 -> conv2_2
I0406 00:09:33.757763 19531 net.cpp:150] Setting up conv2_2
I0406 00:09:33.757769 19531 net.cpp:157] Top shape: 32 32 16 64 (1048576)
I0406 00:09:33.757771 19531 net.cpp:165] Memory required for data: 165675296
I0406 00:09:33.757776 19531 layer_factory.hpp:77] Creating layer relu2_2
I0406 00:09:33.757779 19531 net.cpp:100] Creating Layer relu2_2
I0406 00:09:33.757782 19531 net.cpp:434] relu2_2 <- conv2_2
I0406 00:09:33.757786 19531 net.cpp:395] relu2_2 -> conv2_2 (in-place)
I0406 00:09:33.757789 19531 net.cpp:150] Setting up relu2_2
I0406 00:09:33.757792 19531 net.cpp:157] Top shape: 32 32 16 64 (1048576)
I0406 00:09:33.757794 19531 net.cpp:165] Memory required for data: 169869600
I0406 00:09:33.757797 19531 layer_factory.hpp:77] Creating layer conv3_1
I0406 00:09:33.757802 19531 net.cpp:100] Creating Layer conv3_1
I0406 00:09:33.757805 19531 net.cpp:434] conv3_1 <- conv2_2
I0406 00:09:33.757808 19531 net.cpp:408] conv3_1 -> conv3_1
I0406 00:09:33.758078 19531 net.cpp:150] Setting up conv3_1
I0406 00:09:33.758083 19531 net.cpp:157] Top shape: 32 64 16 64 (2097152)
I0406 00:09:33.758086 19531 net.cpp:165] Memory required for data: 178258208
I0406 00:09:33.758091 19531 layer_factory.hpp:77] Creating layer relu3_1
I0406 00:09:33.758095 19531 net.cpp:100] Creating Layer relu3_1
I0406 00:09:33.758098 19531 net.cpp:434] relu3_1 <- conv3_1
I0406 00:09:33.758101 19531 net.cpp:395] relu3_1 -> conv3_1 (in-place)
I0406 00:09:33.758105 19531 net.cpp:150] Setting up relu3_1
I0406 00:09:33.758108 19531 net.cpp:157] Top shape: 32 64 16 64 (2097152)
I0406 00:09:33.758111 19531 net.cpp:165] Memory required for data: 186646816
I0406 00:09:33.758112 19531 layer_factory.hpp:77] Creating layer conv3_2
I0406 00:09:33.758117 19531 net.cpp:100] Creating Layer conv3_2
I0406 00:09:33.758119 19531 net.cpp:434] conv3_2 <- conv3_1
I0406 00:09:33.758123 19531 net.cpp:408] conv3_2 -> conv3_2
I0406 00:09:33.758452 19531 net.cpp:150] Setting up conv3_2
I0406 00:09:33.758457 19531 net.cpp:157] Top shape: 32 64 16 64 (2097152)
I0406 00:09:33.758460 19531 net.cpp:165] Memory required for data: 195035424
I0406 00:09:33.758465 19531 layer_factory.hpp:77] Creating layer relu3_2
I0406 00:09:33.758471 19531 net.cpp:100] Creating Layer relu3_2
I0406 00:09:33.758476 19531 net.cpp:434] relu3_2 <- conv3_2
I0406 00:09:33.758478 19531 net.cpp:395] relu3_2 -> conv3_2 (in-place)
I0406 00:09:33.758482 19531 net.cpp:150] Setting up relu3_2
I0406 00:09:33.758486 19531 net.cpp:157] Top shape: 32 64 16 64 (2097152)
I0406 00:09:33.758487 19531 net.cpp:165] Memory required for data: 203424032
I0406 00:09:33.758489 19531 layer_factory.hpp:77] Creating layer conv3_3
I0406 00:09:33.758494 19531 net.cpp:100] Creating Layer conv3_3
I0406 00:09:33.758497 19531 net.cpp:434] conv3_3 <- conv3_2
I0406 00:09:33.758502 19531 net.cpp:408] conv3_3 -> conv3_3
I0406 00:09:33.758819 19531 net.cpp:150] Setting up conv3_3
I0406 00:09:33.758824 19531 net.cpp:157] Top shape: 32 64 16 64 (2097152)
I0406 00:09:33.758826 19531 net.cpp:165] Memory required for data: 211812640
I0406 00:09:33.758831 19531 layer_factory.hpp:77] Creating layer relu3_3
I0406 00:09:33.758834 19531 net.cpp:100] Creating Layer relu3_3
I0406 00:09:33.758836 19531 net.cpp:434] relu3_3 <- conv3_3
I0406 00:09:33.758841 19531 net.cpp:395] relu3_3 -> conv3_3 (in-place)
I0406 00:09:33.758843 19531 net.cpp:150] Setting up relu3_3
I0406 00:09:33.758846 19531 net.cpp:157] Top shape: 32 64 16 64 (2097152)
I0406 00:09:33.758848 19531 net.cpp:165] Memory required for data: 220201248
I0406 00:09:33.758852 19531 layer_factory.hpp:77] Creating layer pool3
I0406 00:09:33.758857 19531 net.cpp:100] Creating Layer pool3
I0406 00:09:33.758859 19531 net.cpp:434] pool3 <- conv3_3
I0406 00:09:33.758863 19531 net.cpp:408] pool3 -> pool3
I0406 00:09:33.758896 19531 net.cpp:150] Setting up pool3
I0406 00:09:33.758900 19531 net.cpp:157] Top shape: 32 64 8 32 (524288)
I0406 00:09:33.758903 19531 net.cpp:165] Memory required for data: 222298400
I0406 00:09:33.758905 19531 layer_factory.hpp:77] Creating layer conv4_1
I0406 00:09:33.758910 19531 net.cpp:100] Creating Layer conv4_1
I0406 00:09:33.758913 19531 net.cpp:434] conv4_1 <- pool3
I0406 00:09:33.758916 19531 net.cpp:408] conv4_1 -> conv4_1
I0406 00:09:33.759356 19531 net.cpp:150] Setting up conv4_1
I0406 00:09:33.759361 19531 net.cpp:157] Top shape: 32 128 8 32 (1048576)
I0406 00:09:33.759363 19531 net.cpp:165] Memory required for data: 226492704
I0406 00:09:33.759367 19531 layer_factory.hpp:77] Creating layer relu4_1
I0406 00:09:33.759371 19531 net.cpp:100] Creating Layer relu4_1
I0406 00:09:33.759373 19531 net.cpp:434] relu4_1 <- conv4_1
I0406 00:09:33.759377 19531 net.cpp:395] relu4_1 -> conv4_1 (in-place)
I0406 00:09:33.759382 19531 net.cpp:150] Setting up relu4_1
I0406 00:09:33.759384 19531 net.cpp:157] Top shape: 32 128 8 32 (1048576)
I0406 00:09:33.759387 19531 net.cpp:165] Memory required for data: 230687008
I0406 00:09:33.759388 19531 layer_factory.hpp:77] Creating layer conv4_2
I0406 00:09:33.759393 19531 net.cpp:100] Creating Layer conv4_2
I0406 00:09:33.759397 19531 net.cpp:434] conv4_2 <- conv4_1
I0406 00:09:33.759400 19531 net.cpp:408] conv4_2 -> conv4_2
I0406 00:09:33.760071 19531 net.cpp:150] Setting up conv4_2
I0406 00:09:33.760076 19531 net.cpp:157] Top shape: 32 128 8 32 (1048576)
I0406 00:09:33.760078 19531 net.cpp:165] Memory required for data: 234881312
I0406 00:09:33.760085 19531 layer_factory.hpp:77] Creating layer relu4_2
I0406 00:09:33.760089 19531 net.cpp:100] Creating Layer relu4_2
I0406 00:09:33.760092 19531 net.cpp:434] relu4_2 <- conv4_2
I0406 00:09:33.760095 19531 net.cpp:395] relu4_2 -> conv4_2 (in-place)
I0406 00:09:33.760099 19531 net.cpp:150] Setting up relu4_2
I0406 00:09:33.760102 19531 net.cpp:157] Top shape: 32 128 8 32 (1048576)
I0406 00:09:33.760104 19531 net.cpp:165] Memory required for data: 239075616
I0406 00:09:33.760107 19531 layer_factory.hpp:77] Creating layer conv4_3
I0406 00:09:33.760113 19531 net.cpp:100] Creating Layer conv4_3
I0406 00:09:33.760114 19531 net.cpp:434] conv4_3 <- conv4_2
I0406 00:09:33.760118 19531 net.cpp:408] conv4_3 -> conv4_3
I0406 00:09:33.761744 19531 net.cpp:150] Setting up conv4_3
I0406 00:09:33.761767 19531 net.cpp:157] Top shape: 32 128 8 32 (1048576)
I0406 00:09:33.761775 19531 net.cpp:165] Memory required for data: 243269920
I0406 00:09:33.761782 19531 layer_factory.hpp:77] Creating layer relu4_3
I0406 00:09:33.761790 19531 net.cpp:100] Creating Layer relu4_3
I0406 00:09:33.761792 19531 net.cpp:434] relu4_3 <- conv4_3
I0406 00:09:33.761797 19531 net.cpp:395] relu4_3 -> conv4_3 (in-place)
I0406 00:09:33.761806 19531 net.cpp:150] Setting up relu4_3
I0406 00:09:33.761808 19531 net.cpp:157] Top shape: 32 128 8 32 (1048576)
I0406 00:09:33.761811 19531 net.cpp:165] Memory required for data: 247464224
I0406 00:09:33.761813 19531 layer_factory.hpp:77] Creating layer conv4_3_relu4_3_0_split
I0406 00:09:33.761817 19531 net.cpp:100] Creating Layer conv4_3_relu4_3_0_split
I0406 00:09:33.761819 19531 net.cpp:434] conv4_3_relu4_3_0_split <- conv4_3
I0406 00:09:33.761823 19531 net.cpp:408] conv4_3_relu4_3_0_split -> conv4_3_relu4_3_0_split_0
I0406 00:09:33.761827 19531 net.cpp:408] conv4_3_relu4_3_0_split -> conv4_3_relu4_3_0_split_1
I0406 00:09:33.761854 19531 net.cpp:150] Setting up conv4_3_relu4_3_0_split
I0406 00:09:33.761858 19531 net.cpp:157] Top shape: 32 128 8 32 (1048576)
I0406 00:09:33.761862 19531 net.cpp:157] Top shape: 32 128 8 32 (1048576)
I0406 00:09:33.761863 19531 net.cpp:165] Memory required for data: 255852832
I0406 00:09:33.761867 19531 layer_factory.hpp:77] Creating layer pool4
I0406 00:09:33.761870 19531 net.cpp:100] Creating Layer pool4
I0406 00:09:33.761873 19531 net.cpp:434] pool4 <- conv4_3_relu4_3_0_split_0
I0406 00:09:33.761878 19531 net.cpp:408] pool4 -> pool4
I0406 00:09:33.761907 19531 net.cpp:150] Setting up pool4
I0406 00:09:33.761911 19531 net.cpp:157] Top shape: 32 128 4 16 (262144)
I0406 00:09:33.761914 19531 net.cpp:165] Memory required for data: 256901408
I0406 00:09:33.761916 19531 layer_factory.hpp:77] Creating layer conv5_1
I0406 00:09:33.761922 19531 net.cpp:100] Creating Layer conv5_1
I0406 00:09:33.761925 19531 net.cpp:434] conv5_1 <- pool4
I0406 00:09:33.761929 19531 net.cpp:408] conv5_1 -> conv5_1
I0406 00:09:33.762625 19531 net.cpp:150] Setting up conv5_1
I0406 00:09:33.762632 19531 net.cpp:157] Top shape: 32 128 4 16 (262144)
I0406 00:09:33.762634 19531 net.cpp:165] Memory required for data: 257949984
I0406 00:09:33.762639 19531 layer_factory.hpp:77] Creating layer relu5_1
I0406 00:09:33.762642 19531 net.cpp:100] Creating Layer relu5_1
I0406 00:09:33.762645 19531 net.cpp:434] relu5_1 <- conv5_1
I0406 00:09:33.762650 19531 net.cpp:395] relu5_1 -> conv5_1 (in-place)
I0406 00:09:33.762653 19531 net.cpp:150] Setting up relu5_1
I0406 00:09:33.762656 19531 net.cpp:157] Top shape: 32 128 4 16 (262144)
I0406 00:09:33.762658 19531 net.cpp:165] Memory required for data: 258998560
I0406 00:09:33.762661 19531 layer_factory.hpp:77] Creating layer conv5_2
I0406 00:09:33.762666 19531 net.cpp:100] Creating Layer conv5_2
I0406 00:09:33.762670 19531 net.cpp:434] conv5_2 <- conv5_1
I0406 00:09:33.762673 19531 net.cpp:408] conv5_2 -> conv5_2
I0406 00:09:33.763351 19531 net.cpp:150] Setting up conv5_2
I0406 00:09:33.763358 19531 net.cpp:157] Top shape: 32 128 4 16 (262144)
I0406 00:09:33.763360 19531 net.cpp:165] Memory required for data: 260047136
I0406 00:09:33.763365 19531 layer_factory.hpp:77] Creating layer relu5_2
I0406 00:09:33.763368 19531 net.cpp:100] Creating Layer relu5_2
I0406 00:09:33.763370 19531 net.cpp:434] relu5_2 <- conv5_2
I0406 00:09:33.763375 19531 net.cpp:395] relu5_2 -> conv5_2 (in-place)
I0406 00:09:33.763378 19531 net.cpp:150] Setting up relu5_2
I0406 00:09:33.763381 19531 net.cpp:157] Top shape: 32 128 4 16 (262144)
I0406 00:09:33.763383 19531 net.cpp:165] Memory required for data: 261095712
I0406 00:09:33.763386 19531 layer_factory.hpp:77] Creating layer conv5_3
I0406 00:09:33.763391 19531 net.cpp:100] Creating Layer conv5_3
I0406 00:09:33.763393 19531 net.cpp:434] conv5_3 <- conv5_2
I0406 00:09:33.763397 19531 net.cpp:408] conv5_3 -> conv5_3
I0406 00:09:33.765017 19531 net.cpp:150] Setting up conv5_3
I0406 00:09:33.765043 19531 net.cpp:157] Top shape: 32 128 4 16 (262144)
I0406 00:09:33.765046 19531 net.cpp:165] Memory required for data: 262144288
I0406 00:09:33.765058 19531 layer_factory.hpp:77] Creating layer relu5_3
I0406 00:09:33.765064 19531 net.cpp:100] Creating Layer relu5_3
I0406 00:09:33.765069 19531 net.cpp:434] relu5_3 <- conv5_3
I0406 00:09:33.765074 19531 net.cpp:395] relu5_3 -> conv5_3 (in-place)
I0406 00:09:33.765080 19531 net.cpp:150] Setting up relu5_3
I0406 00:09:33.765084 19531 net.cpp:157] Top shape: 32 128 4 16 (262144)
I0406 00:09:33.765086 19531 net.cpp:165] Memory required for data: 263192864
I0406 00:09:33.765089 19531 layer_factory.hpp:77] Creating layer pool5
I0406 00:09:33.765094 19531 net.cpp:100] Creating Layer pool5
I0406 00:09:33.765095 19531 net.cpp:434] pool5 <- conv5_3
I0406 00:09:33.765100 19531 net.cpp:408] pool5 -> pool5
I0406 00:09:33.765137 19531 net.cpp:150] Setting up pool5
I0406 00:09:33.765142 19531 net.cpp:157] Top shape: 32 128 4 16 (262144)
I0406 00:09:33.765144 19531 net.cpp:165] Memory required for data: 264241440
I0406 00:09:33.765146 19531 layer_factory.hpp:77] Creating layer fc6_conv
I0406 00:09:33.765157 19531 net.cpp:100] Creating Layer fc6_conv
I0406 00:09:33.765161 19531 net.cpp:434] fc6_conv <- pool5
I0406 00:09:33.765164 19531 net.cpp:408] fc6_conv -> fc6_conv
I0406 00:09:33.766358 19531 net.cpp:150] Setting up fc6_conv
I0406 00:09:33.766371 19531 net.cpp:157] Top shape: 32 256 4 16 (524288)
I0406 00:09:33.766373 19531 net.cpp:165] Memory required for data: 266338592
I0406 00:09:33.766378 19531 layer_factory.hpp:77] Creating layer relu6
I0406 00:09:33.766383 19531 net.cpp:100] Creating Layer relu6
I0406 00:09:33.766386 19531 net.cpp:434] relu6 <- fc6_conv
I0406 00:09:33.766391 19531 net.cpp:395] relu6 -> fc6_conv (in-place)
I0406 00:09:33.766396 19531 net.cpp:150] Setting up relu6
I0406 00:09:33.766399 19531 net.cpp:157] Top shape: 32 256 4 16 (524288)
I0406 00:09:33.766402 19531 net.cpp:165] Memory required for data: 268435744
I0406 00:09:33.766404 19531 layer_factory.hpp:77] Creating layer fc7_conv
I0406 00:09:33.766410 19531 net.cpp:100] Creating Layer fc7_conv
I0406 00:09:33.766412 19531 net.cpp:434] fc7_conv <- fc6_conv
I0406 00:09:33.766417 19531 net.cpp:408] fc7_conv -> fc7_conv
I0406 00:09:33.766850 19531 net.cpp:150] Setting up fc7_conv
I0406 00:09:33.766856 19531 net.cpp:157] Top shape: 32 256 4 16 (524288)
I0406 00:09:33.766858 19531 net.cpp:165] Memory required for data: 270532896
I0406 00:09:33.766862 19531 layer_factory.hpp:77] Creating layer relu7
I0406 00:09:33.766866 19531 net.cpp:100] Creating Layer relu7
I0406 00:09:33.766870 19531 net.cpp:434] relu7 <- fc7_conv
I0406 00:09:33.766872 19531 net.cpp:395] relu7 -> fc7_conv (in-place)
I0406 00:09:33.766876 19531 net.cpp:150] Setting up relu7
I0406 00:09:33.766880 19531 net.cpp:157] Top shape: 32 256 4 16 (524288)
I0406 00:09:33.766881 19531 net.cpp:165] Memory required for data: 272630048
I0406 00:09:33.766885 19531 layer_factory.hpp:77] Creating layer fc7_conv_relu7_0_split
I0406 00:09:33.766888 19531 net.cpp:100] Creating Layer fc7_conv_relu7_0_split
I0406 00:09:33.766891 19531 net.cpp:434] fc7_conv_relu7_0_split <- fc7_conv
I0406 00:09:33.766894 19531 net.cpp:408] fc7_conv_relu7_0_split -> fc7_conv_relu7_0_split_0
I0406 00:09:33.766898 19531 net.cpp:408] fc7_conv_relu7_0_split -> fc7_conv_relu7_0_split_1
I0406 00:09:33.766903 19531 net.cpp:408] fc7_conv_relu7_0_split -> fc7_conv_relu7_0_split_2
I0406 00:09:33.766945 19531 net.cpp:150] Setting up fc7_conv_relu7_0_split
I0406 00:09:33.766950 19531 net.cpp:157] Top shape: 32 256 4 16 (524288)
I0406 00:09:33.766953 19531 net.cpp:157] Top shape: 32 256 4 16 (524288)
I0406 00:09:33.766958 19531 net.cpp:157] Top shape: 32 256 4 16 (524288)
I0406 00:09:33.766962 19531 net.cpp:165] Memory required for data: 278921504
I0406 00:09:33.766964 19531 layer_factory.hpp:77] Creating layer conv6_1
I0406 00:09:33.766970 19531 net.cpp:100] Creating Layer conv6_1
I0406 00:09:33.766973 19531 net.cpp:434] conv6_1 <- fc7_conv_relu7_0_split_0
I0406 00:09:33.766978 19531 net.cpp:408] conv6_1 -> conv6_1
I0406 00:09:33.771100 19531 net.cpp:150] Setting up conv6_1
I0406 00:09:33.771107 19531 net.cpp:157] Top shape: 32 32 4 16 (65536)
I0406 00:09:33.771114 19531 net.cpp:165] Memory required for data: 279183648
I0406 00:09:33.771119 19531 layer_factory.hpp:77] Creating layer conv6_1_relu
I0406 00:09:33.771123 19531 net.cpp:100] Creating Layer conv6_1_relu
I0406 00:09:33.771126 19531 net.cpp:434] conv6_1_relu <- conv6_1
I0406 00:09:33.771131 19531 net.cpp:395] conv6_1_relu -> conv6_1 (in-place)
I0406 00:09:33.771134 19531 net.cpp:150] Setting up conv6_1_relu
I0406 00:09:33.771137 19531 net.cpp:157] Top shape: 32 32 4 16 (65536)
I0406 00:09:33.771139 19531 net.cpp:165] Memory required for data: 279445792
I0406 00:09:33.771142 19531 layer_factory.hpp:77] Creating layer conv6_2
I0406 00:09:33.771147 19531 net.cpp:100] Creating Layer conv6_2
I0406 00:09:33.771149 19531 net.cpp:434] conv6_2 <- conv6_1
I0406 00:09:33.771153 19531 net.cpp:408] conv6_2 -> conv6_2
I0406 00:09:33.771425 19531 net.cpp:150] Setting up conv6_2
I0406 00:09:33.771430 19531 net.cpp:157] Top shape: 32 64 2 8 (32768)
I0406 00:09:33.771433 19531 net.cpp:165] Memory required for data: 279576864
I0406 00:09:33.771440 19531 layer_factory.hpp:77] Creating layer conv6_2_relu
I0406 00:09:33.771443 19531 net.cpp:100] Creating Layer conv6_2_relu
I0406 00:09:33.771445 19531 net.cpp:434] conv6_2_relu <- conv6_2
I0406 00:09:33.771450 19531 net.cpp:395] conv6_2_relu -> conv6_2 (in-place)
I0406 00:09:33.771453 19531 net.cpp:150] Setting up conv6_2_relu
I0406 00:09:33.771456 19531 net.cpp:157] Top shape: 32 64 2 8 (32768)
I0406 00:09:33.771458 19531 net.cpp:165] Memory required for data: 279707936
I0406 00:09:33.771461 19531 layer_factory.hpp:77] Creating layer conv6_2_conv6_2_relu_0_split
I0406 00:09:33.771464 19531 net.cpp:100] Creating Layer conv6_2_conv6_2_relu_0_split
I0406 00:09:33.771466 19531 net.cpp:434] conv6_2_conv6_2_relu_0_split <- conv6_2
I0406 00:09:33.771469 19531 net.cpp:408] conv6_2_conv6_2_relu_0_split -> conv6_2_conv6_2_relu_0_split_0
I0406 00:09:33.771473 19531 net.cpp:408] conv6_2_conv6_2_relu_0_split -> conv6_2_conv6_2_relu_0_split_1
I0406 00:09:33.771477 19531 net.cpp:408] conv6_2_conv6_2_relu_0_split -> conv6_2_conv6_2_relu_0_split_2
I0406 00:09:33.771522 19531 net.cpp:150] Setting up conv6_2_conv6_2_relu_0_split
I0406 00:09:33.771525 19531 net.cpp:157] Top shape: 32 64 2 8 (32768)
I0406 00:09:33.771528 19531 net.cpp:157] Top shape: 32 64 2 8 (32768)
I0406 00:09:33.771531 19531 net.cpp:157] Top shape: 32 64 2 8 (32768)
I0406 00:09:33.771533 19531 net.cpp:165] Memory required for data: 280101152
I0406 00:09:33.771535 19531 layer_factory.hpp:77] Creating layer conv7_1
I0406 00:09:33.771540 19531 net.cpp:100] Creating Layer conv7_1
I0406 00:09:33.771543 19531 net.cpp:434] conv7_1 <- conv6_2_conv6_2_relu_0_split_0
I0406 00:09:33.771548 19531 net.cpp:408] conv7_1 -> conv7_1
I0406 00:09:33.771762 19531 net.cpp:150] Setting up conv7_1
I0406 00:09:33.771769 19531 net.cpp:157] Top shape: 32 16 2 8 (8192)
I0406 00:09:33.771770 19531 net.cpp:165] Memory required for data: 280133920
I0406 00:09:33.771775 19531 layer_factory.hpp:77] Creating layer conv7_1_relu
I0406 00:09:33.771778 19531 net.cpp:100] Creating Layer conv7_1_relu
I0406 00:09:33.771780 19531 net.cpp:434] conv7_1_relu <- conv7_1
I0406 00:09:33.771785 19531 net.cpp:395] conv7_1_relu -> conv7_1 (in-place)
I0406 00:09:33.771787 19531 net.cpp:150] Setting up conv7_1_relu
I0406 00:09:33.771791 19531 net.cpp:157] Top shape: 32 16 2 8 (8192)
I0406 00:09:33.771793 19531 net.cpp:165] Memory required for data: 280166688
I0406 00:09:33.771795 19531 layer_factory.hpp:77] Creating layer conv7_2
I0406 00:09:33.771800 19531 net.cpp:100] Creating Layer conv7_2
I0406 00:09:33.771802 19531 net.cpp:434] conv7_2 <- conv7_1
I0406 00:09:33.771806 19531 net.cpp:408] conv7_2 -> conv7_2
I0406 00:09:33.772032 19531 net.cpp:150] Setting up conv7_2
I0406 00:09:33.772037 19531 net.cpp:157] Top shape: 32 32 1 4 (4096)
I0406 00:09:33.772039 19531 net.cpp:165] Memory required for data: 280183072
I0406 00:09:33.772042 19531 layer_factory.hpp:77] Creating layer conv7_2_relu
I0406 00:09:33.772045 19531 net.cpp:100] Creating Layer conv7_2_relu
I0406 00:09:33.772050 19531 net.cpp:434] conv7_2_relu <- conv7_2
I0406 00:09:33.772054 19531 net.cpp:395] conv7_2_relu -> conv7_2 (in-place)
I0406 00:09:33.772058 19531 net.cpp:150] Setting up conv7_2_relu
I0406 00:09:33.772061 19531 net.cpp:157] Top shape: 32 32 1 4 (4096)
I0406 00:09:33.772063 19531 net.cpp:165] Memory required for data: 280199456
I0406 00:09:33.772066 19531 layer_factory.hpp:77] Creating layer conv7_2_conv7_2_relu_0_split
I0406 00:09:33.772069 19531 net.cpp:100] Creating Layer conv7_2_conv7_2_relu_0_split
I0406 00:09:33.772071 19531 net.cpp:434] conv7_2_conv7_2_relu_0_split <- conv7_2
I0406 00:09:33.772075 19531 net.cpp:408] conv7_2_conv7_2_relu_0_split -> conv7_2_conv7_2_relu_0_split_0
I0406 00:09:33.772079 19531 net.cpp:408] conv7_2_conv7_2_relu_0_split -> conv7_2_conv7_2_relu_0_split_1
I0406 00:09:33.772083 19531 net.cpp:408] conv7_2_conv7_2_relu_0_split -> conv7_2_conv7_2_relu_0_split_2
I0406 00:09:33.772122 19531 net.cpp:150] Setting up conv7_2_conv7_2_relu_0_split
I0406 00:09:33.772127 19531 net.cpp:157] Top shape: 32 32 1 4 (4096)
I0406 00:09:33.772130 19531 net.cpp:157] Top shape: 32 32 1 4 (4096)
I0406 00:09:33.772132 19531 net.cpp:157] Top shape: 32 32 1 4 (4096)
I0406 00:09:33.772135 19531 net.cpp:165] Memory required for data: 280248608
I0406 00:09:33.772137 19531 layer_factory.hpp:77] Creating layer pool6
I0406 00:09:33.772140 19531 net.cpp:100] Creating Layer pool6
I0406 00:09:33.772143 19531 net.cpp:434] pool6 <- conv7_2_conv7_2_relu_0_split_0
I0406 00:09:33.772147 19531 net.cpp:408] pool6 -> pool6
I0406 00:09:33.772166 19531 net.cpp:150] Setting up pool6
I0406 00:09:33.772169 19531 net.cpp:157] Top shape: 32 32 1 1 (1024)
I0406 00:09:33.772172 19531 net.cpp:165] Memory required for data: 280252704
I0406 00:09:33.772174 19531 layer_factory.hpp:77] Creating layer pool6_pool6_0_split
I0406 00:09:33.772178 19531 net.cpp:100] Creating Layer pool6_pool6_0_split
I0406 00:09:33.772181 19531 net.cpp:434] pool6_pool6_0_split <- pool6
I0406 00:09:33.772183 19531 net.cpp:408] pool6_pool6_0_split -> pool6_pool6_0_split_0
I0406 00:09:33.772187 19531 net.cpp:408] pool6_pool6_0_split -> pool6_pool6_0_split_1
I0406 00:09:33.772215 19531 net.cpp:150] Setting up pool6_pool6_0_split
I0406 00:09:33.772219 19531 net.cpp:157] Top shape: 32 32 1 1 (1024)
I0406 00:09:33.772222 19531 net.cpp:157] Top shape: 32 32 1 1 (1024)
I0406 00:09:33.772224 19531 net.cpp:165] Memory required for data: 280260896
I0406 00:09:33.772227 19531 layer_factory.hpp:77] Creating layer conv4_3_norm
I0406 00:09:33.772230 19531 net.cpp:100] Creating Layer conv4_3_norm
I0406 00:09:33.772233 19531 net.cpp:434] conv4_3_norm <- conv4_3_relu4_3_0_split_1
I0406 00:09:33.772238 19531 net.cpp:408] conv4_3_norm -> conv4_3_norm
I0406 00:09:33.772363 19531 net.cpp:150] Setting up conv4_3_norm
I0406 00:09:33.772369 19531 net.cpp:157] Top shape: 32 128 8 32 (1048576)
I0406 00:09:33.772372 19531 net.cpp:165] Memory required for data: 284455200
I0406 00:09:33.772375 19531 layer_factory.hpp:77] Creating layer conv4_3_norm_conv4_3_norm_0_split
I0406 00:09:33.772379 19531 net.cpp:100] Creating Layer conv4_3_norm_conv4_3_norm_0_split
I0406 00:09:33.772382 19531 net.cpp:434] conv4_3_norm_conv4_3_norm_0_split <- conv4_3_norm
I0406 00:09:33.772385 19531 net.cpp:408] conv4_3_norm_conv4_3_norm_0_split -> conv4_3_norm_conv4_3_norm_0_split_0
I0406 00:09:33.772389 19531 net.cpp:408] conv4_3_norm_conv4_3_norm_0_split -> conv4_3_norm_conv4_3_norm_0_split_1
I0406 00:09:33.772418 19531 net.cpp:150] Setting up conv4_3_norm_conv4_3_norm_0_split
I0406 00:09:33.772423 19531 net.cpp:157] Top shape: 32 128 8 32 (1048576)
I0406 00:09:33.772425 19531 net.cpp:157] Top shape: 32 128 8 32 (1048576)
I0406 00:09:33.772428 19531 net.cpp:165] Memory required for data: 292843808
I0406 00:09:33.772430 19531 layer_factory.hpp:77] Creating layer conv4_3_norm_mbox_loc_conf
I0406 00:09:33.772435 19531 net.cpp:100] Creating Layer conv4_3_norm_mbox_loc_conf
I0406 00:09:33.772439 19531 net.cpp:434] conv4_3_norm_mbox_loc_conf <- conv4_3_norm_conv4_3_norm_0_split_0
I0406 00:09:33.772442 19531 net.cpp:408] conv4_3_norm_mbox_loc_conf -> conv4_3_norm_mbox_loc_conf
I0406 00:09:33.772828 19531 net.cpp:150] Setting up conv4_3_norm_mbox_loc_conf
I0406 00:09:33.772835 19531 net.cpp:157] Top shape: 32 48 8 32 (393216)
I0406 00:09:33.772836 19531 net.cpp:165] Memory required for data: 294416672
I0406 00:09:33.772840 19531 layer_factory.hpp:77] Creating layer conv4_3_norm_mbox_loc_conf_perm
I0406 00:09:33.772845 19531 net.cpp:100] Creating Layer conv4_3_norm_mbox_loc_conf_perm
I0406 00:09:33.772848 19531 net.cpp:434] conv4_3_norm_mbox_loc_conf_perm <- conv4_3_norm_mbox_loc_conf
I0406 00:09:33.772851 19531 net.cpp:408] conv4_3_norm_mbox_loc_conf_perm -> conv4_3_norm_mbox_loc_conf_perm
I0406 00:09:33.772933 19531 net.cpp:150] Setting up conv4_3_norm_mbox_loc_conf_perm
I0406 00:09:33.772938 19531 net.cpp:157] Top shape: 32 8 32 48 (393216)
I0406 00:09:33.772939 19531 net.cpp:165] Memory required for data: 295989536
I0406 00:09:33.772943 19531 layer_factory.hpp:77] Creating layer conv4_3_norm_mbox_loc_perm
I0406 00:09:33.772946 19531 net.cpp:100] Creating Layer conv4_3_norm_mbox_loc_perm
I0406 00:09:33.772948 19531 net.cpp:434] conv4_3_norm_mbox_loc_perm <- conv4_3_norm_mbox_loc_conf_perm
I0406 00:09:33.772953 19531 net.cpp:408] conv4_3_norm_mbox_loc_perm -> conv4_3_norm_mbox_loc_perm
I0406 00:09:33.772956 19531 net.cpp:408] conv4_3_norm_mbox_loc_perm -> conv4_3_norm_mbox_conf_perm
I0406 00:09:33.772985 19531 net.cpp:150] Setting up conv4_3_norm_mbox_loc_perm
I0406 00:09:33.772989 19531 net.cpp:157] Top shape: 32 8 32 24 (196608)
I0406 00:09:33.772992 19531 net.cpp:157] Top shape: 32 8 32 24 (196608)
I0406 00:09:33.772994 19531 net.cpp:165] Memory required for data: 297562400
I0406 00:09:33.772997 19531 layer_factory.hpp:77] Creating layer conv4_3_norm_mbox_loc_flat
I0406 00:09:33.773001 19531 net.cpp:100] Creating Layer conv4_3_norm_mbox_loc_flat
I0406 00:09:33.773005 19531 net.cpp:434] conv4_3_norm_mbox_loc_flat <- conv4_3_norm_mbox_loc_perm
I0406 00:09:33.773007 19531 net.cpp:408] conv4_3_norm_mbox_loc_flat -> conv4_3_norm_mbox_loc_flat
I0406 00:09:33.773025 19531 net.cpp:150] Setting up conv4_3_norm_mbox_loc_flat
I0406 00:09:33.773030 19531 net.cpp:157] Top shape: 32 6144 (196608)
I0406 00:09:33.773031 19531 net.cpp:165] Memory required for data: 298348832
I0406 00:09:33.773035 19531 layer_factory.hpp:77] Creating layer conv4_3_norm_mbox_conf_flat
I0406 00:09:33.773037 19531 net.cpp:100] Creating Layer conv4_3_norm_mbox_conf_flat
I0406 00:09:33.773039 19531 net.cpp:434] conv4_3_norm_mbox_conf_flat <- conv4_3_norm_mbox_conf_perm
I0406 00:09:33.773043 19531 net.cpp:408] conv4_3_norm_mbox_conf_flat -> conv4_3_norm_mbox_conf_flat
I0406 00:09:33.773061 19531 net.cpp:150] Setting up conv4_3_norm_mbox_conf_flat
I0406 00:09:33.773066 19531 net.cpp:157] Top shape: 32 6144 (196608)
I0406 00:09:33.773067 19531 net.cpp:165] Memory required for data: 299135264
I0406 00:09:33.773069 19531 layer_factory.hpp:77] Creating layer conv4_3_norm_mbox_priorbox
I0406 00:09:33.773074 19531 net.cpp:100] Creating Layer conv4_3_norm_mbox_priorbox
I0406 00:09:33.773077 19531 net.cpp:434] conv4_3_norm_mbox_priorbox <- conv4_3_norm_conv4_3_norm_0_split_1
I0406 00:09:33.773079 19531 net.cpp:434] conv4_3_norm_mbox_priorbox <- data_data_0_split_1
I0406 00:09:33.773083 19531 net.cpp:408] conv4_3_norm_mbox_priorbox -> conv4_3_norm_mbox_priorbox
I0406 00:09:33.773102 19531 net.cpp:150] Setting up conv4_3_norm_mbox_priorbox
I0406 00:09:33.773108 19531 net.cpp:157] Top shape: 1 2 6144 (12288)
I0406 00:09:33.773109 19531 net.cpp:165] Memory required for data: 299184416
I0406 00:09:33.773111 19531 layer_factory.hpp:77] Creating layer fc7_conv_mbox_loc_conf
I0406 00:09:33.773116 19531 net.cpp:100] Creating Layer fc7_conv_mbox_loc_conf
I0406 00:09:33.773119 19531 net.cpp:434] fc7_conv_mbox_loc_conf <- fc7_conv_relu7_0_split_1
I0406 00:09:33.773123 19531 net.cpp:408] fc7_conv_mbox_loc_conf -> fc7_conv_mbox_loc_conf
I0406 00:09:33.774525 19531 net.cpp:150] Setting up fc7_conv_mbox_loc_conf
I0406 00:09:33.774534 19531 net.cpp:157] Top shape: 32 48 4 16 (98304)
I0406 00:09:33.774540 19531 net.cpp:165] Memory required for data: 299577632
I0406 00:09:33.774545 19531 layer_factory.hpp:77] Creating layer fc7_conv_mbox_loc_conf_perm
I0406 00:09:33.774550 19531 net.cpp:100] Creating Layer fc7_conv_mbox_loc_conf_perm
I0406 00:09:33.774554 19531 net.cpp:434] fc7_conv_mbox_loc_conf_perm <- fc7_conv_mbox_loc_conf
I0406 00:09:33.774557 19531 net.cpp:408] fc7_conv_mbox_loc_conf_perm -> fc7_conv_mbox_loc_conf_perm
I0406 00:09:33.774642 19531 net.cpp:150] Setting up fc7_conv_mbox_loc_conf_perm
I0406 00:09:33.774647 19531 net.cpp:157] Top shape: 32 4 16 48 (98304)
I0406 00:09:33.774649 19531 net.cpp:165] Memory required for data: 299970848
I0406 00:09:33.774652 19531 layer_factory.hpp:77] Creating layer fc7_conv_mbox_loc_perm
I0406 00:09:33.774655 19531 net.cpp:100] Creating Layer fc7_conv_mbox_loc_perm
I0406 00:09:33.774658 19531 net.cpp:434] fc7_conv_mbox_loc_perm <- fc7_conv_mbox_loc_conf_perm
I0406 00:09:33.774662 19531 net.cpp:408] fc7_conv_mbox_loc_perm -> fc7_conv_mbox_loc_perm
I0406 00:09:33.774667 19531 net.cpp:408] fc7_conv_mbox_loc_perm -> fc7_conv_mbox_conf_perm
I0406 00:09:33.774694 19531 net.cpp:150] Setting up fc7_conv_mbox_loc_perm
I0406 00:09:33.774699 19531 net.cpp:157] Top shape: 32 4 16 24 (49152)
I0406 00:09:33.774701 19531 net.cpp:157] Top shape: 32 4 16 24 (49152)
I0406 00:09:33.774704 19531 net.cpp:165] Memory required for data: 300364064
I0406 00:09:33.774706 19531 layer_factory.hpp:77] Creating layer fc7_conv_mbox_loc_flat
I0406 00:09:33.774710 19531 net.cpp:100] Creating Layer fc7_conv_mbox_loc_flat
I0406 00:09:33.774713 19531 net.cpp:434] fc7_conv_mbox_loc_flat <- fc7_conv_mbox_loc_perm
I0406 00:09:33.774716 19531 net.cpp:408] fc7_conv_mbox_loc_flat -> fc7_conv_mbox_loc_flat
I0406 00:09:33.774734 19531 net.cpp:150] Setting up fc7_conv_mbox_loc_flat
I0406 00:09:33.774739 19531 net.cpp:157] Top shape: 32 1536 (49152)
I0406 00:09:33.774741 19531 net.cpp:165] Memory required for data: 300560672
I0406 00:09:33.774744 19531 layer_factory.hpp:77] Creating layer fc7_conv_mbox_conf_flat
I0406 00:09:33.774746 19531 net.cpp:100] Creating Layer fc7_conv_mbox_conf_flat
I0406 00:09:33.774749 19531 net.cpp:434] fc7_conv_mbox_conf_flat <- fc7_conv_mbox_conf_perm
I0406 00:09:33.774752 19531 net.cpp:408] fc7_conv_mbox_conf_flat -> fc7_conv_mbox_conf_flat
I0406 00:09:33.774771 19531 net.cpp:150] Setting up fc7_conv_mbox_conf_flat
I0406 00:09:33.774775 19531 net.cpp:157] Top shape: 32 1536 (49152)
I0406 00:09:33.774777 19531 net.cpp:165] Memory required for data: 300757280
I0406 00:09:33.774780 19531 layer_factory.hpp:77] Creating layer fc7_conv_mbox_priorbox
I0406 00:09:33.774783 19531 net.cpp:100] Creating Layer fc7_conv_mbox_priorbox
I0406 00:09:33.774786 19531 net.cpp:434] fc7_conv_mbox_priorbox <- fc7_conv_relu7_0_split_2
I0406 00:09:33.774790 19531 net.cpp:434] fc7_conv_mbox_priorbox <- data_data_0_split_2
I0406 00:09:33.774793 19531 net.cpp:408] fc7_conv_mbox_priorbox -> fc7_conv_mbox_priorbox
I0406 00:09:33.774812 19531 net.cpp:150] Setting up fc7_conv_mbox_priorbox
I0406 00:09:33.774816 19531 net.cpp:157] Top shape: 1 2 1536 (3072)
I0406 00:09:33.774819 19531 net.cpp:165] Memory required for data: 300769568
I0406 00:09:33.774821 19531 layer_factory.hpp:77] Creating layer conv6_2_mbox_loc_conf
I0406 00:09:33.774827 19531 net.cpp:100] Creating Layer conv6_2_mbox_loc_conf
I0406 00:09:33.774829 19531 net.cpp:434] conv6_2_mbox_loc_conf <- conv6_2_conv6_2_relu_0_split_1
I0406 00:09:33.774833 19531 net.cpp:408] conv6_2_mbox_loc_conf -> conv6_2_mbox_loc_conf
I0406 00:09:33.775141 19531 net.cpp:150] Setting up conv6_2_mbox_loc_conf
I0406 00:09:33.775146 19531 net.cpp:157] Top shape: 32 48 2 8 (24576)
I0406 00:09:33.775148 19531 net.cpp:165] Memory required for data: 300867872
I0406 00:09:33.775152 19531 layer_factory.hpp:77] Creating layer conv6_2_mbox_loc_conf_perm
I0406 00:09:33.775161 19531 net.cpp:100] Creating Layer conv6_2_mbox_loc_conf_perm
I0406 00:09:33.775163 19531 net.cpp:434] conv6_2_mbox_loc_conf_perm <- conv6_2_mbox_loc_conf
I0406 00:09:33.775167 19531 net.cpp:408] conv6_2_mbox_loc_conf_perm -> conv6_2_mbox_loc_conf_perm
I0406 00:09:33.775256 19531 net.cpp:150] Setting up conv6_2_mbox_loc_conf_perm
I0406 00:09:33.775261 19531 net.cpp:157] Top shape: 32 2 8 48 (24576)
I0406 00:09:33.775264 19531 net.cpp:165] Memory required for data: 300966176
I0406 00:09:33.775266 19531 layer_factory.hpp:77] Creating layer conv6_2_mbox_loc_perm
I0406 00:09:33.775270 19531 net.cpp:100] Creating Layer conv6_2_mbox_loc_perm
I0406 00:09:33.775274 19531 net.cpp:434] conv6_2_mbox_loc_perm <- conv6_2_mbox_loc_conf_perm
I0406 00:09:33.775276 19531 net.cpp:408] conv6_2_mbox_loc_perm -> conv6_2_mbox_loc_perm
I0406 00:09:33.775281 19531 net.cpp:408] conv6_2_mbox_loc_perm -> conv6_2_mbox_conf_perm
I0406 00:09:33.775313 19531 net.cpp:150] Setting up conv6_2_mbox_loc_perm
I0406 00:09:33.775317 19531 net.cpp:157] Top shape: 32 2 8 24 (12288)
I0406 00:09:33.775321 19531 net.cpp:157] Top shape: 32 2 8 24 (12288)
I0406 00:09:33.775323 19531 net.cpp:165] Memory required for data: 301064480
I0406 00:09:33.775326 19531 layer_factory.hpp:77] Creating layer conv6_2_mbox_loc_flat
I0406 00:09:33.775329 19531 net.cpp:100] Creating Layer conv6_2_mbox_loc_flat
I0406 00:09:33.775332 19531 net.cpp:434] conv6_2_mbox_loc_flat <- conv6_2_mbox_loc_perm
I0406 00:09:33.775336 19531 net.cpp:408] conv6_2_mbox_loc_flat -> conv6_2_mbox_loc_flat
I0406 00:09:33.775353 19531 net.cpp:150] Setting up conv6_2_mbox_loc_flat
I0406 00:09:33.775357 19531 net.cpp:157] Top shape: 32 384 (12288)
I0406 00:09:33.775360 19531 net.cpp:165] Memory required for data: 301113632
I0406 00:09:33.775362 19531 layer_factory.hpp:77] Creating layer conv6_2_mbox_conf_flat
I0406 00:09:33.775367 19531 net.cpp:100] Creating Layer conv6_2_mbox_conf_flat
I0406 00:09:33.775368 19531 net.cpp:434] conv6_2_mbox_conf_flat <- conv6_2_mbox_conf_perm
I0406 00:09:33.775372 19531 net.cpp:408] conv6_2_mbox_conf_flat -> conv6_2_mbox_conf_flat
I0406 00:09:33.775391 19531 net.cpp:150] Setting up conv6_2_mbox_conf_flat
I0406 00:09:33.775395 19531 net.cpp:157] Top shape: 32 384 (12288)
I0406 00:09:33.775398 19531 net.cpp:165] Memory required for data: 301162784
I0406 00:09:33.775400 19531 layer_factory.hpp:77] Creating layer conv6_2_mbox_priorbox
I0406 00:09:33.775403 19531 net.cpp:100] Creating Layer conv6_2_mbox_priorbox
I0406 00:09:33.775406 19531 net.cpp:434] conv6_2_mbox_priorbox <- conv6_2_conv6_2_relu_0_split_2
I0406 00:09:33.775409 19531 net.cpp:434] conv6_2_mbox_priorbox <- data_data_0_split_3
I0406 00:09:33.775413 19531 net.cpp:408] conv6_2_mbox_priorbox -> conv6_2_mbox_priorbox
I0406 00:09:33.775432 19531 net.cpp:150] Setting up conv6_2_mbox_priorbox
I0406 00:09:33.775436 19531 net.cpp:157] Top shape: 1 2 384 (768)
I0406 00:09:33.775439 19531 net.cpp:165] Memory required for data: 301165856
I0406 00:09:33.775441 19531 layer_factory.hpp:77] Creating layer conv7_2_mbox_loc_conf
I0406 00:09:33.775446 19531 net.cpp:100] Creating Layer conv7_2_mbox_loc_conf
I0406 00:09:33.775449 19531 net.cpp:434] conv7_2_mbox_loc_conf <- conv7_2_conv7_2_relu_0_split_1
I0406 00:09:33.775454 19531 net.cpp:408] conv7_2_mbox_loc_conf -> conv7_2_mbox_loc_conf
I0406 00:09:33.775707 19531 net.cpp:150] Setting up conv7_2_mbox_loc_conf
I0406 00:09:33.775712 19531 net.cpp:157] Top shape: 32 48 1 4 (6144)
I0406 00:09:33.775714 19531 net.cpp:165] Memory required for data: 301190432
I0406 00:09:33.775717 19531 layer_factory.hpp:77] Creating layer conv7_2_mbox_loc_conf_perm
I0406 00:09:33.775722 19531 net.cpp:100] Creating Layer conv7_2_mbox_loc_conf_perm
I0406 00:09:33.775724 19531 net.cpp:434] conv7_2_mbox_loc_conf_perm <- conv7_2_mbox_loc_conf
I0406 00:09:33.775728 19531 net.cpp:408] conv7_2_mbox_loc_conf_perm -> conv7_2_mbox_loc_conf_perm
I0406 00:09:33.775810 19531 net.cpp:150] Setting up conv7_2_mbox_loc_conf_perm
I0406 00:09:33.775815 19531 net.cpp:157] Top shape: 32 1 4 48 (6144)
I0406 00:09:33.775817 19531 net.cpp:165] Memory required for data: 301215008
I0406 00:09:33.775820 19531 layer_factory.hpp:77] Creating layer conv7_2_mbox_loc_perm
I0406 00:09:33.775823 19531 net.cpp:100] Creating Layer conv7_2_mbox_loc_perm
I0406 00:09:33.775828 19531 net.cpp:434] conv7_2_mbox_loc_perm <- conv7_2_mbox_loc_conf_perm
I0406 00:09:33.775832 19531 net.cpp:408] conv7_2_mbox_loc_perm -> conv7_2_mbox_loc_perm
I0406 00:09:33.775836 19531 net.cpp:408] conv7_2_mbox_loc_perm -> conv7_2_mbox_conf_perm
I0406 00:09:33.775866 19531 net.cpp:150] Setting up conv7_2_mbox_loc_perm
I0406 00:09:33.775869 19531 net.cpp:157] Top shape: 32 1 4 24 (3072)
I0406 00:09:33.775872 19531 net.cpp:157] Top shape: 32 1 4 24 (3072)
I0406 00:09:33.775874 19531 net.cpp:165] Memory required for data: 301239584
I0406 00:09:33.775877 19531 layer_factory.hpp:77] Creating layer conv7_2_mbox_loc_flat
I0406 00:09:33.775880 19531 net.cpp:100] Creating Layer conv7_2_mbox_loc_flat
I0406 00:09:33.775883 19531 net.cpp:434] conv7_2_mbox_loc_flat <- conv7_2_mbox_loc_perm
I0406 00:09:33.775887 19531 net.cpp:408] conv7_2_mbox_loc_flat -> conv7_2_mbox_loc_flat
I0406 00:09:33.775904 19531 net.cpp:150] Setting up conv7_2_mbox_loc_flat
I0406 00:09:33.775908 19531 net.cpp:157] Top shape: 32 96 (3072)
I0406 00:09:33.775912 19531 net.cpp:165] Memory required for data: 301251872
I0406 00:09:33.775913 19531 layer_factory.hpp:77] Creating layer conv7_2_mbox_conf_flat
I0406 00:09:33.775916 19531 net.cpp:100] Creating Layer conv7_2_mbox_conf_flat
I0406 00:09:33.775919 19531 net.cpp:434] conv7_2_mbox_conf_flat <- conv7_2_mbox_conf_perm
I0406 00:09:33.775923 19531 net.cpp:408] conv7_2_mbox_conf_flat -> conv7_2_mbox_conf_flat
I0406 00:09:33.775940 19531 net.cpp:150] Setting up conv7_2_mbox_conf_flat
I0406 00:09:33.775944 19531 net.cpp:157] Top shape: 32 96 (3072)
I0406 00:09:33.775948 19531 net.cpp:165] Memory required for data: 301264160
I0406 00:09:33.775949 19531 layer_factory.hpp:77] Creating layer conv7_2_mbox_priorbox
I0406 00:09:33.775954 19531 net.cpp:100] Creating Layer conv7_2_mbox_priorbox
I0406 00:09:33.775955 19531 net.cpp:434] conv7_2_mbox_priorbox <- conv7_2_conv7_2_relu_0_split_2
I0406 00:09:33.775959 19531 net.cpp:434] conv7_2_mbox_priorbox <- data_data_0_split_4
I0406 00:09:33.775962 19531 net.cpp:408] conv7_2_mbox_priorbox -> conv7_2_mbox_priorbox
I0406 00:09:33.775981 19531 net.cpp:150] Setting up conv7_2_mbox_priorbox
I0406 00:09:33.775985 19531 net.cpp:157] Top shape: 1 2 96 (192)
I0406 00:09:33.775987 19531 net.cpp:165] Memory required for data: 301264928
I0406 00:09:33.775990 19531 layer_factory.hpp:77] Creating layer pool6_mbox_loc_conf
I0406 00:09:33.775995 19531 net.cpp:100] Creating Layer pool6_mbox_loc_conf
I0406 00:09:33.775998 19531 net.cpp:434] pool6_mbox_loc_conf <- pool6_pool6_0_split_0
I0406 00:09:33.776002 19531 net.cpp:408] pool6_mbox_loc_conf -> pool6_mbox_loc_conf
I0406 00:09:33.776257 19531 net.cpp:150] Setting up pool6_mbox_loc_conf
I0406 00:09:33.776262 19531 net.cpp:157] Top shape: 32 48 1 1 (1536)
I0406 00:09:33.776264 19531 net.cpp:165] Memory required for data: 301271072
I0406 00:09:33.776268 19531 layer_factory.hpp:77] Creating layer pool6_mbox_loc_conf_perm
I0406 00:09:33.776273 19531 net.cpp:100] Creating Layer pool6_mbox_loc_conf_perm
I0406 00:09:33.776275 19531 net.cpp:434] pool6_mbox_loc_conf_perm <- pool6_mbox_loc_conf
I0406 00:09:33.776278 19531 net.cpp:408] pool6_mbox_loc_conf_perm -> pool6_mbox_loc_conf_perm
I0406 00:09:33.776368 19531 net.cpp:150] Setting up pool6_mbox_loc_conf_perm
I0406 00:09:33.776373 19531 net.cpp:157] Top shape: 32 1 1 48 (1536)
I0406 00:09:33.776376 19531 net.cpp:165] Memory required for data: 301277216
I0406 00:09:33.776378 19531 layer_factory.hpp:77] Creating layer pool6_mbox_loc_perm
I0406 00:09:33.776382 19531 net.cpp:100] Creating Layer pool6_mbox_loc_perm
I0406 00:09:33.776384 19531 net.cpp:434] pool6_mbox_loc_perm <- pool6_mbox_loc_conf_perm
I0406 00:09:33.776388 19531 net.cpp:408] pool6_mbox_loc_perm -> pool6_mbox_loc_perm
I0406 00:09:33.776392 19531 net.cpp:408] pool6_mbox_loc_perm -> pool6_mbox_conf_perm
I0406 00:09:33.776422 19531 net.cpp:150] Setting up pool6_mbox_loc_perm
I0406 00:09:33.776425 19531 net.cpp:157] Top shape: 32 1 1 24 (768)
I0406 00:09:33.776428 19531 net.cpp:157] Top shape: 32 1 1 24 (768)
I0406 00:09:33.776432 19531 net.cpp:165] Memory required for data: 301283360
I0406 00:09:33.776435 19531 layer_factory.hpp:77] Creating layer pool6_mbox_loc_flat
I0406 00:09:33.776438 19531 net.cpp:100] Creating Layer pool6_mbox_loc_flat
I0406 00:09:33.776442 19531 net.cpp:434] pool6_mbox_loc_flat <- pool6_mbox_loc_perm
I0406 00:09:33.776445 19531 net.cpp:408] pool6_mbox_loc_flat -> pool6_mbox_loc_flat
I0406 00:09:33.776463 19531 net.cpp:150] Setting up pool6_mbox_loc_flat
I0406 00:09:33.776468 19531 net.cpp:157] Top shape: 32 24 (768)
I0406 00:09:33.776469 19531 net.cpp:165] Memory required for data: 301286432
I0406 00:09:33.776473 19531 layer_factory.hpp:77] Creating layer pool6_mbox_conf_flat
I0406 00:09:33.776475 19531 net.cpp:100] Creating Layer pool6_mbox_conf_flat
I0406 00:09:33.776477 19531 net.cpp:434] pool6_mbox_conf_flat <- pool6_mbox_conf_perm
I0406 00:09:33.776480 19531 net.cpp:408] pool6_mbox_conf_flat -> pool6_mbox_conf_flat
I0406 00:09:33.776499 19531 net.cpp:150] Setting up pool6_mbox_conf_flat
I0406 00:09:33.776504 19531 net.cpp:157] Top shape: 32 24 (768)
I0406 00:09:33.776505 19531 net.cpp:165] Memory required for data: 301289504
I0406 00:09:33.776507 19531 layer_factory.hpp:77] Creating layer pool6_mbox_priorbox
I0406 00:09:33.776511 19531 net.cpp:100] Creating Layer pool6_mbox_priorbox
I0406 00:09:33.776513 19531 net.cpp:434] pool6_mbox_priorbox <- pool6_pool6_0_split_1
I0406 00:09:33.776516 19531 net.cpp:434] pool6_mbox_priorbox <- data_data_0_split_5
I0406 00:09:33.776520 19531 net.cpp:408] pool6_mbox_priorbox -> pool6_mbox_priorbox
I0406 00:09:33.776540 19531 net.cpp:150] Setting up pool6_mbox_priorbox
I0406 00:09:33.776543 19531 net.cpp:157] Top shape: 1 2 24 (48)
I0406 00:09:33.776546 19531 net.cpp:165] Memory required for data: 301289696
I0406 00:09:33.776548 19531 layer_factory.hpp:77] Creating layer mbox_loc
I0406 00:09:33.776552 19531 net.cpp:100] Creating Layer mbox_loc
I0406 00:09:33.776556 19531 net.cpp:434] mbox_loc <- conv4_3_norm_mbox_loc_flat
I0406 00:09:33.776559 19531 net.cpp:434] mbox_loc <- fc7_conv_mbox_loc_flat
I0406 00:09:33.776562 19531 net.cpp:434] mbox_loc <- conv6_2_mbox_loc_flat
I0406 00:09:33.776566 19531 net.cpp:434] mbox_loc <- conv7_2_mbox_loc_flat
I0406 00:09:33.776568 19531 net.cpp:434] mbox_loc <- pool6_mbox_loc_flat
I0406 00:09:33.776571 19531 net.cpp:408] mbox_loc -> mbox_loc
I0406 00:09:33.776592 19531 net.cpp:150] Setting up mbox_loc
I0406 00:09:33.776595 19531 net.cpp:157] Top shape: 32 8184 (261888)
I0406 00:09:33.776597 19531 net.cpp:165] Memory required for data: 302337248
I0406 00:09:33.776600 19531 layer_factory.hpp:77] Creating layer mbox_conf
I0406 00:09:33.776603 19531 net.cpp:100] Creating Layer mbox_conf
I0406 00:09:33.776607 19531 net.cpp:434] mbox_conf <- conv4_3_norm_mbox_conf_flat
I0406 00:09:33.776609 19531 net.cpp:434] mbox_conf <- fc7_conv_mbox_conf_flat
I0406 00:09:33.776613 19531 net.cpp:434] mbox_conf <- conv6_2_mbox_conf_flat
I0406 00:09:33.776617 19531 net.cpp:434] mbox_conf <- conv7_2_mbox_conf_flat
I0406 00:09:33.776619 19531 net.cpp:434] mbox_conf <- pool6_mbox_conf_flat
I0406 00:09:33.776623 19531 net.cpp:408] mbox_conf -> mbox_conf
I0406 00:09:33.776640 19531 net.cpp:150] Setting up mbox_conf
I0406 00:09:33.776644 19531 net.cpp:157] Top shape: 32 8184 (261888)
I0406 00:09:33.776646 19531 net.cpp:165] Memory required for data: 303384800
I0406 00:09:33.776648 19531 layer_factory.hpp:77] Creating layer mbox_priorbox
I0406 00:09:33.776651 19531 net.cpp:100] Creating Layer mbox_priorbox
I0406 00:09:33.776654 19531 net.cpp:434] mbox_priorbox <- conv4_3_norm_mbox_priorbox
I0406 00:09:33.776657 19531 net.cpp:434] mbox_priorbox <- fc7_conv_mbox_priorbox
I0406 00:09:33.776660 19531 net.cpp:434] mbox_priorbox <- conv6_2_mbox_priorbox
I0406 00:09:33.776664 19531 net.cpp:434] mbox_priorbox <- conv7_2_mbox_priorbox
I0406 00:09:33.776666 19531 net.cpp:434] mbox_priorbox <- pool6_mbox_priorbox
I0406 00:09:33.776669 19531 net.cpp:408] mbox_priorbox -> mbox_priorbox
I0406 00:09:33.776687 19531 net.cpp:150] Setting up mbox_priorbox
I0406 00:09:33.776693 19531 net.cpp:157] Top shape: 1 2 8184 (16368)
I0406 00:09:33.776696 19531 net.cpp:165] Memory required for data: 303450272
I0406 00:09:33.776698 19531 layer_factory.hpp:77] Creating layer mbox_conf_reshape
I0406 00:09:33.776703 19531 net.cpp:100] Creating Layer mbox_conf_reshape
I0406 00:09:33.776705 19531 net.cpp:434] mbox_conf_reshape <- mbox_conf
I0406 00:09:33.776710 19531 net.cpp:408] mbox_conf_reshape -> mbox_conf_reshape
I0406 00:09:33.776728 19531 net.cpp:150] Setting up mbox_conf_reshape
I0406 00:09:33.776733 19531 net.cpp:157] Top shape: 32 2046 4 (261888)
I0406 00:09:33.776736 19531 net.cpp:165] Memory required for data: 304497824
I0406 00:09:33.776737 19531 layer_factory.hpp:77] Creating layer mbox_conf_softmax
I0406 00:09:33.776741 19531 net.cpp:100] Creating Layer mbox_conf_softmax
I0406 00:09:33.776744 19531 net.cpp:434] mbox_conf_softmax <- mbox_conf_reshape
I0406 00:09:33.776747 19531 net.cpp:408] mbox_conf_softmax -> mbox_conf_softmax
I0406 00:09:33.776800 19531 net.cpp:150] Setting up mbox_conf_softmax
I0406 00:09:33.776804 19531 net.cpp:157] Top shape: 32 2046 4 (261888)
I0406 00:09:33.776808 19531 net.cpp:165] Memory required for data: 305545376
I0406 00:09:33.776809 19531 layer_factory.hpp:77] Creating layer mbox_conf_flatten
I0406 00:09:33.776813 19531 net.cpp:100] Creating Layer mbox_conf_flatten
I0406 00:09:33.776815 19531 net.cpp:434] mbox_conf_flatten <- mbox_conf_softmax
I0406 00:09:33.776818 19531 net.cpp:408] mbox_conf_flatten -> mbox_conf_flatten
I0406 00:09:33.776836 19531 net.cpp:150] Setting up mbox_conf_flatten
I0406 00:09:33.776840 19531 net.cpp:157] Top shape: 32 8184 (261888)
I0406 00:09:33.776842 19531 net.cpp:165] Memory required for data: 306592928
I0406 00:09:33.776844 19531 layer_factory.hpp:77] Creating layer detection_out
I0406 00:09:33.776855 19531 net.cpp:100] Creating Layer detection_out
I0406 00:09:33.776859 19531 net.cpp:434] detection_out <- mbox_loc
I0406 00:09:33.776861 19531 net.cpp:434] detection_out <- mbox_conf_flatten
I0406 00:09:33.776865 19531 net.cpp:434] detection_out <- mbox_priorbox
I0406 00:09:33.776867 19531 net.cpp:408] detection_out -> detection_out
I0406 00:09:33.779785 19531 net.cpp:150] Setting up detection_out
I0406 00:09:33.779798 19531 net.cpp:157] Top shape: 1 1 1 7 (7)
I0406 00:09:33.779803 19531 net.cpp:165] Memory required for data: 306592956
I0406 00:09:33.779808 19531 layer_factory.hpp:77] Creating layer detection_eval
I0406 00:09:33.779814 19531 net.cpp:100] Creating Layer detection_eval
I0406 00:09:33.779819 19531 net.cpp:434] detection_eval <- detection_out
I0406 00:09:33.779825 19531 net.cpp:434] detection_eval <- label
I0406 00:09:33.779831 19531 net.cpp:408] detection_eval -> detection_eval
I0406 00:09:33.780441 19531 net.cpp:150] Setting up detection_eval
I0406 00:09:33.780450 19531 net.cpp:157] Top shape: 1 1 4 5 (20)
I0406 00:09:33.780454 19531 net.cpp:165] Memory required for data: 306593036
I0406 00:09:33.780459 19531 net.cpp:228] detection_eval does not need backward computation.
I0406 00:09:33.780463 19531 net.cpp:228] detection_out does not need backward computation.
I0406 00:09:33.780468 19531 net.cpp:228] mbox_conf_flatten does not need backward computation.
I0406 00:09:33.780472 19531 net.cpp:228] mbox_conf_softmax does not need backward computation.
…
