…
      sampler {
        min_scale: 0.3
        max_scale: 1
        min_aspect_ratio: 0.5
        max_aspect_ratio: 2
      }
      sample_constraint {
        min_jaccard_overlap: 0.9
      }
      max_sample: 1
      max_trials: 50
    }
    batch_sampler {
      sampler {
        min_scale: 0.3
        max_scale: 1
        min_aspect_ratio: 0.5
        max_aspect_ratio: 2
      }
      sample_constraint {
        max_jaccard_overlap: 1
      }
      max_sample: 1
      max_trials: 50
    }
    label_map_file: "/tmp/toqinhuan/labelmap.prototxt"
  }
}
layer {
  name: "conv1_1"
  type: "Convolution"
  bottom: "data"
  top: "conv1_1"
  param {
    lr_mult: 1
    decay_mult: 1
  }
  param {
    lr_mult: 2
    decay_mult: 0
  }
  convolution_param {
    num_output: 16
    pad: 1
    kernel_size: 3
    weight_filler {
      type: "xavier"
    }
    bias_filler {
      type: "constant"
      value: 0
    }
  }
}
layer {
  name: "relu1_1"
  type: "ReLU"
  bottom: "conv1_1"
  top: "conv1_1"
}
layer {
  name: "conv1_2"
  type: "Convolution"
  bottom: "conv1_1"
  top: "conv1_2"
  param {
    lr_mult: 1
    decay_mult: 1
  }
  param {
    lr_mult: 2
    decay_mult: 0
  }
  convolution_param {
    num_output: 16
    pad: 1
    kernel_size: 3
    stride: 2
    weight_filler {
      type: "xavier"
    }
    bias_filler {
      type: "constant"
      value: 0
    }
  }
}
layer {
  name: "relu1_2"
  type: "ReLU"
  bottom: "conv1_2"
  top: "conv1_2"
}
layer {
  name: "conv2_1"
  type: "Convolution"
  bottom: "conv1_2"
  top: "conv2_1"
  param {
    lr_mult: 1
    decay_mult: 1
  }
  param {
    lr_mult: 2
    decay_mult: 0
  }
  convolution_param {
    num_output: 32
    pad: 1
    kernel_size: 3
    weight_filler {
      type: "xavier"
    }
    bias_filler {
      type: "constant"
      value: 0
    }
  }
}
layer {
  name: "relu2_1"
  type: "ReLU"
  bottom: "conv2_1"
  top: "conv2_1"
}
layer {
  name: "conv2_2"
  type: "Convolution"
  bottom: "conv2_1"
  top: "conv2_2"
  param {
    lr_mult: 1
    decay_mult: 1
  }
  param {
    lr_mult: 2
    decay_mult: 0
  }
  convolution_param {
    num_output: 32
    pad: 1
    kernel_size: 3
    stride: 2
    weight_filler {
      type: "xavier"
    }
    bias_filler {
      type: "constant"
      value: 0
    }
  }
}
layer {
  name: "relu2_2"
  type: "ReLU"
  bottom: "conv2_2"
  top: "conv2_2"
}
layer {
  name: "conv3_1"
  type: "Convolution"
  bottom: "conv2_2"
  top: "conv3_1"
  param {
    lr_mult: 1
    decay_mult: 1
  }
  param {
    lr_mult: 2
    decay_mult: 0
  }
  convolution_param {
    num_output: 64
    pad: 1
    kernel_size: 3
    weight_filler {
      type: "xavier"
    }
    bias_filler {
      type: "constant"
      value: 0
    }
  }
}
layer {
  name: "relu3_1"
  type: "ReLU"
  bottom: "conv3_1"
  top: "conv3_1"
}
layer {
  name: "conv3_2"
  type: "Convolution"
  bottom: "conv3_1"
  top: "conv3_2"
  param {
    lr_mult: 1
    decay_mult: 1
  }
  param {
    lr_mult: 2
    decay_mult: 0
  }
  convolution_param {
    num_output: 64
    pad: 1
    kernel_size: 3
    weight_filler {
      type: "xavier"
    }
    bias_filler {
      type: "constant"
      value: 0
    }
  }
}
layer {
  name: "relu3_2"
  type: "ReLU"
  bottom: "conv3_2"
  top: "conv3_2"
}
layer {
  name: "conv3_3"
  type: "Convolution"
  bottom: "conv3_2"
  top: "conv3_3"
  param {
    lr_mult: 1
    decay_mult: 1
  }
  param {
    lr_mult: 2
    decay_mult: 0
  }
  convolution_param {
    num_output: 64
    pad: 1
    kernel_size: 3
    weight_filler {
      type: "xavier"
    }
    bias_filler {
      type: "constant"
      value: 0
    }
  }
}
layer {
  name: "relu3_3"
  type: "ReLU"
  bottom: "conv3_3"
  top: "conv3_3"
}
layer {
  name: "pool3"
  type: "Pooling"
  bottom: "conv3_3"
  top: "pool3"
  pooling_param {
    pool: MAX
    kernel_size: 2
    stride: 2
  }
}
layer {
  name: "conv4_1"
  type: "Convolution"
  bottom: "pool3"
  top: "conv4_1"
  param {
    lr_mult: 1
    decay_mult: 1
  }
  param {
    lr_mult: 2
    decay_mult: 0
  }
  convolution_param {
    num_output: 128
    pad: 1
    kernel_size: 3
    weight_filler {
      type: "xavier"
    }
    bias_filler {
      type: "constant"
      value: 0
    }
  }
}
layer {
  name: "relu4_1"
  type: "ReLU"
  bottom: "conv4_1"
  top: "conv4_1"
}
layer {
  name: "conv4_2"
  type: "Convolution"
  bottom: "conv4_1"
  top: "conv4_2"
  param {
    lr_mult: 1
    decay_mult: 1
  }
  param {
    lr_mult: 2
    decay_mult: 0
  }
  convolution_param {
    num_output: 128
    pad: 1
    kernel_size: 3
    weight_filler {
      type: "xavier"
    }
    bias_filler {
      type: "constant"
      value: 0
    }
  }
}
layer {
  name: "relu4_2"
  type: "ReLU"
  bottom: "conv4_2"
  top: "conv4_2"
}
layer {
  name: "conv4_3"
  type: "Convolution"
  bottom: "conv4_2"
  top: "conv4_3"
  param {
    lr_mult: 1
    decay_mult: 1
  }
  param {
    lr_mult: 2
    decay_mult: 0
  }
  convolution_param {
    num_output: 128
    pad: 1
    kernel_size: 3
    weight_filler {
      type: "xavier"
    }
    bias_filler {
      type: "constant"
      value: 0
    }
  }
}
layer {
  name: "relu4_3"
  type: "ReLU"
  bottom: "conv4_3"
  top: "conv4_3"
}
layer {
  name: "pool4"
  type: "Pooling"
  bottom: "conv4_3"
  top: "pool4"
  pooling_param {
    pool: MAX
    kernel_size: 2
    stride: 2
  }
}
layer {
  name: "conv5_1"
  type: "Convolution"
  bottom: "pool4"
  top: "conv5_1"
  param {
    lr_mult: 1
    decay_mult: 1
  }
  param {
    lr_mult: 2
    decay_mult: 0
  }
  convolution_param {
    num_output: 128
    pad: 1
    kernel_size: 3
    weight_filler {
      type: "xavier"
    }
    bias_filler {
      type: "constant"
      value: 0
    }
    dilation: 1
  }
}
layer {
  name: "relu5_1"
  type: "ReLU"
  bottom: "conv5_1"
  top: "conv5_1"
}
layer {
  name: "conv5_2"
  type: "Convolution"
  bottom: "conv5_1"
  top: "conv5_2"
  param {
    lr_mult: 1
    decay_mult: 1
  }
  param {
    lr_mult: 2
    decay_mult: 0
  }
  convolution_param {
    num_output: 128
    pad: 1
    kernel_size: 3
    weight_filler {
      type: "xavier"
    }
    bias_filler {
      type: "constant"
      value: 0
    }
    dilation: 1
  }
}
layer {
  name: "relu5_2"
  type: "ReLU"
  bottom: "conv5_2"
  top: "conv5_2"
}
layer {
  name: "conv5_3"
  type: "Convolution"
  bottom: "conv5_2"
  top: "conv5_3"
  param {
    lr_mult: 1
    decay_mult: 1
  }
  param {
    lr_mult: 2
    decay_mult: 0
  }
  convolution_param {
    num_output: 128
    pad: 1
    kernel_size: 3
    weight_filler {
      type: "xavier"
    }
    bias_filler {
      type: "constant"
      value: 0
    }
    dilation: 1
  }
}
layer {
  name: "relu5_3"
  type: "ReLU"
  bottom: "conv5_3"
  top: "conv5_3"
}
layer {
  name: "pool5"
  type: "Pooling"
  bottom: "conv5_3"
  top: "pool5"
  pooling_param {
    pool: MAX
    kernel_size: 3
    stride: 1
    pad: 1
  }
}
layer {
  name: "fc6_conv"
  type: "Convolution"
  bottom: "pool5"
  top: "fc6_conv"
  param {
    lr_mult: 1
    decay_mult: 1
  }
  param {
    lr_mult: 2
    decay_mult: 0
  }
  convolution_param {
    num_output: 256
    pad: 6
    kernel_size: 3
    weight_filler {
      type: "xavier"
    }
    bias_filler {
      type: "constant"
      value: 0
    }
    dilation: 6
  }
}
layer {
  name: "relu6"
  type: "ReLU"
  bottom: "fc6_conv"
  top: "fc6_conv"
}
layer {
  name: "fc7_conv"
  type: "Convolution"
  bottom: "fc6_conv"
  top: "fc7_conv"
  param {
    lr_mult: 1
    decay_mult: 1
  }
  param {
    lr_mult: 2
    decay_mult: 0
  }
  convolution_param {
    num_output: 256
    kernel_size: 1
    weight_filler {
      type: "xavier"
    }
    bias_filler {
      type: "constant"
      value: 0
    }
  }
}
layer {
  name: "relu7"
  type: "ReLU"
  bottom: "fc7_conv"
  top: "fc7_conv"
}
layer {
  name: "conv6_1"
  type: "Convolution"
  bottom: "fc7_conv"
  top: "conv6_1"
  param {
    lr_mult: 1
    decay_mult: 1
  }
  param {
    lr_mult: 2
    decay_mult: 0
  }
  convolution_param {
    num_output: 32
    pad: 0
    kernel_size: 1
    stride: 1
    weight_filler {
      type: "xavier"
    }
    bias_filler {
      type: "constant"
      value: 0
    }
  }
}
layer {
  name: "conv6_1_relu"
  type: "ReLU"
  bottom: "conv6_1"
  top: "conv6_1"
}
layer {
  name: "conv6_2"
  type: "Convolution"
  bottom: "conv6_1"
  top: "conv6_2"
  param {
    lr_mult: 1
    decay_mult: 1
  }
  param {
    lr_mult: 2
    decay_mult: 0
  }
  convolution_param {
    num_output: 64
    pad: 1
    kernel_size: 3
    stride: 2
    weight_filler {
      type: "xavier"
    }
    bias_filler {
      type: "constant"
      value: 0
    }
  }
}
layer {
  name: "conv6_2_relu"
  type: "ReLU"
  bottom: "conv6_2"
  top: "conv6_2"
}
layer {
  name: "conv7_1"
  type: "Convolution"
  bottom: "conv6_2"
  top: "conv7_1"
  param {
    lr_mult: 1
    decay_mult: 1
  }
  param {
    lr_mult: 2
    decay_mult: 0
  }
  convolution_param {
    num_output: 16
    pad: 0
    kernel_size: 1
    stride: 1
    weight_filler {
      type: "xavier"
    }
    bias_filler {
      type: "constant"
      value: 0
    }
  }
}
layer {
  name: "conv7_1_relu"
  type: "ReLU"
  bottom: "conv7_1"
  top: "conv7_1"
}
layer {
  name: "conv7_2"
  type: "Convolution"
  bottom: "conv7_1"
  top: "conv7_2"
  param {
    lr_mult: 1
    decay_mult: 1
  }
  param {
    lr_mult: 2
    decay_mult: 0
  }
  convolution_param {
    num_output: 32
    pad: 1
    kernel_size: 3
    stride: 2
    weight_filler {
      type: "xavier"
    }
    bias_filler {
      type: "constant"
      value: 0
    }
  }
}
layer {
  name: "conv7_2_relu"
  type: "ReLU"
  bottom: "conv7_2"
  top: "conv7_2"
}
layer {
  name: "pool6"
  type: "Pooling"
  bottom: "conv7_2"
  top: "pool6"
  pooling_param {
    pool: AVE
    global_pooling: true
  }
}
layer {
  name: "conv4_3_norm"
  type: "Normalize"
  bottom: "conv4_3"
  top: "conv4_3_norm"
  norm_param {
    across_spatial: false
    scale_filler {
      type: "constant"
      value: 20
    }
    channel_shared: false
  }
}
layer {
  name: "conv4_3_norm_mbox_loc_conf"
  type: "Convolution"
  bottom: "conv4_3_norm"
  top: "conv4_3_norm_mbox_loc_conf"
  param {
    lr_mult: 1
    decay_mult: 1
  }
  param {
    lr_mult: 2
    decay_mult: 0
  }
  convolution_param {
    num_output: 48
    pad: 1
    kernel_size: 3
    stride: 1
    weight_filler {
      type: "xavier"
    }
    bias_filler {
      type: "constant"
      value: 0
    }
  }
}
layer {
  name: "conv4_3_norm_mbox_loc_conf_perm"
  type: "Permute"
  bottom: "conv4_3_norm_mbox_loc_conf"
  top: "conv4_3_norm_mbox_loc_conf_perm"
  permute_param {
    order: 0
    order: 2
    order: 3
    order: 1
  }
}
layer {
  name: "conv4_3_norm_mbox_loc_perm"
  type: "Slice"
  bottom: "conv4_3_norm_mbox_loc_conf_perm"
  top: "conv4_3_norm_mbox_loc_perm"
  top: "conv4_3_norm_mbox_conf_perm"
  slice_param {
    slice_point: 24
    axis: 3
  }
}
layer {
  name: "conv4_3_norm_mbox_loc_flat"
  type: "Flatten"
  bottom: "conv4_3_norm_mbox_loc_perm"
  top: "conv4_3_norm_mbox_loc_flat"
  flatten_param {
    axis: 1
  }
}
layer {
  name: "conv4_3_norm_mbox_conf_flat"
  type: "Flatten"
  bottom: "conv4_3_norm_mbox_conf_perm"
  top: "conv4_3_norm_mbox_conf_flat"
  flatten_param {
    axis: 1
  }
}
layer {
  name: "conv4_3_norm_mbox_priorbox"
  type: "PriorBox"
  bottom: "conv4_3_norm"
  bottom: "data"
  top: "conv4_3_norm_mbox_priorbox"
  prior_box_param {
    min_size: 6.4
    max_size: 25.6
    aspect_ratio: 2
    aspect_ratio: 3
    flip: true
    clip: true
    variance: 0.1
    variance: 0.1
    variance: 0.2
    variance: 0.2
    offset: 0.5
  }
}
layer {
  name: "fc7_conv_mbox_loc_conf"
  type: "Convolution"
  bottom: "fc7_conv"
  top: "fc7_conv_mbox_loc_conf"
  param {
    lr_mult: 1
    decay_mult: 1
  }
  param {
    lr_mult: 2
    decay_mult: 0
  }
  convolution_param {
    num_output: 48
    pad: 1
    kernel_size: 3
    stride: 1
    weight_filler {
      type: "xavier"
    }
    bias_filler {
      type: "constant"
      value: 0
    }
  }
}
layer {
  name: "fc7_conv_mbox_loc_conf_perm"
  type: "Permute"
  bottom: "fc7_conv_mbox_loc_conf"
  top: "fc7_conv_mbox_loc_conf_perm"
  permute_param {
    order: 0
    order: 2
    order: 3
    order: 1
  }
}
layer {
  name: "fc7_conv_mbox_loc_perm"
  type: "Slice"
  bottom: "fc7_conv_mbox_loc_conf_perm"
  top: "fc7_conv_mbox_loc_perm"
  top: "fc7_conv_mbox_conf_perm"
  slice_param {
    slice_point: 24
    axis: 3
  }
}
layer {
  name: "fc7_conv_mbox_loc_flat"
  type: "Flatten"
  bottom: "fc7_conv_mbox_loc_perm"
  top: "fc7_conv_mbox_loc_flat"
  flatten_param {
    axis: 1
  }
}
layer {
  name: "fc7_conv_mbox_conf_flat"
  type: "Flatten"
  bottom: "fc7_conv_mbox_conf_perm"
  top: "fc7_conv_mbox_conf_flat"
  flatten_param {
    axis: 1
  }
}
layer {
  name: "fc7_conv_mbox_priorbox"
  type: "PriorBox"
  bottom: "fc7_conv"
  bottom: "data"
  top: "fc7_conv_mbox_priorbox"
  prior_box_param {
    min_size: 25.6
    max_size: 57.6
    aspect_ratio: 2
    aspect_ratio: 3
    flip: true
    clip: true
    variance: 0.1
    variance: 0.1
    variance: 0.2
    variance: 0.2
    offset: 0.5
  }
}
layer {
  name: "conv6_2_mbox_loc_conf"
  type: "Convolution"
  bottom: "conv6_2"
  top: "conv6_2_mbox_loc_conf"
  param {
    lr_mult: 1
    decay_mult: 1
  }
  param {
    lr_mult: 2
    decay_mult: 0
  }
  convolution_param {
    num_output: 48
    pad: 1
    kernel_size: 3
    stride: 1
    weight_filler {
      type: "xavier"
    }
    bias_filler {
      type: "constant"
      value: 0
    }
  }
}
layer {
  name: "conv6_2_mbox_loc_conf_perm"
  type: "Permute"
  bottom: "conv6_2_mbox_loc_conf"
  top: "conv6_2_mbox_loc_conf_perm"
  permute_param {
    order: 0
    order: 2
    order: 3
    order: 1
  }
}
layer {
  name: "conv6_2_mbox_loc_perm"
  type: "Slice"
  bottom: "conv6_2_mbox_loc_conf_perm"
  top: "conv6_2_mbox_loc_perm"
  top: "conv6_2_mbox_conf_perm"
  slice_param {
    slice_point: 24
    axis: 3
  }
}
layer {
  name: "conv6_2_mbox_loc_flat"
  type: "Flatten"
  bottom: "conv6_2_mbox_loc_perm"
  top: "conv6_2_mbox_loc_flat"
  flatten_param {
    axis: 1
  }
}
layer {
  name: "conv6_2_mbox_conf_flat"
  type: "Flatten"
  bottom: "conv6_2_mbox_conf_perm"
  top: "conv6_2_mbox_conf_flat"
  flatten_param {
    axis: 1
  }
}
layer {
  name: "conv6_2_mbox_priorbox"
  type: "PriorBox"
  bottom: "conv6_2"
  bottom: "data"
  top: "conv6_2_mbox_priorbox"
  prior_box_param {
    min_size: 57.6
    max_size: 89.6
    aspect_ratio: 2
    aspect_ratio: 3
    flip: true
    clip: true
    variance: 0.1
    variance: 0.1
    variance: 0.2
    variance: 0.2
    offset: 0.5
  }
}
layer {
  name: "conv7_2_mbox_loc_conf"
  type: "Convolution"
  bottom: "conv7_2"
  top: "conv7_2_mbox_loc_conf"
  param {
    lr_mult: 1
    decay_mult: 1
  }
  param {
    lr_mult: 2
    decay_mult: 0
  }
  convolution_param {
    num_output: 48
    pad: 1
    kernel_size: 3
    stride: 1
    weight_filler {
      type: "xavier"
    }
    bias_filler {
      type: "constant"
      value: 0
    }
  }
}
layer {
  name: "conv7_2_mbox_loc_conf_perm"
  type: "Permute"
  bottom: "conv7_2_mbox_loc_conf"
  top: "conv7_2_mbox_loc_conf_perm"
  permute_param {
    order: 0
    order: 2
    order: 3
    order: 1
  }
}
layer {
  name: "conv7_2_mbox_loc_perm"
  type: "Slice"
  bottom: "conv7_2_mbox_loc_conf_perm"
  top: "conv7_2_mbox_loc_perm"
  top: "conv7_2_mbox_conf_perm"
  slice_param {
    slice_point: 24
    axis: 3
  }
}
layer {
  name: "conv7_2_mbox_loc_flat"
  type: "Flatten"
  bottom: "conv7_2_mbox_loc_perm"
  top: "conv7_2_mbox_loc_flat"
  flatten_param {
    axis: 1
  }
}
layer {
  name: "conv7_2_mbox_conf_flat"
  type: "Flatten"
  bottom: "conv7_2_mbox_conf_perm"
  top: "conv7_2_mbox_conf_flat"
  flatten_param {
    axis: 1
  }
}
layer {
  name: "conv7_2_mbox_priorbox"
  type: "PriorBox"
  bottom: "conv7_2"
  bottom: "data"
  top: "conv7_2_mbox_priorbox"
  prior_box_param {
    min_size: 89.6
    max_size: 121.6
    aspect_ratio: 2
    aspect_ratio: 3
    flip: true
    clip: true
    variance: 0.1
    variance: 0.1
    variance: 0.2
    variance: 0.2
    offset: 0.5
  }
}
layer {
  name: "pool6_mbox_loc_conf"
  type: "Convolution"
  bottom: "pool6"
  top: "pool6_mbox_loc_conf"
  param {
    lr_mult: 1
    decay_mult: 1
  }
  param {
    lr_mult: 2
    decay_mult: 0
  }
  convolution_param {
    num_output: 48
    pad: 1
    kernel_size: 3
    stride: 1
    weight_filler {
      type: "xavier"
    }
    bias_filler {
      type: "constant"
      value: 0
    }
  }
}
layer {
  name: "pool6_mbox_loc_conf_perm"
  type: "Permute"
  bottom: "pool6_mbox_loc_conf"
  top: "pool6_mbox_loc_conf_perm"
  permute_param {
    order: 0
    order: 2
    order: 3
    order: 1
  }
}
layer {
  name: "pool6_mbox_loc_perm"
  type: "Slice"
  bottom: "pool6_mbox_loc_conf_perm"
  top: "pool6_mbox_loc_perm"
  top: "pool6_mbox_conf_perm"
  slice_param {
    slice_point: 24
    axis: 3
  }
}
layer {
  name: "pool6_mbox_loc_flat"
  type: "Flatten"
  bottom: "pool6_mbox_loc_perm"
  top: "pool6_mbox_loc_flat"
  flatten_param {
    axis: 1
  }
}
layer {
  name: "pool6_mbox_conf_flat"
  type: "Flatten"
  bottom: "pool6_mbox_conf_perm"
  top: "pool6_mbox_conf_flat"
  flatten_param {
    axis: 1
  }
}
layer {
  name: "pool6_mbox_priorbox"
  type: "PriorBox"
  bottom: "pool6"
  bottom: "data"
  top: "pool6_mbox_priorbox"
  prior_box_param {
    min_size: 121.6
    max_size: 153.6
    aspect_ratio: 2
    aspect_ratio: 3
    flip: true
    clip: true
    variance: 0.1
    variance: 0.1
    variance: 0.2
    variance: 0.2
    offset: 0.5
  }
}
layer {
  name: "mbox_loc"
  type: "Concat"
  bottom: "conv4_3_norm_mbox_loc_flat"
  bottom: "fc7_conv_mbox_loc_flat"
  bottom: "conv6_2_mbox_loc_flat"
  bottom: "conv7_2_mbox_loc_flat"
  bottom: "pool6_mbox_loc_flat"
  top: "mbox_loc"
  concat_param {
    axis: 1
  }
}
layer {
  name: "mbox_conf"
  type: "Concat"
  bottom: "conv4_3_norm_mbox_conf_flat"
  bottom: "fc7_conv_mbox_conf_flat"
  bottom: "conv6_2_mbox_conf_flat"
  bottom: "conv7_2_mbox_conf_flat"
  bottom: "pool6_mbox_conf_flat"
  top: "mbox_conf"
  concat_param {
    axis: 1
  }
}
layer {
  name: "mbox_priorbox"
  type: "Concat"
  bottom: "conv4_3_norm_mbox_priorbox"
  bottom: "fc7_conv_mbox_priorbox"
  bottom: "conv6_2_mbox_priorbox"
  bottom: "conv7_2_mbox_priorbox"
  bottom: "pool6_mbox_priorbox"
  top: "mbox_priorbox"
  concat_param {
    axis: 2
  }
}
layer {
  name: "mbox_loss"
  type: "MultiBoxLoss"
  bottom: "mbox_loc"
  bottom: "mbox_conf"
  bottom: "mbox_priorbox"
  bottom: "label"
  top: "mbox_loss"
  include {
    phase: TRAIN
  }
  propagate_down: true
  propagate_down: true
  propagate_down: false
  propagate_down: false
  loss_param {
    normalization: VALID
  }
  multibox_loss_param {
    loc_loss_type: SMOOTH_L1
    conf_loss_type: SOFTMAX
    loc_weight: 1
    num_classes: 4
    share_location: true
    match_type: PER_PREDICTION
    overlap_threshold: 0.3
    use_prior_for_matching: true
    background_label_id: 0
    use_difficult_gt: true
    neg_pos_ratio: 3
    neg_overlap: 0.3
    code_type: CENTER_SIZE
    mining_type: MAX_NEGATIVE
  }
}
I0407 10:53:35.472692 30989 layer_factory.hpp:77] Creating layer data
I0407 10:53:35.473007 30989 net.cpp:100] Creating Layer data
I0407 10:53:35.473021 30989 net.cpp:408] data -> data
I0407 10:53:35.473033 30989 net.cpp:408] data -> label
I0407 10:53:35.473747 31015 db_lmdb.cpp:35] Opened lmdb /home/work/wwl/data/kitti/data_object_image_2/training/train_lmdb
I0407 10:53:35.496356 30989 annotated_data_layer.cpp:62] output data size: 32,3,64,256
I0407 10:53:35.515488 30989 net.cpp:150] Setting up data
I0407 10:53:35.515514 30989 net.cpp:157] Top shape: 32 3 64 256 (1572864)
I0407 10:53:35.515519 30989 net.cpp:157] Top shape: 1 1 11 8 (88)
I0407 10:53:35.515522 30989 net.cpp:165] Memory required for data: 6291808
I0407 10:53:35.515527 30989 layer_factory.hpp:77] Creating layer data_data_0_split
I0407 10:53:35.515535 30989 net.cpp:100] Creating Layer data_data_0_split
I0407 10:53:35.515538 30989 net.cpp:434] data_data_0_split <- data
I0407 10:53:35.515544 30989 net.cpp:408] data_data_0_split -> data_data_0_split_0
I0407 10:53:35.515552 30989 net.cpp:408] data_data_0_split -> data_data_0_split_1
I0407 10:53:35.515557 30989 net.cpp:408] data_data_0_split -> data_data_0_split_2
I0407 10:53:35.515561 30989 net.cpp:408] data_data_0_split -> data_data_0_split_3
I0407 10:53:35.515565 30989 net.cpp:408] data_data_0_split -> data_data_0_split_4
I0407 10:53:35.515569 30989 net.cpp:408] data_data_0_split -> data_data_0_split_5
I0407 10:53:35.515658 30989 net.cpp:150] Setting up data_data_0_split
I0407 10:53:35.515663 30989 net.cpp:157] Top shape: 32 3 64 256 (1572864)
I0407 10:53:35.515667 30989 net.cpp:157] Top shape: 32 3 64 256 (1572864)
I0407 10:53:35.515671 30989 net.cpp:157] Top shape: 32 3 64 256 (1572864)
I0407 10:53:35.515672 30989 net.cpp:157] Top shape: 32 3 64 256 (1572864)
I0407 10:53:35.515676 30989 net.cpp:157] Top shape: 32 3 64 256 (1572864)
I0407 10:53:35.515678 30989 net.cpp:157] Top shape: 32 3 64 256 (1572864)
I0407 10:53:35.515681 30989 net.cpp:165] Memory required for data: 44040544
I0407 10:53:35.515683 30989 layer_factory.hpp:77] Creating layer conv1_1
I0407 10:53:35.515691 30989 net.cpp:100] Creating Layer conv1_1
I0407 10:53:35.515694 30989 net.cpp:434] conv1_1 <- data_data_0_split_0
I0407 10:53:35.515698 30989 net.cpp:408] conv1_1 -> conv1_1
I0407 10:53:35.517406 30989 net.cpp:150] Setting up conv1_1
I0407 10:53:35.517419 30989 net.cpp:157] Top shape: 32 16 64 256 (8388608)
I0407 10:53:35.517422 30989 net.cpp:165] Memory required for data: 77594976
I0407 10:53:35.517431 30989 layer_factory.hpp:77] Creating layer relu1_1
I0407 10:53:35.517436 30989 net.cpp:100] Creating Layer relu1_1
I0407 10:53:35.517446 30989 net.cpp:434] relu1_1 <- conv1_1
I0407 10:53:35.517449 30989 net.cpp:395] relu1_1 -> conv1_1 (in-place)
I0407 10:53:35.517454 30989 net.cpp:150] Setting up relu1_1
I0407 10:53:35.517458 30989 net.cpp:157] Top shape: 32 16 64 256 (8388608)
I0407 10:53:35.517460 30989 net.cpp:165] Memory required for data: 111149408
I0407 10:53:35.517462 30989 layer_factory.hpp:77] Creating layer conv1_2
I0407 10:53:35.517470 30989 net.cpp:100] Creating Layer conv1_2
I0407 10:53:35.517473 30989 net.cpp:434] conv1_2 <- conv1_1
I0407 10:53:35.517477 30989 net.cpp:408] conv1_2 -> conv1_2
I0407 10:53:35.518380 30989 net.cpp:150] Setting up conv1_2
I0407 10:53:35.518389 30989 net.cpp:157] Top shape: 32 16 32 128 (2097152)
I0407 10:53:35.518393 30989 net.cpp:165] Memory required for data: 119538016
I0407 10:53:35.518399 30989 layer_factory.hpp:77] Creating layer relu1_2
I0407 10:53:35.518402 30989 net.cpp:100] Creating Layer relu1_2
I0407 10:53:35.518404 30989 net.cpp:434] relu1_2 <- conv1_2
I0407 10:53:35.518409 30989 net.cpp:395] relu1_2 -> conv1_2 (in-place)
I0407 10:53:35.518412 30989 net.cpp:150] Setting up relu1_2
I0407 10:53:35.518416 30989 net.cpp:157] Top shape: 32 16 32 128 (2097152)
I0407 10:53:35.518419 30989 net.cpp:165] Memory required for data: 127926624
I0407 10:53:35.518420 30989 layer_factory.hpp:77] Creating layer conv2_1
I0407 10:53:35.518426 30989 net.cpp:100] Creating Layer conv2_1
I0407 10:53:35.518429 30989 net.cpp:434] conv2_1 <- conv1_2
I0407 10:53:35.518435 30989 net.cpp:408] conv2_1 -> conv2_1
I0407 10:53:35.518643 30989 net.cpp:150] Setting up conv2_1
I0407 10:53:35.518648 30989 net.cpp:157] Top shape: 32 32 32 128 (4194304)
I0407 10:53:35.518651 30989 net.cpp:165] Memory required for data: 144703840
I0407 10:53:35.518656 30989 layer_factory.hpp:77] Creating layer relu2_1
I0407 10:53:35.518661 30989 net.cpp:100] Creating Layer relu2_1
I0407 10:53:35.518663 30989 net.cpp:434] relu2_1 <- conv2_1
I0407 10:53:35.518666 30989 net.cpp:395] relu2_1 -> conv2_1 (in-place)
I0407 10:53:35.518671 30989 net.cpp:150] Setting up relu2_1
I0407 10:53:35.518673 30989 net.cpp:157] Top shape: 32 32 32 128 (4194304)
I0407 10:53:35.518676 30989 net.cpp:165] Memory required for data: 161481056
I0407 10:53:35.518678 30989 layer_factory.hpp:77] Creating layer conv2_2
I0407 10:53:35.518684 30989 net.cpp:100] Creating Layer conv2_2
I0407 10:53:35.518687 30989 net.cpp:434] conv2_2 <- conv2_1
I0407 10:53:35.518692 30989 net.cpp:408] conv2_2 -> conv2_2
I0407 10:53:35.518923 30989 net.cpp:150] Setting up conv2_2
I0407 10:53:35.518929 30989 net.cpp:157] Top shape: 32 32 16 64 (1048576)
I0407 10:53:35.518931 30989 net.cpp:165] Memory required for data: 165675360
I0407 10:53:35.518934 30989 layer_factory.hpp:77] Creating layer relu2_2
I0407 10:53:35.518939 30989 net.cpp:100] Creating Layer relu2_2
I0407 10:53:35.518940 30989 net.cpp:434] relu2_2 <- conv2_2
I0407 10:53:35.518944 30989 net.cpp:395] relu2_2 -> conv2_2 (in-place)
I0407 10:53:35.518947 30989 net.cpp:150] Setting up relu2_2
I0407 10:53:35.518951 30989 net.cpp:157] Top shape: 32 32 16 64 (1048576)
I0407 10:53:35.518954 30989 net.cpp:165] Memory required for data: 169869664
I0407 10:53:35.518955 30989 layer_factory.hpp:77] Creating layer conv3_1
I0407 10:53:35.518961 30989 net.cpp:100] Creating Layer conv3_1
I0407 10:53:35.518965 30989 net.cpp:434] conv3_1 <- conv2_2
I0407 10:53:35.518968 30989 net.cpp:408] conv3_1 -> conv3_1
I0407 10:53:35.519912 30989 net.cpp:150] Setting up conv3_1
I0407 10:53:35.519922 30989 net.cpp:157] Top shape: 32 64 16 64 (2097152)
I0407 10:53:35.519924 30989 net.cpp:165] Memory required for data: 178258272
I0407 10:53:35.519930 30989 layer_factory.hpp:77] Creating layer relu3_1
I0407 10:53:35.519934 30989 net.cpp:100] Creating Layer relu3_1
I0407 10:53:35.519937 30989 net.cpp:434] relu3_1 <- conv3_1
I0407 10:53:35.519942 30989 net.cpp:395] relu3_1 -> conv3_1 (in-place)
I0407 10:53:35.519945 30989 net.cpp:150] Setting up relu3_1
I0407 10:53:35.519948 30989 net.cpp:157] Top shape: 32 64 16 64 (2097152)
I0407 10:53:35.519954 30989 net.cpp:165] Memory required for data: 186646880
I0407 10:53:35.519956 30989 layer_factory.hpp:77] Creating layer conv3_2
I0407 10:53:35.519963 30989 net.cpp:100] Creating Layer conv3_2
I0407 10:53:35.519965 30989 net.cpp:434] conv3_2 <- conv3_1
I0407 10:53:35.519970 30989 net.cpp:408] conv3_2 -> conv3_2
I0407 10:53:35.520277 30989 net.cpp:150] Setting up conv3_2
I0407 10:53:35.520282 30989 net.cpp:157] Top shape: 32 64 16 64 (2097152)
I0407 10:53:35.520284 30989 net.cpp:165] Memory required for data: 195035488
I0407 10:53:35.520288 30989 layer_factory.hpp:77] Creating layer relu3_2
I0407 10:53:35.520293 30989 net.cpp:100] Creating Layer relu3_2
I0407 10:53:35.520295 30989 net.cpp:434] relu3_2 <- conv3_2
I0407 10:53:35.520299 30989 net.cpp:395] relu3_2 -> conv3_2 (in-place)
I0407 10:53:35.520303 30989 net.cpp:150] Setting up relu3_2
I0407 10:53:35.520306 30989 net.cpp:157] Top shape: 32 64 16 64 (2097152)
I0407 10:53:35.520308 30989 net.cpp:165] Memory required for data: 203424096
I0407 10:53:35.520311 30989 layer_factory.hpp:77] Creating layer conv3_3
I0407 10:53:35.520318 30989 net.cpp:100] Creating Layer conv3_3
I0407 10:53:35.520320 30989 net.cpp:434] conv3_3 <- conv3_2
I0407 10:53:35.520324 30989 net.cpp:408] conv3_3 -> conv3_3
I0407 10:53:35.520643 30989 net.cpp:150] Setting up conv3_3
I0407 10:53:35.520649 30989 net.cpp:157] Top shape: 32 64 16 64 (2097152)
I0407 10:53:35.520653 30989 net.cpp:165] Memory required for data: 211812704
I0407 10:53:35.520656 30989 layer_factory.hpp:77] Creating layer relu3_3
I0407 10:53:35.520660 30989 net.cpp:100] Creating Layer relu3_3
I0407 10:53:35.520663 30989 net.cpp:434] relu3_3 <- conv3_3
I0407 10:53:35.520666 30989 net.cpp:395] relu3_3 -> conv3_3 (in-place)
I0407 10:53:35.520670 30989 net.cpp:150] Setting up relu3_3
I0407 10:53:35.520674 30989 net.cpp:157] Top shape: 32 64 16 64 (2097152)
I0407 10:53:35.520676 30989 net.cpp:165] Memory required for data: 220201312
I0407 10:53:35.520678 30989 layer_factory.hpp:77] Creating layer pool3
I0407 10:53:35.520684 30989 net.cpp:100] Creating Layer pool3
I0407 10:53:35.520686 30989 net.cpp:434] pool3 <- conv3_3
I0407 10:53:35.520690 30989 net.cpp:408] pool3 -> pool3
I0407 10:53:35.520722 30989 net.cpp:150] Setting up pool3
I0407 10:53:35.520726 30989 net.cpp:157] Top shape: 32 64 8 32 (524288)
I0407 10:53:35.520730 30989 net.cpp:165] Memory required for data: 222298464
I0407 10:53:35.520731 30989 layer_factory.hpp:77] Creating layer conv4_1
I0407 10:53:35.520737 30989 net.cpp:100] Creating Layer conv4_1
I0407 10:53:35.520740 30989 net.cpp:434] conv4_1 <- pool3
I0407 10:53:35.520745 30989 net.cpp:408] conv4_1 -> conv4_1
I0407 10:53:35.521847 30989 net.cpp:150] Setting up conv4_1
I0407 10:53:35.521857 30989 net.cpp:157] Top shape: 32 128 8 32 (1048576)
I0407 10:53:35.521859 30989 net.cpp:165] Memory required for data: 226492768
I0407 10:53:35.521864 30989 layer_factory.hpp:77] Creating layer relu4_1
I0407 10:53:35.521868 30989 net.cpp:100] Creating Layer relu4_1
I0407 10:53:35.521872 30989 net.cpp:434] relu4_1 <- conv4_1
I0407 10:53:35.521875 30989 net.cpp:395] relu4_1 -> conv4_1 (in-place)
I0407 10:53:35.521879 30989 net.cpp:150] Setting up relu4_1
I0407 10:53:35.521883 30989 net.cpp:157] Top shape: 32 128 8 32 (1048576)
I0407 10:53:35.521885 30989 net.cpp:165] Memory required for data: 230687072
I0407 10:53:35.521888 30989 layer_factory.hpp:77] Creating layer conv4_2
I0407 10:53:35.521893 30989 net.cpp:100] Creating Layer conv4_2
I0407 10:53:35.521896 30989 net.cpp:434] conv4_2 <- conv4_1
I0407 10:53:35.521901 30989 net.cpp:408] conv4_2 -> conv4_2
I0407 10:53:35.522531 30989 net.cpp:150] Setting up conv4_2
I0407 10:53:35.522536 30989 net.cpp:157] Top shape: 32 128 8 32 (1048576)
I0407 10:53:35.522538 30989 net.cpp:165] Memory required for data: 234881376
I0407 10:53:35.522544 30989 layer_factory.hpp:77] Creating layer relu4_2
I0407 10:53:35.522548 30989 net.cpp:100] Creating Layer relu4_2
I0407 10:53:35.522552 30989 net.cpp:434] relu4_2 <- conv4_2
I0407 10:53:35.522555 30989 net.cpp:395] relu4_2 -> conv4_2 (in-place)
I0407 10:53:35.522562 30989 net.cpp:150] Setting up relu4_2
I0407 10:53:35.522567 30989 net.cpp:157] Top shape: 32 128 8 32 (1048576)
I0407 10:53:35.522568 30989 net.cpp:165] Memory required for data: 239075680
I0407 10:53:35.522570 30989 layer_factory.hpp:77] Creating layer conv4_3
I0407 10:53:35.522577 30989 net.cpp:100] Creating Layer conv4_3
I0407 10:53:35.522578 30989 net.cpp:434] conv4_3 <- conv4_2
I0407 10:53:35.522583 30989 net.cpp:408] conv4_3 -> conv4_3
I0407 10:53:35.523214 30989 net.cpp:150] Setting up conv4_3
I0407 10:53:35.523219 30989 net.cpp:157] Top shape: 32 128 8 32 (1048576)
I0407 10:53:35.523221 30989 net.cpp:165] Memory required for data: 243269984
I0407 10:53:35.523226 30989 layer_factory.hpp:77] Creating layer relu4_3
I0407 10:53:35.523229 30989 net.cpp:100] Creating Layer relu4_3
I0407 10:53:35.523231 30989 net.cpp:434] relu4_3 <- conv4_3
I0407 10:53:35.523236 30989 net.cpp:395] relu4_3 -> conv4_3 (in-place)
I0407 10:53:35.523239 30989 net.cpp:150] Setting up relu4_3
I0407 10:53:35.523243 30989 net.cpp:157] Top shape: 32 128 8 32 (1048576)
I0407 10:53:35.523246 30989 net.cpp:165] Memory required for data: 247464288
I0407 10:53:35.523247 30989 layer_factory.hpp:77] Creating layer conv4_3_relu4_3_0_split
I0407 10:53:35.523252 30989 net.cpp:100] Creating Layer conv4_3_relu4_3_0_split
I0407 10:53:35.523253 30989 net.cpp:434] conv4_3_relu4_3_0_split <- conv4_3
I0407 10:53:35.523257 30989 net.cpp:408] conv4_3_relu4_3_0_split -> conv4_3_relu4_3_0_split_0
I0407 10:53:35.523262 30989 net.cpp:408] conv4_3_relu4_3_0_split -> conv4_3_relu4_3_0_split_1
I0407 10:53:35.523286 30989 net.cpp:150] Setting up conv4_3_relu4_3_0_split
I0407 10:53:35.523290 30989 net.cpp:157] Top shape: 32 128 8 32 (1048576)
I0407 10:53:35.523293 30989 net.cpp:157] Top shape: 32 128 8 32 (1048576)
I0407 10:53:35.523296 30989 net.cpp:165] Memory required for data: 255852896
I0407 10:53:35.523298 30989 layer_factory.hpp:77] Creating layer pool4
I0407 10:53:35.523303 30989 net.cpp:100] Creating Layer pool4
I0407 10:53:35.523305 30989 net.cpp:434] pool4 <- conv4_3_relu4_3_0_split_0
I0407 10:53:35.523309 30989 net.cpp:408] pool4 -> pool4
I0407 10:53:35.523337 30989 net.cpp:150] Setting up pool4
I0407 10:53:35.523341 30989 net.cpp:157] Top shape: 32 128 4 16 (262144)
I0407 10:53:35.523344 30989 net.cpp:165] Memory required for data: 256901472
I0407 10:53:35.523346 30989 layer_factory.hpp:77] Creating layer conv5_1
I0407 10:53:35.523351 30989 net.cpp:100] Creating Layer conv5_1
I0407 10:53:35.523355 30989 net.cpp:434] conv5_1 <- pool4
I0407 10:53:35.523360 30989 net.cpp:408] conv5_1 -> conv5_1
I0407 10:53:35.523993 30989 net.cpp:150] Setting up conv5_1
I0407 10:53:35.523998 30989 net.cpp:157] Top shape: 32 128 4 16 (262144)
I0407 10:53:35.524000 30989 net.cpp:165] Memory required for data: 257950048
I0407 10:53:35.524004 30989 layer_factory.hpp:77] Creating layer relu5_1
I0407 10:53:35.524008 30989 net.cpp:100] Creating Layer relu5_1
I0407 10:53:35.524011 30989 net.cpp:434] relu5_1 <- conv5_1
I0407 10:53:35.524014 30989 net.cpp:395] relu5_1 -> conv5_1 (in-place)
I0407 10:53:35.524019 30989 net.cpp:150] Setting up relu5_1
I0407 10:53:35.524021 30989 net.cpp:157] Top shape: 32 128 4 16 (262144)
I0407 10:53:35.524024 30989 net.cpp:165] Memory required for data: 258998624
I0407 10:53:35.524026 30989 layer_factory.hpp:77] Creating layer conv5_2
I0407 10:53:35.524032 30989 net.cpp:100] Creating Layer conv5_2
I0407 10:53:35.524035 30989 net.cpp:434] conv5_2 <- conv5_1
I0407 10:53:35.524039 30989 net.cpp:408] conv5_2 -> conv5_2
I0407 10:53:35.529162 30989 net.cpp:150] Setting up conv5_2
I0407 10:53:35.529172 30989 net.cpp:157] Top shape: 32 128 4 16 (262144)
I0407 10:53:35.529175 30989 net.cpp:165] Memory required for data: 260047200
I0407 10:53:35.529180 30989 layer_factory.hpp:77] Creating layer relu5_2
I0407 10:53:35.529184 30989 net.cpp:100] Creating Layer relu5_2
I0407 10:53:35.529187 30989 net.cpp:434] relu5_2 <- conv5_2
I0407 10:53:35.529191 30989 net.cpp:395] relu5_2 -> conv5_2 (in-place)
I0407 10:53:35.529196 30989 net.cpp:150] Setting up relu5_2
I0407 10:53:35.529202 30989 net.cpp:157] Top shape: 32 128 4 16 (262144)
I0407 10:53:35.529206 30989 net.cpp:165] Memory required for data: 261095776
I0407 10:53:35.529207 30989 layer_factory.hpp:77] Creating layer conv5_3
I0407 10:53:35.529213 30989 net.cpp:100] Creating Layer conv5_3
I0407 10:53:35.529217 30989 net.cpp:434] conv5_3 <- conv5_2
I0407 10:53:35.529222 30989 net.cpp:408] conv5_3 -> conv5_3
I0407 10:53:35.529856 30989 net.cpp:150] Setting up conv5_3
I0407 10:53:35.529861 30989 net.cpp:157] Top shape: 32 128 4 16 (262144)
I0407 10:53:35.529863 30989 net.cpp:165] Memory required for data: 262144352
I0407 10:53:35.529867 30989 layer_factory.hpp:77] Creating layer relu5_3
I0407 10:53:35.529871 30989 net.cpp:100] Creating Layer relu5_3
I0407 10:53:35.529875 30989 net.cpp:434] relu5_3 <- conv5_3
I0407 10:53:35.529878 30989 net.cpp:395] relu5_3 -> conv5_3 (in-place)
I0407 10:53:35.529882 30989 net.cpp:150] Setting up relu5_3
I0407 10:53:35.529886 30989 net.cpp:157] Top shape: 32 128 4 16 (262144)
I0407 10:53:35.529887 30989 net.cpp:165] Memory required for data: 263192928
I0407 10:53:35.529889 30989 layer_factory.hpp:77] Creating layer pool5
I0407 10:53:35.529893 30989 net.cpp:100] Creating Layer pool5
I0407 10:53:35.529896 30989 net.cpp:434] pool5 <- conv5_3
I0407 10:53:35.529899 30989 net.cpp:408] pool5 -> pool5
I0407 10:53:35.529929 30989 net.cpp:150] Setting up pool5
I0407 10:53:35.529934 30989 net.cpp:157] Top shape: 32 128 4 16 (262144)
I0407 10:53:35.529937 30989 net.cpp:165] Memory required for data: 264241504
I0407 10:53:35.529938 30989 layer_factory.hpp:77] Creating layer fc6_conv
I0407 10:53:35.529947 30989 net.cpp:100] Creating Layer fc6_conv
I0407 10:53:35.529949 30989 net.cpp:434] fc6_conv <- pool5
I0407 10:53:35.529954 30989 net.cpp:408] fc6_conv -> fc6_conv
I0407 10:53:35.531718 30989 net.cpp:150] Setting up fc6_conv
I0407 10:53:35.531728 30989 net.cpp:157] Top shape: 32 256 4 16 (524288)
I0407 10:53:35.531730 30989 net.cpp:165] Memory required for data: 266338656
I0407 10:53:35.531734 30989 layer_factory.hpp:77] Creating layer relu6
I0407 10:53:35.531738 30989 net.cpp:100] Creating Layer relu6
I0407 10:53:35.531741 30989 net.cpp:434] relu6 <- fc6_conv
I0407 10:53:35.531745 30989 net.cpp:395] relu6 -> fc6_conv (in-place)
I0407 10:53:35.531750 30989 net.cpp:150] Setting up relu6
I0407 10:53:35.531754 30989 net.cpp:157] Top shape: 32 256 4 16 (524288)
I0407 10:53:35.531756 30989 net.cpp:165] Memory required for data: 268435808
I0407 10:53:35.531759 30989 layer_factory.hpp:77] Creating layer fc7_conv
I0407 10:53:35.531764 30989 net.cpp:100] Creating Layer fc7_conv
I0407 10:53:35.531767 30989 net.cpp:434] fc7_conv <- fc6_conv
I0407 10:53:35.531771 30989 net.cpp:408] fc7_conv -> fc7_conv
I0407 10:53:35.532176 30989 net.cpp:150] Setting up fc7_conv
I0407 10:53:35.532181 30989 net.cpp:157] Top shape: 32 256 4 16 (524288)
I0407 10:53:35.532183 30989 net.cpp:165] Memory required for data: 270532960
I0407 10:53:35.532187 30989 layer_factory.hpp:77] Creating layer relu7
I0407 10:53:35.532191 30989 net.cpp:100] Creating Layer relu7
I0407 10:53:35.532194 30989 net.cpp:434] relu7 <- fc7_conv
I0407 10:53:35.532197 30989 net.cpp:395] relu7 -> fc7_conv (in-place)
I0407 10:53:35.532202 30989 net.cpp:150] Setting up relu7
I0407 10:53:35.532207 30989 net.cpp:157] Top shape: 32 256 4 16 (524288)
I0407 10:53:35.532208 30989 net.cpp:165] Memory required for data: 272630112
I0407 10:53:35.532212 30989 layer_factory.hpp:77] Creating layer fc7_conv_relu7_0_split
I0407 10:53:35.532214 30989 net.cpp:100] Creating Layer fc7_conv_relu7_0_split
I0407 10:53:35.532217 30989 net.cpp:434] fc7_conv_relu7_0_split <- fc7_conv
I0407 10:53:35.532220 30989 net.cpp:408] fc7_conv_relu7_0_split -> fc7_conv_relu7_0_split_0
I0407 10:53:35.532223 30989 net.cpp:408] fc7_conv_relu7_0_split -> fc7_conv_relu7_0_split_1
I0407 10:53:35.532228 30989 net.cpp:408] fc7_conv_relu7_0_split -> fc7_conv_relu7_0_split_2
I0407 10:53:35.532269 30989 net.cpp:150] Setting up fc7_conv_relu7_0_split
I0407 10:53:35.532274 30989 net.cpp:157] Top shape: 32 256 4 16 (524288)
I0407 10:53:35.532279 30989 net.cpp:157] Top shape: 32 256 4 16 (524288)
I0407 10:53:35.532282 30989 net.cpp:157] Top shape: 32 256 4 16 (524288)
I0407 10:53:35.532284 30989 net.cpp:165] Memory required for data: 278921568
I0407 10:53:35.532286 30989 layer_factory.hpp:77] Creating layer conv6_1
I0407 10:53:35.532292 30989 net.cpp:100] Creating Layer conv6_1
I0407 10:53:35.532295 30989 net.cpp:434] conv6_1 <- fc7_conv_relu7_0_split_0
I0407 10:53:35.532300 30989 net.cpp:408] conv6_1 -> conv6_1
I0407 10:53:35.532546 30989 net.cpp:150] Setting up conv6_1
I0407 10:53:35.532553 30989 net.cpp:157] Top shape: 32 32 4 16 (65536)
I0407 10:53:35.532555 30989 net.cpp:165] Memory required for data: 279183712
I0407 10:53:35.532559 30989 layer_factory.hpp:77] Creating layer conv6_1_relu
I0407 10:53:35.532564 30989 net.cpp:100] Creating Layer conv6_1_relu
I0407 10:53:35.532567 30989 net.cpp:434] conv6_1_relu <- conv6_1
I0407 10:53:35.532570 30989 net.cpp:395] conv6_1_relu -> conv6_1 (in-place)
I0407 10:53:35.532574 30989 net.cpp:150] Setting up conv6_1_relu
I0407 10:53:35.532578 30989 net.cpp:157] Top shape: 32 32 4 16 (65536)
I0407 10:53:35.532580 30989 net.cpp:165] Memory required for data: 279445856
I0407 10:53:35.532582 30989 layer_factory.hpp:77] Creating layer conv6_2
I0407 10:53:35.532588 30989 net.cpp:100] Creating Layer conv6_2
I0407 10:53:35.532591 30989 net.cpp:434] conv6_2 <- conv6_1
I0407 10:53:35.532595 30989 net.cpp:408] conv6_2 -> conv6_2
I0407 10:53:35.532868 30989 net.cpp:150] Setting up conv6_2
I0407 10:53:35.532874 30989 net.cpp:157] Top shape: 32 64 2 8 (32768)
I0407 10:53:35.532876 30989 net.cpp:165] Memory required for data: 279576928
I0407 10:53:35.532883 30989 layer_factory.hpp:77] Creating layer conv6_2_relu
I0407 10:53:35.532887 30989 net.cpp:100] Creating Layer conv6_2_relu
I0407 10:53:35.532891 30989 net.cpp:434] conv6_2_relu <- conv6_2
I0407 10:53:35.532894 30989 net.cpp:395] conv6_2_relu -> conv6_2 (in-place)
I0407 10:53:35.532898 30989 net.cpp:150] Setting up conv6_2_relu
I0407 10:53:35.532902 30989 net.cpp:157] Top shape: 32 64 2 8 (32768)
I0407 10:53:35.532904 30989 net.cpp:165] Memory required for data: 279708000
I0407 10:53:35.532907 30989 layer_factory.hpp:77] Creating layer conv6_2_conv6_2_relu_0_split
I0407 10:53:35.532909 30989 net.cpp:100] Creating Layer conv6_2_conv6_2_relu_0_split
I0407 10:53:35.532912 30989 net.cpp:434] conv6_2_conv6_2_relu_0_split <- conv6_2
I0407 10:53:35.532915 30989 net.cpp:408] conv6_2_conv6_2_relu_0_split -> conv6_2_conv6_2_relu_0_split_0
I0407 10:53:35.532919 30989 net.cpp:408] conv6_2_conv6_2_relu_0_split -> conv6_2_conv6_2_relu_0_split_1
I0407 10:53:35.532924 30989 net.cpp:408] conv6_2_conv6_2_relu_0_split -> conv6_2_conv6_2_relu_0_split_2
I0407 10:53:35.532965 30989 net.cpp:150] Setting up conv6_2_conv6_2_relu_0_split
I0407 10:53:35.532969 30989 net.cpp:157] Top shape: 32 64 2 8 (32768)
I0407 10:53:35.532974 30989 net.cpp:157] Top shape: 32 64 2 8 (32768)
I0407 10:53:35.532975 30989 net.cpp:157] Top shape: 32 64 2 8 (32768)
I0407 10:53:35.532979 30989 net.cpp:165] Memory required for data: 280101216
I0407 10:53:35.532980 30989 layer_factory.hpp:77] Creating layer conv7_1
I0407 10:53:35.532985 30989 net.cpp:100] Creating Layer conv7_1
I0407 10:53:35.532989 30989 net.cpp:434] conv7_1 <- conv6_2_conv6_2_relu_0_split_0
I0407 10:53:35.532994 30989 net.cpp:408] conv7_1 -> conv7_1
I0407 10:53:35.533198 30989 net.cpp:150] Setting up conv7_1
I0407 10:53:35.533203 30989 net.cpp:157] Top shape: 32 16 2 8 (8192)
I0407 10:53:35.533206 30989 net.cpp:165] Memory required for data: 280133984
I0407 10:53:35.533210 30989 layer_factory.hpp:77] Creating layer conv7_1_relu
I0407 10:53:35.533213 30989 net.cpp:100] Creating Layer conv7_1_relu
I0407 10:53:35.533216 30989 net.cpp:434] conv7_1_relu <- conv7_1
I0407 10:53:35.533219 30989 net.cpp:395] conv7_1_relu -> conv7_1 (in-place)
I0407 10:53:35.533222 30989 net.cpp:150] Setting up conv7_1_relu
I0407 10:53:35.533226 30989 net.cpp:157] Top shape: 32 16 2 8 (8192)
I0407 10:53:35.533228 30989 net.cpp:165] Memory required for data: 280166752
I0407 10:53:35.533233 30989 layer_factory.hpp:77] Creating layer conv7_2
I0407 10:53:35.533238 30989 net.cpp:100] Creating Layer conv7_2
I0407 10:53:35.533241 30989 net.cpp:434] conv7_2 <- conv7_1
I0407 10:53:35.533246 30989 net.cpp:408] conv7_2 -> conv7_2
I0407 10:53:35.533468 30989 net.cpp:150] Setting up conv7_2
I0407 10:53:35.533473 30989 net.cpp:157] Top shape: 32 32 1 4 (4096)
I0407 10:53:35.533476 30989 net.cpp:165] Memory required for data: 280183136
I0407 10:53:35.533480 30989 layer_factory.hpp:77] Creating layer conv7_2_relu
I0407 10:53:35.533483 30989 net.cpp:100] Creating Layer conv7_2_relu
I0407 10:53:35.533486 30989 net.cpp:434] conv7_2_relu <- conv7_2
I0407 10:53:35.533489 30989 net.cpp:395] conv7_2_relu -> conv7_2 (in-place)
I0407 10:53:35.533493 30989 net.cpp:150] Setting up conv7_2_relu
I0407 10:53:35.533496 30989 net.cpp:157] Top shape: 32 32 1 4 (4096)
I0407 10:53:35.533499 30989 net.cpp:165] Memory required for data: 280199520
I0407 10:53:35.533501 30989 layer_factory.hpp:77] Creating layer conv7_2_conv7_2_relu_0_split
I0407 10:53:35.533505 30989 net.cpp:100] Creating Layer conv7_2_conv7_2_relu_0_split
I0407 10:53:35.533507 30989 net.cpp:434] conv7_2_conv7_2_relu_0_split <- conv7_2
I0407 10:53:35.533510 30989 net.cpp:408] conv7_2_conv7_2_relu_0_split -> conv7_2_conv7_2_relu_0_split_0
I0407 10:53:35.533514 30989 net.cpp:408] conv7_2_conv7_2_relu_0_split -> conv7_2_conv7_2_relu_0_split_1
I0407 10:53:35.533519 30989 net.cpp:408] conv7_2_conv7_2_relu_0_split -> conv7_2_conv7_2_relu_0_split_2
I0407 10:53:35.533560 30989 net.cpp:150] Setting up conv7_2_conv7_2_relu_0_split
I0407 10:53:35.533563 30989 net.cpp:157] Top shape: 32 32 1 4 (4096)
I0407 10:53:35.533566 30989 net.cpp:157] Top shape: 32 32 1 4 (4096)
I0407 10:53:35.533570 30989 net.cpp:157] Top shape: 32 32 1 4 (4096)
I0407 10:53:35.533571 30989 net.cpp:165] Memory required for data: 280248672
I0407 10:53:35.533574 30989 layer_factory.hpp:77] Creating layer pool6
I0407 10:53:35.533577 30989 net.cpp:100] Creating Layer pool6
I0407 10:53:35.533581 30989 net.cpp:434] pool6 <- conv7_2_conv7_2_relu_0_split_0
I0407 10:53:35.533584 30989 net.cpp:408] pool6 -> pool6
I0407 10:53:35.533602 30989 net.cpp:150] Setting up pool6
I0407 10:53:35.533607 30989 net.cpp:157] Top shape: 32 32 1 1 (1024)
I0407 10:53:35.533608 30989 net.cpp:165] Memory required for data: 280252768
I0407 10:53:35.533610 30989 layer_factory.hpp:77] Creating layer pool6_pool6_0_split
I0407 10:53:35.533614 30989 net.cpp:100] Creating Layer pool6_pool6_0_split
I0407 10:53:35.533617 30989 net.cpp:434] pool6_pool6_0_split <- pool6
I0407 10:53:35.533620 30989 net.cpp:408] pool6_pool6_0_split -> pool6_pool6_0_split_0
I0407 10:53:35.533624 30989 net.cpp:408] pool6_pool6_0_split -> pool6_pool6_0_split_1
I0407 10:53:35.533653 30989 net.cpp:150] Setting up pool6_pool6_0_split
I0407 10:53:35.533656 30989 net.cpp:157] Top shape: 32 32 1 1 (1024)
I0407 10:53:35.533659 30989 net.cpp:157] Top shape: 32 32 1 1 (1024)
I0407 10:53:35.533661 30989 net.cpp:165] Memory required for data: 280260960
I0407 10:53:35.533663 30989 layer_factory.hpp:77] Creating layer conv4_3_norm
I0407 10:53:35.533668 30989 net.cpp:100] Creating Layer conv4_3_norm
I0407 10:53:35.533671 30989 net.cpp:434] conv4_3_norm <- conv4_3_relu4_3_0_split_1
I0407 10:53:35.533675 30989 net.cpp:408] conv4_3_norm -> conv4_3_norm
I0407 10:53:35.533784 30989 net.cpp:150] Setting up conv4_3_norm
I0407 10:53:35.533788 30989 net.cpp:157] Top shape: 32 128 8 32 (1048576)
I0407 10:53:35.533792 30989 net.cpp:165] Memory required for data: 284455264
I0407 10:53:35.533794 30989 layer_factory.hpp:77] Creating layer conv4_3_norm_conv4_3_norm_0_split
I0407 10:53:35.533798 30989 net.cpp:100] Creating Layer conv4_3_norm_conv4_3_norm_0_split
I0407 10:53:35.533802 30989 net.cpp:434] conv4_3_norm_conv4_3_norm_0_split <- conv4_3_norm
I0407 10:53:35.533804 30989 net.cpp:408] conv4_3_norm_conv4_3_norm_0_split -> conv4_3_norm_conv4_3_norm_0_split_0
I0407 10:53:35.533808 30989 net.cpp:408] conv4_3_norm_conv4_3_norm_0_split -> conv4_3_norm_conv4_3_norm_0_split_1
I0407 10:53:35.533840 30989 net.cpp:150] Setting up conv4_3_norm_conv4_3_norm_0_split
I0407 10:53:35.533845 30989 net.cpp:157] Top shape: 32 128 8 32 (1048576)
I0407 10:53:35.533849 30989 net.cpp:157] Top shape: 32 128 8 32 (1048576)
I0407 10:53:35.533850 30989 net.cpp:165] Memory required for data: 292843872
I0407 10:53:35.533852 30989 layer_factory.hpp:77] Creating layer conv4_3_norm_mbox_loc_conf
I0407 10:53:35.533859 30989 net.cpp:100] Creating Layer conv4_3_norm_mbox_loc_conf
I0407 10:53:35.533861 30989 net.cpp:434] conv4_3_norm_mbox_loc_conf <- conv4_3_norm_conv4_3_norm_0_split_0
I0407 10:53:35.533866 30989 net.cpp:408] conv4_3_norm_mbox_loc_conf -> conv4_3_norm_mbox_loc_conf
I0407 10:53:35.534250 30989 net.cpp:150] Setting up conv4_3_norm_mbox_loc_conf
I0407 10:53:35.534255 30989 net.cpp:157] Top shape: 32 48 8 32 (393216)
I0407 10:53:35.534257 30989 net.cpp:165] Memory required for data: 294416736
I0407 10:53:35.534261 30989 layer_factory.hpp:77] Creating layer conv4_3_norm_mbox_loc_conf_perm
I0407 10:53:35.534265 30989 net.cpp:100] Creating Layer conv4_3_norm_mbox_loc_conf_perm
I0407 10:53:35.534268 30989 net.cpp:434] conv4_3_norm_mbox_loc_conf_perm <- conv4_3_norm_mbox_loc_conf
I0407 10:53:35.534273 30989 net.cpp:408] conv4_3_norm_mbox_loc_conf_perm -> conv4_3_norm_mbox_loc_conf_perm
I0407 10:53:35.534353 30989 net.cpp:150] Setting up conv4_3_norm_mbox_loc_conf_perm
I0407 10:53:35.534358 30989 net.cpp:157] Top shape: 32 8 32 48 (393216)
I0407 10:53:35.534360 30989 net.cpp:165] Memory required for data: 295989600
I0407 10:53:35.534363 30989 layer_factory.hpp:77] Creating layer conv4_3_norm_mbox_loc_perm
I0407 10:53:35.534368 30989 net.cpp:100] Creating Layer conv4_3_norm_mbox_loc_perm
I0407 10:53:35.534371 30989 net.cpp:434] conv4_3_norm_mbox_loc_perm <- conv4_3_norm_mbox_loc_conf_perm
I0407 10:53:35.534374 30989 net.cpp:408] conv4_3_norm_mbox_loc_perm -> conv4_3_norm_mbox_loc_perm
I0407 10:53:35.534379 30989 net.cpp:408] conv4_3_norm_mbox_loc_perm -> conv4_3_norm_mbox_conf_perm
I0407 10:53:35.534407 30989 net.cpp:150] Setting up conv4_3_norm_mbox_loc_perm
I0407 10:53:35.534411 30989 net.cpp:157] Top shape: 32 8 32 24 (196608)
I0407 10:53:35.534415 30989 net.cpp:157] Top shape: 32 8 32 24 (196608)
I0407 10:53:35.534417 30989 net.cpp:165] Memory required for data: 297562464
I0407 10:53:35.534420 30989 layer_factory.hpp:77] Creating layer conv4_3_norm_mbox_loc_flat
I0407 10:53:35.534425 30989 net.cpp:100] Creating Layer conv4_3_norm_mbox_loc_flat
I0407 10:53:35.534427 30989 net.cpp:434] conv4_3_norm_mbox_loc_flat <- conv4_3_norm_mbox_loc_perm
I0407 10:53:35.534430 30989 net.cpp:408] conv4_3_norm_mbox_loc_flat -> conv4_3_norm_mbox_loc_flat
I0407 10:53:35.534447 30989 net.cpp:150] Setting up conv4_3_norm_mbox_loc_flat
I0407 10:53:35.534451 30989 net.cpp:157] Top shape: 32 6144 (196608)
I0407 10:53:35.534453 30989 net.cpp:165] Memory required for data: 298348896
I0407 10:53:35.534456 30989 layer_factory.hpp:77] Creating layer conv4_3_norm_mbox_conf_flat
I0407 10:53:35.534461 30989 net.cpp:100] Creating Layer conv4_3_norm_mbox_conf_flat
I0407 10:53:35.534463 30989 net.cpp:434] conv4_3_norm_mbox_conf_flat <- conv4_3_norm_mbox_conf_perm
I0407 10:53:35.534467 30989 net.cpp:408] conv4_3_norm_mbox_conf_flat -> conv4_3_norm_mbox_conf_flat
I0407 10:53:35.534485 30989 net.cpp:150] Setting up conv4_3_norm_mbox_conf_flat
I0407 10:53:35.534489 30989 net.cpp:157] Top shape: 32 6144 (196608)
I0407 10:53:35.534492 30989 net.cpp:165] Memory required for data: 299135328
I0407 10:53:35.534494 30989 layer_factory.hpp:77] Creating layer conv4_3_norm_mbox_priorbox
I0407 10:53:35.534499 30989 net.cpp:100] Creating Layer conv4_3_norm_mbox_priorbox
I0407 10:53:35.534502 30989 net.cpp:434] conv4_3_norm_mbox_priorbox <- conv4_3_norm_conv4_3_norm_0_split_1
I0407 10:53:35.534505 30989 net.cpp:434] conv4_3_norm_mbox_priorbox <- data_data_0_split_1
I0407 10:53:35.534508 30989 net.cpp:408] conv4_3_norm_mbox_priorbox -> conv4_3_norm_mbox_priorbox
I0407 10:53:35.534528 30989 net.cpp:150] Setting up conv4_3_norm_mbox_priorbox
I0407 10:53:35.534535 30989 net.cpp:157] Top shape: 1 2 6144 (12288)
I0407 10:53:35.534538 30989 net.cpp:165] Memory required for data: 299184480
I0407 10:53:35.534540 30989 layer_factory.hpp:77] Creating layer fc7_conv_mbox_loc_conf
I0407 10:53:35.534545 30989 net.cpp:100] Creating Layer fc7_conv_mbox_loc_conf
I0407 10:53:35.534548 30989 net.cpp:434] fc7_conv_mbox_loc_conf <- fc7_conv_relu7_0_split_1
I0407 10:53:35.534553 30989 net.cpp:408] fc7_conv_mbox_loc_conf -> fc7_conv_mbox_loc_conf
I0407 10:53:35.535089 30989 net.cpp:150] Setting up fc7_conv_mbox_loc_conf
I0407 10:53:35.535094 30989 net.cpp:157] Top shape: 32 48 4 16 (98304)
I0407 10:53:35.535095 30989 net.cpp:165] Memory required for data: 299577696
I0407 10:53:35.535099 30989 layer_factory.hpp:77] Creating layer fc7_conv_mbox_loc_conf_perm
I0407 10:53:35.535104 30989 net.cpp:100] Creating Layer fc7_conv_mbox_loc_conf_perm
I0407 10:53:35.535107 30989 net.cpp:434] fc7_conv_mbox_loc_conf_perm <- fc7_conv_mbox_loc_conf
I0407 10:53:35.535110 30989 net.cpp:408] fc7_conv_mbox_loc_conf_perm -> fc7_conv_mbox_loc_conf_perm
I0407 10:53:35.535195 30989 net.cpp:150] Setting up fc7_conv_mbox_loc_conf_perm
I0407 10:53:35.535199 30989 net.cpp:157] Top shape: 32 4 16 48 (98304)
I0407 10:53:35.535202 30989 net.cpp:165] Memory required for data: 299970912
I0407 10:53:35.535204 30989 layer_factory.hpp:77] Creating layer fc7_conv_mbox_loc_perm
I0407 10:53:35.535207 30989 net.cpp:100] Creating Layer fc7_conv_mbox_loc_perm
I0407 10:53:35.535210 30989 net.cpp:434] fc7_conv_mbox_loc_perm <- fc7_conv_mbox_loc_conf_perm
I0407 10:53:35.535214 30989 net.cpp:408] fc7_conv_mbox_loc_perm -> fc7_conv_mbox_loc_perm
I0407 10:53:35.535218 30989 net.cpp:408] fc7_conv_mbox_loc_perm -> fc7_conv_mbox_conf_perm
I0407 10:53:35.535246 30989 net.cpp:150] Setting up fc7_conv_mbox_loc_perm
I0407 10:53:35.535250 30989 net.cpp:157] Top shape: 32 4 16 24 (49152)
I0407 10:53:35.535254 30989 net.cpp:157] Top shape: 32 4 16 24 (49152)
I0407 10:53:35.535256 30989 net.cpp:165] Memory required for data: 300364128
I0407 10:53:35.535259 30989 layer_factory.hpp:77] Creating layer fc7_conv_mbox_loc_flat
I0407 10:53:35.535261 30989 net.cpp:100] Creating Layer fc7_conv_mbox_loc_flat
I0407 10:53:35.535264 30989 net.cpp:434] fc7_conv_mbox_loc_flat <- fc7_conv_mbox_loc_perm
I0407 10:53:35.535269 30989 net.cpp:408] fc7_conv_mbox_loc_flat -> fc7_conv_mbox_loc_flat
I0407 10:53:35.535287 30989 net.cpp:150] Setting up fc7_conv_mbox_loc_flat
I0407 10:53:35.535292 30989 net.cpp:157] Top shape: 32 1536 (49152)
I0407 10:53:35.535295 30989 net.cpp:165] Memory required for data: 300560736
I0407 10:53:35.535296 30989 layer_factory.hpp:77] Creating layer fc7_conv_mbox_conf_flat
I0407 10:53:35.535300 30989 net.cpp:100] Creating Layer fc7_conv_mbox_conf_flat
I0407 10:53:35.535303 30989 net.cpp:434] fc7_conv_mbox_conf_flat <- fc7_conv_mbox_conf_perm
I0407 10:53:35.535306 30989 net.cpp:408] fc7_conv_mbox_conf_flat -> fc7_conv_mbox_conf_flat
I0407 10:53:35.535325 30989 net.cpp:150] Setting up fc7_conv_mbox_conf_flat
I0407 10:53:35.535328 30989 net.cpp:157] Top shape: 32 1536 (49152)
I0407 10:53:35.535331 30989 net.cpp:165] Memory required for data: 300757344
I0407 10:53:35.535332 30989 layer_factory.hpp:77] Creating layer fc7_conv_mbox_priorbox
I0407 10:53:35.535336 30989 net.cpp:100] Creating Layer fc7_conv_mbox_priorbox
I0407 10:53:35.535339 30989 net.cpp:434] fc7_conv_mbox_priorbox <- fc7_conv_relu7_0_split_2
I0407 10:53:35.535342 30989 net.cpp:434] fc7_conv_mbox_priorbox <- data_data_0_split_2
I0407 10:53:35.535347 30989 net.cpp:408] fc7_conv_mbox_priorbox -> fc7_conv_mbox_priorbox
I0407 10:53:35.535365 30989 net.cpp:150] Setting up fc7_conv_mbox_priorbox
I0407 10:53:35.535369 30989 net.cpp:157] Top shape: 1 2 1536 (3072)
I0407 10:53:35.535372 30989 net.cpp:165] Memory required for data: 300769632
I0407 10:53:35.535374 30989 layer_factory.hpp:77] Creating layer conv6_2_mbox_loc_conf
I0407 10:53:35.535379 30989 net.cpp:100] Creating Layer conv6_2_mbox_loc_conf
I0407 10:53:35.535382 30989 net.cpp:434] conv6_2_mbox_loc_conf <- conv6_2_conv6_2_relu_0_split_1
I0407 10:53:35.535390 30989 net.cpp:408] conv6_2_mbox_loc_conf -> conv6_2_mbox_loc_conf
I0407 10:53:35.535681 30989 net.cpp:150] Setting up conv6_2_mbox_loc_conf
I0407 10:53:35.535686 30989 net.cpp:157] Top shape: 32 48 2 8 (24576)
I0407 10:53:35.535689 30989 net.cpp:165] Memory required for data: 300867936
I0407 10:53:35.535692 30989 layer_factory.hpp:77] Creating layer conv6_2_mbox_loc_conf_perm
I0407 10:53:35.535699 30989 net.cpp:100] Creating Layer conv6_2_mbox_loc_conf_perm
I0407 10:53:35.535703 30989 net.cpp:434] conv6_2_mbox_loc_conf_perm <- conv6_2_mbox_loc_conf
I0407 10:53:35.535707 30989 net.cpp:408] conv6_2_mbox_loc_conf_perm -> conv6_2_mbox_loc_conf_perm
I0407 10:53:35.535792 30989 net.cpp:150] Setting up conv6_2_mbox_loc_conf_perm
I0407 10:53:35.535797 30989 net.cpp:157] Top shape: 32 2 8 48 (24576)
I0407 10:53:35.535799 30989 net.cpp:165] Memory required for data: 300966240
I0407 10:53:35.535802 30989 layer_factory.hpp:77] Creating layer conv6_2_mbox_loc_perm
I0407 10:53:35.535806 30989 net.cpp:100] Creating Layer conv6_2_mbox_loc_perm
I0407 10:53:35.535809 30989 net.cpp:434] conv6_2_mbox_loc_perm <- conv6_2_mbox_loc_conf_perm
I0407 10:53:35.535812 30989 net.cpp:408] conv6_2_mbox_loc_perm -> conv6_2_mbox_loc_perm
I0407 10:53:35.535817 30989 net.cpp:408] conv6_2_mbox_loc_perm -> conv6_2_mbox_conf_perm
I0407 10:53:35.535848 30989 net.cpp:150] Setting up conv6_2_mbox_loc_perm
I0407 10:53:35.535852 30989 net.cpp:157] Top shape: 32 2 8 24 (12288)
I0407 10:53:35.535856 30989 net.cpp:157] Top shape: 32 2 8 24 (12288)
I0407 10:53:35.535858 30989 net.cpp:165] Memory required for data: 301064544
I0407 10:53:35.535861 30989 layer_factory.hpp:77] Creating layer conv6_2_mbox_loc_flat
I0407 10:53:35.535864 30989 net.cpp:100] Creating Layer conv6_2_mbox_loc_flat
I0407 10:53:35.535867 30989 net.cpp:434] conv6_2_mbox_loc_flat <- conv6_2_mbox_loc_perm
I0407 10:53:35.535871 30989 net.cpp:408] conv6_2_mbox_loc_flat -> conv6_2_mbox_loc_flat
I0407 10:53:35.535889 30989 net.cpp:150] Setting up conv6_2_mbox_loc_flat
I0407 10:53:35.535893 30989 net.cpp:157] Top shape: 32 384 (12288)
I0407 10:53:35.535895 30989 net.cpp:165] Memory required for data: 301113696
I0407 10:53:35.535898 30989 layer_factory.hpp:77] Creating layer conv6_2_mbox_conf_flat
I0407 10:53:35.535902 30989 net.cpp:100] Creating Layer conv6_2_mbox_conf_flat
I0407 10:53:35.535904 30989 net.cpp:434] conv6_2_mbox_conf_flat <- conv6_2_mbox_conf_perm
I0407 10:53:35.535908 30989 net.cpp:408] conv6_2_mbox_conf_flat -> conv6_2_mbox_conf_flat
I0407 10:53:35.535926 30989 net.cpp:150] Setting up conv6_2_mbox_conf_flat
I0407 10:53:35.535930 30989 net.cpp:157] Top shape: 32 384 (12288)
I0407 10:53:35.535933 30989 net.cpp:165] Memory required for data: 301162848
I0407 10:53:35.535934 30989 layer_factory.hpp:77] Creating layer conv6_2_mbox_priorbox
I0407 10:53:35.535938 30989 net.cpp:100] Creating Layer conv6_2_mbox_priorbox
I0407 10:53:35.535940 30989 net.cpp:434] conv6_2_mbox_priorbox <- conv6_2_conv6_2_relu_0_split_2
I0407 10:53:35.535944 30989 net.cpp:434] conv6_2_mbox_priorbox <- data_data_0_split_3
I0407 10:53:35.535948 30989 net.cpp:408] conv6_2_mbox_priorbox -> conv6_2_mbox_priorbox
I0407 10:53:35.535967 30989 net.cpp:150] Setting up conv6_2_mbox_priorbox
I0407 10:53:35.535971 30989 net.cpp:157] Top shape: 1 2 384 (768)
I0407 10:53:35.535974 30989 net.cpp:165] Memory required for data: 301165920
I0407 10:53:35.535975 30989 layer_factory.hpp:77] Creating layer conv7_2_mbox_loc_conf
I0407 10:53:35.535981 30989 net.cpp:100] Creating Layer conv7_2_mbox_loc_conf
I0407 10:53:35.535984 30989 net.cpp:434] conv7_2_mbox_loc_conf <- conv7_2_conv7_2_relu_0_split_1
I0407 10:53:35.535989 30989 net.cpp:408] conv7_2_mbox_loc_conf -> conv7_2_mbox_loc_conf
I0407 10:53:35.536237 30989 net.cpp:150] Setting up conv7_2_mbox_loc_conf
I0407 10:53:35.536242 30989 net.cpp:157] Top shape: 32 48 1 4 (6144)
I0407 10:53:35.536244 30989 net.cpp:165] Memory required for data: 301190496
I0407 10:53:35.536248 30989 layer_factory.hpp:77] Creating layer conv7_2_mbox_loc_conf_perm
I0407 10:53:35.536252 30989 net.cpp:100] Creating Layer conv7_2_mbox_loc_conf_perm
I0407 10:53:35.536257 30989 net.cpp:434] conv7_2_mbox_loc_conf_perm <- conv7_2_mbox_loc_conf
I0407 10:53:35.536262 30989 net.cpp:408] conv7_2_mbox_loc_conf_perm -> conv7_2_mbox_loc_conf_perm
I0407 10:53:35.536351 30989 net.cpp:150] Setting up conv7_2_mbox_loc_conf_perm
I0407 10:53:35.536357 30989 net.cpp:157] Top shape: 32 1 4 48 (6144)
I0407 10:53:35.536360 30989 net.cpp:165] Memory required for data: 301215072
I0407 10:53:35.536362 30989 layer_factory.hpp:77] Creating layer conv7_2_mbox_loc_perm
I0407 10:53:35.536366 30989 net.cpp:100] Creating Layer conv7_2_mbox_loc_perm
I0407 10:53:35.536370 30989 net.cpp:434] conv7_2_mbox_loc_perm <- conv7_2_mbox_loc_conf_perm
I0407 10:53:35.536373 30989 net.cpp:408] conv7_2_mbox_loc_perm -> conv7_2_mbox_loc_perm
I0407 10:53:35.536377 30989 net.cpp:408] conv7_2_mbox_loc_perm -> conv7_2_mbox_conf_perm
I0407 10:53:35.536406 30989 net.cpp:150] Setting up conv7_2_mbox_loc_perm
I0407 10:53:35.536411 30989 net.cpp:157] Top shape: 32 1 4 24 (3072)
I0407 10:53:35.536413 30989 net.cpp:157] Top shape: 32 1 4 24 (3072)
I0407 10:53:35.536415 30989 net.cpp:165] Memory required for data: 301239648
I0407 10:53:35.536417 30989 layer_factory.hpp:77] Creating layer conv7_2_mbox_loc_flat
I0407 10:53:35.536420 30989 net.cpp:100] Creating Layer conv7_2_mbox_loc_flat
I0407 10:53:35.536423 30989 net.cpp:434] conv7_2_mbox_loc_flat <- conv7_2_mbox_loc_perm
I0407 10:53:35.536427 30989 net.cpp:408] conv7_2_mbox_loc_flat -> conv7_2_mbox_loc_flat
I0407 10:53:35.536444 30989 net.cpp:150] Setting up conv7_2_mbox_loc_flat
I0407 10:53:35.536449 30989 net.cpp:157] Top shape: 32 96 (3072)
I0407 10:53:35.536451 30989 net.cpp:165] Memory required for data: 301251936
I0407 10:53:35.536453 30989 layer_factory.hpp:77] Creating layer conv7_2_mbox_conf_flat
I0407 10:53:35.536456 30989 net.cpp:100] Creating Layer conv7_2_mbox_conf_flat
I0407 10:53:35.536459 30989 net.cpp:434] conv7_2_mbox_conf_flat <- conv7_2_mbox_conf_perm
I0407 10:53:35.536463 30989 net.cpp:408] conv7_2_mbox_conf_flat -> conv7_2_mbox_conf_flat
I0407 10:53:35.536481 30989 net.cpp:150] Setting up conv7_2_mbox_conf_flat
I0407 10:53:35.536485 30989 net.cpp:157] Top shape: 32 96 (3072)
I0407 10:53:35.536487 30989 net.cpp:165] Memory required for data: 301264224
I0407 10:53:35.536490 30989 layer_factory.hpp:77] Creating layer conv7_2_mbox_priorbox
I0407 10:53:35.536494 30989 net.cpp:100] Creating Layer conv7_2_mbox_priorbox
I0407 10:53:35.536496 30989 net.cpp:434] conv7_2_mbox_priorbox <- conv7_2_conv7_2_relu_0_split_2
I0407 10:53:35.536499 30989 net.cpp:434] conv7_2_mbox_priorbox <- data_data_0_split_4
I0407 10:53:35.536504 30989 net.cpp:408] conv7_2_mbox_priorbox -> conv7_2_mbox_priorbox
I0407 10:53:35.536523 30989 net.cpp:150] Setting up conv7_2_mbox_priorbox
I0407 10:53:35.536527 30989 net.cpp:157] Top shape: 1 2 96 (192)
I0407 10:53:35.536530 30989 net.cpp:165] Memory required for data: 301264992
I0407 10:53:35.536531 30989 layer_factory.hpp:77] Creating layer pool6_mbox_loc_conf
I0407 10:53:35.536537 30989 net.cpp:100] Creating Layer pool6_mbox_loc_conf
I0407 10:53:35.536540 30989 net.cpp:434] pool6_mbox_loc_conf <- pool6_pool6_0_split_0
I0407 10:53:35.536545 30989 net.cpp:408] pool6_mbox_loc_conf -> pool6_mbox_loc_conf
I0407 10:53:35.536799 30989 net.cpp:150] Setting up pool6_mbox_loc_conf
I0407 10:53:35.536805 30989 net.cpp:157] Top shape: 32 48 1 1 (1536)
I0407 10:53:35.536808 30989 net.cpp:165] Memory required for data: 301271136
I0407 10:53:35.536813 30989 layer_factory.hpp:77] Creating layer pool6_mbox_loc_conf_perm
I0407 10:53:35.536816 30989 net.cpp:100] Creating Layer pool6_mbox_loc_conf_perm
I0407 10:53:35.536818 30989 net.cpp:434] pool6_mbox_loc_conf_perm <- pool6_mbox_loc_conf
I0407 10:53:35.536823 30989 net.cpp:408] pool6_mbox_loc_conf_perm -> pool6_mbox_loc_conf_perm
I0407 10:53:35.536906 30989 net.cpp:150] Setting up pool6_mbox_loc_conf_perm
I0407 10:53:35.536911 30989 net.cpp:157] Top shape: 32 1 1 48 (1536)
I0407 10:53:35.536912 30989 net.cpp:165] Memory required for data: 301277280
I0407 10:53:35.536917 30989 layer_factory.hpp:77] Creating layer pool6_mbox_loc_perm
I0407 10:53:35.536921 30989 net.cpp:100] Creating Layer pool6_mbox_loc_perm
I0407 10:53:35.536923 30989 net.cpp:434] pool6_mbox_loc_perm <- pool6_mbox_loc_conf_perm
I0407 10:53:35.536927 30989 net.cpp:408] pool6_mbox_loc_perm -> pool6_mbox_loc_perm
I0407 10:53:35.536932 30989 net.cpp:408] pool6_mbox_loc_perm -> pool6_mbox_conf_perm
I0407 10:53:35.536960 30989 net.cpp:150] Setting up pool6_mbox_loc_perm
I0407 10:53:35.536964 30989 net.cpp:157] Top shape: 32 1 1 24 (768)
I0407 10:53:35.536967 30989 net.cpp:157] Top shape: 32 1 1 24 (768)
I0407 10:53:35.536969 30989 net.cpp:165] Memory required for data: 301283424
I0407 10:53:35.536972 30989 layer_factory.hpp:77] Creating layer pool6_mbox_loc_flat
I0407 10:53:35.536975 30989 net.cpp:100] Creating Layer pool6_mbox_loc_flat
I0407 10:53:35.536978 30989 net.cpp:434] pool6_mbox_loc_flat <- pool6_mbox_loc_perm
I0407 10:53:35.536981 30989 net.cpp:408] pool6_mbox_loc_flat -> pool6_mbox_loc_flat
I0407 10:53:35.536999 30989 net.cpp:150] Setting up pool6_mbox_loc_flat
I0407 10:53:35.537003 30989 net.cpp:157] Top shape: 32 24 (768)
I0407 10:53:35.537006 30989 net.cpp:165] Memory required for data: 301286496
I0407 10:53:35.537009 30989 layer_factory.hpp:77] Creating layer pool6_mbox_conf_flat
I0407 10:53:35.537012 30989 net.cpp:100] Creating Layer pool6_mbox_conf_flat
I0407 10:53:35.537014 30989 net.cpp:434] pool6_mbox_conf_flat <- pool6_mbox_conf_perm
I0407 10:53:35.537019 30989 net.cpp:408] pool6_mbox_conf_flat -> pool6_mbox_conf_flat
I0407 10:53:35.537036 30989 net.cpp:150] Setting up pool6_mbox_conf_flat
I0407 10:53:35.537040 30989 net.cpp:157] Top shape: 32 24 (768)
I0407 10:53:35.537044 30989 net.cpp:165] Memory required for data: 301289568
I0407 10:53:35.537045 30989 layer_factory.hpp:77] Creating layer pool6_mbox_priorbox
I0407 10:53:35.537050 30989 net.cpp:100] Creating Layer pool6_mbox_priorbox
I0407 10:53:35.537051 30989 net.cpp:434] pool6_mbox_priorbox <- pool6_pool6_0_split_1
I0407 10:53:35.537055 30989 net.cpp:434] pool6_mbox_priorbox <- data_data_0_split_5
I0407 10:53:35.537060 30989 net.cpp:408] pool6_mbox_priorbox -> pool6_mbox_priorbox
I0407 10:53:35.537078 30989 net.cpp:150] Setting up pool6_mbox_priorbox
I0407 10:53:35.537082 30989 net.cpp:157] Top shape: 1 2 24 (48)
I0407 10:53:35.537086 30989 net.cpp:165] Memory required for data: 301289760
I0407 10:53:35.537087 30989 layer_factory.hpp:77] Creating layer mbox_loc
I0407 10:53:35.537091 30989 net.cpp:100] Creating Layer mbox_loc
I0407 10:53:35.537094 30989 net.cpp:434] mbox_loc <- conv4_3_norm_mbox_loc_flat
I0407 10:53:35.537097 30989 net.cpp:434] mbox_loc <- fc7_conv_mbox_loc_flat
I0407 10:53:35.537101 30989 net.cpp:434] mbox_loc <- conv6_2_mbox_loc_flat
I0407 10:53:35.537103 30989 net.cpp:434] mbox_loc <- conv7_2_mbox_loc_flat
I0407 10:53:35.537106 30989 net.cpp:434] mbox_loc <- pool6_mbox_loc_flat
I0407 10:53:35.537111 30989 net.cpp:408] mbox_loc -> mbox_loc
I0407 10:53:35.537130 30989 net.cpp:150] Setting up mbox_loc
I0407 10:53:35.537134 30989 net.cpp:157] Top shape: 32 8184 (261888)
I0407 10:53:35.537137 30989 net.cpp:165] Memory required for data: 302337312
I0407 10:53:35.537139 30989 layer_factory.hpp:77] Creating layer mbox_conf
I0407 10:53:35.537143 30989 net.cpp:100] Creating Layer mbox_conf
I0407 10:53:35.537145 30989 net.cpp:434] mbox_conf <- conv4_3_norm_mbox_conf_flat
I0407 10:53:35.537149 30989 net.cpp:434] mbox_conf <- fc7_conv_mbox_conf_flat
I0407 10:53:35.537153 30989 net.cpp:434] mbox_conf <- conv6_2_mbox_conf_flat
I0407 10:53:35.537155 30989 net.cpp:434] mbox_conf <- conv7_2_mbox_conf_flat
I0407 10:53:35.537158 30989 net.cpp:434] mbox_conf <- pool6_mbox_conf_flat
I0407 10:53:35.537161 30989 net.cpp:408] mbox_conf -> mbox_conf
I0407 10:53:35.537178 30989 net.cpp:150] Setting up mbox_conf
I0407 10:53:35.537183 30989 net.cpp:157] Top shape: 32 8184 (261888)
I0407 10:53:35.537184 30989 net.cpp:165] Memory required for data: 303384864
I0407 10:53:35.537187 30989 layer_factory.hpp:77] Creating layer mbox_priorbox
I0407 10:53:35.537194 30989 net.cpp:100] Creating Layer mbox_priorbox
I0407 10:53:35.537196 30989 net.cpp:434] mbox_priorbox <- conv4_3_norm_mbox_priorbox
I0407 10:53:35.537200 30989 net.cpp:434] mbox_priorbox <- fc7_conv_mbox_priorbox
I0407 10:53:35.537204 30989 net.cpp:434] mbox_priorbox <- conv6_2_mbox_priorbox
I0407 10:53:35.537205 30989 net.cpp:434] mbox_priorbox <- conv7_2_mbox_priorbox
I0407 10:53:35.537209 30989 net.cpp:434] mbox_priorbox <- pool6_mbox_priorbox
I0407 10:53:35.537212 30989 net.cpp:408] mbox_priorbox -> mbox_priorbox
I0407 10:53:35.537231 30989 net.cpp:150] Setting up mbox_priorbox
I0407 10:53:35.537235 30989 net.cpp:157] Top shape: 1 2 8184 (16368)
I0407 10:53:35.537237 30989 net.cpp:165] Memory required for data: 303450336
I0407 10:53:35.537240 30989 layer_factory.hpp:77] Creating layer mbox_loss
I0407 10:53:35.537245 30989 net.cpp:100] Creating Layer mbox_loss
I0407 10:53:35.537246 30989 net.cpp:434] mbox_loss <- mbox_loc
I0407 10:53:35.537250 30989 net.cpp:434] mbox_loss <- mbox_conf
I0407 10:53:35.537252 30989 net.cpp:434] mbox_loss <- mbox_priorbox
…
  name: "data"
  type: "AnnotatedData"
  top: "data"
  top: "label"
  include {
    phase: TEST
  }
  transform_param {
    mean_value: 114
    mean_value: 115
    mean_value: 108
    resize_param {
      prob: 1
      resize_mode: WARP
      height: 64
      width: 256
      interp_mode: LINEAR
    }
  }
  data_param {
    source: "/home/work/wwl/data/kitti/data_object_image_2/training/test_lmdb"
    batch_size: 32
    backend: LMDB
  }
  annotated_data_param {
    batch_sampler {
    }
    label_map_file: "/tmp/toqinhuan/labelmap.prototxt"
  }
}
layer {
  name: "conv1_1"
  type: "Convolution"
  bottom: "data"
  top: "conv1_1"
  param {
    lr_mult: 1
    decay_mult: 1
  }
  param {
    lr_mult: 2
    decay_mult: 0
  }
  convolution_param {
    num_output: 16
    pad: 1
    kernel_size: 3
    weight_filler {
      type: "xavier"
    }
    bias_filler {
      type: "constant"
      value: 0
    }
  }
}
layer {
  name: "relu1_1"
  type: "ReLU"
  bottom: "conv1_1"
  top: "conv1_1"
}
layer {
  name: "conv1_2"
  type: "Convolution"
  bottom: "conv1_1"
  top: "conv1_2"
  param {
    lr_mult: 1
    decay_mult: 1
  }
  param {
    lr_mult: 2
    decay_mult: 0
  }
  convolution_param {
    num_output: 16
    pad: 1
    kernel_size: 3
    stride: 2
    weight_filler {
      type: "xavier"
    }
    bias_filler {
      type: "constant"
      value: 0
    }
  }
}
layer {
  name: "relu1_2"
  type: "ReLU"
  bottom: "conv1_2"
  top: "conv1_2"
}
layer {
  name: "conv2_1"
  type: "Convolution"
  bottom: "conv1_2"
  top: "conv2_1"
  param {
    lr_mult: 1
    decay_mult: 1
  }
  param {
    lr_mult: 2
    decay_mult: 0
  }
  convolution_param {
    num_output: 32
    pad: 1
    kernel_size: 3
    weight_filler {
      type: "xavier"
    }
    bias_filler {
      type: "constant"
      value: 0
    }
  }
}
layer {
  name: "relu2_1"
  type: "ReLU"
  bottom: "conv2_1"
  top: "conv2_1"
}
layer {
  name: "conv2_2"
  type: "Convolution"
  bottom: "conv2_1"
  top: "conv2_2"
  param {
    lr_mult: 1
    decay_mult: 1
  }
  param {
    lr_mult: 2
    decay_mult: 0
  }
  convolution_param {
    num_output: 32
    pad: 1
    kernel_size: 3
    stride: 2
    weight_filler {
      type: "xavier"
    }
    bias_filler {
      type: "constant"
      value: 0
    }
  }
}
layer {
  name: "relu2_2"
  type: "ReLU"
  bottom: "conv2_2"
  top: "conv2_2"
}
layer {
  name: "conv3_1"
  type: "Convolution"
  bottom: "conv2_2"
  top: "conv3_1"
  param {
    lr_mult: 1
    decay_mult: 1
  }
  param {
    lr_mult: 2
    decay_mult: 0
  }
  convolution_param {
    num_output: 64
    pad: 1
    kernel_size: 3
    weight_filler {
      type: "xavier"
    }
    bias_filler {
      type: "constant"
      value: 0
    }
  }
}
layer {
  name: "relu3_1"
  type: "ReLU"
  bottom: "conv3_1"
  top: "conv3_1"
}
layer {
  name: "conv3_2"
  type: "Convolution"
  bottom: "conv3_1"
  top: "conv3_2"
  param {
    lr_mult: 1
    decay_mult: 1
  }
  param {
    lr_mult: 2
    decay_mult: 0
  }
  convolution_param {
    num_output: 64
    pad: 1
    kernel_size: 3
    weight_filler {
      type: "xavier"
    }
    bias_filler {
      type: "constant"
      value: 0
    }
  }
}
layer {
  name: "relu3_2"
  type: "ReLU"
  bottom: "conv3_2"
  top: "conv3_2"
}
layer {
  name: "conv3_3"
  type: "Convolution"
  bottom: "conv3_2"
  top: "conv3_3"
  param {
    lr_mult: 1
    decay_mult: 1
  }
  param {
    lr_mult: 2
    decay_mult: 0
  }
  convolution_param {
    num_output: 64
    pad: 1
    kernel_size: 3
    weight_filler {
      type: "xavier"
    }
    bias_filler {
      type: "constant"
      value: 0
    }
  }
}
layer {
  name: "relu3_3"
  type: "ReLU"
  bottom: "conv3_3"
  top: "conv3_3"
}
layer {
  name: "pool3"
  type: "Pooling"
  bottom: "conv3_3"
  top: "pool3"
  pooling_param {
    pool: MAX
    kernel_size: 2
    stride: 2
  }
}
layer {
  name: "conv4_1"
  type: "Convolution"
  bottom: "pool3"
  top: "conv4_1"
  param {
    lr_mult: 1
    decay_mult: 1
  }
  param {
    lr_mult: 2
    decay_mult: 0
  }
  convolution_param {
    num_output: 128
    pad: 1
    kernel_size: 3
    weight_filler {
      type: "xavier"
    }
    bias_filler {
      type: "constant"
      value: 0
    }
  }
}
layer {
  name: "relu4_1"
  type: "ReLU"
  bottom: "conv4_1"
  top: "conv4_1"
}
layer {
  name: "conv4_2"
  type: "Convolution"
  bottom: "conv4_1"
  top: "conv4_2"
  param {
    lr_mult: 1
    decay_mult: 1
  }
  param {
    lr_mult: 2
    decay_mult: 0
  }
  convolution_param {
    num_output: 128
    pad: 1
    kernel_size: 3
    weight_filler {
      type: "xavier"
    }
    bias_filler {
      type: "constant"
      value: 0
    }
  }
}
layer {
  name: "relu4_2"
  type: "ReLU"
  bottom: "conv4_2"
  top: "conv4_2"
}
layer {
  name: "conv4_3"
  type: "Convolution"
  bottom: "conv4_2"
  top: "conv4_3"
  param {
    lr_mult: 1
    decay_mult: 1
  }
  param {
    lr_mult: 2
    decay_mult: 0
  }
  convolution_param {
    num_output: 128
    pad: 1
    kernel_size: 3
    weight_filler {
      type: "xavier"
    }
    bias_filler {
      type: "constant"
      value: 0
    }
  }
}
layer {
  name: "relu4_3"
  type: "ReLU"
  bottom: "conv4_3"
  top: "conv4_3"
}
layer {
  name: "pool4"
  type: "Pooling"
  bottom: "conv4_3"
  top: "pool4"
  pooling_param {
    pool: MAX
    kernel_size: 2
    stride: 2
  }
}
layer {
  name: "conv5_1"
  type: "Convolution"
  bottom: "pool4"
  top: "conv5_1"
  param {
    lr_mult: 1
    decay_mult: 1
  }
  param {
    lr_mult: 2
    decay_mult: 0
  }
  convolution_param {
    num_output: 128
    pad: 1
    kernel_size: 3
    weight_filler {
      type: "xavier"
    }
    bias_filler {
      type: "constant"
      value: 0
    }
    dilation: 1
  }
}
layer {
  name: "relu5_1"
  type: "ReLU"
  bottom: "conv5_1"
  top: "conv5_1"
}
layer {
  name: "conv5_2"
  type: "Convolution"
  bottom: "conv5_1"
  top: "conv5_2"
  param {
    lr_mult: 1
    decay_mult: 1
  }
  param {
    lr_mult: 2
    decay_mult: 0
  }
  convolution_param {
    num_output: 128
    pad: 1
    kernel_size: 3
    weight_filler {
      type: "xavier"
    }
    bias_filler {
      type: "constant"
      value: 0
    }
    dilation: 1
  }
}
layer {
  name: "relu5_2"
  type: "ReLU"
  bottom: "conv5_2"
  top: "conv5_2"
}
layer {
  name: "conv5_3"
  type: "Convolution"
  bottom: "conv5_2"
  top: "conv5_3"
  param {
    lr_mult: 1
    decay_mult: 1
  }
  param {
    lr_mult: 2
    decay_mult: 0
  }
  convolution_param {
    num_output: 128
    pad: 1
    kernel_size: 3
    weight_filler {
      type: "xavier"
    }
    bias_filler {
      type: "constant"
      value: 0
    }
    dilation: 1
  }
}
layer {
  name: "relu5_3"
  type: "ReLU"
  bottom: "conv5_3"
  top: "conv5_3"
}
layer {
  name: "pool5"
  type: "Pooling"
  bottom: "conv5_3"
  top: "pool5"
  pooling_param {
    pool: MAX
    kernel_size: 3
    stride: 1
    pad: 1
  }
}
layer {
  name: "fc6_conv"
  type: "Convolution"
  bottom: "pool5"
  top: "fc6_conv"
  param {
    lr_mult: 1
    decay_mult: 1
  }
  param {
    lr_mult: 2
    decay_mult: 0
  }
  convolution_param {
    num_output: 256
    pad: 6
    kernel_size: 3
    weight_filler {
      type: "xavier"
    }
    bias_filler {
      type: "constant"
      value: 0
    }
    dilation: 6
  }
}
layer {
  name: "relu6"
  type: "ReLU"
  bottom: "fc6_conv"
  top: "fc6_conv"
}
layer {
  name: "fc7_conv"
  type: "Convolution"
  bottom: "fc6_conv"
  top: "fc7_conv"
  param {
    lr_mult: 1
    decay_mult: 1
  }
  param {
    lr_mult: 2
    decay_mult: 0
  }
  convolution_param {
    num_output: 256
    kernel_size: 1
    weight_filler {
      type: "xavier"
    }
    bias_filler {
      type: "constant"
      value: 0
    }
  }
}
layer {
  name: "relu7"
  type: "ReLU"
  bottom: "fc7_conv"
  top: "fc7_conv"
}
layer {
  name: "conv6_1"
  type: "Convolution"
  bottom: "fc7_conv"
  top: "conv6_1"
  param {
    lr_mult: 1
    decay_mult: 1
  }
  param {
    lr_mult: 2
    decay_mult: 0
  }
  convolution_param {
    num_output: 32
    pad: 0
    kernel_size: 1
    stride: 1
    weight_filler {
      type: "xavier"
    }
    bias_filler {
      type: "constant"
      value: 0
    }
  }
}
layer {
  name: "conv6_1_relu"
  type: "ReLU"
  bottom: "conv6_1"
  top: "conv6_1"
}
layer {
  name: "conv6_2"
  type: "Convolution"
  bottom: "conv6_1"
  top: "conv6_2"
  param {
    lr_mult: 1
    decay_mult: 1
  }
  param {
    lr_mult: 2
    decay_mult: 0
  }
  convolution_param {
    num_output: 64
    pad: 1
    kernel_size: 3
    stride: 2
    weight_filler {
      type: "xavier"
    }
    bias_filler {
      type: "constant"
      value: 0
    }
  }
}
layer {
  name: "conv6_2_relu"
  type: "ReLU"
  bottom: "conv6_2"
  top: "conv6_2"
}
layer {
  name: "conv7_1"
  type: "Convolution"
  bottom: "conv6_2"
  top: "conv7_1"
  param {
    lr_mult: 1
    decay_mult: 1
  }
  param {
    lr_mult: 2
    decay_mult: 0
  }
  convolution_param {
    num_output: 16
    pad: 0
    kernel_size: 1
    stride: 1
    weight_filler {
      type: "xavier"
    }
    bias_filler {
      type: "constant"
      value: 0
    }
  }
}
layer {
  name: "conv7_1_relu"
  type: "ReLU"
  bottom: "conv7_1"
  top: "conv7_1"
}
layer {
  name: "conv7_2"
  type: "Convolution"
  bottom: "conv7_1"
  top: "conv7_2"
  param {
    lr_mult: 1
    decay_mult: 1
  }
  param {
    lr_mult: 2
    decay_mult: 0
  }
  convolution_param {
    num_output: 32
    pad: 1
    kernel_size: 3
    stride: 2
    weight_filler {
      type: "xavier"
    }
    bias_filler {
      type: "constant"
      value: 0
    }
  }
}
layer {
  name: "conv7_2_relu"
  type: "ReLU"
  bottom: "conv7_2"
  top: "conv7_2"
}
layer {
  name: "pool6"
  type: "Pooling"
  bottom: "conv7_2"
  top: "pool6"
  pooling_param {
    pool: AVE
    global_pooling: true
  }
}
layer {
  name: "conv4_3_norm"
  type: "Normalize"
  bottom: "conv4_3"
  top: "conv4_3_norm"
  norm_param {
    across_spatial: false
    scale_filler {
      type: "constant"
      value: 20
    }
    channel_shared: false
  }
}
layer {
  name: "conv4_3_norm_mbox_loc_conf"
  type: "Convolution"
  bottom: "conv4_3_norm"
  top: "conv4_3_norm_mbox_loc_conf"
  param {
    lr_mult: 1
    decay_mult: 1
  }
  param {
    lr_mult: 2
    decay_mult: 0
  }
  convolution_param {
    num_output: 48
    pad: 1
    kernel_size: 3
    stride: 1
    weight_filler {
      type: "xavier"
    }
    bias_filler {
      type: "constant"
      value: 0
    }
  }
}
layer {
  name: "conv4_3_norm_mbox_loc_conf_perm"
  type: "Permute"
  bottom: "conv4_3_norm_mbox_loc_conf"
  top: "conv4_3_norm_mbox_loc_conf_perm"
  permute_param {
    order: 0
    order: 2
    order: 3
    order: 1
  }
}
layer {
  name: "conv4_3_norm_mbox_loc_perm"
  type: "Slice"
  bottom: "conv4_3_norm_mbox_loc_conf_perm"
  top: "conv4_3_norm_mbox_loc_perm"
  top: "conv4_3_norm_mbox_conf_perm"
  slice_param {
    slice_point: 24
    axis: 3
  }
}
layer {
  name: "conv4_3_norm_mbox_loc_flat"
  type: "Flatten"
  bottom: "conv4_3_norm_mbox_loc_perm"
  top: "conv4_3_norm_mbox_loc_flat"
  flatten_param {
    axis: 1
  }
}
layer {
  name: "conv4_3_norm_mbox_conf_flat"
  type: "Flatten"
  bottom: "conv4_3_norm_mbox_conf_perm"
  top: "conv4_3_norm_mbox_conf_flat"
  flatten_param {
    axis: 1
  }
}
layer {
  name: "conv4_3_norm_mbox_priorbox"
  type: "PriorBox"
  bottom: "conv4_3_norm"
  bottom: "data"
  top: "conv4_3_norm_mbox_priorbox"
  prior_box_param {
    min_size: 6.4
    max_size: 25.6
    aspect_ratio: 2
    aspect_ratio: 3
    flip: true
    clip: true
    variance: 0.1
    variance: 0.1
    variance: 0.2
    variance: 0.2
    offset: 0.5
  }
}
layer {
  name: "fc7_conv_mbox_loc_conf"
  type: "Convolution"
  bottom: "fc7_conv"
  top: "fc7_conv_mbox_loc_conf"
  param {
    lr_mult: 1
    decay_mult: 1
  }
  param {
    lr_mult: 2
    decay_mult: 0
  }
  convolution_param {
    num_output: 48
    pad: 1
    kernel_size: 3
    stride: 1
    weight_filler {
      type: "xavier"
    }
    bias_filler {
      type: "constant"
      value: 0
    }
  }
}
layer {
  name: "fc7_conv_mbox_loc_conf_perm"
  type: "Permute"
  bottom: "fc7_conv_mbox_loc_conf"
  top: "fc7_conv_mbox_loc_conf_perm"
  permute_param {
    order: 0
    order: 2
    order: 3
    order: 1
  }
}
layer {
  name: "fc7_conv_mbox_loc_perm"
  type: "Slice"
  bottom: "fc7_conv_mbox_loc_conf_perm"
  top: "fc7_conv_mbox_loc_perm"
  top: "fc7_conv_mbox_conf_perm"
  slice_param {
    slice_point: 24
    axis: 3
  }
}
layer {
  name: "fc7_conv_mbox_loc_flat"
  type: "Flatten"
  bottom: "fc7_conv_mbox_loc_perm"
  top: "fc7_conv_mbox_loc_flat"
  flatten_param {
    axis: 1
  }
}
layer {
  name: "fc7_conv_mbox_conf_flat"
  type: "Flatten"
  bottom: "fc7_conv_mbox_conf_perm"
  top: "fc7_conv_mbox_conf_flat"
  flatten_param {
    axis: 1
  }
}
layer {
  name: "fc7_conv_mbox_priorbox"
  type: "PriorBox"
  bottom: "fc7_conv"
  bottom: "data"
  top: "fc7_conv_mbox_priorbox"
  prior_box_param {
    min_size: 25.6
    max_size: 57.6
    aspect_ratio: 2
    aspect_ratio: 3
    flip: true
    clip: true
    variance: 0.1
    variance: 0.1
    variance: 0.2
    variance: 0.2
    offset: 0.5
  }
}
layer {
  name: "conv6_2_mbox_loc_conf"
  type: "Convolution"
  bottom: "conv6_2"
  top: "conv6_2_mbox_loc_conf"
  param {
    lr_mult: 1
    decay_mult: 1
  }
  param {
    lr_mult: 2
    decay_mult: 0
  }
  convolution_param {
    num_output: 48
    pad: 1
    kernel_size: 3
    stride: 1
    weight_filler {
      type: "xavier"
    }
    bias_filler {
      type: "constant"
      value: 0
    }
  }
}
layer {
  name: "conv6_2_mbox_loc_conf_perm"
  type: "Permute"
  bottom: "conv6_2_mbox_loc_conf"
  top: "conv6_2_mbox_loc_conf_perm"
  permute_param {
    order: 0
    order: 2
    order: 3
    order: 1
  }
}
layer {
  name: "conv6_2_mbox_loc_perm"
  type: "Slice"
  bottom: "conv6_2_mbox_loc_conf_perm"
  top: "conv6_2_mbox_loc_perm"
  top: "conv6_2_mbox_conf_perm"
  slice_param {
    slice_point: 24
    axis: 3
  }
}
layer {
  name: "conv6_2_mbox_loc_flat"
  type: "Flatten"
  bottom: "conv6_2_mbox_loc_perm"
  top: "conv6_2_mbox_loc_flat"
  flatten_param {
    axis: 1
  }
}
layer {
  name: "conv6_2_mbox_conf_flat"
  type: "Flatten"
  bottom: "conv6_2_mbox_conf_perm"
  top: "conv6_2_mbox_conf_flat"
  flatten_param {
    axis: 1
  }
}
layer {
  name: "conv6_2_mbox_priorbox"
  type: "PriorBox"
  bottom: "conv6_2"
  bottom: "data"
  top: "conv6_2_mbox_priorbox"
  prior_box_param {
    min_size: 57.6
    max_size: 89.6
    aspect_ratio: 2
    aspect_ratio: 3
    flip: true
    clip: true
    variance: 0.1
    variance: 0.1
    variance: 0.2
    variance: 0.2
    offset: 0.5
  }
}
layer {
  name: "conv7_2_mbox_loc_conf"
  type: "Convolution"
  bottom: "conv7_2"
  top: "conv7_2_mbox_loc_conf"
  param {
    lr_mult: 1
    decay_mult: 1
  }
  param {
    lr_mult: 2
    decay_mult: 0
  }
  convolution_param {
    num_output: 48
    pad: 1
    kernel_size: 3
    stride: 1
    weight_filler {
      type: "xavier"
    }
    bias_filler {
      type: "constant"
      value: 0
    }
  }
}
layer {
  name: "conv7_2_mbox_loc_conf_perm"
  type: "Permute"
  bottom: "conv7_2_mbox_loc_conf"
  top: "conv7_2_mbox_loc_conf_perm"
  permute_param {
    order: 0
    order: 2
    order: 3
    order: 1
  }
}
layer {
  name: "conv7_2_mbox_loc_perm"
  type: "Slice"
  bottom: "conv7_2_mbox_loc_conf_perm"
  top: "conv7_2_mbox_loc_perm"
  top: "conv7_2_mbox_conf_perm"
  slice_param {
    slice_point: 24
    axis: 3
  }
}
layer {
  name: "conv7_2_mbox_loc_flat"
  type: "Flatten"
  bottom: "conv7_2_mbox_loc_perm"
  top: "conv7_2_mbox_loc_flat"
  flatten_param {
    axis: 1
  }
}
layer {
  name: "conv7_2_mbox_conf_flat"
  type: "Flatten"
  bottom: "conv7_2_mbox_conf_perm"
  top: "conv7_2_mbox_conf_flat"
  flatten_param {
    axis: 1
  }
}
layer {
  name: "conv7_2_mbox_priorbox"
  type: "PriorBox"
  bottom: "conv7_2"
  bottom: "data"
  top: "conv7_2_mbox_priorbox"
  prior_box_param {
    min_size: 89.6
    max_size: 121.6
    aspect_ratio: 2
    aspect_ratio: 3
    flip: true
    clip: true
    variance: 0.1
    variance: 0.1
    variance: 0.2
    variance: 0.2
    offset: 0.5
  }
}
layer {
  name: "pool6_mbox_loc_conf"
  type: "Convolution"
  bottom: "pool6"
  top: "pool6_mbox_loc_conf"
  param {
    lr_mult: 1
    decay_mult: 1
  }
  param {
    lr_mult: 2
    decay_mult: 0
  }
  convolution_param {
    num_output: 48
    pad: 1
    kernel_size: 3
    stride: 1
    weight_filler {
      type: "xavier"
    }
    bias_filler {
      type: "constant"
      value: 0
    }
  }
}
layer {
  name: "pool6_mbox_loc_conf_perm"
  type: "Permute"
  bottom: "pool6_mbox_loc_conf"
  top: "pool6_mbox_loc_conf_perm"
  permute_param {
    order: 0
    order: 2
    order: 3
    order: 1
  }
}
layer {
  name: "pool6_mbox_loc_perm"
  type: "Slice"
  bottom: "pool6_mbox_loc_conf_perm"
  top: "pool6_mbox_loc_perm"
  top: "pool6_mbox_conf_perm"
  slice_param {
    slice_point: 24
    axis: 3
  }
}
layer {
  name: "pool6_mbox_loc_flat"
  type: "Flatten"
  bottom: "pool6_mbox_loc_perm"
  top: "pool6_mbox_loc_flat"
  flatten_param {
    axis: 1
  }
}
layer {
  name: "pool6_mbox_conf_flat"
  type: "Flatten"
  bottom: "pool6_mbox_conf_perm"
  top: "pool6_mbox_conf_flat"
  flatten_param {
    axis: 1
  }
}
layer {
  name: "pool6_mbox_priorbox"
  type: "PriorBox"
  bottom: "pool6"
  bottom: "data"
  top: "pool6_mbox_priorbox"
  prior_box_param {
    min_size: 121.6
    max_size: 153.6
    aspect_ratio: 2
    aspect_ratio: 3
    flip: true
    clip: true
    variance: 0.1
    variance: 0.1
    variance: 0.2
    variance: 0.2
    offset: 0.5
  }
}
layer {
  name: "mbox_loc"
  type: "Concat"
  bottom: "conv4_3_norm_mbox_loc_flat"
  bottom: "fc7_conv_mbox_loc_flat"
  bottom: "conv6_2_mbox_loc_flat"
  bottom: "conv7_2_mbox_loc_flat"
  bottom: "pool6_mbox_loc_flat"
  top: "mbox_loc"
  concat_param {
    axis: 1
  }
}
layer {
  name: "mbox_conf"
  type: "Concat"
  bottom: "conv4_3_norm_mbox_conf_flat"
  bottom: "fc7_conv_mbox_conf_flat"
  bottom: "conv6_2_mbox_conf_flat"
  bottom: "conv7_2_mbox_conf_flat"
  bottom: "pool6_mbox_conf_flat"
  top: "mbox_conf"
  concat_param {
    axis: 1
  }
}
layer {
  name: "mbox_priorbox"
  type: "Concat"
  bottom: "conv4_3_norm_mbox_priorbox"
  bottom: "fc7_conv_mbox_priorbox"
  bottom: "conv6_2_mbox_priorbox"
  bottom: "conv7_2_mbox_priorbox"
  bottom: "pool6_mbox_priorbox"
  top: "mbox_priorbox"
  concat_param {
    axis: 2
  }
}
layer {
  name: "mbox_conf_reshape"
  type: "Reshape"
  bottom: "mbox_conf"
  top: "mbox_conf_reshape"
  reshape_param {
    shape {
      dim: 0
      dim: -1
      dim: 4
    }
  }
}
layer {
  name: "mbox_conf_softmax"
  type: "Softmax"
  bottom: "mbox_conf_reshape"
  top: "mbox_conf_softmax"
  softmax_param {
    axis: 2
  }
}
layer {
  name: "mbox_conf_flatten"
  type: "Flatten"
  bottom: "mbox_conf_softmax"
  top: "mbox_conf_flatten"
  flatten_param {
    axis: 1
  }
}
layer {
  name: "detection_out"
  type: "DetectionOutput"
  bottom: "mbox_loc"
  bottom: "mbox_conf_flatten"
  bottom: "mbox_priorbox"
  top: "detection_out"
  include {
    phase: TEST
  }
  detection_output_param {
    num_classes: 4
    share_location: true
    background_label_id: 0
    nms_param {
      nms_threshold: 0.3
      top_k: 200
    }
    save_output_param {
      output_directory: "jobs/ssd/v0327_smallssd_kitti_64x256_vgg16-channel16-nopooling12_smallssd_change_min_size_5/output"
      output_name_prefix: "det_test_"
      output_format: "VOC"
      label_map_file: "/tmp/toqinhuan/labelmap.prototxt"
      name_size_file: "/tmp/toqinhuan/test_name_size.txt"
      num_test_image: 2245
    }
    code_type: CENTER_SIZE
    keep_top_k: 100
    confidence_threshold: 0.01
  }
}
layer {
  name: "detection_eval"
  type: "DetectionEvaluate"
  bottom: "detection_out"
  bottom: "label"
  top: "detection_eval"
  include {
    phase: TEST
  }
  detection_evaluate_param {
    num_classes: 4
    background_label_id: 0
    overlap_threshold: 0.5
    evaluate_difficult_gt: false
    name_size_file: "/tmp/toqinhuan/test_name_size.txt"
  }
}
I0407 10:53:35.539371 30989 layer_factory.hpp:77] Creating layer data
I0407 10:53:35.539415 30989 net.cpp:100] Creating Layer data
I0407 10:53:35.539422 30989 net.cpp:408] data -> data
I0407 10:53:35.539428 30989 net.cpp:408] data -> label
I0407 10:53:35.540210 31017 db_lmdb.cpp:35] Opened lmdb /home/work/wwl/data/kitti/data_object_image_2/training/test_lmdb
I0407 10:53:35.549121 30989 annotated_data_layer.cpp:62] output data size: 32,3,64,256
I0407 10:53:35.569540 30989 net.cpp:150] Setting up data
I0407 10:53:35.569571 30989 net.cpp:157] Top shape: 32 3 64 256 (1572864)
I0407 10:53:35.569576 30989 net.cpp:157] Top shape: 1 1 9 8 (72)
I0407 10:53:35.569578 30989 net.cpp:165] Memory required for data: 6291744
I0407 10:53:35.569583 30989 layer_factory.hpp:77] Creating layer data_data_0_split
I0407 10:53:35.569592 30989 net.cpp:100] Creating Layer data_data_0_split
I0407 10:53:35.569595 30989 net.cpp:434] data_data_0_split <- data
I0407 10:53:35.569600 30989 net.cpp:408] data_data_0_split -> data_data_0_split_0
I0407 10:53:35.569608 30989 net.cpp:408] data_data_0_split -> data_data_0_split_1
I0407 10:53:35.569612 30989 net.cpp:408] data_data_0_split -> data_data_0_split_2
I0407 10:53:35.569617 30989 net.cpp:408] data_data_0_split -> data_data_0_split_3
I0407 10:53:35.569622 30989 net.cpp:408] data_data_0_split -> data_data_0_split_4
I0407 10:53:35.569624 30989 net.cpp:408] data_data_0_split -> data_data_0_split_5
I0407 10:53:35.569749 30989 net.cpp:150] Setting up data_data_0_split
I0407 10:53:35.569756 30989 net.cpp:157] Top shape: 32 3 64 256 (1572864)
I0407 10:53:35.569759 30989 net.cpp:157] Top shape: 32 3 64 256 (1572864)
I0407 10:53:35.569762 30989 net.cpp:157] Top shape: 32 3 64 256 (1572864)
I0407 10:53:35.569766 30989 net.cpp:157] Top shape: 32 3 64 256 (1572864)
I0407 10:53:35.569768 30989 net.cpp:157] Top shape: 32 3 64 256 (1572864)
I0407 10:53:35.569771 30989 net.cpp:157] Top shape: 32 3 64 256 (1572864)
I0407 10:53:35.569773 30989 net.cpp:165] Memory required for data: 44040480
I0407 10:53:35.569777 30989 layer_factory.hpp:77] Creating layer conv1_1
I0407 10:53:35.569787 30989 net.cpp:100] Creating Layer conv1_1
I0407 10:53:35.569789 30989 net.cpp:434] conv1_1 <- data_data_0_split_0
I0407 10:53:35.569793 30989 net.cpp:408] conv1_1 -> conv1_1
I0407 10:53:35.570058 30989 net.cpp:150] Setting up conv1_1
I0407 10:53:35.570065 30989 net.cpp:157] Top shape: 32 16 64 256 (8388608)
I0407 10:53:35.570066 30989 net.cpp:165] Memory required for data: 77594912
I0407 10:53:35.570075 30989 layer_factory.hpp:77] Creating layer relu1_1
I0407 10:53:35.570078 30989 net.cpp:100] Creating Layer relu1_1
I0407 10:53:35.570081 30989 net.cpp:434] relu1_1 <- conv1_1
I0407 10:53:35.570085 30989 net.cpp:395] relu1_1 -> conv1_1 (in-place)
I0407 10:53:35.570089 30989 net.cpp:150] Setting up relu1_1
I0407 10:53:35.570092 30989 net.cpp:157] Top shape: 32 16 64 256 (8388608)
I0407 10:53:35.570094 30989 net.cpp:165] Memory required for data: 111149344
I0407 10:53:35.570097 30989 layer_factory.hpp:77] Creating layer conv1_2
I0407 10:53:35.570102 30989 net.cpp:100] Creating Layer conv1_2
I0407 10:53:35.570106 30989 net.cpp:434] conv1_2 <- conv1_1
I0407 10:53:35.570109 30989 net.cpp:408] conv1_2 -> conv1_2
I0407 10:53:35.570335 30989 net.cpp:150] Setting up conv1_2
I0407 10:53:35.570341 30989 net.cpp:157] Top shape: 32 16 32 128 (2097152)
I0407 10:53:35.570343 30989 net.cpp:165] Memory required for data: 119537952
I0407 10:53:35.570348 30989 layer_factory.hpp:77] Creating layer relu1_2
I0407 10:53:35.570353 30989 net.cpp:100] Creating Layer relu1_2
I0407 10:53:35.570355 30989 net.cpp:434] relu1_2 <- conv1_2
I0407 10:53:35.570358 30989 net.cpp:395] relu1_2 -> conv1_2 (in-place)
I0407 10:53:35.570363 30989 net.cpp:150] Setting up relu1_2
I0407 10:53:35.570365 30989 net.cpp:157] Top shape: 32 16 32 128 (2097152)
I0407 10:53:35.570369 30989 net.cpp:165] Memory required for data: 127926560
I0407 10:53:35.570370 30989 layer_factory.hpp:77] Creating layer conv2_1
I0407 10:53:35.570375 30989 net.cpp:100] Creating Layer conv2_1
I0407 10:53:35.570379 30989 net.cpp:434] conv2_1 <- conv1_2
I0407 10:53:35.570382 30989 net.cpp:408] conv2_1 -> conv2_1
I0407 10:53:35.570647 30989 net.cpp:150] Setting up conv2_1
I0407 10:53:35.570653 30989 net.cpp:157] Top shape: 32 32 32 128 (4194304)
I0407 10:53:35.570657 30989 net.cpp:165] Memory required for data: 144703776
I0407 10:53:35.570662 30989 layer_factory.hpp:77] Creating layer relu2_1
I0407 10:53:35.570665 30989 net.cpp:100] Creating Layer relu2_1
I0407 10:53:35.570667 30989 net.cpp:434] relu2_1 <- conv2_1
I0407 10:53:35.570672 30989 net.cpp:395] relu2_1 -> conv2_1 (in-place)
I0407 10:53:35.570675 30989 net.cpp:150] Setting up relu2_1
I0407 10:53:35.570678 30989 net.cpp:157] Top shape: 32 32 32 128 (4194304)
I0407 10:53:35.570680 30989 net.cpp:165] Memory required for data: 161480992
I0407 10:53:35.570683 30989 layer_factory.hpp:77] Creating layer conv2_2
I0407 10:53:35.570688 30989 net.cpp:100] Creating Layer conv2_2
I0407 10:53:35.570691 30989 net.cpp:434] conv2_2 <- conv2_1
I0407 10:53:35.570694 30989 net.cpp:408] conv2_2 -> conv2_2
I0407 10:53:35.570976 30989 net.cpp:150] Setting up conv2_2
I0407 10:53:35.570984 30989 net.cpp:157] Top shape: 32 32 16 64 (1048576)
I0407 10:53:35.570987 30989 net.cpp:165] Memory required for data: 165675296
I0407 10:53:35.570991 30989 layer_factory.hpp:77] Creating layer relu2_2
I0407 10:53:35.570996 30989 net.cpp:100] Creating Layer relu2_2
I0407 10:53:35.570999 30989 net.cpp:434] relu2_2 <- conv2_2
I0407 10:53:35.571002 30989 net.cpp:395] relu2_2 -> conv2_2 (in-place)
I0407 10:53:35.571007 30989 net.cpp:150] Setting up relu2_2
I0407 10:53:35.571010 30989 net.cpp:157] Top shape: 32 32 16 64 (1048576)
I0407 10:53:35.571012 30989 net.cpp:165] Memory required for data: 169869600
I0407 10:53:35.571015 30989 layer_factory.hpp:77] Creating layer conv3_1
I0407 10:53:35.571020 30989 net.cpp:100] Creating Layer conv3_1
I0407 10:53:35.571022 30989 net.cpp:434] conv3_1 <- conv2_2
I0407 10:53:35.571027 30989 net.cpp:408] conv3_1 -> conv3_1
I0407 10:53:35.571297 30989 net.cpp:150] Setting up conv3_1
I0407 10:53:35.571303 30989 net.cpp:157] Top shape: 32 64 16 64 (2097152)
I0407 10:53:35.571305 30989 net.cpp:165] Memory required for data: 178258208
I0407 10:53:35.571311 30989 layer_factory.hpp:77] Creating layer relu3_1
I0407 10:53:35.571316 30989 net.cpp:100] Creating Layer relu3_1
I0407 10:53:35.571317 30989 net.cpp:434] relu3_1 <- conv3_1
I0407 10:53:35.571321 30989 net.cpp:395] relu3_1 -> conv3_1 (in-place)
I0407 10:53:35.571326 30989 net.cpp:150] Setting up relu3_1
I0407 10:53:35.571328 30989 net.cpp:157] Top shape: 32 64 16 64 (2097152)
I0407 10:53:35.571331 30989 net.cpp:165] Memory required for data: 186646816
I0407 10:53:35.571332 30989 layer_factory.hpp:77] Creating layer conv3_2
I0407 10:53:35.571337 30989 net.cpp:100] Creating Layer conv3_2
I0407 10:53:35.571339 30989 net.cpp:434] conv3_2 <- conv3_1
I0407 10:53:35.571343 30989 net.cpp:408] conv3_2 -> conv3_2
I0407 10:53:35.571660 30989 net.cpp:150] Setting up conv3_2
I0407 10:53:35.571666 30989 net.cpp:157] Top shape: 32 64 16 64 (2097152)
I0407 10:53:35.571668 30989 net.cpp:165] Memory required for data: 195035424
I0407 10:53:35.571672 30989 layer_factory.hpp:77] Creating layer relu3_2
I0407 10:53:35.571679 30989 net.cpp:100] Creating Layer relu3_2
I0407 10:53:35.571682 30989 net.cpp:434] relu3_2 <- conv3_2
I0407 10:53:35.571686 30989 net.cpp:395] relu3_2 -> conv3_2 (in-place)
I0407 10:53:35.571691 30989 net.cpp:150] Setting up relu3_2
I0407 10:53:35.571693 30989 net.cpp:157] Top shape: 32 64 16 64 (2097152)
I0407 10:53:35.571696 30989 net.cpp:165] Memory required for data: 203424032
I0407 10:53:35.571698 30989 layer_factory.hpp:77] Creating layer conv3_3
I0407 10:53:35.571702 30989 net.cpp:100] Creating Layer conv3_3
I0407 10:53:35.571705 30989 net.cpp:434] conv3_3 <- conv3_2
I0407 10:53:35.571708 30989 net.cpp:408] conv3_3 -> conv3_3
I0407 10:53:35.572026 30989 net.cpp:150] Setting up conv3_3
I0407 10:53:35.572031 30989 net.cpp:157] Top shape: 32 64 16 64 (2097152)
I0407 10:53:35.572032 30989 net.cpp:165] Memory required for data: 211812640
I0407 10:53:35.572036 30989 layer_factory.hpp:77] Creating layer relu3_3
I0407 10:53:35.572041 30989 net.cpp:100] Creating Layer relu3_3
I0407 10:53:35.572043 30989 net.cpp:434] relu3_3 <- conv3_3
I0407 10:53:35.572046 30989 net.cpp:395] relu3_3 -> conv3_3 (in-place)
I0407 10:53:35.572051 30989 net.cpp:150] Setting up relu3_3
I0407 10:53:35.572053 30989 net.cpp:157] Top shape: 32 64 16 64 (2097152)
I0407 10:53:35.572055 30989 net.cpp:165] Memory required for data: 220201248
I0407 10:53:35.572058 30989 layer_factory.hpp:77] Creating layer pool3
I0407 10:53:35.572063 30989 net.cpp:100] Creating Layer pool3
I0407 10:53:35.572067 30989 net.cpp:434] pool3 <- conv3_3
I0407 10:53:35.572069 30989 net.cpp:408] pool3 -> pool3
I0407 10:53:35.572101 30989 net.cpp:150] Setting up pool3
I0407 10:53:35.572105 30989 net.cpp:157] Top shape: 32 64 8 32 (524288)
I0407 10:53:35.572108 30989 net.cpp:165] Memory required for data: 222298400
I0407 10:53:35.572110 30989 layer_factory.hpp:77] Creating layer conv4_1
I0407 10:53:35.572116 30989 net.cpp:100] Creating Layer conv4_1
I0407 10:53:35.572118 30989 net.cpp:434] conv4_1 <- pool3
I0407 10:53:35.572123 30989 net.cpp:408] conv4_1 -> conv4_1
I0407 10:53:35.572569 30989 net.cpp:150] Setting up conv4_1
I0407 10:53:35.572577 30989 net.cpp:157] Top shape: 32 128 8 32 (1048576)
I0407 10:53:35.572580 30989 net.cpp:165] Memory required for data: 226492704
I0407 10:53:35.572584 30989 layer_factory.hpp:77] Creating layer relu4_1
I0407 10:53:35.572588 30989 net.cpp:100] Creating Layer relu4_1
I0407 10:53:35.572592 30989 net.cpp:434] relu4_1 <- conv4_1
I0407 10:53:35.572594 30989 net.cpp:395] relu4_1 -> conv4_1 (in-place)
I0407 10:53:35.572598 30989 net.cpp:150] Setting up relu4_1
I0407 10:53:35.572602 30989 net.cpp:157] Top shape: 32 128 8 32 (1048576)
I0407 10:53:35.572603 30989 net.cpp:165] Memory required for data: 230687008
I0407 10:53:35.572607 30989 layer_factory.hpp:77] Creating layer conv4_2
I0407 10:53:35.572612 30989 net.cpp:100] Creating Layer conv4_2
I0407 10:53:35.572613 30989 net.cpp:434] conv4_2 <- conv4_1
I0407 10:53:35.572618 30989 net.cpp:408] conv4_2 -> conv4_2
I0407 10:53:35.573309 30989 net.cpp:150] Setting up conv4_2
I0407 10:53:35.573318 30989 net.cpp:157] Top shape: 32 128 8 32 (1048576)
I0407 10:53:35.573320 30989 net.cpp:165] Memory required for data: 234881312
I0407 10:53:35.573330 30989 layer_factory.hpp:77] Creating layer relu4_2
I0407 10:53:35.573334 30989 net.cpp:100] Creating Layer relu4_2
I0407 10:53:35.573338 30989 net.cpp:434] relu4_2 <- conv4_2
I0407 10:53:35.573340 30989 net.cpp:395] relu4_2 -> conv4_2 (in-place)
I0407 10:53:35.573344 30989 net.cpp:150] Setting up relu4_2
I0407 10:53:35.573348 30989 net.cpp:157] Top shape: 32 128 8 32 (1048576)
I0407 10:53:35.573350 30989 net.cpp:165] Memory required for data: 239075616
I0407 10:53:35.573352 30989 layer_factory.hpp:77] Creating layer conv4_3
I0407 10:53:35.573357 30989 net.cpp:100] Creating Layer conv4_3
I0407 10:53:35.573359 30989 net.cpp:434] conv4_3 <- conv4_2
I0407 10:53:35.573364 30989 net.cpp:408] conv4_3 -> conv4_3
I0407 10:53:35.574952 30989 net.cpp:150] Setting up conv4_3
I0407 10:53:35.574980 30989 net.cpp:157] Top shape: 32 128 8 32 (1048576)
I0407 10:53:35.574988 30989 net.cpp:165] Memory required for data: 243269920
I0407 10:53:35.574995 30989 layer_factory.hpp:77] Creating layer relu4_3
I0407 10:53:35.575001 30989 net.cpp:100] Creating Layer relu4_3
I0407 10:53:35.575006 30989 net.cpp:434] relu4_3 <- conv4_3
I0407 10:53:35.575011 30989 net.cpp:395] relu4_3 -> conv4_3 (in-place)
I0407 10:53:35.575016 30989 net.cpp:150] Setting up relu4_3
I0407 10:53:35.575019 30989 net.cpp:157] Top shape: 32 128 8 32 (1048576)
I0407 10:53:35.575021 30989 net.cpp:165] Memory required for data: 247464224
I0407 10:53:35.575024 30989 layer_factory.hpp:77] Creating layer conv4_3_relu4_3_0_split
I0407 10:53:35.575028 30989 net.cpp:100] Creating Layer conv4_3_relu4_3_0_split
I0407 10:53:35.575031 30989 net.cpp:434] conv4_3_relu4_3_0_split <- conv4_3
I0407 10:53:35.575034 30989 net.cpp:408] conv4_3_relu4_3_0_split -> conv4_3_relu4_3_0_split_0
I0407 10:53:35.575038 30989 net.cpp:408] conv4_3_relu4_3_0_split -> conv4_3_relu4_3_0_split_1
I0407 10:53:35.575068 30989 net.cpp:150] Setting up conv4_3_relu4_3_0_split
I0407 10:53:35.575073 30989 net.cpp:157] Top shape: 32 128 8 32 (1048576)
I0407 10:53:35.575076 30989 net.cpp:157] Top shape: 32 128 8 32 (1048576)
I0407 10:53:35.575078 30989 net.cpp:165] Memory required for data: 255852832
I0407 10:53:35.575081 30989 layer_factory.hpp:77] Creating layer pool4
I0407 10:53:35.575085 30989 net.cpp:100] Creating Layer pool4
I0407 10:53:35.575088 30989 net.cpp:434] pool4 <- conv4_3_relu4_3_0_split_0
I0407 10:53:35.575091 30989 net.cpp:408] pool4 -> pool4
I0407 10:53:35.575122 30989 net.cpp:150] Setting up pool4
I0407 10:53:35.575126 30989 net.cpp:157] Top shape: 32 128 4 16 (262144)
I0407 10:53:35.575129 30989 net.cpp:165] Memory required for data: 256901408
I0407 10:53:35.575131 30989 layer_factory.hpp:77] Creating layer conv5_1
I0407 10:53:35.575137 30989 net.cpp:100] Creating Layer conv5_1
I0407 10:53:35.575140 30989 net.cpp:434] conv5_1 <- pool4
I0407 10:53:35.575145 30989 net.cpp:408] conv5_1 -> conv5_1
I0407 10:53:35.575839 30989 net.cpp:150] Setting up conv5_1
I0407 10:53:35.575845 30989 net.cpp:157] Top shape: 32 128 4 16 (262144)
I0407 10:53:35.575847 30989 net.cpp:165] Memory required for data: 257949984
I0407 10:53:35.575852 30989 layer_factory.hpp:77] Creating layer relu5_1
I0407 10:53:35.575856 30989 net.cpp:100] Creating Layer relu5_1
I0407 10:53:35.575858 30989 net.cpp:434] relu5_1 <- conv5_1
I0407 10:53:35.575862 30989 net.cpp:395] relu5_1 -> conv5_1 (in-place)
I0407 10:53:35.575866 30989 net.cpp:150] Setting up relu5_1
I0407 10:53:35.575870 30989 net.cpp:157] Top shape: 32 128 4 16 (262144)
I0407 10:53:35.575871 30989 net.cpp:165] Memory required for data: 258998560
I0407 10:53:35.575875 30989 layer_factory.hpp:77] Creating layer conv5_2
I0407 10:53:35.575880 30989 net.cpp:100] Creating Layer conv5_2
I0407 10:53:35.575882 30989 net.cpp:434] conv5_2 <- conv5_1
I0407 10:53:35.575886 30989 net.cpp:408] conv5_2 -> conv5_2
I0407 10:53:35.576582 30989 net.cpp:150] Setting up conv5_2
I0407 10:53:35.576593 30989 net.cpp:157] Top shape: 32 128 4 16 (262144)
I0407 10:53:35.576596 30989 net.cpp:165] Memory required for data: 260047136
I0407 10:53:35.576601 30989 layer_factory.hpp:77] Creating layer relu5_2
I0407 10:53:35.576606 30989 net.cpp:100] Creating Layer relu5_2
I0407 10:53:35.576608 30989 net.cpp:434] relu5_2 <- conv5_2
I0407 10:53:35.576612 30989 net.cpp:395] relu5_2 -> conv5_2 (in-place)
I0407 10:53:35.576617 30989 net.cpp:150] Setting up relu5_2
I0407 10:53:35.576619 30989 net.cpp:157] Top shape: 32 128 4 16 (262144)
I0407 10:53:35.576622 30989 net.cpp:165] Memory required for data: 261095712
I0407 10:53:35.576624 30989 layer_factory.hpp:77] Creating layer conv5_3
I0407 10:53:35.576630 30989 net.cpp:100] Creating Layer conv5_3
I0407 10:53:35.576633 30989 net.cpp:434] conv5_3 <- conv5_2
I0407 10:53:35.576637 30989 net.cpp:408] conv5_3 -> conv5_3
I0407 10:53:35.578184 30989 net.cpp:150] Setting up conv5_3
I0407 10:53:35.578207 30989 net.cpp:157] Top shape: 32 128 4 16 (262144)
I0407 10:53:35.578209 30989 net.cpp:165] Memory required for data: 262144288
I0407 10:53:35.578220 30989 layer_factory.hpp:77] Creating layer relu5_3
I0407 10:53:35.578227 30989 net.cpp:100] Creating Layer relu5_3
I0407 10:53:35.578230 30989 net.cpp:434] relu5_3 <- conv5_3
I0407 10:53:35.578235 30989 net.cpp:395] relu5_3 -> conv5_3 (in-place)
I0407 10:53:35.578241 30989 net.cpp:150] Setting up relu5_3
I0407 10:53:35.578244 30989 net.cpp:157] Top shape: 32 128 4 16 (262144)
I0407 10:53:35.578248 30989 net.cpp:165] Memory required for data: 263192864
I0407 10:53:35.578249 30989 layer_factory.hpp:77] Creating layer pool5
I0407 10:53:35.578253 30989 net.cpp:100] Creating Layer pool5
I0407 10:53:35.578256 30989 net.cpp:434] pool5 <- conv5_3
I0407 10:53:35.578259 30989 net.cpp:408] pool5 -> pool5
I0407 10:53:35.578296 30989 net.cpp:150] Setting up pool5
I0407 10:53:35.578301 30989 net.cpp:157] Top shape: 32 128 4 16 (262144)
I0407 10:53:35.578303 30989 net.cpp:165] Memory required for data: 264241440
I0407 10:53:35.578306 30989 layer_factory.hpp:77] Creating layer fc6_conv
I0407 10:53:35.578315 30989 net.cpp:100] Creating Layer fc6_conv
I0407 10:53:35.578317 30989 net.cpp:434] fc6_conv <- pool5
I0407 10:53:35.578321 30989 net.cpp:408] fc6_conv -> fc6_conv
I0407 10:53:35.579493 30989 net.cpp:150] Setting up fc6_conv
I0407 10:53:35.579505 30989 net.cpp:157] Top shape: 32 256 4 16 (524288)
I0407 10:53:35.579509 30989 net.cpp:165] Memory required for data: 266338592
I0407 10:53:35.579512 30989 layer_factory.hpp:77] Creating layer relu6
I0407 10:53:35.579517 30989 net.cpp:100] Creating Layer relu6
I0407 10:53:35.579520 30989 net.cpp:434] relu6 <- fc6_conv
I0407 10:53:35.579524 30989 net.cpp:395] relu6 -> fc6_conv (in-place)
I0407 10:53:35.579530 30989 net.cpp:150] Setting up relu6
I0407 10:53:35.579532 30989 net.cpp:157] Top shape: 32 256 4 16 (524288)
I0407 10:53:35.579535 30989 net.cpp:165] Memory required for data: 268435744
I0407 10:53:35.579536 30989 layer_factory.hpp:77] Creating layer fc7_conv
I0407 10:53:35.579541 30989 net.cpp:100] Creating Layer fc7_conv
I0407 10:53:35.579545 30989 net.cpp:434] fc7_conv <- fc6_conv
I0407 10:53:35.579548 30989 net.cpp:408] fc7_conv -> fc7_conv
I0407 10:53:35.583847 30989 net.cpp:150] Setting up fc7_conv
I0407 10:53:35.583854 30989 net.cpp:157] Top shape: 32 256 4 16 (524288)
I0407 10:53:35.583856 30989 net.cpp:165] Memory required for data: 270532896
I0407 10:53:35.583861 30989 layer_factory.hpp:77] Creating layer relu7
I0407 10:53:35.583865 30989 net.cpp:100] Creating Layer relu7
I0407 10:53:35.583868 30989 net.cpp:434] relu7 <- fc7_conv
I0407 10:53:35.583871 30989 net.cpp:395] relu7 -> fc7_conv (in-place)
I0407 10:53:35.583875 30989 net.cpp:150] Setting up relu7
I0407 10:53:35.583879 30989 net.cpp:157] Top shape: 32 256 4 16 (524288)
I0407 10:53:35.583881 30989 net.cpp:165] Memory required for data: 272630048
I0407 10:53:35.583884 30989 layer_factory.hpp:77] Creating layer fc7_conv_relu7_0_split
I0407 10:53:35.583889 30989 net.cpp:100] Creating Layer fc7_conv_relu7_0_split
I0407 10:53:35.583890 30989 net.cpp:434] fc7_conv_relu7_0_split <- fc7_conv
I0407 10:53:35.583894 30989 net.cpp:408] fc7_conv_relu7_0_split -> fc7_conv_relu7_0_split_0
I0407 10:53:35.583899 30989 net.cpp:408] fc7_conv_relu7_0_split -> fc7_conv_relu7_0_split_1
I0407 10:53:35.583902 30989 net.cpp:408] fc7_conv_relu7_0_split -> fc7_conv_relu7_0_split_2
I0407 10:53:35.583945 30989 net.cpp:150] Setting up fc7_conv_relu7_0_split
I0407 10:53:35.583948 30989 net.cpp:157] Top shape: 32 256 4 16 (524288)
I0407 10:53:35.583952 30989 net.cpp:157] Top shape: 32 256 4 16 (524288)
I0407 10:53:35.583955 30989 net.cpp:157] Top shape: 32 256 4 16 (524288)
I0407 10:53:35.583957 30989 net.cpp:165] Memory required for data: 278921504
I0407 10:53:35.583959 30989 layer_factory.hpp:77] Creating layer conv6_1
I0407 10:53:35.583964 30989 net.cpp:100] Creating Layer conv6_1
I0407 10:53:35.583967 30989 net.cpp:434] conv6_1 <- fc7_conv_relu7_0_split_0
I0407 10:53:35.583972 30989 net.cpp:408] conv6_1 -> conv6_1
I0407 10:53:35.584220 30989 net.cpp:150] Setting up conv6_1
I0407 10:53:35.584225 30989 net.cpp:157] Top shape: 32 32 4 16 (65536)
I0407 10:53:35.584233 30989 net.cpp:165] Memory required for data: 279183648
I0407 10:53:35.584236 30989 layer_factory.hpp:77] Creating layer conv6_1_relu
I0407 10:53:35.584240 30989 net.cpp:100] Creating Layer conv6_1_relu
I0407 10:53:35.584242 30989 net.cpp:434] conv6_1_relu <- conv6_1
I0407 10:53:35.584246 30989 net.cpp:395] conv6_1_relu -> conv6_1 (in-place)
I0407 10:53:35.584249 30989 net.cpp:150] Setting up conv6_1_relu
I0407 10:53:35.584254 30989 net.cpp:157] Top shape: 32 32 4 16 (65536)
I0407 10:53:35.584255 30989 net.cpp:165] Memory required for data: 279445792
I0407 10:53:35.584257 30989 layer_factory.hpp:77] Creating layer conv6_2
I0407 10:53:35.584262 30989 net.cpp:100] Creating Layer conv6_2
I0407 10:53:35.584265 30989 net.cpp:434] conv6_2 <- conv6_1
I0407 10:53:35.584269 30989 net.cpp:408] conv6_2 -> conv6_2
I0407 10:53:35.584552 30989 net.cpp:150] Setting up conv6_2
I0407 10:53:35.584559 30989 net.cpp:157] Top shape: 32 64 2 8 (32768)
I0407 10:53:35.584561 30989 net.cpp:165] Memory required for data: 279576864
I0407 10:53:35.584568 30989 layer_factory.hpp:77] Creating layer conv6_2_relu
I0407 10:53:35.584573 30989 net.cpp:100] Creating Layer conv6_2_relu
I0407 10:53:35.584574 30989 net.cpp:434] conv6_2_relu <- conv6_2
I0407 10:53:35.584578 30989 net.cpp:395] conv6_2_relu -> conv6_2 (in-place)
I0407 10:53:35.584583 30989 net.cpp:150] Setting up conv6_2_relu
I0407 10:53:35.584585 30989 net.cpp:157] Top shape: 32 64 2 8 (32768)
I0407 10:53:35.584588 30989 net.cpp:165] Memory required for data: 279707936
I0407 10:53:35.584589 30989 layer_factory.hpp:77] Creating layer conv6_2_conv6_2_relu_0_split
I0407 10:53:35.584594 30989 net.cpp:100] Creating Layer conv6_2_conv6_2_relu_0_split
I0407 10:53:35.584595 30989 net.cpp:434] conv6_2_conv6_2_relu_0_split <- conv6_2
I0407 10:53:35.584599 30989 net.cpp:408] conv6_2_conv6_2_relu_0_split -> conv6_2_conv6_2_relu_0_split_0
I0407 10:53:35.584602 30989 net.cpp:408] conv6_2_conv6_2_relu_0_split -> conv6_2_conv6_2_relu_0_split_1
I0407 10:53:35.584607 30989 net.cpp:408] conv6_2_conv6_2_relu_0_split -> conv6_2_conv6_2_relu_0_split_2
I0407 10:53:35.584650 30989 net.cpp:150] Setting up conv6_2_conv6_2_relu_0_split
I0407 10:53:35.584656 30989 net.cpp:157] Top shape: 32 64 2 8 (32768)
I0407 10:53:35.584658 30989 net.cpp:157] Top shape: 32 64 2 8 (32768)
I0407 10:53:35.584661 30989 net.cpp:157] Top shape: 32 64 2 8 (32768)
I0407 10:53:35.584663 30989 net.cpp:165] Memory required for data: 280101152
I0407 10:53:35.584666 30989 layer_factory.hpp:77] Creating layer conv7_1
I0407 10:53:35.584671 30989 net.cpp:100] Creating Layer conv7_1
I0407 10:53:35.584672 30989 net.cpp:434] conv7_1 <- conv6_2_conv6_2_relu_0_split_0
I0407 10:53:35.584676 30989 net.cpp:408] conv7_1 -> conv7_1
I0407 10:53:35.584884 30989 net.cpp:150] Setting up conv7_1
I0407 10:53:35.584889 30989 net.cpp:157] Top shape: 32 16 2 8 (8192)
I0407 10:53:35.584892 30989 net.cpp:165] Memory required for data: 280133920
I0407 10:53:35.584895 30989 layer_factory.hpp:77] Creating layer conv7_1_relu
I0407 10:53:35.584899 30989 net.cpp:100] Creating Layer conv7_1_relu
I0407 10:53:35.584903 30989 net.cpp:434] conv7_1_relu <- conv7_1
I0407 10:53:35.584905 30989 net.cpp:395] conv7_1_relu -> conv7_1 (in-place)
I0407 10:53:35.584909 30989 net.cpp:150] Setting up conv7_1_relu
I0407 10:53:35.584913 30989 net.cpp:157] Top shape: 32 16 2 8 (8192)
I0407 10:53:35.584914 30989 net.cpp:165] Memory required for data: 280166688
I0407 10:53:35.584916 30989 layer_factory.hpp:77] Creating layer conv7_2
I0407 10:53:35.584921 30989 net.cpp:100] Creating Layer conv7_2
I0407 10:53:35.584924 30989 net.cpp:434] conv7_2 <- conv7_1
I0407 10:53:35.584928 30989 net.cpp:408] conv7_2 -> conv7_2
I0407 10:53:35.585152 30989 net.cpp:150] Setting up conv7_2
I0407 10:53:35.585157 30989 net.cpp:157] Top shape: 32 32 1 4 (4096)
I0407 10:53:35.585160 30989 net.cpp:165] Memory required for data: 280183072
I0407 10:53:35.585165 30989 layer_factory.hpp:77] Creating layer conv7_2_relu
I0407 10:53:35.585167 30989 net.cpp:100] Creating Layer conv7_2_relu
I0407 10:53:35.585172 30989 net.cpp:434] conv7_2_relu <- conv7_2
I0407 10:53:35.585175 30989 net.cpp:395] conv7_2_relu -> conv7_2 (in-place)
I0407 10:53:35.585180 30989 net.cpp:150] Setting up conv7_2_relu
I0407 10:53:35.585182 30989 net.cpp:157] Top shape: 32 32 1 4 (4096)
I0407 10:53:35.585186 30989 net.cpp:165] Memory required for data: 280199456
I0407 10:53:35.585187 30989 layer_factory.hpp:77] Creating layer conv7_2_conv7_2_relu_0_split
I0407 10:53:35.585191 30989 net.cpp:100] Creating Layer conv7_2_conv7_2_relu_0_split
I0407 10:53:35.585193 30989 net.cpp:434] conv7_2_conv7_2_relu_0_split <- conv7_2
I0407 10:53:35.585196 30989 net.cpp:408] conv7_2_conv7_2_relu_0_split -> conv7_2_conv7_2_relu_0_split_0
I0407 10:53:35.585201 30989 net.cpp:408] conv7_2_conv7_2_relu_0_split -> conv7_2_conv7_2_relu_0_split_1
I0407 10:53:35.585204 30989 net.cpp:408] conv7_2_conv7_2_relu_0_split -> conv7_2_conv7_2_relu_0_split_2
I0407 10:53:35.585243 30989 net.cpp:150] Setting up conv7_2_conv7_2_relu_0_split
I0407 10:53:35.585247 30989 net.cpp:157] Top shape: 32 32 1 4 (4096)
I0407 10:53:35.585250 30989 net.cpp:157] Top shape: 32 32 1 4 (4096)
I0407 10:53:35.585253 30989 net.cpp:157] Top shape: 32 32 1 4 (4096)
I0407 10:53:35.585255 30989 net.cpp:165] Memory required for data: 280248608
I0407 10:53:35.585258 30989 layer_factory.hpp:77] Creating layer pool6
I0407 10:53:35.585263 30989 net.cpp:100] Creating Layer pool6
I0407 10:53:35.585264 30989 net.cpp:434] pool6 <- conv7_2_conv7_2_relu_0_split_0
I0407 10:53:35.585268 30989 net.cpp:408] pool6 -> pool6
I0407 10:53:35.585286 30989 net.cpp:150] Setting up pool6
I0407 10:53:35.585290 30989 net.cpp:157] Top shape: 32 32 1 1 (1024)
I0407 10:53:35.585292 30989 net.cpp:165] Memory required for data: 280252704
I0407 10:53:35.585294 30989 layer_factory.hpp:77] Creating layer pool6_pool6_0_split
I0407 10:53:35.585299 30989 net.cpp:100] Creating Layer pool6_pool6_0_split
I0407 10:53:35.585300 30989 net.cpp:434] pool6_pool6_0_split <- pool6
I0407 10:53:35.585304 30989 net.cpp:408] pool6_pool6_0_split -> pool6_pool6_0_split_0
I0407 10:53:35.585307 30989 net.cpp:408] pool6_pool6_0_split -> pool6_pool6_0_split_1
I0407 10:53:35.585335 30989 net.cpp:150] Setting up pool6_pool6_0_split
I0407 10:53:35.585340 30989 net.cpp:157] Top shape: 32 32 1 1 (1024)
I0407 10:53:35.585342 30989 net.cpp:157] Top shape: 32 32 1 1 (1024)
I0407 10:53:35.585345 30989 net.cpp:165] Memory required for data: 280260896
I0407 10:53:35.585346 30989 layer_factory.hpp:77] Creating layer conv4_3_norm
I0407 10:53:35.585350 30989 net.cpp:100] Creating Layer conv4_3_norm
I0407 10:53:35.585353 30989 net.cpp:434] conv4_3_norm <- conv4_3_relu4_3_0_split_1
I0407 10:53:35.585356 30989 net.cpp:408] conv4_3_norm -> conv4_3_norm
I0407 10:53:35.585471 30989 net.cpp:150] Setting up conv4_3_norm
I0407 10:53:35.585476 30989 net.cpp:157] Top shape: 32 128 8 32 (1048576)
I0407 10:53:35.585479 30989 net.cpp:165] Memory required for data: 284455200
I0407 10:53:35.585481 30989 layer_factory.hpp:77] Creating layer conv4_3_norm_conv4_3_norm_0_split
I0407 10:53:35.585484 30989 net.cpp:100] Creating Layer conv4_3_norm_conv4_3_norm_0_split
I0407 10:53:35.585487 30989 net.cpp:434] conv4_3_norm_conv4_3_norm_0_split <- conv4_3_norm
I0407 10:53:35.585491 30989 net.cpp:408] conv4_3_norm_conv4_3_norm_0_split -> conv4_3_norm_conv4_3_norm_0_split_0
I0407 10:53:35.585495 30989 net.cpp:408] conv4_3_norm_conv4_3_norm_0_split -> conv4_3_norm_conv4_3_norm_0_split_1
I0407 10:53:35.585523 30989 net.cpp:150] Setting up conv4_3_norm_conv4_3_norm_0_split
I0407 10:53:35.585527 30989 net.cpp:157] Top shape: 32 128 8 32 (1048576)
I0407 10:53:35.585530 30989 net.cpp:157] Top shape: 32 128 8 32 (1048576)
I0407 10:53:35.585532 30989 net.cpp:165] Memory required for data: 292843808
I0407 10:53:35.585535 30989 layer_factory.hpp:77] Creating layer conv4_3_norm_mbox_loc_conf
I0407 10:53:35.585539 30989 net.cpp:100] Creating Layer conv4_3_norm_mbox_loc_conf
I0407 10:53:35.585542 30989 net.cpp:434] conv4_3_norm_mbox_loc_conf <- conv4_3_norm_conv4_3_norm_0_split_0
I0407 10:53:35.585547 30989 net.cpp:408] conv4_3_norm_mbox_loc_conf -> conv4_3_norm_mbox_loc_conf
I0407 10:53:35.585930 30989 net.cpp:150] Setting up conv4_3_norm_mbox_loc_conf
I0407 10:53:35.585935 30989 net.cpp:157] Top shape: 32 48 8 32 (393216)
I0407 10:53:35.585938 30989 net.cpp:165] Memory required for data: 294416672
I0407 10:53:35.585942 30989 layer_factory.hpp:77] Creating layer conv4_3_norm_mbox_loc_conf_perm
I0407 10:53:35.585947 30989 net.cpp:100] Creating Layer conv4_3_norm_mbox_loc_conf_perm
I0407 10:53:35.585949 30989 net.cpp:434] conv4_3_norm_mbox_loc_conf_perm <- conv4_3_norm_mbox_loc_conf
I0407 10:53:35.585953 30989 net.cpp:408] conv4_3_norm_mbox_loc_conf_perm -> conv4_3_norm_mbox_loc_conf_perm
I0407 10:53:35.586032 30989 net.cpp:150] Setting up conv4_3_norm_mbox_loc_conf_perm
I0407 10:53:35.586036 30989 net.cpp:157] Top shape: 32 8 32 48 (393216)
I0407 10:53:35.586040 30989 net.cpp:165] Memory required for data: 295989536
I0407 10:53:35.586041 30989 layer_factory.hpp:77] Creating layer conv4_3_norm_mbox_loc_perm
I0407 10:53:35.586045 30989 net.cpp:100] Creating Layer conv4_3_norm_mbox_loc_perm
I0407 10:53:35.586048 30989 net.cpp:434] conv4_3_norm_mbox_loc_perm <- conv4_3_norm_mbox_loc_conf_perm
I0407 10:53:35.586051 30989 net.cpp:408] conv4_3_norm_mbox_loc_perm -> conv4_3_norm_mbox_loc_perm
I0407 10:53:35.586056 30989 net.cpp:408] conv4_3_norm_mbox_loc_perm -> conv4_3_norm_mbox_conf_perm
I0407 10:53:35.586084 30989 net.cpp:150] Setting up conv4_3_norm_mbox_loc_perm
I0407 10:53:35.586088 30989 net.cpp:157] Top shape: 32 8 32 24 (196608)
I0407 10:53:35.586091 30989 net.cpp:157] Top shape: 32 8 32 24 (196608)
I0407 10:53:35.586093 30989 net.cpp:165] Memory required for data: 297562400
I0407 10:53:35.586097 30989 layer_factory.hpp:77] Creating layer conv4_3_norm_mbox_loc_flat
I0407 10:53:35.586099 30989 net.cpp:100] Creating Layer conv4_3_norm_mbox_loc_flat
I0407 10:53:35.586102 30989 net.cpp:434] conv4_3_norm_mbox_loc_flat <- conv4_3_norm_mbox_loc_perm
I0407 10:53:35.586105 30989 net.cpp:408] conv4_3_norm_mbox_loc_flat -> conv4_3_norm_mbox_loc_flat
I0407 10:53:35.586123 30989 net.cpp:150] Setting up conv4_3_norm_mbox_loc_flat
I0407 10:53:35.586127 30989 net.cpp:157] Top shape: 32 6144 (196608)
I0407 10:53:35.586130 30989 net.cpp:165] Memory required for data: 298348832
I0407 10:53:35.586133 30989 layer_factory.hpp:77] Creating layer conv4_3_norm_mbox_conf_flat
I0407 10:53:35.586135 30989 net.cpp:100] Creating Layer conv4_3_norm_mbox_conf_flat
I0407 10:53:35.586138 30989 net.cpp:434] conv4_3_norm_mbox_conf_flat <- conv4_3_norm_mbox_conf_perm
I0407 10:53:35.586141 30989 net.cpp:408] conv4_3_norm_mbox_conf_flat -> conv4_3_norm_mbox_conf_flat
I0407 10:53:35.586159 30989 net.cpp:150] Setting up conv4_3_norm_mbox_conf_flat
I0407 10:53:35.586163 30989 net.cpp:157] Top shape: 32 6144 (196608)
I0407 10:53:35.586165 30989 net.cpp:165] Memory required for data: 299135264
I0407 10:53:35.586168 30989 layer_factory.hpp:77] Creating layer conv4_3_norm_mbox_priorbox
I0407 10:53:35.586172 30989 net.cpp:100] Creating Layer conv4_3_norm_mbox_priorbox
I0407 10:53:35.586174 30989 net.cpp:434] conv4_3_norm_mbox_priorbox <- conv4_3_norm_conv4_3_norm_0_split_1
I0407 10:53:35.586179 30989 net.cpp:434] conv4_3_norm_mbox_priorbox <- data_data_0_split_1
I0407 10:53:35.586181 30989 net.cpp:408] conv4_3_norm_mbox_priorbox -> conv4_3_norm_mbox_priorbox
I0407 10:53:35.586200 30989 net.cpp:150] Setting up conv4_3_norm_mbox_priorbox
I0407 10:53:35.586205 30989 net.cpp:157] Top shape: 1 2 6144 (12288)
I0407 10:53:35.586206 30989 net.cpp:165] Memory required for data: 299184416
I0407 10:53:35.586210 30989 layer_factory.hpp:77] Creating layer fc7_conv_mbox_loc_conf
I0407 10:53:35.586213 30989 net.cpp:100] Creating Layer fc7_conv_mbox_loc_conf
I0407 10:53:35.586216 30989 net.cpp:434] fc7_conv_mbox_loc_conf <- fc7_conv_relu7_0_split_1
I0407 10:53:35.586220 30989 net.cpp:408] fc7_conv_mbox_loc_conf -> fc7_conv_mbox_loc_conf
I0407 10:53:35.587579 30989 net.cpp:150] Setting up fc7_conv_mbox_loc_conf
I0407 10:53:35.587589 30989 net.cpp:157] Top shape: 32 48 4 16 (98304)
I0407 10:53:35.587594 30989 net.cpp:165] Memory required for data: 299577632
I0407 10:53:35.587599 30989 layer_factory.hpp:77] Creating layer fc7_conv_mbox_loc_conf_perm
I0407 10:53:35.587604 30989 net.cpp:100] Creating Layer fc7_conv_mbox_loc_conf_perm
I0407 10:53:35.587607 30989 net.cpp:434] fc7_conv_mbox_loc_conf_perm <- fc7_conv_mbox_loc_conf
I0407 10:53:35.587611 30989 net.cpp:408] fc7_conv_mbox_loc_conf_perm -> fc7_conv_mbox_loc_conf_perm
I0407 10:53:35.587695 30989 net.cpp:150] Setting up fc7_conv_mbox_loc_conf_perm
I0407 10:53:35.587699 30989 net.cpp:157] Top shape: 32 4 16 48 (98304)
I0407 10:53:35.587702 30989 net.cpp:165] Memory required for data: 299970848
I0407 10:53:35.587704 30989 layer_factory.hpp:77] Creating layer fc7_conv_mbox_loc_perm
I0407 10:53:35.587708 30989 net.cpp:100] Creating Layer fc7_conv_mbox_loc_perm
I0407 10:53:35.587712 30989 net.cpp:434] fc7_conv_mbox_loc_perm <- fc7_conv_mbox_loc_conf_perm
I0407 10:53:35.587714 30989 net.cpp:408] fc7_conv_mbox_loc_perm -> fc7_conv_mbox_loc_perm
I0407 10:53:35.587718 30989 net.cpp:408] fc7_conv_mbox_loc_perm -> fc7_conv_mbox_conf_perm
I0407 10:53:35.587748 30989 net.cpp:150] Setting up fc7_conv_mbox_loc_perm
I0407 10:53:35.587751 30989 net.cpp:157] Top shape: 32 4 16 24 (49152)
I0407 10:53:35.587754 30989 net.cpp:157] Top shape: 32 4 16 24 (49152)
I0407 10:53:35.587756 30989 net.cpp:165] Memory required for data: 300364064
I0407 10:53:35.587759 30989 layer_factory.hpp:77] Creating layer fc7_conv_mbox_loc_flat
I0407 10:53:35.587762 30989 net.cpp:100] Creating Layer fc7_conv_mbox_loc_flat
I0407 10:53:35.587765 30989 net.cpp:434] fc7_conv_mbox_loc_flat <- fc7_conv_mbox_loc_perm
I0407 10:53:35.587769 30989 net.cpp:408] fc7_conv_mbox_loc_flat -> fc7_conv_mbox_loc_flat
I0407 10:53:35.587786 30989 net.cpp:150] Setting up fc7_conv_mbox_loc_flat
I0407 10:53:35.587790 30989 net.cpp:157] Top shape: 32 1536 (49152)
I0407 10:53:35.587792 30989 net.cpp:165] Memory required for data: 300560672
I0407 10:53:35.587795 30989 layer_factory.hpp:77] Creating layer fc7_conv_mbox_conf_flat
I0407 10:53:35.587797 30989 net.cpp:100] Creating Layer fc7_conv_mbox_conf_flat
I0407 10:53:35.587800 30989 net.cpp:434] fc7_conv_mbox_conf_flat <- fc7_conv_mbox_conf_perm
I0407 10:53:35.587803 30989 net.cpp:408] fc7_conv_mbox_conf_flat -> fc7_conv_mbox_conf_flat
I0407 10:53:35.587821 30989 net.cpp:150] Setting up fc7_conv_mbox_conf_flat
I0407 10:53:35.587826 30989 net.cpp:157] Top shape: 32 1536 (49152)
I0407 10:53:35.587828 30989 net.cpp:165] Memory required for data: 300757280
I0407 10:53:35.587831 30989 layer_factory.hpp:77] Creating layer fc7_conv_mbox_priorbox
I0407 10:53:35.587834 30989 net.cpp:100] Creating Layer fc7_conv_mbox_priorbox
I0407 10:53:35.587836 30989 net.cpp:434] fc7_conv_mbox_priorbox <- fc7_conv_relu7_0_split_2
I0407 10:53:35.587841 30989 net.cpp:434] fc7_conv_mbox_priorbox <- data_data_0_split_2
I0407 10:53:35.587843 30989 net.cpp:408] fc7_conv_mbox_priorbox -> fc7_conv_mbox_priorbox
I0407 10:53:35.587862 30989 net.cpp:150] Setting up fc7_conv_mbox_priorbox
I0407 10:53:35.587867 30989 net.cpp:157] Top shape: 1 2 1536 (3072)
I0407 10:53:35.587868 30989 net.cpp:165] Memory required for data: 300769568
I0407 10:53:35.587872 30989 layer_factory.hpp:77] Creating layer conv6_2_mbox_loc_conf
I0407 10:53:35.587877 30989 net.cpp:100] Creating Layer conv6_2_mbox_loc_conf
I0407 10:53:35.587879 30989 net.cpp:434] conv6_2_mbox_loc_conf <- conv6_2_conv6_2_relu_0_split_1
I0407 10:53:35.587883 30989 net.cpp:408] conv6_2_mbox_loc_conf -> conv6_2_mbox_loc_conf
I0407 10:53:35.588181 30989 net.cpp:150] Setting up conv6_2_mbox_loc_conf
I0407 10:53:35.588186 30989 net.cpp:157] Top shape: 32 48 2 8 (24576)
I0407 10:53:35.588189 30989 net.cpp:165] Memory required for data: 300867872
I0407 10:53:35.588192 30989 layer_factory.hpp:77] Creating layer conv6_2_mbox_loc_conf_perm
I0407 10:53:35.588201 30989 net.cpp:100] Creating Layer conv6_2_mbox_loc_conf_perm
I0407 10:53:35.588203 30989 net.cpp:434] conv6_2_mbox_loc_conf_perm <- conv6_2_mbox_loc_conf
I0407 10:53:35.588207 30989 net.cpp:408] conv6_2_mbox_loc_conf_perm -> conv6_2_mbox_loc_conf_perm
I0407 10:53:35.588294 30989 net.cpp:150] Setting up conv6_2_mbox_loc_conf_perm
I0407 10:53:35.588299 30989 net.cpp:157] Top shape: 32 2 8 48 (24576)
I0407 10:53:35.588300 30989 net.cpp:165] Memory required for data: 300966176
I0407 10:53:35.588304 30989 layer_factory.hpp:77] Creating layer conv6_2_mbox_loc_perm
I0407 10:53:35.588306 30989 net.cpp:100] Creating Layer conv6_2_mbox_loc_perm
I0407 10:53:35.588310 30989 net.cpp:434] conv6_2_mbox_loc_perm <- conv6_2_mbox_loc_conf_perm
I0407 10:53:35.588312 30989 net.cpp:408] conv6_2_mbox_loc_perm -> conv6_2_mbox_loc_perm
I0407 10:53:35.588316 30989 net.cpp:408] conv6_2_mbox_loc_perm -> conv6_2_mbox_conf_perm
I0407 10:53:35.588357 30989 net.cpp:150] Setting up conv6_2_mbox_loc_perm
I0407 10:53:35.588363 30989 net.cpp:157] Top shape: 32 2 8 24 (12288)
I0407 10:53:35.588366 30989 net.cpp:157] Top shape: 32 2 8 24 (12288)
I0407 10:53:35.588368 30989 net.cpp:165] Memory required for data: 301064480
I0407 10:53:35.588371 30989 layer_factory.hpp:77] Creating layer conv6_2_mbox_loc_flat
I0407 10:53:35.588376 30989 net.cpp:100] Creating Layer conv6_2_mbox_loc_flat
I0407 10:53:35.588378 30989 net.cpp:434] conv6_2_mbox_loc_flat <- conv6_2_mbox_loc_perm
I0407 10:53:35.588382 30989 net.cpp:408] conv6_2_mbox_loc_flat -> conv6_2_mbox_loc_flat
I0407 10:53:35.588400 30989 net.cpp:150] Setting up conv6_2_mbox_loc_flat
I0407 10:53:35.588404 30989 net.cpp:157] Top shape: 32 384 (12288)
I0407 10:53:35.588407 30989 net.cpp:165] Memory required for data: 301113632
I0407 10:53:35.588409 30989 layer_factory.hpp:77] Creating layer conv6_2_mbox_conf_flat
I0407 10:53:35.588413 30989 net.cpp:100] Creating Layer conv6_2_mbox_conf_flat
I0407 10:53:35.588415 30989 net.cpp:434] conv6_2_mbox_conf_flat <- conv6_2_mbox_conf_perm
I0407 10:53:35.588418 30989 net.cpp:408] conv6_2_mbox_conf_flat -> conv6_2_mbox_conf_flat
I0407 10:53:35.588436 30989 net.cpp:150] Setting up conv6_2_mbox_conf_flat
I0407 10:53:35.588441 30989 net.cpp:157] Top shape: 32 384 (12288)
I0407 10:53:35.588443 30989 net.cpp:165] Memory required for data: 301162784
I0407 10:53:35.588445 30989 layer_factory.hpp:77] Creating layer conv6_2_mbox_priorbox
I0407 10:53:35.588449 30989 net.cpp:100] Creating Layer conv6_2_mbox_priorbox
I0407 10:53:35.588452 30989 net.cpp:434] conv6_2_mbox_priorbox <- conv6_2_conv6_2_relu_0_split_2
I0407 10:53:35.588455 30989 net.cpp:434] conv6_2_mbox_priorbox <- data_data_0_split_3
I0407 10:53:35.588459 30989 net.cpp:408] conv6_2_mbox_priorbox -> conv6_2_mbox_priorbox
I0407 10:53:35.588477 30989 net.cpp:150] Setting up conv6_2_mbox_priorbox
I0407 10:53:35.588481 30989 net.cpp:157] Top shape: 1 2 384 (768)
I0407 10:53:35.588485 30989 net.cpp:165] Memory required for data: 301165856
I0407 10:53:35.588486 30989 layer_factory.hpp:77] Creating layer conv7_2_mbox_loc_conf
I0407 10:53:35.588491 30989 net.cpp:100] Creating Layer conv7_2_mbox_loc_conf
I0407 10:53:35.588495 30989 net.cpp:434] conv7_2_mbox_loc_conf <- conv7_2_conv7_2_relu_0_split_1
I0407 10:53:35.588498 30989 net.cpp:408] conv7_2_mbox_loc_conf -> conv7_2_mbox_loc_conf
I0407 10:53:35.588752 30989 net.cpp:150] Setting up conv7_2_mbox_loc_conf
I0407 10:53:35.588757 30989 net.cpp:157] Top shape: 32 48 1 4 (6144)
I0407 10:53:35.588760 30989 net.cpp:165] Memory required for data: 301190432
I0407 10:53:35.588763 30989 layer_factory.hpp:77] Creating layer conv7_2_mbox_loc_conf_perm
I0407 10:53:35.588768 30989 net.cpp:100] Creating Layer conv7_2_mbox_loc_conf_perm
I0407 10:53:35.588770 30989 net.cpp:434] conv7_2_mbox_loc_conf_perm <- conv7_2_mbox_loc_conf
I0407 10:53:35.588774 30989 net.cpp:408] conv7_2_mbox_loc_conf_perm -> conv7_2_mbox_loc_conf_perm
I0407 10:53:35.588856 30989 net.cpp:150] Setting up conv7_2_mbox_loc_conf_perm
I0407 10:53:35.588860 30989 net.cpp:157] Top shape: 32 1 4 48 (6144)
I0407 10:53:35.588862 30989 net.cpp:165] Memory required for data: 301215008
I0407 10:53:35.588865 30989 layer_factory.hpp:77] Creating layer conv7_2_mbox_loc_perm
I0407 10:53:35.588868 30989 net.cpp:100] Creating Layer conv7_2_mbox_loc_perm
I0407 10:53:35.588873 30989 net.cpp:434] conv7_2_mbox_loc_perm <- conv7_2_mbox_loc_conf_perm
I0407 10:53:35.588877 30989 net.cpp:408] conv7_2_mbox_loc_perm -> conv7_2_mbox_loc_perm
I0407 10:53:35.588881 30989 net.cpp:408] conv7_2_mbox_loc_perm -> conv7_2_mbox_conf_perm
I0407 10:53:35.588910 30989 net.cpp:150] Setting up conv7_2_mbox_loc_perm
I0407 10:53:35.588914 30989 net.cpp:157] Top shape: 32 1 4 24 (3072)
I0407 10:53:35.588917 30989 net.cpp:157] Top shape: 32 1 4 24 (3072)
I0407 10:53:35.588919 30989 net.cpp:165] Memory required for data: 301239584
I0407 10:53:35.588922 30989 layer_factory.hpp:77] Creating layer conv7_2_mbox_loc_flat
I0407 10:53:35.588925 30989 net.cpp:100] Creating Layer conv7_2_mbox_loc_flat
I0407 10:53:35.588928 30989 net.cpp:434] conv7_2_mbox_loc_flat <- conv7_2_mbox_loc_perm
I0407 10:53:35.588932 30989 net.cpp:408] conv7_2_mbox_loc_flat -> conv7_2_mbox_loc_flat
I0407 10:53:35.588949 30989 net.cpp:150] Setting up conv7_2_mbox_loc_flat
I0407 10:53:35.588953 30989 net.cpp:157] Top shape: 32 96 (3072)
I0407 10:53:35.588955 30989 net.cpp:165] Memory required for data: 301251872
I0407 10:53:35.588958 30989 layer_factory.hpp:77] Creating layer conv7_2_mbox_conf_flat
I0407 10:53:35.588960 30989 net.cpp:100] Creating Layer conv7_2_mbox_conf_flat
I0407 10:53:35.588963 30989 net.cpp:434] conv7_2_mbox_conf_flat <- conv7_2_mbox_conf_perm
I0407 10:53:35.588966 30989 net.cpp:408] conv7_2_mbox_conf_flat -> conv7_2_mbox_conf_flat
I0407 10:53:35.588985 30989 net.cpp:150] Setting up conv7_2_mbox_conf_flat
I0407 10:53:35.588989 30989 net.cpp:157] Top shape: 32 96 (3072)
I0407 10:53:35.588991 30989 net.cpp:165] Memory required for data: 301264160
I0407 10:53:35.588994 30989 layer_factory.hpp:77] Creating layer conv7_2_mbox_priorbox
I0407 10:53:35.588997 30989 net.cpp:100] Creating Layer conv7_2_mbox_priorbox
I0407 10:53:35.588999 30989 net.cpp:434] conv7_2_mbox_priorbox <- conv7_2_conv7_2_relu_0_split_2
I0407 10:53:35.589002 30989 net.cpp:434] conv7_2_mbox_priorbox <- data_data_0_split_4
I0407 10:53:35.589006 30989 net.cpp:408] conv7_2_mbox_priorbox -> conv7_2_mbox_priorbox
I0407 10:53:35.589025 30989 net.cpp:150] Setting up conv7_2_mbox_priorbox
I0407 10:53:35.589030 30989 net.cpp:157] Top shape: 1 2 96 (192)
I0407 10:53:35.589031 30989 net.cpp:165] Memory required for data: 301264928
I0407 10:53:35.589033 30989 layer_factory.hpp:77] Creating layer pool6_mbox_loc_conf
I0407 10:53:35.589038 30989 net.cpp:100] Creating Layer pool6_mbox_loc_conf
I0407 10:53:35.589041 30989 net.cpp:434] pool6_mbox_loc_conf <- pool6_pool6_0_split_0
I0407 10:53:35.589046 30989 net.cpp:408] pool6_mbox_loc_conf -> pool6_mbox_loc_conf
I0407 10:53:35.589299 30989 net.cpp:150] Setting up pool6_mbox_loc_conf
I0407 10:53:35.589304 30989 net.cpp:157] Top shape: 32 48 1 1 (1536)
I0407 10:53:35.589306 30989 net.cpp:165] Memory required for data: 301271072
I0407 10:53:35.589310 30989 layer_factory.hpp:77] Creating layer pool6_mbox_loc_conf_perm
I0407 10:53:35.589314 30989 net.cpp:100] Creating Layer pool6_mbox_loc_conf_perm
I0407 10:53:35.589318 30989 net.cpp:434] pool6_mbox_loc_conf_perm <- pool6_mbox_loc_conf
I0407 10:53:35.589320 30989 net.cpp:408] pool6_mbox_loc_conf_perm -> pool6_mbox_loc_conf_perm
I0407 10:53:35.589402 30989 net.cpp:150] Setting up pool6_mbox_loc_conf_perm
I0407 10:53:35.589407 30989 net.cpp:157] Top shape: 32 1 1 48 (1536)
I0407 10:53:35.589409 30989 net.cpp:165] Memory required for data: 301277216
I0407 10:53:35.589411 30989 layer_factory.hpp:77] Creating layer pool6_mbox_loc_perm
I0407 10:53:35.589416 30989 net.cpp:100] Creating Layer pool6_mbox_loc_perm
I0407 10:53:35.589417 30989 net.cpp:434] pool6_mbox_loc_perm <- pool6_mbox_loc_conf_perm
I0407 10:53:35.589421 30989 net.cpp:408] pool6_mbox_loc_perm -> pool6_mbox_loc_perm
I0407 10:53:35.589426 30989 net.cpp:408] pool6_mbox_loc_perm -> pool6_mbox_conf_perm
I0407 10:53:35.589453 30989 net.cpp:150] Setting up pool6_mbox_loc_perm
I0407 10:53:35.589457 30989 net.cpp:157] Top shape: 32 1 1 24 (768)
I0407 10:53:35.589460 30989 net.cpp:157] Top shape: 32 1 1 24 (768)
I0407 10:53:35.589464 30989 net.cpp:165] Memory required for data: 301283360
I0407 10:53:35.589467 30989 layer_factory.hpp:77] Creating layer pool6_mbox_loc_flat
I0407 10:53:35.589470 30989 net.cpp:100] Creating Layer pool6_mbox_loc_flat
I0407 10:53:35.589473 30989 net.cpp:434] pool6_mbox_loc_flat <- pool6_mbox_loc_perm
I0407 10:53:35.589476 30989 net.cpp:408] pool6_mbox_loc_flat -> pool6_mbox_loc_flat
I0407 10:53:35.589493 30989 net.cpp:150] Setting up pool6_mbox_loc_flat
I0407 10:53:35.589498 30989 net.cpp:157] Top shape: 32 24 (768)
I0407 10:53:35.589500 30989 net.cpp:165] Memory required for data: 301286432
I0407 10:53:35.589503 30989 layer_factory.hpp:77] Creating layer pool6_mbox_conf_flat
I0407 10:53:35.589505 30989 net.cpp:100] Creating Layer pool6_mbox_conf_flat
I0407 10:53:35.589509 30989 net.cpp:434] pool6_mbox_conf_flat <- pool6_mbox_conf_perm
I0407 10:53:35.589511 30989 net.cpp:408] pool6_mbox_conf_flat -> pool6_mbox_conf_flat
I0407 10:53:35.589529 30989 net.cpp:150] Setting up pool6_mbox_conf_flat
I0407 10:53:35.589534 30989 net.cpp:157] Top shape: 32 24 (768)
I0407 10:53:35.589536 30989 net.cpp:165] Memory required for data: 301289504
I0407 10:53:35.589539 30989 layer_factory.hpp:77] Creating layer pool6_mbox_priorbox
I0407 10:53:35.589541 30989 net.cpp:100] Creating Layer pool6_mbox_priorbox
I0407 10:53:35.589545 30989 net.cpp:434] pool6_mbox_priorbox <- pool6_pool6_0_split_1
I0407 10:53:35.589547 30989 net.cpp:434] pool6_mbox_priorbox <- data_data_0_split_5
I0407 10:53:35.589551 30989 net.cpp:408] pool6_mbox_priorbox -> pool6_mbox_priorbox
I0407 10:53:35.589570 30989 net.cpp:150] Setting up pool6_mbox_priorbox
I0407 10:53:35.589573 30989 net.cpp:157] Top shape: 1 2 24 (48)
I0407 10:53:35.589576 30989 net.cpp:165] Memory required for data: 301289696
I0407 10:53:35.589577 30989 layer_factory.hpp:77] Creating layer mbox_loc
I0407 10:53:35.589582 30989 net.cpp:100] Creating Layer mbox_loc
I0407 10:53:35.589586 30989 net.cpp:434] mbox_loc <- conv4_3_norm_mbox_loc_flat
I0407 10:53:35.589588 30989 net.cpp:434] mbox_loc <- fc7_conv_mbox_loc_flat
I0407 10:53:35.589591 30989 net.cpp:434] mbox_loc <- conv6_2_mbox_loc_flat
I0407 10:53:35.589594 30989 net.cpp:434] mbox_loc <- conv7_2_mbox_loc_flat
I0407 10:53:35.589597 30989 net.cpp:434] mbox_loc <- pool6_mbox_loc_flat
I0407 10:53:35.589601 30989 net.cpp:408] mbox_loc -> mbox_loc
I0407 10:53:35.589620 30989 net.cpp:150] Setting up mbox_loc
I0407 10:53:35.589624 30989 net.cpp:157] Top shape: 32 8184 (261888)
I0407 10:53:35.589627 30989 net.cpp:165] Memory required for data: 302337248
I0407 10:53:35.589629 30989 layer_factory.hpp:77] Creating layer mbox_conf
I0407 10:53:35.589632 30989 net.cpp:100] Creating Layer mbox_conf
I0407 10:53:35.589635 30989 net.cpp:434] mbox_conf <- conv4_3_norm_mbox_conf_flat
I0407 10:53:35.589638 30989 net.cpp:434] mbox_conf <- fc7_conv_mbox_conf_flat
I0407 10:53:35.589642 30989 net.cpp:434] mbox_conf <- conv6_2_mbox_conf_flat
I0407 10:53:35.589644 30989 net.cpp:434] mbox_conf <- conv7_2_mbox_conf_flat
I0407 10:53:35.589648 30989 net.cpp:434] mbox_conf <- pool6_mbox_conf_flat
I0407 10:53:35.589650 30989 net.cpp:408] mbox_conf -> mbox_conf
I0407 10:53:35.589668 30989 net.cpp:150] Setting up mbox_conf
I0407 10:53:35.589671 30989 net.cpp:157] Top shape: 32 8184 (261888)
I0407 10:53:35.589674 30989 net.cpp:165] Memory required for data: 303384800
I0407 10:53:35.589676 30989 layer_factory.hpp:77] Creating layer mbox_priorbox
I0407 10:53:35.589679 30989 net.cpp:100] Creating Layer mbox_priorbox
I0407 10:53:35.589682 30989 net.cpp:434] mbox_priorbox <- conv4_3_norm_mbox_priorbox
I0407 10:53:35.589685 30989 net.cpp:434] mbox_priorbox <- fc7_conv_mbox_priorbox
I0407 10:53:35.589689 30989 net.cpp:434] mbox_priorbox <- conv6_2_mbox_priorbox
I0407 10:53:35.589691 30989 net.cpp:434] mbox_priorbox <- conv7_2_mbox_priorbox
I0407 10:53:35.589694 30989 net.cpp:434] mbox_priorbox <- pool6_mbox_priorbox
I0407 10:53:35.589697 30989 net.cpp:408] mbox_priorbox -> mbox_priorbox
I0407 10:53:35.589715 30989 net.cpp:150] Setting up mbox_priorbox
I0407 10:53:35.589720 30989 net.cpp:157] Top shape: 1 2 8184 (16368)
I0407 10:53:35.589723 30989 net.cpp:165] Memory required for data: 303450272
I0407 10:53:35.589725 30989 layer_factory.hpp:77] Creating layer mbox_conf_reshape
I0407 10:53:35.589730 30989 net.cpp:100] Creating Layer mbox_conf_reshape
I0407 10:53:35.589732 30989 net.cpp:434] mbox_conf_reshape <- mbox_conf
I0407 10:53:35.589736 30989 net.cpp:408] mbox_conf_reshape -> mbox_conf_reshape
I0407 10:53:35.589756 30989 net.cpp:150] Setting up mbox_conf_reshape
I0407 10:53:35.589759 30989 net.cpp:157] Top shape: 32 2046 4 (261888)
I0407 10:53:35.589761 30989 net.cpp:165] Memory required for data: 304497824
I0407 10:53:35.589764 30989 layer_factory.hpp:77] Creating layer mbox_conf_softmax
I0407 10:53:35.589768 30989 net.cpp:100] Creating Layer mbox_conf_softmax
I0407 10:53:35.589771 30989 net.cpp:434] mbox_conf_softmax <- mbox_conf_reshape
I0407 10:53:35.589774 30989 net.cpp:408] mbox_conf_softmax -> mbox_conf_softmax
I0407 10:53:35.589825 30989 net.cpp:150] Setting up mbox_conf_softmax
I0407 10:53:35.589830 30989 net.cpp:157] Top shape: 32 2046 4 (261888)
I0407 10:53:35.589833 30989 net.cpp:165] Memory required for data: 305545376
I0407 10:53:35.589834 30989 layer_factory.hpp:77] Creating layer mbox_conf_flatten
I0407 10:53:35.589838 30989 net.cpp:100] Creating Layer mbox_conf_flatten
I0407 10:53:35.589840 30989 net.cpp:434] mbox_conf_flatten <- mbox_conf_softmax
I0407 10:53:35.589843 30989 net.cpp:408] mbox_conf_flatten -> mbox_conf_flatten
I0407 10:53:35.589861 30989 net.cpp:150] Setting up mbox_conf_flatten
I0407 10:53:35.589865 30989 net.cpp:157] Top shape: 32 8184 (261888)
I0407 10:53:35.589867 30989 net.cpp:165] Memory required for data: 306592928
I0407 10:53:35.589870 30989 layer_factory.hpp:77] Creating layer detection_out
I0407 10:53:35.589880 30989 net.cpp:100] Creating Layer detection_out
I0407 10:53:35.589884 30989 net.cpp:434] detection_out <- mbox_loc
I0407 10:53:35.589886 30989 net.cpp:434] detection_out <- mbox_conf_flatten
I0407 10:53:35.589890 30989 net.cpp:434] detection_out <- mbox_priorbox
I0407 10:53:35.589893 30989 net.cpp:408] detection_out -> detection_out
I0407 10:53:35.590785 30989 net.cpp:150] Setting up detection_out
I0407 10:53:35.590792 30989 net.cpp:157] Top shape: 1 1 1 7 (7)
I0407 10:53:35.590795 30989 net.cpp:165] Memory required for data: 306592956
I0407 10:53:35.590798 30989 layer_factory.hpp:77] Creating layer detection_eval
I0407 10:53:35.590803 30989 net.cpp:100] Creating Layer detection_eval
I0407 10:53:35.590806 30989 net.cpp:434] detection_eval <- detection_out
I0407 10:53:35.590809 30989 net.cpp:434] detection_eval <- label
I0407 10:53:35.590813 30989 net.cpp:408] detection_eval -> detection_eval
I0407 10:53:35.591117 30989 net.cpp:150] Setting up detection_eval
I0407 10:53:35.591122 30989 net.cpp:157] Top shape: 1 1 4 5 (20)
I0407 10:53:35.591125 30989 net.cpp:165] Memory required for data: 306593036
I0407 10:53:35.591128 30989 net.cpp:228] detection_eval does not need backward computation.
I0407 10:53:35.591131 30989 net.cpp:228] detection_out does not need backward computation.
I0407 10:53:35.591133 30989 net.cpp:228] mbox_conf_flatten does not need backward computation.
I0407 10:53:35.591136 30989 net.cpp:228] mbox_conf_softmax does not need backward computation.
…
