…
        min_jaccard_overlap: 0.9
      }
      max_sample: 1
      max_trials: 50
      xmin: 0.35
      ymin: 0.3
      xmax: 0.7
      ymax: 0.65
    }
    batch_sampler {
      sampler {
        min_scale: 0.3
        max_scale: 1
        min_aspect_ratio: 0.5
        max_aspect_ratio: 2
      }
      sample_constraint {
        max_jaccard_overlap: 1
      }
      max_sample: 1
      max_trials: 50
      xmin: 0.35
      ymin: 0.3
      xmax: 0.7
      ymax: 0.65
    }
    label_map_file: "/home/work/qinhuan/git/caffe-ssd/data/labelmap_all.prototxt"
  }
}
layer {
  name: "conv1_1"
  type: "Convolution"
  bottom: "data"
  top: "conv1_1"
  param {
    lr_mult: 1
    decay_mult: 1
  }
  param {
    lr_mult: 2
    decay_mult: 0
  }
  convolution_param {
    num_output: 16
    pad: 1
    kernel_size: 3
    weight_filler {
      type: "xavier"
    }
    bias_filler {
      type: "constant"
      value: 0
    }
  }
}
layer {
  name: "relu1_1"
  type: "ReLU"
  bottom: "conv1_1"
  top: "conv1_1"
}
layer {
  name: "conv1_2"
  type: "Convolution"
  bottom: "conv1_1"
  top: "conv1_2"
  param {
    lr_mult: 1
    decay_mult: 1
  }
  param {
    lr_mult: 2
    decay_mult: 0
  }
  convolution_param {
    num_output: 16
    pad: 1
    kernel_size: 3
    stride: 2
    weight_filler {
      type: "xavier"
    }
    bias_filler {
      type: "constant"
      value: 0
    }
  }
}
layer {
  name: "relu1_2"
  type: "ReLU"
  bottom: "conv1_2"
  top: "conv1_2"
}
layer {
  name: "conv2_1"
  type: "Convolution"
  bottom: "conv1_2"
  top: "conv2_1"
  param {
    lr_mult: 1
    decay_mult: 1
  }
  param {
    lr_mult: 2
    decay_mult: 0
  }
  convolution_param {
    num_output: 32
    pad: 1
    kernel_size: 3
    weight_filler {
      type: "xavier"
    }
    bias_filler {
      type: "constant"
      value: 0
    }
  }
}
layer {
  name: "relu2_1"
  type: "ReLU"
  bottom: "conv2_1"
  top: "conv2_1"
}
layer {
  name: "conv2_2"
  type: "Convolution"
  bottom: "conv2_1"
  top: "conv2_2"
  param {
    lr_mult: 1
    decay_mult: 1
  }
  param {
    lr_mult: 2
    decay_mult: 0
  }
  convolution_param {
    num_output: 32
    pad: 1
    kernel_size: 3
    stride: 2
    weight_filler {
      type: "xavier"
    }
    bias_filler {
      type: "constant"
      value: 0
    }
  }
}
layer {
  name: "relu2_2"
  type: "ReLU"
  bottom: "conv2_2"
  top: "conv2_2"
}
layer {
  name: "conv3_1"
  type: "Convolution"
  bottom: "conv2_2"
  top: "conv3_1"
  param {
    lr_mult: 1
    decay_mult: 1
  }
  param {
    lr_mult: 2
    decay_mult: 0
  }
  convolution_param {
    num_output: 64
    pad: 1
    kernel_size: 3
    weight_filler {
      type: "xavier"
    }
    bias_filler {
      type: "constant"
      value: 0
    }
  }
}
layer {
  name: "relu3_1"
  type: "ReLU"
  bottom: "conv3_1"
  top: "conv3_1"
}
layer {
  name: "conv3_2"
  type: "Convolution"
  bottom: "conv3_1"
  top: "conv3_2"
  param {
    lr_mult: 1
    decay_mult: 1
  }
  param {
    lr_mult: 2
    decay_mult: 0
  }
  convolution_param {
    num_output: 64
    pad: 1
    kernel_size: 3
    weight_filler {
      type: "xavier"
    }
    bias_filler {
      type: "constant"
      value: 0
    }
  }
}
layer {
  name: "relu3_2"
  type: "ReLU"
  bottom: "conv3_2"
  top: "conv3_2"
}
layer {
  name: "conv3_3"
  type: "Convolution"
  bottom: "conv3_2"
  top: "conv3_3"
  param {
    lr_mult: 1
    decay_mult: 1
  }
  param {
    lr_mult: 2
    decay_mult: 0
  }
  convolution_param {
    num_output: 64
    pad: 1
    kernel_size: 3
    weight_filler {
      type: "xavier"
    }
    bias_filler {
      type: "constant"
      value: 0
    }
  }
}
layer {
  name: "relu3_3"
  type: "ReLU"
  bottom: "conv3_3"
  top: "conv3_3"
}
layer {
  name: "pool3"
  type: "Pooling"
  bottom: "conv3_3"
  top: "pool3"
  pooling_param {
    pool: MAX
    kernel_size: 2
    stride: 2
  }
}
layer {
  name: "conv4_1"
  type: "Convolution"
  bottom: "pool3"
  top: "conv4_1"
  param {
    lr_mult: 1
    decay_mult: 1
  }
  param {
    lr_mult: 2
    decay_mult: 0
  }
  convolution_param {
    num_output: 128
    pad: 1
    kernel_size: 3
    weight_filler {
      type: "xavier"
    }
    bias_filler {
      type: "constant"
      value: 0
    }
  }
}
layer {
  name: "relu4_1"
  type: "ReLU"
  bottom: "conv4_1"
  top: "conv4_1"
}
layer {
  name: "conv4_2"
  type: "Convolution"
  bottom: "conv4_1"
  top: "conv4_2"
  param {
    lr_mult: 1
    decay_mult: 1
  }
  param {
    lr_mult: 2
    decay_mult: 0
  }
  convolution_param {
    num_output: 128
    pad: 1
    kernel_size: 3
    weight_filler {
      type: "xavier"
    }
    bias_filler {
      type: "constant"
      value: 0
    }
  }
}
layer {
  name: "relu4_2"
  type: "ReLU"
  bottom: "conv4_2"
  top: "conv4_2"
}
layer {
  name: "conv4_3"
  type: "Convolution"
  bottom: "conv4_2"
  top: "conv4_3"
  param {
    lr_mult: 1
    decay_mult: 1
  }
  param {
    lr_mult: 2
    decay_mult: 0
  }
  convolution_param {
    num_output: 128
    pad: 1
    kernel_size: 3
    weight_filler {
      type: "xavier"
    }
    bias_filler {
      type: "constant"
      value: 0
    }
  }
}
layer {
  name: "relu4_3"
  type: "ReLU"
  bottom: "conv4_3"
  top: "conv4_3"
}
layer {
  name: "pool4"
  type: "Pooling"
  bottom: "conv4_3"
  top: "pool4"
  pooling_param {
    pool: MAX
    kernel_size: 2
    stride: 2
  }
}
layer {
  name: "conv5_1"
  type: "Convolution"
  bottom: "pool4"
  top: "conv5_1"
  param {
    lr_mult: 1
    decay_mult: 1
  }
  param {
    lr_mult: 2
    decay_mult: 0
  }
  convolution_param {
    num_output: 128
    pad: 1
    kernel_size: 3
    weight_filler {
      type: "xavier"
    }
    bias_filler {
      type: "constant"
      value: 0
    }
    dilation: 1
  }
}
layer {
  name: "relu5_1"
  type: "ReLU"
  bottom: "conv5_1"
  top: "conv5_1"
}
layer {
  name: "conv5_2"
  type: "Convolution"
  bottom: "conv5_1"
  top: "conv5_2"
  param {
    lr_mult: 1
    decay_mult: 1
  }
  param {
    lr_mult: 2
    decay_mult: 0
  }
  convolution_param {
    num_output: 128
    pad: 1
    kernel_size: 3
    weight_filler {
      type: "xavier"
    }
    bias_filler {
      type: "constant"
      value: 0
    }
    dilation: 1
  }
}
layer {
  name: "relu5_2"
  type: "ReLU"
  bottom: "conv5_2"
  top: "conv5_2"
}
layer {
  name: "conv5_3"
  type: "Convolution"
  bottom: "conv5_2"
  top: "conv5_3"
  param {
    lr_mult: 1
    decay_mult: 1
  }
  param {
    lr_mult: 2
    decay_mult: 0
  }
  convolution_param {
    num_output: 128
    pad: 1
    kernel_size: 3
    weight_filler {
      type: "xavier"
    }
    bias_filler {
      type: "constant"
      value: 0
    }
    dilation: 1
  }
}
layer {
  name: "relu5_3"
  type: "ReLU"
  bottom: "conv5_3"
  top: "conv5_3"
}
layer {
  name: "pool5"
  type: "Pooling"
  bottom: "conv5_3"
  top: "pool5"
  pooling_param {
    pool: MAX
    kernel_size: 3
    stride: 1
    pad: 1
  }
}
layer {
  name: "fc6_conv"
  type: "Convolution"
  bottom: "pool5"
  top: "fc6_conv"
  param {
    lr_mult: 1
    decay_mult: 1
  }
  param {
    lr_mult: 2
    decay_mult: 0
  }
  convolution_param {
    num_output: 256
    pad: 6
    kernel_size: 3
    weight_filler {
      type: "xavier"
    }
    bias_filler {
      type: "constant"
      value: 0
    }
    dilation: 6
  }
}
layer {
  name: "relu6"
  type: "ReLU"
  bottom: "fc6_conv"
  top: "fc6_conv"
}
layer {
  name: "fc7_conv"
  type: "Convolution"
  bottom: "fc6_conv"
  top: "fc7_conv"
  param {
    lr_mult: 1
    decay_mult: 1
  }
  param {
    lr_mult: 2
    decay_mult: 0
  }
  convolution_param {
    num_output: 256
    kernel_size: 1
    weight_filler {
      type: "xavier"
    }
    bias_filler {
      type: "constant"
      value: 0
    }
  }
}
layer {
  name: "relu7"
  type: "ReLU"
  bottom: "fc7_conv"
  top: "fc7_conv"
}
layer {
  name: "conv6_1"
  type: "Convolution"
  bottom: "fc7_conv"
  top: "conv6_1"
  param {
    lr_mult: 1
    decay_mult: 1
  }
  param {
    lr_mult: 2
    decay_mult: 0
  }
  convolution_param {
    num_output: 32
    pad: 0
    kernel_size: 1
    stride: 1
    weight_filler {
      type: "xavier"
    }
    bias_filler {
      type: "constant"
      value: 0
    }
  }
}
layer {
  name: "conv6_1_relu"
  type: "ReLU"
  bottom: "conv6_1"
  top: "conv6_1"
}
layer {
  name: "conv6_2"
  type: "Convolution"
  bottom: "conv6_1"
  top: "conv6_2"
  param {
    lr_mult: 1
    decay_mult: 1
  }
  param {
    lr_mult: 2
    decay_mult: 0
  }
  convolution_param {
    num_output: 64
    pad: 1
    kernel_size: 3
    stride: 2
    weight_filler {
      type: "xavier"
    }
    bias_filler {
      type: "constant"
      value: 0
    }
  }
}
layer {
  name: "conv6_2_relu"
  type: "ReLU"
  bottom: "conv6_2"
  top: "conv6_2"
}
layer {
  name: "conv7_1"
  type: "Convolution"
  bottom: "conv6_2"
  top: "conv7_1"
  param {
    lr_mult: 1
    decay_mult: 1
  }
  param {
    lr_mult: 2
    decay_mult: 0
  }
  convolution_param {
    num_output: 16
    pad: 0
    kernel_size: 1
    stride: 1
    weight_filler {
      type: "xavier"
    }
    bias_filler {
      type: "constant"
      value: 0
    }
  }
}
layer {
  name: "conv7_1_relu"
  type: "ReLU"
  bottom: "conv7_1"
  top: "conv7_1"
}
layer {
  name: "conv7_2"
  type: "Convolution"
  bottom: "conv7_1"
  top: "conv7_2"
  param {
    lr_mult: 1
    decay_mult: 1
  }
  param {
    lr_mult: 2
    decay_mult: 0
  }
  convolution_param {
    num_output: 32
    pad: 1
    kernel_size: 3
    stride: 2
    weight_filler {
      type: "xavier"
    }
    bias_filler {
      type: "constant"
      value: 0
    }
  }
}
layer {
  name: "conv7_2_relu"
  type: "ReLU"
  bottom: "conv7_2"
  top: "conv7_2"
}
layer {
  name: "conv4_3_norm"
  type: "Normalize"
  bottom: "conv4_3"
  top: "conv4_3_norm"
  norm_param {
    across_spatial: false
    scale_filler {
      type: "constant"
      value: 20
    }
    channel_shared: false
  }
}
layer {
  name: "conv4_3_norm_mbox_loc_conf"
  type: "Convolution"
  bottom: "conv4_3_norm"
  top: "conv4_3_norm_mbox_loc_conf"
  param {
    lr_mult: 1
    decay_mult: 1
  }
  param {
    lr_mult: 2
    decay_mult: 0
  }
  convolution_param {
    num_output: 36
    pad: 1
    kernel_size: 3
    stride: 1
    weight_filler {
      type: "xavier"
    }
    bias_filler {
      type: "constant"
      value: 0
    }
  }
}
layer {
  name: "conv4_3_norm_mbox_loc_conf_perm"
  type: "Permute"
  bottom: "conv4_3_norm_mbox_loc_conf"
  top: "conv4_3_norm_mbox_loc_conf_perm"
  permute_param {
    order: 0
    order: 2
    order: 3
    order: 1
  }
}
layer {
  name: "conv4_3_norm_mbox_loc_perm"
  type: "Slice"
  bottom: "conv4_3_norm_mbox_loc_conf_perm"
  top: "conv4_3_norm_mbox_loc_perm"
  top: "conv4_3_norm_mbox_conf_perm"
  slice_param {
    slice_point: 24
    axis: 3
  }
}
layer {
  name: "conv4_3_norm_mbox_loc_flat"
  type: "Flatten"
  bottom: "conv4_3_norm_mbox_loc_perm"
  top: "conv4_3_norm_mbox_loc_flat"
  flatten_param {
    axis: 1
  }
}
layer {
  name: "conv4_3_norm_mbox_conf_flat"
  type: "Flatten"
  bottom: "conv4_3_norm_mbox_conf_perm"
  top: "conv4_3_norm_mbox_conf_flat"
  flatten_param {
    axis: 1
  }
}
layer {
  name: "conv4_3_norm_mbox_priorbox"
  type: "PriorBox"
  bottom: "conv4_3_norm"
  bottom: "data"
  top: "conv4_3_norm_mbox_priorbox"
  prior_box_param {
    min_size: 7.68
    max_size: 25.6
    aspect_ratio: 2
    aspect_ratio: 3
    flip: true
    clip: true
    variance: 0.1
    variance: 0.1
    variance: 0.2
    variance: 0.2
    offset: 0.5
  }
}
layer {
  name: "fc7_conv_mbox_loc_conf"
  type: "Convolution"
  bottom: "fc7_conv"
  top: "fc7_conv_mbox_loc_conf"
  param {
    lr_mult: 1
    decay_mult: 1
  }
  param {
    lr_mult: 2
    decay_mult: 0
  }
  convolution_param {
    num_output: 36
    pad: 1
    kernel_size: 3
    stride: 1
    weight_filler {
      type: "xavier"
    }
    bias_filler {
      type: "constant"
      value: 0
    }
  }
}
layer {
  name: "fc7_conv_mbox_loc_conf_perm"
  type: "Permute"
  bottom: "fc7_conv_mbox_loc_conf"
  top: "fc7_conv_mbox_loc_conf_perm"
  permute_param {
    order: 0
    order: 2
    order: 3
    order: 1
  }
}
layer {
  name: "fc7_conv_mbox_loc_perm"
  type: "Slice"
  bottom: "fc7_conv_mbox_loc_conf_perm"
  top: "fc7_conv_mbox_loc_perm"
  top: "fc7_conv_mbox_conf_perm"
  slice_param {
    slice_point: 24
    axis: 3
  }
}
layer {
  name: "fc7_conv_mbox_loc_flat"
  type: "Flatten"
  bottom: "fc7_conv_mbox_loc_perm"
  top: "fc7_conv_mbox_loc_flat"
  flatten_param {
    axis: 1
  }
}
layer {
  name: "fc7_conv_mbox_conf_flat"
  type: "Flatten"
  bottom: "fc7_conv_mbox_conf_perm"
  top: "fc7_conv_mbox_conf_flat"
  flatten_param {
    axis: 1
  }
}
layer {
  name: "fc7_conv_mbox_priorbox"
  type: "PriorBox"
  bottom: "fc7_conv"
  bottom: "data"
  top: "fc7_conv_mbox_priorbox"
  prior_box_param {
    min_size: 25.6
    max_size: 133.12
    aspect_ratio: 2
    aspect_ratio: 3
    flip: true
    clip: true
    variance: 0.1
    variance: 0.1
    variance: 0.2
    variance: 0.2
    offset: 0.5
  }
}
layer {
  name: "conv6_2_mbox_loc_conf"
  type: "Convolution"
  bottom: "conv6_2"
  top: "conv6_2_mbox_loc_conf"
  param {
    lr_mult: 1
    decay_mult: 1
  }
  param {
    lr_mult: 2
    decay_mult: 0
  }
  convolution_param {
    num_output: 36
    pad: 1
    kernel_size: 3
    stride: 1
    weight_filler {
      type: "xavier"
    }
    bias_filler {
      type: "constant"
      value: 0
    }
  }
}
layer {
  name: "conv6_2_mbox_loc_conf_perm"
  type: "Permute"
  bottom: "conv6_2_mbox_loc_conf"
  top: "conv6_2_mbox_loc_conf_perm"
  permute_param {
    order: 0
    order: 2
    order: 3
    order: 1
  }
}
layer {
  name: "conv6_2_mbox_loc_perm"
  type: "Slice"
  bottom: "conv6_2_mbox_loc_conf_perm"
  top: "conv6_2_mbox_loc_perm"
  top: "conv6_2_mbox_conf_perm"
  slice_param {
    slice_point: 24
    axis: 3
  }
}
layer {
  name: "conv6_2_mbox_loc_flat"
  type: "Flatten"
  bottom: "conv6_2_mbox_loc_perm"
  top: "conv6_2_mbox_loc_flat"
  flatten_param {
    axis: 1
  }
}
layer {
  name: "conv6_2_mbox_conf_flat"
  type: "Flatten"
  bottom: "conv6_2_mbox_conf_perm"
  top: "conv6_2_mbox_conf_flat"
  flatten_param {
    axis: 1
  }
}
layer {
  name: "conv6_2_mbox_priorbox"
  type: "PriorBox"
  bottom: "conv6_2"
  bottom: "data"
  top: "conv6_2_mbox_priorbox"
  prior_box_param {
    min_size: 133.12
    max_size: 240.64
    aspect_ratio: 2
    aspect_ratio: 3
    flip: true
    clip: true
    variance: 0.1
    variance: 0.1
    variance: 0.2
    variance: 0.2
    offset: 0.5
  }
}
layer {
  name: "conv7_2_mbox_loc_conf"
  type: "Convolution"
  bottom: "conv7_2"
  top: "conv7_2_mbox_loc_conf"
  param {
    lr_mult: 1
    decay_mult: 1
  }
  param {
    lr_mult: 2
    decay_mult: 0
  }
  convolution_param {
    num_output: 36
    pad: 1
    kernel_size: 3
    stride: 1
    weight_filler {
      type: "xavier"
    }
    bias_filler {
      type: "constant"
      value: 0
    }
  }
}
layer {
  name: "conv7_2_mbox_loc_conf_perm"
  type: "Permute"
  bottom: "conv7_2_mbox_loc_conf"
  top: "conv7_2_mbox_loc_conf_perm"
  permute_param {
    order: 0
    order: 2
    order: 3
    order: 1
  }
}
layer {
  name: "conv7_2_mbox_loc_perm"
  type: "Slice"
  bottom: "conv7_2_mbox_loc_conf_perm"
  top: "conv7_2_mbox_loc_perm"
  top: "conv7_2_mbox_conf_perm"
  slice_param {
    slice_point: 24
    axis: 3
  }
}
layer {
  name: "conv7_2_mbox_loc_flat"
  type: "Flatten"
  bottom: "conv7_2_mbox_loc_perm"
  top: "conv7_2_mbox_loc_flat"
  flatten_param {
    axis: 1
  }
}
layer {
  name: "conv7_2_mbox_conf_flat"
  type: "Flatten"
  bottom: "conv7_2_mbox_conf_perm"
  top: "conv7_2_mbox_conf_flat"
  flatten_param {
    axis: 1
  }
}
layer {
  name: "conv7_2_mbox_priorbox"
  type: "PriorBox"
  bottom: "conv7_2"
  bottom: "data"
  top: "conv7_2_mbox_priorbox"
  prior_box_param {
    min_size: 240.64
    max_size: 348.16
    aspect_ratio: 2
    aspect_ratio: 3
    flip: true
    clip: true
    variance: 0.1
    variance: 0.1
    variance: 0.2
    variance: 0.2
    offset: 0.5
  }
}
layer {
  name: "mbox_loc"
  type: "Concat"
  bottom: "conv4_3_norm_mbox_loc_flat"
  bottom: "fc7_conv_mbox_loc_flat"
  bottom: "conv6_2_mbox_loc_flat"
  bottom: "conv7_2_mbox_loc_flat"
  top: "mbox_loc"
  concat_param {
    axis: 1
  }
}
layer {
  name: "mbox_conf"
  type: "Concat"
  bottom: "conv4_3_norm_mbox_conf_flat"
  bottom: "fc7_conv_mbox_conf_flat"
  bottom: "conv6_2_mbox_conf_flat"
  bottom: "conv7_2_mbox_conf_flat"
  top: "mbox_conf"
  concat_param {
    axis: 1
  }
}
layer {
  name: "mbox_priorbox"
  type: "Concat"
  bottom: "conv4_3_norm_mbox_priorbox"
  bottom: "fc7_conv_mbox_priorbox"
  bottom: "conv6_2_mbox_priorbox"
  bottom: "conv7_2_mbox_priorbox"
  top: "mbox_priorbox"
  concat_param {
    axis: 2
  }
}
layer {
  name: "mbox_loss"
  type: "MultiBoxLoss"
  bottom: "mbox_loc"
  bottom: "mbox_conf"
  bottom: "mbox_priorbox"
  bottom: "label"
  top: "mbox_loss"
  include {
    phase: TRAIN
  }
  propagate_down: true
  propagate_down: true
  propagate_down: false
  propagate_down: false
  loss_param {
    normalization: VALID
  }
  multibox_loss_param {
    loc_loss_type: SMOOTH_L1
    conf_loss_type: SOFTMAX
    loc_weight: 1
    num_classes: 2
    share_location: true
    match_type: PER_PREDICTION
    overlap_threshold: 0.3
    use_prior_for_matching: true
    background_label_id: 0
    use_difficult_gt: true
    neg_pos_ratio: 3
    neg_overlap: 0.3
    code_type: CENTER_SIZE
    mining_type: MAX_NEGATIVE
  }
}
I0324 20:46:01.041784  6039 layer_factory.hpp:77] Creating layer data
I0324 20:46:01.042102  6039 net.cpp:100] Creating Layer data
I0324 20:46:01.042112  6039 net.cpp:408] data -> data
I0324 20:46:01.042125  6039 net.cpp:408] data -> label
I0324 20:46:01.042814  6065 db_lmdb.cpp:35] Opened lmdb /home/work/qinhuan/git/caffe-ssd/data/train_lmdb
I0324 20:46:01.243562  6039 annotated_data_layer.cpp:62] output data size: 64,3,128,512
I0324 20:46:01.327759  6039 net.cpp:150] Setting up data
I0324 20:46:01.327780  6039 net.cpp:157] Top shape: 64 3 128 512 (12582912)
I0324 20:46:01.327785  6039 net.cpp:157] Top shape: 1 1 3 8 (24)
I0324 20:46:01.327787  6039 net.cpp:165] Memory required for data: 50331744
I0324 20:46:01.327792  6039 layer_factory.hpp:77] Creating layer data_data_0_split
I0324 20:46:01.327801  6039 net.cpp:100] Creating Layer data_data_0_split
I0324 20:46:01.327805  6039 net.cpp:434] data_data_0_split <- data
I0324 20:46:01.327810  6039 net.cpp:408] data_data_0_split -> data_data_0_split_0
I0324 20:46:01.327816  6039 net.cpp:408] data_data_0_split -> data_data_0_split_1
I0324 20:46:01.327821  6039 net.cpp:408] data_data_0_split -> data_data_0_split_2
I0324 20:46:01.327826  6039 net.cpp:408] data_data_0_split -> data_data_0_split_3
I0324 20:46:01.327829  6039 net.cpp:408] data_data_0_split -> data_data_0_split_4
I0324 20:46:01.327909  6039 net.cpp:150] Setting up data_data_0_split
I0324 20:46:01.327915  6039 net.cpp:157] Top shape: 64 3 128 512 (12582912)
I0324 20:46:01.327919  6039 net.cpp:157] Top shape: 64 3 128 512 (12582912)
I0324 20:46:01.327921  6039 net.cpp:157] Top shape: 64 3 128 512 (12582912)
I0324 20:46:01.327924  6039 net.cpp:157] Top shape: 64 3 128 512 (12582912)
I0324 20:46:01.327927  6039 net.cpp:157] Top shape: 64 3 128 512 (12582912)
I0324 20:46:01.327929  6039 net.cpp:165] Memory required for data: 301989984
I0324 20:46:01.327932  6039 layer_factory.hpp:77] Creating layer conv1_1
I0324 20:46:01.327940  6039 net.cpp:100] Creating Layer conv1_1
I0324 20:46:01.327944  6039 net.cpp:434] conv1_1 <- data_data_0_split_0
I0324 20:46:01.327947  6039 net.cpp:408] conv1_1 -> conv1_1
I0324 20:46:01.329824  6039 net.cpp:150] Setting up conv1_1
I0324 20:46:01.329838  6039 net.cpp:157] Top shape: 64 16 128 512 (67108864)
I0324 20:46:01.329841  6039 net.cpp:165] Memory required for data: 570425440
I0324 20:46:01.329850  6039 layer_factory.hpp:77] Creating layer relu1_1
I0324 20:46:01.329856  6039 net.cpp:100] Creating Layer relu1_1
I0324 20:46:01.329859  6039 net.cpp:434] relu1_1 <- conv1_1
I0324 20:46:01.329864  6039 net.cpp:395] relu1_1 -> conv1_1 (in-place)
I0324 20:46:01.329869  6039 net.cpp:150] Setting up relu1_1
I0324 20:46:01.329872  6039 net.cpp:157] Top shape: 64 16 128 512 (67108864)
I0324 20:46:01.329874  6039 net.cpp:165] Memory required for data: 838860896
I0324 20:46:01.329877  6039 layer_factory.hpp:77] Creating layer conv1_2
I0324 20:46:01.329885  6039 net.cpp:100] Creating Layer conv1_2
I0324 20:46:01.329886  6039 net.cpp:434] conv1_2 <- conv1_1
I0324 20:46:01.329890  6039 net.cpp:408] conv1_2 -> conv1_2
I0324 20:46:01.331477  6039 net.cpp:150] Setting up conv1_2
I0324 20:46:01.331490  6039 net.cpp:157] Top shape: 64 16 64 256 (16777216)
I0324 20:46:01.331492  6039 net.cpp:165] Memory required for data: 905969760
I0324 20:46:01.331499  6039 layer_factory.hpp:77] Creating layer relu1_2
I0324 20:46:01.331504  6039 net.cpp:100] Creating Layer relu1_2
I0324 20:46:01.331507  6039 net.cpp:434] relu1_2 <- conv1_2
I0324 20:46:01.331511  6039 net.cpp:395] relu1_2 -> conv1_2 (in-place)
I0324 20:46:01.331516  6039 net.cpp:150] Setting up relu1_2
I0324 20:46:01.331519  6039 net.cpp:157] Top shape: 64 16 64 256 (16777216)
I0324 20:46:01.331522  6039 net.cpp:165] Memory required for data: 973078624
I0324 20:46:01.331524  6039 layer_factory.hpp:77] Creating layer conv2_1
I0324 20:46:01.331531  6039 net.cpp:100] Creating Layer conv2_1
I0324 20:46:01.331533  6039 net.cpp:434] conv2_1 <- conv1_2
I0324 20:46:01.331537  6039 net.cpp:408] conv2_1 -> conv2_1
I0324 20:46:01.331759  6039 net.cpp:150] Setting up conv2_1
I0324 20:46:01.331765  6039 net.cpp:157] Top shape: 64 32 64 256 (33554432)
I0324 20:46:01.331768  6039 net.cpp:165] Memory required for data: 1107296352
I0324 20:46:01.331779  6039 layer_factory.hpp:77] Creating layer relu2_1
I0324 20:46:01.331782  6039 net.cpp:100] Creating Layer relu2_1
I0324 20:46:01.331785  6039 net.cpp:434] relu2_1 <- conv2_1
I0324 20:46:01.331789  6039 net.cpp:395] relu2_1 -> conv2_1 (in-place)
I0324 20:46:01.331792  6039 net.cpp:150] Setting up relu2_1
I0324 20:46:01.331795  6039 net.cpp:157] Top shape: 64 32 64 256 (33554432)
I0324 20:46:01.331799  6039 net.cpp:165] Memory required for data: 1241514080
I0324 20:46:01.331800  6039 layer_factory.hpp:77] Creating layer conv2_2
I0324 20:46:01.331806  6039 net.cpp:100] Creating Layer conv2_2
I0324 20:46:01.331809  6039 net.cpp:434] conv2_2 <- conv2_1
I0324 20:46:01.331814  6039 net.cpp:408] conv2_2 -> conv2_2
I0324 20:46:01.332037  6039 net.cpp:150] Setting up conv2_2
I0324 20:46:01.332042  6039 net.cpp:157] Top shape: 64 32 32 128 (8388608)
I0324 20:46:01.332046  6039 net.cpp:165] Memory required for data: 1275068512
I0324 20:46:01.332049  6039 layer_factory.hpp:77] Creating layer relu2_2
I0324 20:46:01.332053  6039 net.cpp:100] Creating Layer relu2_2
I0324 20:46:01.332056  6039 net.cpp:434] relu2_2 <- conv2_2
I0324 20:46:01.332059  6039 net.cpp:395] relu2_2 -> conv2_2 (in-place)
I0324 20:46:01.332062  6039 net.cpp:150] Setting up relu2_2
I0324 20:46:01.332065  6039 net.cpp:157] Top shape: 64 32 32 128 (8388608)
I0324 20:46:01.332068  6039 net.cpp:165] Memory required for data: 1308622944
I0324 20:46:01.332070  6039 layer_factory.hpp:77] Creating layer conv3_1
I0324 20:46:01.332075  6039 net.cpp:100] Creating Layer conv3_1
I0324 20:46:01.332078  6039 net.cpp:434] conv3_1 <- conv2_2
I0324 20:46:01.332082  6039 net.cpp:408] conv3_1 -> conv3_1
I0324 20:46:01.332345  6039 net.cpp:150] Setting up conv3_1
I0324 20:46:01.332357  6039 net.cpp:157] Top shape: 64 64 32 128 (16777216)
I0324 20:46:01.332360  6039 net.cpp:165] Memory required for data: 1375731808
I0324 20:46:01.332366  6039 layer_factory.hpp:77] Creating layer relu3_1
I0324 20:46:01.332371  6039 net.cpp:100] Creating Layer relu3_1
I0324 20:46:01.332376  6039 net.cpp:434] relu3_1 <- conv3_1
I0324 20:46:01.332381  6039 net.cpp:395] relu3_1 -> conv3_1 (in-place)
I0324 20:46:01.332387  6039 net.cpp:150] Setting up relu3_1
I0324 20:46:01.332391  6039 net.cpp:157] Top shape: 64 64 32 128 (16777216)
I0324 20:46:01.332393  6039 net.cpp:165] Memory required for data: 1442840672
I0324 20:46:01.332396  6039 layer_factory.hpp:77] Creating layer conv3_2
I0324 20:46:01.332403  6039 net.cpp:100] Creating Layer conv3_2
I0324 20:46:01.332407  6039 net.cpp:434] conv3_2 <- conv3_1
I0324 20:46:01.332412  6039 net.cpp:408] conv3_2 -> conv3_2
I0324 20:46:01.332842  6039 net.cpp:150] Setting up conv3_2
I0324 20:46:01.332849  6039 net.cpp:157] Top shape: 64 64 32 128 (16777216)
I0324 20:46:01.332854  6039 net.cpp:165] Memory required for data: 1509949536
I0324 20:46:01.332859  6039 layer_factory.hpp:77] Creating layer relu3_2
I0324 20:46:01.332864  6039 net.cpp:100] Creating Layer relu3_2
I0324 20:46:01.332867  6039 net.cpp:434] relu3_2 <- conv3_2
I0324 20:46:01.332872  6039 net.cpp:395] relu3_2 -> conv3_2 (in-place)
I0324 20:46:01.332878  6039 net.cpp:150] Setting up relu3_2
I0324 20:46:01.332882  6039 net.cpp:157] Top shape: 64 64 32 128 (16777216)
I0324 20:46:01.332886  6039 net.cpp:165] Memory required for data: 1577058400
I0324 20:46:01.332890  6039 layer_factory.hpp:77] Creating layer conv3_3
I0324 20:46:01.332897  6039 net.cpp:100] Creating Layer conv3_3
I0324 20:46:01.332901  6039 net.cpp:434] conv3_3 <- conv3_2
I0324 20:46:01.332906  6039 net.cpp:408] conv3_3 -> conv3_3
I0324 20:46:01.333484  6039 net.cpp:150] Setting up conv3_3
I0324 20:46:01.333495  6039 net.cpp:157] Top shape: 64 64 32 128 (16777216)
I0324 20:46:01.333500  6039 net.cpp:165] Memory required for data: 1644167264
I0324 20:46:01.333509  6039 layer_factory.hpp:77] Creating layer relu3_3
I0324 20:46:01.333515  6039 net.cpp:100] Creating Layer relu3_3
I0324 20:46:01.333521  6039 net.cpp:434] relu3_3 <- conv3_3
I0324 20:46:01.333528  6039 net.cpp:395] relu3_3 -> conv3_3 (in-place)
I0324 20:46:01.333536  6039 net.cpp:150] Setting up relu3_3
I0324 20:46:01.333542  6039 net.cpp:157] Top shape: 64 64 32 128 (16777216)
I0324 20:46:01.333545  6039 net.cpp:165] Memory required for data: 1711276128
I0324 20:46:01.333549  6039 layer_factory.hpp:77] Creating layer pool3
I0324 20:46:01.333559  6039 net.cpp:100] Creating Layer pool3
I0324 20:46:01.333565  6039 net.cpp:434] pool3 <- conv3_3
I0324 20:46:01.333573  6039 net.cpp:408] pool3 -> pool3
I0324 20:46:01.333636  6039 net.cpp:150] Setting up pool3
I0324 20:46:01.333644  6039 net.cpp:157] Top shape: 64 64 16 64 (4194304)
I0324 20:46:01.333649  6039 net.cpp:165] Memory required for data: 1728053344
I0324 20:46:01.333654  6039 layer_factory.hpp:77] Creating layer conv4_1
I0324 20:46:01.333665  6039 net.cpp:100] Creating Layer conv4_1
I0324 20:46:01.333672  6039 net.cpp:434] conv4_1 <- pool3
I0324 20:46:01.333678  6039 net.cpp:408] conv4_1 -> conv4_1
I0324 20:46:01.339769  6039 net.cpp:150] Setting up conv4_1
I0324 20:46:01.339782  6039 net.cpp:157] Top shape: 64 128 16 64 (8388608)
I0324 20:46:01.339787  6039 net.cpp:165] Memory required for data: 1761607776
I0324 20:46:01.339792  6039 layer_factory.hpp:77] Creating layer relu4_1
I0324 20:46:01.339797  6039 net.cpp:100] Creating Layer relu4_1
I0324 20:46:01.339799  6039 net.cpp:434] relu4_1 <- conv4_1
I0324 20:46:01.339803  6039 net.cpp:395] relu4_1 -> conv4_1 (in-place)
I0324 20:46:01.339809  6039 net.cpp:150] Setting up relu4_1
I0324 20:46:01.339812  6039 net.cpp:157] Top shape: 64 128 16 64 (8388608)
I0324 20:46:01.339814  6039 net.cpp:165] Memory required for data: 1795162208
I0324 20:46:01.339818  6039 layer_factory.hpp:77] Creating layer conv4_2
I0324 20:46:01.339823  6039 net.cpp:100] Creating Layer conv4_2
I0324 20:46:01.339825  6039 net.cpp:434] conv4_2 <- conv4_1
I0324 20:46:01.339830  6039 net.cpp:408] conv4_2 -> conv4_2
I0324 20:46:01.340473  6039 net.cpp:150] Setting up conv4_2
I0324 20:46:01.340481  6039 net.cpp:157] Top shape: 64 128 16 64 (8388608)
I0324 20:46:01.340484  6039 net.cpp:165] Memory required for data: 1828716640
I0324 20:46:01.340490  6039 layer_factory.hpp:77] Creating layer relu4_2
I0324 20:46:01.340494  6039 net.cpp:100] Creating Layer relu4_2
I0324 20:46:01.340497  6039 net.cpp:434] relu4_2 <- conv4_2
I0324 20:46:01.340500  6039 net.cpp:395] relu4_2 -> conv4_2 (in-place)
I0324 20:46:01.340505  6039 net.cpp:150] Setting up relu4_2
I0324 20:46:01.340508  6039 net.cpp:157] Top shape: 64 128 16 64 (8388608)
I0324 20:46:01.340510  6039 net.cpp:165] Memory required for data: 1862271072
I0324 20:46:01.340513  6039 layer_factory.hpp:77] Creating layer conv4_3
I0324 20:46:01.340518  6039 net.cpp:100] Creating Layer conv4_3
I0324 20:46:01.340520  6039 net.cpp:434] conv4_3 <- conv4_2
I0324 20:46:01.340525  6039 net.cpp:408] conv4_3 -> conv4_3
I0324 20:46:01.341152  6039 net.cpp:150] Setting up conv4_3
I0324 20:46:01.341157  6039 net.cpp:157] Top shape: 64 128 16 64 (8388608)
I0324 20:46:01.341161  6039 net.cpp:165] Memory required for data: 1895825504
I0324 20:46:01.341164  6039 layer_factory.hpp:77] Creating layer relu4_3
I0324 20:46:01.341167  6039 net.cpp:100] Creating Layer relu4_3
I0324 20:46:01.341171  6039 net.cpp:434] relu4_3 <- conv4_3
I0324 20:46:01.341173  6039 net.cpp:395] relu4_3 -> conv4_3 (in-place)
I0324 20:46:01.341177  6039 net.cpp:150] Setting up relu4_3
I0324 20:46:01.341181  6039 net.cpp:157] Top shape: 64 128 16 64 (8388608)
I0324 20:46:01.341183  6039 net.cpp:165] Memory required for data: 1929379936
I0324 20:46:01.341186  6039 layer_factory.hpp:77] Creating layer conv4_3_relu4_3_0_split
I0324 20:46:01.341189  6039 net.cpp:100] Creating Layer conv4_3_relu4_3_0_split
I0324 20:46:01.341192  6039 net.cpp:434] conv4_3_relu4_3_0_split <- conv4_3
I0324 20:46:01.341194  6039 net.cpp:408] conv4_3_relu4_3_0_split -> conv4_3_relu4_3_0_split_0
I0324 20:46:01.341199  6039 net.cpp:408] conv4_3_relu4_3_0_split -> conv4_3_relu4_3_0_split_1
I0324 20:46:01.341228  6039 net.cpp:150] Setting up conv4_3_relu4_3_0_split
I0324 20:46:01.341231  6039 net.cpp:157] Top shape: 64 128 16 64 (8388608)
I0324 20:46:01.341238  6039 net.cpp:157] Top shape: 64 128 16 64 (8388608)
I0324 20:46:01.341240  6039 net.cpp:165] Memory required for data: 1996488800
I0324 20:46:01.341243  6039 layer_factory.hpp:77] Creating layer pool4
I0324 20:46:01.341248  6039 net.cpp:100] Creating Layer pool4
I0324 20:46:01.341249  6039 net.cpp:434] pool4 <- conv4_3_relu4_3_0_split_0
I0324 20:46:01.341253  6039 net.cpp:408] pool4 -> pool4
I0324 20:46:01.341280  6039 net.cpp:150] Setting up pool4
I0324 20:46:01.341285  6039 net.cpp:157] Top shape: 64 128 8 32 (2097152)
I0324 20:46:01.341287  6039 net.cpp:165] Memory required for data: 2004877408
I0324 20:46:01.341290  6039 layer_factory.hpp:77] Creating layer conv5_1
I0324 20:46:01.341295  6039 net.cpp:100] Creating Layer conv5_1
I0324 20:46:01.341297  6039 net.cpp:434] conv5_1 <- pool4
I0324 20:46:01.341301  6039 net.cpp:408] conv5_1 -> conv5_1
I0324 20:46:01.341933  6039 net.cpp:150] Setting up conv5_1
I0324 20:46:01.341938  6039 net.cpp:157] Top shape: 64 128 8 32 (2097152)
I0324 20:46:01.341939  6039 net.cpp:165] Memory required for data: 2013266016
I0324 20:46:01.341944  6039 layer_factory.hpp:77] Creating layer relu5_1
I0324 20:46:01.341948  6039 net.cpp:100] Creating Layer relu5_1
I0324 20:46:01.341950  6039 net.cpp:434] relu5_1 <- conv5_1
I0324 20:46:01.341953  6039 net.cpp:395] relu5_1 -> conv5_1 (in-place)
I0324 20:46:01.341958  6039 net.cpp:150] Setting up relu5_1
I0324 20:46:01.341961  6039 net.cpp:157] Top shape: 64 128 8 32 (2097152)
I0324 20:46:01.341964  6039 net.cpp:165] Memory required for data: 2021654624
I0324 20:46:01.341965  6039 layer_factory.hpp:77] Creating layer conv5_2
I0324 20:46:01.341970  6039 net.cpp:100] Creating Layer conv5_2
I0324 20:46:01.341974  6039 net.cpp:434] conv5_2 <- conv5_1
I0324 20:46:01.341976  6039 net.cpp:408] conv5_2 -> conv5_2
I0324 20:46:01.348793  6039 net.cpp:150] Setting up conv5_2
I0324 20:46:01.348809  6039 net.cpp:157] Top shape: 64 128 8 32 (2097152)
I0324 20:46:01.348811  6039 net.cpp:165] Memory required for data: 2030043232
I0324 20:46:01.348816  6039 layer_factory.hpp:77] Creating layer relu5_2
I0324 20:46:01.348821  6039 net.cpp:100] Creating Layer relu5_2
I0324 20:46:01.348825  6039 net.cpp:434] relu5_2 <- conv5_2
I0324 20:46:01.348829  6039 net.cpp:395] relu5_2 -> conv5_2 (in-place)
I0324 20:46:01.348835  6039 net.cpp:150] Setting up relu5_2
I0324 20:46:01.348839  6039 net.cpp:157] Top shape: 64 128 8 32 (2097152)
I0324 20:46:01.348840  6039 net.cpp:165] Memory required for data: 2038431840
I0324 20:46:01.348844  6039 layer_factory.hpp:77] Creating layer conv5_3
I0324 20:46:01.348850  6039 net.cpp:100] Creating Layer conv5_3
I0324 20:46:01.348852  6039 net.cpp:434] conv5_3 <- conv5_2
I0324 20:46:01.348856  6039 net.cpp:408] conv5_3 -> conv5_3
I0324 20:46:01.349481  6039 net.cpp:150] Setting up conv5_3
I0324 20:46:01.349488  6039 net.cpp:157] Top shape: 64 128 8 32 (2097152)
I0324 20:46:01.349489  6039 net.cpp:165] Memory required for data: 2046820448
I0324 20:46:01.349494  6039 layer_factory.hpp:77] Creating layer relu5_3
I0324 20:46:01.349498  6039 net.cpp:100] Creating Layer relu5_3
I0324 20:46:01.349500  6039 net.cpp:434] relu5_3 <- conv5_3
I0324 20:46:01.349503  6039 net.cpp:395] relu5_3 -> conv5_3 (in-place)
I0324 20:46:01.349508  6039 net.cpp:150] Setting up relu5_3
I0324 20:46:01.349510  6039 net.cpp:157] Top shape: 64 128 8 32 (2097152)
I0324 20:46:01.349514  6039 net.cpp:165] Memory required for data: 2055209056
I0324 20:46:01.349515  6039 layer_factory.hpp:77] Creating layer pool5
I0324 20:46:01.349519  6039 net.cpp:100] Creating Layer pool5
I0324 20:46:01.349522  6039 net.cpp:434] pool5 <- conv5_3
I0324 20:46:01.349525  6039 net.cpp:408] pool5 -> pool5
I0324 20:46:01.349551  6039 net.cpp:150] Setting up pool5
I0324 20:46:01.349556  6039 net.cpp:157] Top shape: 64 128 8 32 (2097152)
I0324 20:46:01.349558  6039 net.cpp:165] Memory required for data: 2063597664
I0324 20:46:01.349561  6039 layer_factory.hpp:77] Creating layer fc6_conv
I0324 20:46:01.349567  6039 net.cpp:100] Creating Layer fc6_conv
I0324 20:46:01.349570  6039 net.cpp:434] fc6_conv <- pool5
I0324 20:46:01.349578  6039 net.cpp:408] fc6_conv -> fc6_conv
I0324 20:46:01.351375  6039 net.cpp:150] Setting up fc6_conv
I0324 20:46:01.351385  6039 net.cpp:157] Top shape: 64 256 8 32 (4194304)
I0324 20:46:01.351388  6039 net.cpp:165] Memory required for data: 2080374880
I0324 20:46:01.351393  6039 layer_factory.hpp:77] Creating layer relu6
I0324 20:46:01.351398  6039 net.cpp:100] Creating Layer relu6
I0324 20:46:01.351402  6039 net.cpp:434] relu6 <- fc6_conv
I0324 20:46:01.351405  6039 net.cpp:395] relu6 -> fc6_conv (in-place)
I0324 20:46:01.351409  6039 net.cpp:150] Setting up relu6
I0324 20:46:01.351413  6039 net.cpp:157] Top shape: 64 256 8 32 (4194304)
I0324 20:46:01.351415  6039 net.cpp:165] Memory required for data: 2097152096
I0324 20:46:01.351418  6039 layer_factory.hpp:77] Creating layer fc7_conv
I0324 20:46:01.351423  6039 net.cpp:100] Creating Layer fc7_conv
I0324 20:46:01.351425  6039 net.cpp:434] fc7_conv <- fc6_conv
I0324 20:46:01.351429  6039 net.cpp:408] fc7_conv -> fc7_conv
I0324 20:46:01.351825  6039 net.cpp:150] Setting up fc7_conv
I0324 20:46:01.351831  6039 net.cpp:157] Top shape: 64 256 8 32 (4194304)
I0324 20:46:01.351835  6039 net.cpp:165] Memory required for data: 2113929312
I0324 20:46:01.351838  6039 layer_factory.hpp:77] Creating layer relu7
I0324 20:46:01.351842  6039 net.cpp:100] Creating Layer relu7
I0324 20:46:01.351845  6039 net.cpp:434] relu7 <- fc7_conv
I0324 20:46:01.351848  6039 net.cpp:395] relu7 -> fc7_conv (in-place)
I0324 20:46:01.351852  6039 net.cpp:150] Setting up relu7
I0324 20:46:01.351855  6039 net.cpp:157] Top shape: 64 256 8 32 (4194304)
I0324 20:46:01.351857  6039 net.cpp:165] Memory required for data: 2130706528
I0324 20:46:01.351861  6039 layer_factory.hpp:77] Creating layer fc7_conv_relu7_0_split
I0324 20:46:01.351863  6039 net.cpp:100] Creating Layer fc7_conv_relu7_0_split
I0324 20:46:01.351866  6039 net.cpp:434] fc7_conv_relu7_0_split <- fc7_conv
I0324 20:46:01.351869  6039 net.cpp:408] fc7_conv_relu7_0_split -> fc7_conv_relu7_0_split_0
I0324 20:46:01.351874  6039 net.cpp:408] fc7_conv_relu7_0_split -> fc7_conv_relu7_0_split_1
I0324 20:46:01.351878  6039 net.cpp:408] fc7_conv_relu7_0_split -> fc7_conv_relu7_0_split_2
I0324 20:46:01.351912  6039 net.cpp:150] Setting up fc7_conv_relu7_0_split
I0324 20:46:01.351917  6039 net.cpp:157] Top shape: 64 256 8 32 (4194304)
I0324 20:46:01.351919  6039 net.cpp:157] Top shape: 64 256 8 32 (4194304)
I0324 20:46:01.351922  6039 net.cpp:157] Top shape: 64 256 8 32 (4194304)
I0324 20:46:01.351924  6039 net.cpp:165] Memory required for data: 2181038176
I0324 20:46:01.351927  6039 layer_factory.hpp:77] Creating layer conv6_1
I0324 20:46:01.351933  6039 net.cpp:100] Creating Layer conv6_1
I0324 20:46:01.351935  6039 net.cpp:434] conv6_1 <- fc7_conv_relu7_0_split_0
I0324 20:46:01.351939  6039 net.cpp:408] conv6_1 -> conv6_1
I0324 20:46:01.352164  6039 net.cpp:150] Setting up conv6_1
I0324 20:46:01.352170  6039 net.cpp:157] Top shape: 64 32 8 32 (524288)
I0324 20:46:01.352172  6039 net.cpp:165] Memory required for data: 2183135328
I0324 20:46:01.352176  6039 layer_factory.hpp:77] Creating layer conv6_1_relu
I0324 20:46:01.352180  6039 net.cpp:100] Creating Layer conv6_1_relu
I0324 20:46:01.352183  6039 net.cpp:434] conv6_1_relu <- conv6_1
I0324 20:46:01.352186  6039 net.cpp:395] conv6_1_relu -> conv6_1 (in-place)
I0324 20:46:01.352190  6039 net.cpp:150] Setting up conv6_1_relu
I0324 20:46:01.352193  6039 net.cpp:157] Top shape: 64 32 8 32 (524288)
I0324 20:46:01.352195  6039 net.cpp:165] Memory required for data: 2185232480
I0324 20:46:01.352198  6039 layer_factory.hpp:77] Creating layer conv6_2
I0324 20:46:01.352203  6039 net.cpp:100] Creating Layer conv6_2
I0324 20:46:01.352206  6039 net.cpp:434] conv6_2 <- conv6_1
I0324 20:46:01.352210  6039 net.cpp:408] conv6_2 -> conv6_2
I0324 20:46:01.352480  6039 net.cpp:150] Setting up conv6_2
I0324 20:46:01.352488  6039 net.cpp:157] Top shape: 64 64 4 16 (262144)
I0324 20:46:01.352490  6039 net.cpp:165] Memory required for data: 2186281056
I0324 20:46:01.352497  6039 layer_factory.hpp:77] Creating layer conv6_2_relu
I0324 20:46:01.352504  6039 net.cpp:100] Creating Layer conv6_2_relu
I0324 20:46:01.352507  6039 net.cpp:434] conv6_2_relu <- conv6_2
I0324 20:46:01.352510  6039 net.cpp:395] conv6_2_relu -> conv6_2 (in-place)
I0324 20:46:01.352514  6039 net.cpp:150] Setting up conv6_2_relu
I0324 20:46:01.352519  6039 net.cpp:157] Top shape: 64 64 4 16 (262144)
I0324 20:46:01.352520  6039 net.cpp:165] Memory required for data: 2187329632
I0324 20:46:01.352522  6039 layer_factory.hpp:77] Creating layer conv6_2_conv6_2_relu_0_split
I0324 20:46:01.352525  6039 net.cpp:100] Creating Layer conv6_2_conv6_2_relu_0_split
I0324 20:46:01.352529  6039 net.cpp:434] conv6_2_conv6_2_relu_0_split <- conv6_2
I0324 20:46:01.352531  6039 net.cpp:408] conv6_2_conv6_2_relu_0_split -> conv6_2_conv6_2_relu_0_split_0
I0324 20:46:01.352537  6039 net.cpp:408] conv6_2_conv6_2_relu_0_split -> conv6_2_conv6_2_relu_0_split_1
I0324 20:46:01.352541  6039 net.cpp:408] conv6_2_conv6_2_relu_0_split -> conv6_2_conv6_2_relu_0_split_2
I0324 20:46:01.352581  6039 net.cpp:150] Setting up conv6_2_conv6_2_relu_0_split
I0324 20:46:01.352586  6039 net.cpp:157] Top shape: 64 64 4 16 (262144)
I0324 20:46:01.352588  6039 net.cpp:157] Top shape: 64 64 4 16 (262144)
I0324 20:46:01.352591  6039 net.cpp:157] Top shape: 64 64 4 16 (262144)
I0324 20:46:01.352593  6039 net.cpp:165] Memory required for data: 2190475360
I0324 20:46:01.352596  6039 layer_factory.hpp:77] Creating layer conv7_1
I0324 20:46:01.352602  6039 net.cpp:100] Creating Layer conv7_1
I0324 20:46:01.352604  6039 net.cpp:434] conv7_1 <- conv6_2_conv6_2_relu_0_split_0
I0324 20:46:01.352607  6039 net.cpp:408] conv7_1 -> conv7_1
I0324 20:46:01.352808  6039 net.cpp:150] Setting up conv7_1
I0324 20:46:01.352813  6039 net.cpp:157] Top shape: 64 16 4 16 (65536)
I0324 20:46:01.352816  6039 net.cpp:165] Memory required for data: 2190737504
I0324 20:46:01.352820  6039 layer_factory.hpp:77] Creating layer conv7_1_relu
I0324 20:46:01.352823  6039 net.cpp:100] Creating Layer conv7_1_relu
I0324 20:46:01.352826  6039 net.cpp:434] conv7_1_relu <- conv7_1
I0324 20:46:01.352829  6039 net.cpp:395] conv7_1_relu -> conv7_1 (in-place)
I0324 20:46:01.352833  6039 net.cpp:150] Setting up conv7_1_relu
I0324 20:46:01.352836  6039 net.cpp:157] Top shape: 64 16 4 16 (65536)
I0324 20:46:01.352839  6039 net.cpp:165] Memory required for data: 2190999648
I0324 20:46:01.352841  6039 layer_factory.hpp:77] Creating layer conv7_2
I0324 20:46:01.352846  6039 net.cpp:100] Creating Layer conv7_2
I0324 20:46:01.352849  6039 net.cpp:434] conv7_2 <- conv7_1
I0324 20:46:01.352852  6039 net.cpp:408] conv7_2 -> conv7_2
I0324 20:46:01.353065  6039 net.cpp:150] Setting up conv7_2
I0324 20:46:01.353070  6039 net.cpp:157] Top shape: 64 32 2 8 (32768)
I0324 20:46:01.353071  6039 net.cpp:165] Memory required for data: 2191130720
I0324 20:46:01.353075  6039 layer_factory.hpp:77] Creating layer conv7_2_relu
I0324 20:46:01.353080  6039 net.cpp:100] Creating Layer conv7_2_relu
I0324 20:46:01.353082  6039 net.cpp:434] conv7_2_relu <- conv7_2
I0324 20:46:01.353085  6039 net.cpp:395] conv7_2_relu -> conv7_2 (in-place)
I0324 20:46:01.353090  6039 net.cpp:150] Setting up conv7_2_relu
I0324 20:46:01.353092  6039 net.cpp:157] Top shape: 64 32 2 8 (32768)
I0324 20:46:01.353094  6039 net.cpp:165] Memory required for data: 2191261792
I0324 20:46:01.353096  6039 layer_factory.hpp:77] Creating layer conv7_2_conv7_2_relu_0_split
I0324 20:46:01.353099  6039 net.cpp:100] Creating Layer conv7_2_conv7_2_relu_0_split
I0324 20:46:01.353102  6039 net.cpp:434] conv7_2_conv7_2_relu_0_split <- conv7_2
I0324 20:46:01.353106  6039 net.cpp:408] conv7_2_conv7_2_relu_0_split -> conv7_2_conv7_2_relu_0_split_0
I0324 20:46:01.353109  6039 net.cpp:408] conv7_2_conv7_2_relu_0_split -> conv7_2_conv7_2_relu_0_split_1
I0324 20:46:01.353144  6039 net.cpp:150] Setting up conv7_2_conv7_2_relu_0_split
I0324 20:46:01.353149  6039 net.cpp:157] Top shape: 64 32 2 8 (32768)
I0324 20:46:01.353152  6039 net.cpp:157] Top shape: 64 32 2 8 (32768)
I0324 20:46:01.353154  6039 net.cpp:165] Memory required for data: 2191523936
I0324 20:46:01.353159  6039 layer_factory.hpp:77] Creating layer conv4_3_norm
I0324 20:46:01.353164  6039 net.cpp:100] Creating Layer conv4_3_norm
I0324 20:46:01.353168  6039 net.cpp:434] conv4_3_norm <- conv4_3_relu4_3_0_split_1
I0324 20:46:01.353170  6039 net.cpp:408] conv4_3_norm -> conv4_3_norm
I0324 20:46:01.368618  6039 net.cpp:150] Setting up conv4_3_norm
I0324 20:46:01.368629  6039 net.cpp:157] Top shape: 64 128 16 64 (8388608)
I0324 20:46:01.368633  6039 net.cpp:165] Memory required for data: 2225078368
I0324 20:46:01.368638  6039 layer_factory.hpp:77] Creating layer conv4_3_norm_conv4_3_norm_0_split
I0324 20:46:01.368641  6039 net.cpp:100] Creating Layer conv4_3_norm_conv4_3_norm_0_split
I0324 20:46:01.368644  6039 net.cpp:434] conv4_3_norm_conv4_3_norm_0_split <- conv4_3_norm
I0324 20:46:01.368649  6039 net.cpp:408] conv4_3_norm_conv4_3_norm_0_split -> conv4_3_norm_conv4_3_norm_0_split_0
I0324 20:46:01.368654  6039 net.cpp:408] conv4_3_norm_conv4_3_norm_0_split -> conv4_3_norm_conv4_3_norm_0_split_1
I0324 20:46:01.368685  6039 net.cpp:150] Setting up conv4_3_norm_conv4_3_norm_0_split
I0324 20:46:01.368690  6039 net.cpp:157] Top shape: 64 128 16 64 (8388608)
I0324 20:46:01.368692  6039 net.cpp:157] Top shape: 64 128 16 64 (8388608)
I0324 20:46:01.368695  6039 net.cpp:165] Memory required for data: 2292187232
I0324 20:46:01.368697  6039 layer_factory.hpp:77] Creating layer conv4_3_norm_mbox_loc_conf
I0324 20:46:01.368703  6039 net.cpp:100] Creating Layer conv4_3_norm_mbox_loc_conf
I0324 20:46:01.368706  6039 net.cpp:434] conv4_3_norm_mbox_loc_conf <- conv4_3_norm_conv4_3_norm_0_split_0
I0324 20:46:01.368710  6039 net.cpp:408] conv4_3_norm_mbox_loc_conf -> conv4_3_norm_mbox_loc_conf
I0324 20:46:01.369038  6039 net.cpp:150] Setting up conv4_3_norm_mbox_loc_conf
I0324 20:46:01.369043  6039 net.cpp:157] Top shape: 64 36 16 64 (2359296)
I0324 20:46:01.369046  6039 net.cpp:165] Memory required for data: 2301624416
I0324 20:46:01.369050  6039 layer_factory.hpp:77] Creating layer conv4_3_norm_mbox_loc_conf_perm
I0324 20:46:01.369055  6039 net.cpp:100] Creating Layer conv4_3_norm_mbox_loc_conf_perm
I0324 20:46:01.369058  6039 net.cpp:434] conv4_3_norm_mbox_loc_conf_perm <- conv4_3_norm_mbox_loc_conf
I0324 20:46:01.369061  6039 net.cpp:408] conv4_3_norm_mbox_loc_conf_perm -> conv4_3_norm_mbox_loc_conf_perm
I0324 20:46:01.369141  6039 net.cpp:150] Setting up conv4_3_norm_mbox_loc_conf_perm
I0324 20:46:01.369145  6039 net.cpp:157] Top shape: 64 16 64 36 (2359296)
I0324 20:46:01.369148  6039 net.cpp:165] Memory required for data: 2311061600
I0324 20:46:01.369151  6039 layer_factory.hpp:77] Creating layer conv4_3_norm_mbox_loc_perm
I0324 20:46:01.369154  6039 net.cpp:100] Creating Layer conv4_3_norm_mbox_loc_perm
I0324 20:46:01.369158  6039 net.cpp:434] conv4_3_norm_mbox_loc_perm <- conv4_3_norm_mbox_loc_conf_perm
I0324 20:46:01.369161  6039 net.cpp:408] conv4_3_norm_mbox_loc_perm -> conv4_3_norm_mbox_loc_perm
I0324 20:46:01.369166  6039 net.cpp:408] conv4_3_norm_mbox_loc_perm -> conv4_3_norm_mbox_conf_perm
I0324 20:46:01.369194  6039 net.cpp:150] Setting up conv4_3_norm_mbox_loc_perm
I0324 20:46:01.369197  6039 net.cpp:157] Top shape: 64 16 64 24 (1572864)
I0324 20:46:01.369200  6039 net.cpp:157] Top shape: 64 16 64 12 (786432)
I0324 20:46:01.369204  6039 net.cpp:165] Memory required for data: 2320498784
I0324 20:46:01.369205  6039 layer_factory.hpp:77] Creating layer conv4_3_norm_mbox_loc_flat
I0324 20:46:01.369210  6039 net.cpp:100] Creating Layer conv4_3_norm_mbox_loc_flat
I0324 20:46:01.369212  6039 net.cpp:434] conv4_3_norm_mbox_loc_flat <- conv4_3_norm_mbox_loc_perm
I0324 20:46:01.369215  6039 net.cpp:408] conv4_3_norm_mbox_loc_flat -> conv4_3_norm_mbox_loc_flat
I0324 20:46:01.369232  6039 net.cpp:150] Setting up conv4_3_norm_mbox_loc_flat
I0324 20:46:01.369236  6039 net.cpp:157] Top shape: 64 24576 (1572864)
I0324 20:46:01.369240  6039 net.cpp:165] Memory required for data: 2326790240
I0324 20:46:01.369241  6039 layer_factory.hpp:77] Creating layer conv4_3_norm_mbox_conf_flat
I0324 20:46:01.369247  6039 net.cpp:100] Creating Layer conv4_3_norm_mbox_conf_flat
I0324 20:46:01.369251  6039 net.cpp:434] conv4_3_norm_mbox_conf_flat <- conv4_3_norm_mbox_conf_perm
I0324 20:46:01.369254  6039 net.cpp:408] conv4_3_norm_mbox_conf_flat -> conv4_3_norm_mbox_conf_flat
I0324 20:46:01.369272  6039 net.cpp:150] Setting up conv4_3_norm_mbox_conf_flat
I0324 20:46:01.369277  6039 net.cpp:157] Top shape: 64 12288 (786432)
I0324 20:46:01.369278  6039 net.cpp:165] Memory required for data: 2329935968
I0324 20:46:01.369282  6039 layer_factory.hpp:77] Creating layer conv4_3_norm_mbox_priorbox
I0324 20:46:01.369285  6039 net.cpp:100] Creating Layer conv4_3_norm_mbox_priorbox
I0324 20:46:01.369288  6039 net.cpp:434] conv4_3_norm_mbox_priorbox <- conv4_3_norm_conv4_3_norm_0_split_1
I0324 20:46:01.369292  6039 net.cpp:434] conv4_3_norm_mbox_priorbox <- data_data_0_split_1
I0324 20:46:01.369295  6039 net.cpp:408] conv4_3_norm_mbox_priorbox -> conv4_3_norm_mbox_priorbox
I0324 20:46:01.369313  6039 net.cpp:150] Setting up conv4_3_norm_mbox_priorbox
I0324 20:46:01.369318  6039 net.cpp:157] Top shape: 1 2 24576 (49152)
I0324 20:46:01.369320  6039 net.cpp:165] Memory required for data: 2330132576
I0324 20:46:01.369323  6039 layer_factory.hpp:77] Creating layer fc7_conv_mbox_loc_conf
I0324 20:46:01.369328  6039 net.cpp:100] Creating Layer fc7_conv_mbox_loc_conf
I0324 20:46:01.369330  6039 net.cpp:434] fc7_conv_mbox_loc_conf <- fc7_conv_relu7_0_split_1
I0324 20:46:01.369334  6039 net.cpp:408] fc7_conv_mbox_loc_conf -> fc7_conv_mbox_loc_conf
I0324 20:46:01.369787  6039 net.cpp:150] Setting up fc7_conv_mbox_loc_conf
I0324 20:46:01.369792  6039 net.cpp:157] Top shape: 64 36 8 32 (589824)
I0324 20:46:01.369796  6039 net.cpp:165] Memory required for data: 2332491872
I0324 20:46:01.369799  6039 layer_factory.hpp:77] Creating layer fc7_conv_mbox_loc_conf_perm
I0324 20:46:01.369803  6039 net.cpp:100] Creating Layer fc7_conv_mbox_loc_conf_perm
I0324 20:46:01.369806  6039 net.cpp:434] fc7_conv_mbox_loc_conf_perm <- fc7_conv_mbox_loc_conf
I0324 20:46:01.369809  6039 net.cpp:408] fc7_conv_mbox_loc_conf_perm -> fc7_conv_mbox_loc_conf_perm
I0324 20:46:01.369886  6039 net.cpp:150] Setting up fc7_conv_mbox_loc_conf_perm
I0324 20:46:01.369891  6039 net.cpp:157] Top shape: 64 8 32 36 (589824)
I0324 20:46:01.369894  6039 net.cpp:165] Memory required for data: 2334851168
I0324 20:46:01.369896  6039 layer_factory.hpp:77] Creating layer fc7_conv_mbox_loc_perm
I0324 20:46:01.369899  6039 net.cpp:100] Creating Layer fc7_conv_mbox_loc_perm
I0324 20:46:01.369902  6039 net.cpp:434] fc7_conv_mbox_loc_perm <- fc7_conv_mbox_loc_conf_perm
I0324 20:46:01.369906  6039 net.cpp:408] fc7_conv_mbox_loc_perm -> fc7_conv_mbox_loc_perm
I0324 20:46:01.369910  6039 net.cpp:408] fc7_conv_mbox_loc_perm -> fc7_conv_mbox_conf_perm
I0324 20:46:01.369937  6039 net.cpp:150] Setting up fc7_conv_mbox_loc_perm
I0324 20:46:01.369941  6039 net.cpp:157] Top shape: 64 8 32 24 (393216)
I0324 20:46:01.369945  6039 net.cpp:157] Top shape: 64 8 32 12 (196608)
I0324 20:46:01.369946  6039 net.cpp:165] Memory required for data: 2337210464
I0324 20:46:01.369948  6039 layer_factory.hpp:77] Creating layer fc7_conv_mbox_loc_flat
I0324 20:46:01.369952  6039 net.cpp:100] Creating Layer fc7_conv_mbox_loc_flat
I0324 20:46:01.369956  6039 net.cpp:434] fc7_conv_mbox_loc_flat <- fc7_conv_mbox_loc_perm
I0324 20:46:01.369958  6039 net.cpp:408] fc7_conv_mbox_loc_flat -> fc7_conv_mbox_loc_flat
I0324 20:46:01.369976  6039 net.cpp:150] Setting up fc7_conv_mbox_loc_flat
I0324 20:46:01.369979  6039 net.cpp:157] Top shape: 64 6144 (393216)
I0324 20:46:01.369982  6039 net.cpp:165] Memory required for data: 2338783328
I0324 20:46:01.369984  6039 layer_factory.hpp:77] Creating layer fc7_conv_mbox_conf_flat
I0324 20:46:01.369987  6039 net.cpp:100] Creating Layer fc7_conv_mbox_conf_flat
I0324 20:46:01.369990  6039 net.cpp:434] fc7_conv_mbox_conf_flat <- fc7_conv_mbox_conf_perm
I0324 20:46:01.369993  6039 net.cpp:408] fc7_conv_mbox_conf_flat -> fc7_conv_mbox_conf_flat
I0324 20:46:01.370010  6039 net.cpp:150] Setting up fc7_conv_mbox_conf_flat
I0324 20:46:01.370018  6039 net.cpp:157] Top shape: 64 3072 (196608)
I0324 20:46:01.370019  6039 net.cpp:165] Memory required for data: 2339569760
I0324 20:46:01.370023  6039 layer_factory.hpp:77] Creating layer fc7_conv_mbox_priorbox
I0324 20:46:01.370025  6039 net.cpp:100] Creating Layer fc7_conv_mbox_priorbox
I0324 20:46:01.370028  6039 net.cpp:434] fc7_conv_mbox_priorbox <- fc7_conv_relu7_0_split_2
I0324 20:46:01.370031  6039 net.cpp:434] fc7_conv_mbox_priorbox <- data_data_0_split_2
I0324 20:46:01.370034  6039 net.cpp:408] fc7_conv_mbox_priorbox -> fc7_conv_mbox_priorbox
I0324 20:46:01.370054  6039 net.cpp:150] Setting up fc7_conv_mbox_priorbox
I0324 20:46:01.370057  6039 net.cpp:157] Top shape: 1 2 6144 (12288)
I0324 20:46:01.370059  6039 net.cpp:165] Memory required for data: 2339618912
I0324 20:46:01.370062  6039 layer_factory.hpp:77] Creating layer conv6_2_mbox_loc_conf
I0324 20:46:01.370067  6039 net.cpp:100] Creating Layer conv6_2_mbox_loc_conf
I0324 20:46:01.370070  6039 net.cpp:434] conv6_2_mbox_loc_conf <- conv6_2_conv6_2_relu_0_split_1
I0324 20:46:01.370074  6039 net.cpp:408] conv6_2_mbox_loc_conf -> conv6_2_mbox_loc_conf
I0324 20:46:01.370334  6039 net.cpp:150] Setting up conv6_2_mbox_loc_conf
I0324 20:46:01.370339  6039 net.cpp:157] Top shape: 64 36 4 16 (147456)
I0324 20:46:01.370342  6039 net.cpp:165] Memory required for data: 2340208736
I0324 20:46:01.370345  6039 layer_factory.hpp:77] Creating layer conv6_2_mbox_loc_conf_perm
I0324 20:46:01.370349  6039 net.cpp:100] Creating Layer conv6_2_mbox_loc_conf_perm
I0324 20:46:01.370352  6039 net.cpp:434] conv6_2_mbox_loc_conf_perm <- conv6_2_mbox_loc_conf
I0324 20:46:01.370357  6039 net.cpp:408] conv6_2_mbox_loc_conf_perm -> conv6_2_mbox_loc_conf_perm
I0324 20:46:01.370434  6039 net.cpp:150] Setting up conv6_2_mbox_loc_conf_perm
I0324 20:46:01.370438  6039 net.cpp:157] Top shape: 64 4 16 36 (147456)
I0324 20:46:01.370441  6039 net.cpp:165] Memory required for data: 2340798560
I0324 20:46:01.370445  6039 layer_factory.hpp:77] Creating layer conv6_2_mbox_loc_perm
I0324 20:46:01.370447  6039 net.cpp:100] Creating Layer conv6_2_mbox_loc_perm
I0324 20:46:01.370450  6039 net.cpp:434] conv6_2_mbox_loc_perm <- conv6_2_mbox_loc_conf_perm
I0324 20:46:01.370455  6039 net.cpp:408] conv6_2_mbox_loc_perm -> conv6_2_mbox_loc_perm
I0324 20:46:01.370458  6039 net.cpp:408] conv6_2_mbox_loc_perm -> conv6_2_mbox_conf_perm
I0324 20:46:01.370484  6039 net.cpp:150] Setting up conv6_2_mbox_loc_perm
I0324 20:46:01.370488  6039 net.cpp:157] Top shape: 64 4 16 24 (98304)
I0324 20:46:01.370491  6039 net.cpp:157] Top shape: 64 4 16 12 (49152)
I0324 20:46:01.370494  6039 net.cpp:165] Memory required for data: 2341388384
I0324 20:46:01.370496  6039 layer_factory.hpp:77] Creating layer conv6_2_mbox_loc_flat
I0324 20:46:01.370503  6039 net.cpp:100] Creating Layer conv6_2_mbox_loc_flat
I0324 20:46:01.370507  6039 net.cpp:434] conv6_2_mbox_loc_flat <- conv6_2_mbox_loc_perm
I0324 20:46:01.370509  6039 net.cpp:408] conv6_2_mbox_loc_flat -> conv6_2_mbox_loc_flat
I0324 20:46:01.370527  6039 net.cpp:150] Setting up conv6_2_mbox_loc_flat
I0324 20:46:01.370530  6039 net.cpp:157] Top shape: 64 1536 (98304)
I0324 20:46:01.370533  6039 net.cpp:165] Memory required for data: 2341781600
I0324 20:46:01.370535  6039 layer_factory.hpp:77] Creating layer conv6_2_mbox_conf_flat
I0324 20:46:01.370539  6039 net.cpp:100] Creating Layer conv6_2_mbox_conf_flat
I0324 20:46:01.370542  6039 net.cpp:434] conv6_2_mbox_conf_flat <- conv6_2_mbox_conf_perm
I0324 20:46:01.370545  6039 net.cpp:408] conv6_2_mbox_conf_flat -> conv6_2_mbox_conf_flat
I0324 20:46:01.370563  6039 net.cpp:150] Setting up conv6_2_mbox_conf_flat
I0324 20:46:01.370565  6039 net.cpp:157] Top shape: 64 768 (49152)
I0324 20:46:01.370568  6039 net.cpp:165] Memory required for data: 2341978208
I0324 20:46:01.370570  6039 layer_factory.hpp:77] Creating layer conv6_2_mbox_priorbox
I0324 20:46:01.370574  6039 net.cpp:100] Creating Layer conv6_2_mbox_priorbox
I0324 20:46:01.370578  6039 net.cpp:434] conv6_2_mbox_priorbox <- conv6_2_conv6_2_relu_0_split_2
I0324 20:46:01.370582  6039 net.cpp:434] conv6_2_mbox_priorbox <- data_data_0_split_3
I0324 20:46:01.370586  6039 net.cpp:408] conv6_2_mbox_priorbox -> conv6_2_mbox_priorbox
I0324 20:46:01.370604  6039 net.cpp:150] Setting up conv6_2_mbox_priorbox
I0324 20:46:01.370609  6039 net.cpp:157] Top shape: 1 2 1536 (3072)
I0324 20:46:01.370610  6039 net.cpp:165] Memory required for data: 2341990496
I0324 20:46:01.370613  6039 layer_factory.hpp:77] Creating layer conv7_2_mbox_loc_conf
I0324 20:46:01.370618  6039 net.cpp:100] Creating Layer conv7_2_mbox_loc_conf
I0324 20:46:01.370621  6039 net.cpp:434] conv7_2_mbox_loc_conf <- conv7_2_conv7_2_relu_0_split_0
I0324 20:46:01.370625  6039 net.cpp:408] conv7_2_mbox_loc_conf -> conv7_2_mbox_loc_conf
I0324 20:46:01.370852  6039 net.cpp:150] Setting up conv7_2_mbox_loc_conf
I0324 20:46:01.370857  6039 net.cpp:157] Top shape: 64 36 2 8 (36864)
I0324 20:46:01.370860  6039 net.cpp:165] Memory required for data: 2342137952
I0324 20:46:01.370864  6039 layer_factory.hpp:77] Creating layer conv7_2_mbox_loc_conf_perm
I0324 20:46:01.370868  6039 net.cpp:100] Creating Layer conv7_2_mbox_loc_conf_perm
I0324 20:46:01.370872  6039 net.cpp:434] conv7_2_mbox_loc_conf_perm <- conv7_2_mbox_loc_conf
I0324 20:46:01.370874  6039 net.cpp:408] conv7_2_mbox_loc_conf_perm -> conv7_2_mbox_loc_conf_perm
I0324 20:46:01.370955  6039 net.cpp:150] Setting up conv7_2_mbox_loc_conf_perm
I0324 20:46:01.370960  6039 net.cpp:157] Top shape: 64 2 8 36 (36864)
I0324 20:46:01.370962  6039 net.cpp:165] Memory required for data: 2342285408
I0324 20:46:01.370965  6039 layer_factory.hpp:77] Creating layer conv7_2_mbox_loc_perm
I0324 20:46:01.370968  6039 net.cpp:100] Creating Layer conv7_2_mbox_loc_perm
I0324 20:46:01.370971  6039 net.cpp:434] conv7_2_mbox_loc_perm <- conv7_2_mbox_loc_conf_perm
I0324 20:46:01.370975  6039 net.cpp:408] conv7_2_mbox_loc_perm -> conv7_2_mbox_loc_perm
I0324 20:46:01.370980  6039 net.cpp:408] conv7_2_mbox_loc_perm -> conv7_2_mbox_conf_perm
I0324 20:46:01.371006  6039 net.cpp:150] Setting up conv7_2_mbox_loc_perm
I0324 20:46:01.371011  6039 net.cpp:157] Top shape: 64 2 8 24 (24576)
I0324 20:46:01.371014  6039 net.cpp:157] Top shape: 64 2 8 12 (12288)
I0324 20:46:01.371016  6039 net.cpp:165] Memory required for data: 2342432864
I0324 20:46:01.371018  6039 layer_factory.hpp:77] Creating layer conv7_2_mbox_loc_flat
I0324 20:46:01.371022  6039 net.cpp:100] Creating Layer conv7_2_mbox_loc_flat
I0324 20:46:01.371026  6039 net.cpp:434] conv7_2_mbox_loc_flat <- conv7_2_mbox_loc_perm
I0324 20:46:01.371028  6039 net.cpp:408] conv7_2_mbox_loc_flat -> conv7_2_mbox_loc_flat
I0324 20:46:01.371044  6039 net.cpp:150] Setting up conv7_2_mbox_loc_flat
I0324 20:46:01.371049  6039 net.cpp:157] Top shape: 64 384 (24576)
I0324 20:46:01.371052  6039 net.cpp:165] Memory required for data: 2342531168
I0324 20:46:01.371053  6039 layer_factory.hpp:77] Creating layer conv7_2_mbox_conf_flat
I0324 20:46:01.371057  6039 net.cpp:100] Creating Layer conv7_2_mbox_conf_flat
I0324 20:46:01.371059  6039 net.cpp:434] conv7_2_mbox_conf_flat <- conv7_2_mbox_conf_perm
I0324 20:46:01.371063  6039 net.cpp:408] conv7_2_mbox_conf_flat -> conv7_2_mbox_conf_flat
I0324 20:46:01.371079  6039 net.cpp:150] Setting up conv7_2_mbox_conf_flat
I0324 20:46:01.371083  6039 net.cpp:157] Top shape: 64 192 (12288)
I0324 20:46:01.371086  6039 net.cpp:165] Memory required for data: 2342580320
I0324 20:46:01.371088  6039 layer_factory.hpp:77] Creating layer conv7_2_mbox_priorbox
I0324 20:46:01.371093  6039 net.cpp:100] Creating Layer conv7_2_mbox_priorbox
I0324 20:46:01.371094  6039 net.cpp:434] conv7_2_mbox_priorbox <- conv7_2_conv7_2_relu_0_split_1
I0324 20:46:01.371098  6039 net.cpp:434] conv7_2_mbox_priorbox <- data_data_0_split_4
I0324 20:46:01.371101  6039 net.cpp:408] conv7_2_mbox_priorbox -> conv7_2_mbox_priorbox
I0324 20:46:01.371119  6039 net.cpp:150] Setting up conv7_2_mbox_priorbox
I0324 20:46:01.371124  6039 net.cpp:157] Top shape: 1 2 384 (768)
I0324 20:46:01.371125  6039 net.cpp:165] Memory required for data: 2342583392
I0324 20:46:01.371130  6039 layer_factory.hpp:77] Creating layer mbox_loc
I0324 20:46:01.371134  6039 net.cpp:100] Creating Layer mbox_loc
I0324 20:46:01.371137  6039 net.cpp:434] mbox_loc <- conv4_3_norm_mbox_loc_flat
I0324 20:46:01.371140  6039 net.cpp:434] mbox_loc <- fc7_conv_mbox_loc_flat
I0324 20:46:01.371143  6039 net.cpp:434] mbox_loc <- conv6_2_mbox_loc_flat
I0324 20:46:01.371146  6039 net.cpp:434] mbox_loc <- conv7_2_mbox_loc_flat
I0324 20:46:01.371150  6039 net.cpp:408] mbox_loc -> mbox_loc
I0324 20:46:01.371168  6039 net.cpp:150] Setting up mbox_loc
I0324 20:46:01.371172  6039 net.cpp:157] Top shape: 64 32640 (2088960)
I0324 20:46:01.371175  6039 net.cpp:165] Memory required for data: 2350939232
I0324 20:46:01.371177  6039 layer_factory.hpp:77] Creating layer mbox_conf
I0324 20:46:01.371181  6039 net.cpp:100] Creating Layer mbox_conf
I0324 20:46:01.371183  6039 net.cpp:434] mbox_conf <- conv4_3_norm_mbox_conf_flat
I0324 20:46:01.371186  6039 net.cpp:434] mbox_conf <- fc7_conv_mbox_conf_flat
I0324 20:46:01.371189  6039 net.cpp:434] mbox_conf <- conv6_2_mbox_conf_flat
I0324 20:46:01.371192  6039 net.cpp:434] mbox_conf <- conv7_2_mbox_conf_flat
I0324 20:46:01.371196  6039 net.cpp:408] mbox_conf -> mbox_conf
I0324 20:46:01.371212  6039 net.cpp:150] Setting up mbox_conf
I0324 20:46:01.371217  6039 net.cpp:157] Top shape: 64 16320 (1044480)
I0324 20:46:01.371219  6039 net.cpp:165] Memory required for data: 2355117152
I0324 20:46:01.371222  6039 layer_factory.hpp:77] Creating layer mbox_priorbox
I0324 20:46:01.371224  6039 net.cpp:100] Creating Layer mbox_priorbox
I0324 20:46:01.371227  6039 net.cpp:434] mbox_priorbox <- conv4_3_norm_mbox_priorbox
I0324 20:46:01.371230  6039 net.cpp:434] mbox_priorbox <- fc7_conv_mbox_priorbox
I0324 20:46:01.371233  6039 net.cpp:434] mbox_priorbox <- conv6_2_mbox_priorbox
I0324 20:46:01.371237  6039 net.cpp:434] mbox_priorbox <- conv7_2_mbox_priorbox
I0324 20:46:01.371239  6039 net.cpp:408] mbox_priorbox -> mbox_priorbox
I0324 20:46:01.371256  6039 net.cpp:150] Setting up mbox_priorbox
I0324 20:46:01.371260  6039 net.cpp:157] Top shape: 1 2 32640 (65280)
I0324 20:46:01.371263  6039 net.cpp:165] Memory required for data: 2355378272
I0324 20:46:01.371264  6039 layer_factory.hpp:77] Creating layer mbox_loss
I0324 20:46:01.371270  6039 net.cpp:100] Creating Layer mbox_loss
I0324 20:46:01.371273  6039 net.cpp:434] mbox_loss <- mbox_loc
I0324 20:46:01.371276  6039 net.cpp:434] mbox_loss <- mbox_conf
I0324 20:46:01.371279  6039 net.cpp:434] mbox_loss <- mbox_priorbox
…
  name: "data"
  type: "AnnotatedData"
  top: "data"
  top: "label"
  include {
    phase: TEST
  }
  transform_param {
    mean_value: 114
    mean_value: 115
    mean_value: 108
    resize_param {
      prob: 1
      resize_mode: WARP
      height: 128
      width: 512
      interp_mode: LINEAR
    }
  }
  data_param {
    source: "/home/work/qinhuan/git/caffe-ssd/data/test_lmdb"
    batch_size: 8
    backend: LMDB
  }
  annotated_data_param {
    batch_sampler {
    }
    label_map_file: "/home/work/qinhuan/git/caffe-ssd/data/labelmap_all.prototxt"
  }
}
layer {
  name: "conv1_1"
  type: "Convolution"
  bottom: "data"
  top: "conv1_1"
  param {
    lr_mult: 1
    decay_mult: 1
  }
  param {
    lr_mult: 2
    decay_mult: 0
  }
  convolution_param {
    num_output: 16
    pad: 1
    kernel_size: 3
    weight_filler {
      type: "xavier"
    }
    bias_filler {
      type: "constant"
      value: 0
    }
  }
}
layer {
  name: "relu1_1"
  type: "ReLU"
  bottom: "conv1_1"
  top: "conv1_1"
}
layer {
  name: "conv1_2"
  type: "Convolution"
  bottom: "conv1_1"
  top: "conv1_2"
  param {
    lr_mult: 1
    decay_mult: 1
  }
  param {
    lr_mult: 2
    decay_mult: 0
  }
  convolution_param {
    num_output: 16
    pad: 1
    kernel_size: 3
    stride: 2
    weight_filler {
      type: "xavier"
    }
    bias_filler {
      type: "constant"
      value: 0
    }
  }
}
layer {
  name: "relu1_2"
  type: "ReLU"
  bottom: "conv1_2"
  top: "conv1_2"
}
layer {
  name: "conv2_1"
  type: "Convolution"
  bottom: "conv1_2"
  top: "conv2_1"
  param {
    lr_mult: 1
    decay_mult: 1
  }
  param {
    lr_mult: 2
    decay_mult: 0
  }
  convolution_param {
    num_output: 32
    pad: 1
    kernel_size: 3
    weight_filler {
      type: "xavier"
    }
    bias_filler {
      type: "constant"
      value: 0
    }
  }
}
layer {
  name: "relu2_1"
  type: "ReLU"
  bottom: "conv2_1"
  top: "conv2_1"
}
layer {
  name: "conv2_2"
  type: "Convolution"
  bottom: "conv2_1"
  top: "conv2_2"
  param {
    lr_mult: 1
    decay_mult: 1
  }
  param {
    lr_mult: 2
    decay_mult: 0
  }
  convolution_param {
    num_output: 32
    pad: 1
    kernel_size: 3
    stride: 2
    weight_filler {
      type: "xavier"
    }
    bias_filler {
      type: "constant"
      value: 0
    }
  }
}
layer {
  name: "relu2_2"
  type: "ReLU"
  bottom: "conv2_2"
  top: "conv2_2"
}
layer {
  name: "conv3_1"
  type: "Convolution"
  bottom: "conv2_2"
  top: "conv3_1"
  param {
    lr_mult: 1
    decay_mult: 1
  }
  param {
    lr_mult: 2
    decay_mult: 0
  }
  convolution_param {
    num_output: 64
    pad: 1
    kernel_size: 3
    weight_filler {
      type: "xavier"
    }
    bias_filler {
      type: "constant"
      value: 0
    }
  }
}
layer {
  name: "relu3_1"
  type: "ReLU"
  bottom: "conv3_1"
  top: "conv3_1"
}
layer {
  name: "conv3_2"
  type: "Convolution"
  bottom: "conv3_1"
  top: "conv3_2"
  param {
    lr_mult: 1
    decay_mult: 1
  }
  param {
    lr_mult: 2
    decay_mult: 0
  }
  convolution_param {
    num_output: 64
    pad: 1
    kernel_size: 3
    weight_filler {
      type: "xavier"
    }
    bias_filler {
      type: "constant"
      value: 0
    }
  }
}
layer {
  name: "relu3_2"
  type: "ReLU"
  bottom: "conv3_2"
  top: "conv3_2"
}
layer {
  name: "conv3_3"
  type: "Convolution"
  bottom: "conv3_2"
  top: "conv3_3"
  param {
    lr_mult: 1
    decay_mult: 1
  }
  param {
    lr_mult: 2
    decay_mult: 0
  }
  convolution_param {
    num_output: 64
    pad: 1
    kernel_size: 3
    weight_filler {
      type: "xavier"
    }
    bias_filler {
      type: "constant"
      value: 0
    }
  }
}
layer {
  name: "relu3_3"
  type: "ReLU"
  bottom: "conv3_3"
  top: "conv3_3"
}
layer {
  name: "pool3"
  type: "Pooling"
  bottom: "conv3_3"
  top: "pool3"
  pooling_param {
    pool: MAX
    kernel_size: 2
    stride: 2
  }
}
layer {
  name: "conv4_1"
  type: "Convolution"
  bottom: "pool3"
  top: "conv4_1"
  param {
    lr_mult: 1
    decay_mult: 1
  }
  param {
    lr_mult: 2
    decay_mult: 0
  }
  convolution_param {
    num_output: 128
    pad: 1
    kernel_size: 3
    weight_filler {
      type: "xavier"
    }
    bias_filler {
      type: "constant"
      value: 0
    }
  }
}
layer {
  name: "relu4_1"
  type: "ReLU"
  bottom: "conv4_1"
  top: "conv4_1"
}
layer {
  name: "conv4_2"
  type: "Convolution"
  bottom: "conv4_1"
  top: "conv4_2"
  param {
    lr_mult: 1
    decay_mult: 1
  }
  param {
    lr_mult: 2
    decay_mult: 0
  }
  convolution_param {
    num_output: 128
    pad: 1
    kernel_size: 3
    weight_filler {
      type: "xavier"
    }
    bias_filler {
      type: "constant"
      value: 0
    }
  }
}
layer {
  name: "relu4_2"
  type: "ReLU"
  bottom: "conv4_2"
  top: "conv4_2"
}
layer {
  name: "conv4_3"
  type: "Convolution"
  bottom: "conv4_2"
  top: "conv4_3"
  param {
    lr_mult: 1
    decay_mult: 1
  }
  param {
    lr_mult: 2
    decay_mult: 0
  }
  convolution_param {
    num_output: 128
    pad: 1
    kernel_size: 3
    weight_filler {
      type: "xavier"
    }
    bias_filler {
      type: "constant"
      value: 0
    }
  }
}
layer {
  name: "relu4_3"
  type: "ReLU"
  bottom: "conv4_3"
  top: "conv4_3"
}
layer {
  name: "pool4"
  type: "Pooling"
  bottom: "conv4_3"
  top: "pool4"
  pooling_param {
    pool: MAX
    kernel_size: 2
    stride: 2
  }
}
layer {
  name: "conv5_1"
  type: "Convolution"
  bottom: "pool4"
  top: "conv5_1"
  param {
    lr_mult: 1
    decay_mult: 1
  }
  param {
    lr_mult: 2
    decay_mult: 0
  }
  convolution_param {
    num_output: 128
    pad: 1
    kernel_size: 3
    weight_filler {
      type: "xavier"
    }
    bias_filler {
      type: "constant"
      value: 0
    }
    dilation: 1
  }
}
layer {
  name: "relu5_1"
  type: "ReLU"
  bottom: "conv5_1"
  top: "conv5_1"
}
layer {
  name: "conv5_2"
  type: "Convolution"
  bottom: "conv5_1"
  top: "conv5_2"
  param {
    lr_mult: 1
    decay_mult: 1
  }
  param {
    lr_mult: 2
    decay_mult: 0
  }
  convolution_param {
    num_output: 128
    pad: 1
    kernel_size: 3
    weight_filler {
      type: "xavier"
    }
    bias_filler {
      type: "constant"
      value: 0
    }
    dilation: 1
  }
}
layer {
  name: "relu5_2"
  type: "ReLU"
  bottom: "conv5_2"
  top: "conv5_2"
}
layer {
  name: "conv5_3"
  type: "Convolution"
  bottom: "conv5_2"
  top: "conv5_3"
  param {
    lr_mult: 1
    decay_mult: 1
  }
  param {
    lr_mult: 2
    decay_mult: 0
  }
  convolution_param {
    num_output: 128
    pad: 1
    kernel_size: 3
    weight_filler {
      type: "xavier"
    }
    bias_filler {
      type: "constant"
      value: 0
    }
    dilation: 1
  }
}
layer {
  name: "relu5_3"
  type: "ReLU"
  bottom: "conv5_3"
  top: "conv5_3"
}
layer {
  name: "pool5"
  type: "Pooling"
  bottom: "conv5_3"
  top: "pool5"
  pooling_param {
    pool: MAX
    kernel_size: 3
    stride: 1
    pad: 1
  }
}
layer {
  name: "fc6_conv"
  type: "Convolution"
  bottom: "pool5"
  top: "fc6_conv"
  param {
    lr_mult: 1
    decay_mult: 1
  }
  param {
    lr_mult: 2
    decay_mult: 0
  }
  convolution_param {
    num_output: 256
    pad: 6
    kernel_size: 3
    weight_filler {
      type: "xavier"
    }
    bias_filler {
      type: "constant"
      value: 0
    }
    dilation: 6
  }
}
layer {
  name: "relu6"
  type: "ReLU"
  bottom: "fc6_conv"
  top: "fc6_conv"
}
layer {
  name: "fc7_conv"
  type: "Convolution"
  bottom: "fc6_conv"
  top: "fc7_conv"
  param {
    lr_mult: 1
    decay_mult: 1
  }
  param {
    lr_mult: 2
    decay_mult: 0
  }
  convolution_param {
    num_output: 256
    kernel_size: 1
    weight_filler {
      type: "xavier"
    }
    bias_filler {
      type: "constant"
      value: 0
    }
  }
}
layer {
  name: "relu7"
  type: "ReLU"
  bottom: "fc7_conv"
  top: "fc7_conv"
}
layer {
  name: "conv6_1"
  type: "Convolution"
  bottom: "fc7_conv"
  top: "conv6_1"
  param {
    lr_mult: 1
    decay_mult: 1
  }
  param {
    lr_mult: 2
    decay_mult: 0
  }
  convolution_param {
    num_output: 32
    pad: 0
    kernel_size: 1
    stride: 1
    weight_filler {
      type: "xavier"
    }
    bias_filler {
      type: "constant"
      value: 0
    }
  }
}
layer {
  name: "conv6_1_relu"
  type: "ReLU"
  bottom: "conv6_1"
  top: "conv6_1"
}
layer {
  name: "conv6_2"
  type: "Convolution"
  bottom: "conv6_1"
  top: "conv6_2"
  param {
    lr_mult: 1
    decay_mult: 1
  }
  param {
    lr_mult: 2
    decay_mult: 0
  }
  convolution_param {
    num_output: 64
    pad: 1
    kernel_size: 3
    stride: 2
    weight_filler {
      type: "xavier"
    }
    bias_filler {
      type: "constant"
      value: 0
    }
  }
}
layer {
  name: "conv6_2_relu"
  type: "ReLU"
  bottom: "conv6_2"
  top: "conv6_2"
}
layer {
  name: "conv7_1"
  type: "Convolution"
  bottom: "conv6_2"
  top: "conv7_1"
  param {
    lr_mult: 1
    decay_mult: 1
  }
  param {
    lr_mult: 2
    decay_mult: 0
  }
  convolution_param {
    num_output: 16
    pad: 0
    kernel_size: 1
    stride: 1
    weight_filler {
      type: "xavier"
    }
    bias_filler {
      type: "constant"
      value: 0
    }
  }
}
layer {
  name: "conv7_1_relu"
  type: "ReLU"
  bottom: "conv7_1"
  top: "conv7_1"
}
layer {
  name: "conv7_2"
  type: "Convolution"
  bottom: "conv7_1"
  top: "conv7_2"
  param {
    lr_mult: 1
    decay_mult: 1
  }
  param {
    lr_mult: 2
    decay_mult: 0
  }
  convolution_param {
    num_output: 32
    pad: 1
    kernel_size: 3
    stride: 2
    weight_filler {
      type: "xavier"
    }
    bias_filler {
      type: "constant"
      value: 0
    }
  }
}
layer {
  name: "conv7_2_relu"
  type: "ReLU"
  bottom: "conv7_2"
  top: "conv7_2"
}
layer {
  name: "conv4_3_norm"
  type: "Normalize"
  bottom: "conv4_3"
  top: "conv4_3_norm"
  norm_param {
    across_spatial: false
    scale_filler {
      type: "constant"
      value: 20
    }
    channel_shared: false
  }
}
layer {
  name: "conv4_3_norm_mbox_loc_conf"
  type: "Convolution"
  bottom: "conv4_3_norm"
  top: "conv4_3_norm_mbox_loc_conf"
  param {
    lr_mult: 1
    decay_mult: 1
  }
  param {
    lr_mult: 2
    decay_mult: 0
  }
  convolution_param {
    num_output: 36
    pad: 1
    kernel_size: 3
    stride: 1
    weight_filler {
      type: "xavier"
    }
    bias_filler {
      type: "constant"
      value: 0
    }
  }
}
layer {
  name: "conv4_3_norm_mbox_loc_conf_perm"
  type: "Permute"
  bottom: "conv4_3_norm_mbox_loc_conf"
  top: "conv4_3_norm_mbox_loc_conf_perm"
  permute_param {
    order: 0
    order: 2
    order: 3
    order: 1
  }
}
layer {
  name: "conv4_3_norm_mbox_loc_perm"
  type: "Slice"
  bottom: "conv4_3_norm_mbox_loc_conf_perm"
  top: "conv4_3_norm_mbox_loc_perm"
  top: "conv4_3_norm_mbox_conf_perm"
  slice_param {
    slice_point: 24
    axis: 3
  }
}
layer {
  name: "conv4_3_norm_mbox_loc_flat"
  type: "Flatten"
  bottom: "conv4_3_norm_mbox_loc_perm"
  top: "conv4_3_norm_mbox_loc_flat"
  flatten_param {
    axis: 1
  }
}
layer {
  name: "conv4_3_norm_mbox_conf_flat"
  type: "Flatten"
  bottom: "conv4_3_norm_mbox_conf_perm"
  top: "conv4_3_norm_mbox_conf_flat"
  flatten_param {
    axis: 1
  }
}
layer {
  name: "conv4_3_norm_mbox_priorbox"
  type: "PriorBox"
  bottom: "conv4_3_norm"
  bottom: "data"
  top: "conv4_3_norm_mbox_priorbox"
  prior_box_param {
    min_size: 7.68
    max_size: 25.6
    aspect_ratio: 2
    aspect_ratio: 3
    flip: true
    clip: true
    variance: 0.1
    variance: 0.1
    variance: 0.2
    variance: 0.2
    offset: 0.5
  }
}
layer {
  name: "fc7_conv_mbox_loc_conf"
  type: "Convolution"
  bottom: "fc7_conv"
  top: "fc7_conv_mbox_loc_conf"
  param {
    lr_mult: 1
    decay_mult: 1
  }
  param {
    lr_mult: 2
    decay_mult: 0
  }
  convolution_param {
    num_output: 36
    pad: 1
    kernel_size: 3
    stride: 1
    weight_filler {
      type: "xavier"
    }
    bias_filler {
      type: "constant"
      value: 0
    }
  }
}
layer {
  name: "fc7_conv_mbox_loc_conf_perm"
  type: "Permute"
  bottom: "fc7_conv_mbox_loc_conf"
  top: "fc7_conv_mbox_loc_conf_perm"
  permute_param {
    order: 0
    order: 2
    order: 3
    order: 1
  }
}
layer {
  name: "fc7_conv_mbox_loc_perm"
  type: "Slice"
  bottom: "fc7_conv_mbox_loc_conf_perm"
  top: "fc7_conv_mbox_loc_perm"
  top: "fc7_conv_mbox_conf_perm"
  slice_param {
    slice_point: 24
    axis: 3
  }
}
layer {
  name: "fc7_conv_mbox_loc_flat"
  type: "Flatten"
  bottom: "fc7_conv_mbox_loc_perm"
  top: "fc7_conv_mbox_loc_flat"
  flatten_param {
    axis: 1
  }
}
layer {
  name: "fc7_conv_mbox_conf_flat"
  type: "Flatten"
  bottom: "fc7_conv_mbox_conf_perm"
  top: "fc7_conv_mbox_conf_flat"
  flatten_param {
    axis: 1
  }
}
layer {
  name: "fc7_conv_mbox_priorbox"
  type: "PriorBox"
  bottom: "fc7_conv"
  bottom: "data"
  top: "fc7_conv_mbox_priorbox"
  prior_box_param {
    min_size: 25.6
    max_size: 133.12
    aspect_ratio: 2
    aspect_ratio: 3
    flip: true
    clip: true
    variance: 0.1
    variance: 0.1
    variance: 0.2
    variance: 0.2
    offset: 0.5
  }
}
layer {
  name: "conv6_2_mbox_loc_conf"
  type: "Convolution"
  bottom: "conv6_2"
  top: "conv6_2_mbox_loc_conf"
  param {
    lr_mult: 1
    decay_mult: 1
  }
  param {
    lr_mult: 2
    decay_mult: 0
  }
  convolution_param {
    num_output: 36
    pad: 1
    kernel_size: 3
    stride: 1
    weight_filler {
      type: "xavier"
    }
    bias_filler {
      type: "constant"
      value: 0
    }
  }
}
layer {
  name: "conv6_2_mbox_loc_conf_perm"
  type: "Permute"
  bottom: "conv6_2_mbox_loc_conf"
  top: "conv6_2_mbox_loc_conf_perm"
  permute_param {
    order: 0
    order: 2
    order: 3
    order: 1
  }
}
layer {
  name: "conv6_2_mbox_loc_perm"
  type: "Slice"
  bottom: "conv6_2_mbox_loc_conf_perm"
  top: "conv6_2_mbox_loc_perm"
  top: "conv6_2_mbox_conf_perm"
  slice_param {
    slice_point: 24
    axis: 3
  }
}
layer {
  name: "conv6_2_mbox_loc_flat"
  type: "Flatten"
  bottom: "conv6_2_mbox_loc_perm"
  top: "conv6_2_mbox_loc_flat"
  flatten_param {
    axis: 1
  }
}
layer {
  name: "conv6_2_mbox_conf_flat"
  type: "Flatten"
  bottom: "conv6_2_mbox_conf_perm"
  top: "conv6_2_mbox_conf_flat"
  flatten_param {
    axis: 1
  }
}
layer {
  name: "conv6_2_mbox_priorbox"
  type: "PriorBox"
  bottom: "conv6_2"
  bottom: "data"
  top: "conv6_2_mbox_priorbox"
  prior_box_param {
    min_size: 133.12
    max_size: 240.64
    aspect_ratio: 2
    aspect_ratio: 3
    flip: true
    clip: true
    variance: 0.1
    variance: 0.1
    variance: 0.2
    variance: 0.2
    offset: 0.5
  }
}
layer {
  name: "conv7_2_mbox_loc_conf"
  type: "Convolution"
  bottom: "conv7_2"
  top: "conv7_2_mbox_loc_conf"
  param {
    lr_mult: 1
    decay_mult: 1
  }
  param {
    lr_mult: 2
    decay_mult: 0
  }
  convolution_param {
    num_output: 36
    pad: 1
    kernel_size: 3
    stride: 1
    weight_filler {
      type: "xavier"
    }
    bias_filler {
      type: "constant"
      value: 0
    }
  }
}
layer {
  name: "conv7_2_mbox_loc_conf_perm"
  type: "Permute"
  bottom: "conv7_2_mbox_loc_conf"
  top: "conv7_2_mbox_loc_conf_perm"
  permute_param {
    order: 0
    order: 2
    order: 3
    order: 1
  }
}
layer {
  name: "conv7_2_mbox_loc_perm"
  type: "Slice"
  bottom: "conv7_2_mbox_loc_conf_perm"
  top: "conv7_2_mbox_loc_perm"
  top: "conv7_2_mbox_conf_perm"
  slice_param {
    slice_point: 24
    axis: 3
  }
}
layer {
  name: "conv7_2_mbox_loc_flat"
  type: "Flatten"
  bottom: "conv7_2_mbox_loc_perm"
  top: "conv7_2_mbox_loc_flat"
  flatten_param {
    axis: 1
  }
}
layer {
  name: "conv7_2_mbox_conf_flat"
  type: "Flatten"
  bottom: "conv7_2_mbox_conf_perm"
  top: "conv7_2_mbox_conf_flat"
  flatten_param {
    axis: 1
  }
}
layer {
  name: "conv7_2_mbox_priorbox"
  type: "PriorBox"
  bottom: "conv7_2"
  bottom: "data"
  top: "conv7_2_mbox_priorbox"
  prior_box_param {
    min_size: 240.64
    max_size: 348.16
    aspect_ratio: 2
    aspect_ratio: 3
    flip: true
    clip: true
    variance: 0.1
    variance: 0.1
    variance: 0.2
    variance: 0.2
    offset: 0.5
  }
}
layer {
  name: "mbox_loc"
  type: "Concat"
  bottom: "conv4_3_norm_mbox_loc_flat"
  bottom: "fc7_conv_mbox_loc_flat"
  bottom: "conv6_2_mbox_loc_flat"
  bottom: "conv7_2_mbox_loc_flat"
  top: "mbox_loc"
  concat_param {
    axis: 1
  }
}
layer {
  name: "mbox_conf"
  type: "Concat"
  bottom: "conv4_3_norm_mbox_conf_flat"
  bottom: "fc7_conv_mbox_conf_flat"
  bottom: "conv6_2_mbox_conf_flat"
  bottom: "conv7_2_mbox_conf_flat"
  top: "mbox_conf"
  concat_param {
    axis: 1
  }
}
layer {
  name: "mbox_priorbox"
  type: "Concat"
  bottom: "conv4_3_norm_mbox_priorbox"
  bottom: "fc7_conv_mbox_priorbox"
  bottom: "conv6_2_mbox_priorbox"
  bottom: "conv7_2_mbox_priorbox"
  top: "mbox_priorbox"
  concat_param {
    axis: 2
  }
}
layer {
  name: "mbox_conf_reshape"
  type: "Reshape"
  bottom: "mbox_conf"
  top: "mbox_conf_reshape"
  reshape_param {
    shape {
      dim: 0
      dim: -1
      dim: 2
    }
  }
}
layer {
  name: "mbox_conf_softmax"
  type: "Softmax"
  bottom: "mbox_conf_reshape"
  top: "mbox_conf_softmax"
  softmax_param {
    axis: 2
  }
}
layer {
  name: "mbox_conf_flatten"
  type: "Flatten"
  bottom: "mbox_conf_softmax"
  top: "mbox_conf_flatten"
  flatten_param {
    axis: 1
  }
}
layer {
  name: "detection_out"
  type: "DetectionOutput"
  bottom: "mbox_loc"
  bottom: "mbox_conf_flatten"
  bottom: "mbox_priorbox"
  top: "detection_out"
  include {
    phase: TEST
  }
  detection_output_param {
    num_classes: 2
    share_location: true
    background_label_id: 0
    nms_param {
      nms_threshold: 0.3
      top_k: 200
    }
    save_output_param {
      output_directory: "jobs/ssd/TrafficLight_128x512_vgg16-channel16-nopooling12_baseline__cutoff_sample/output"
      output_name_prefix: "det_test_"
      output_format: "VOC"
      label_map_file: "/home/work/qinhuan/git/caffe-ssd/data/labelmap_all.prototxt"
      name_size_file: "/home/work/qinhuan/git/caffe-ssd/data/test_name_size.txt"
      num_test_image: 1442
    }
    code_type: CENTER_SIZE
    keep_top_k: 100
    confidence_threshold: 0.01
  }
}
layer {
  name: "detection_eval"
  type: "DetectionEvaluate"
  bottom: "detection_out"
  bottom: "label"
  top: "detection_eval"
  include {
    phase: TEST
  }
  detection_evaluate_param {
    num_classes: 2
    background_label_id: 0
    overlap_threshold: 0.5
    evaluate_difficult_gt: false
    name_size_file: "/home/work/qinhuan/git/caffe-ssd/data/test_name_size.txt"
  }
}
I0324 20:46:01.373231  6039 layer_factory.hpp:77] Creating layer data
I0324 20:46:01.373272  6039 net.cpp:100] Creating Layer data
I0324 20:46:01.373278  6039 net.cpp:408] data -> data
I0324 20:46:01.373286  6039 net.cpp:408] data -> label
I0324 20:46:01.374073  6067 db_lmdb.cpp:35] Opened lmdb /home/work/qinhuan/git/caffe-ssd/data/test_lmdb
I0324 20:46:01.397137  6039 annotated_data_layer.cpp:62] output data size: 8,3,128,512
I0324 20:46:01.409588  6039 net.cpp:150] Setting up data
I0324 20:46:01.409610  6039 net.cpp:157] Top shape: 8 3 128 512 (1572864)
I0324 20:46:01.409615  6039 net.cpp:157] Top shape: 1 1 8 8 (64)
I0324 20:46:01.409617  6039 net.cpp:165] Memory required for data: 6291712
I0324 20:46:01.409622  6039 layer_factory.hpp:77] Creating layer data_data_0_split
I0324 20:46:01.409631  6039 net.cpp:100] Creating Layer data_data_0_split
I0324 20:46:01.409634  6039 net.cpp:434] data_data_0_split <- data
I0324 20:46:01.409639  6039 net.cpp:408] data_data_0_split -> data_data_0_split_0
I0324 20:46:01.409646  6039 net.cpp:408] data_data_0_split -> data_data_0_split_1
I0324 20:46:01.409649  6039 net.cpp:408] data_data_0_split -> data_data_0_split_2
I0324 20:46:01.409654  6039 net.cpp:408] data_data_0_split -> data_data_0_split_3
I0324 20:46:01.409658  6039 net.cpp:408] data_data_0_split -> data_data_0_split_4
I0324 20:46:01.409749  6039 net.cpp:150] Setting up data_data_0_split
I0324 20:46:01.409754  6039 net.cpp:157] Top shape: 8 3 128 512 (1572864)
I0324 20:46:01.409757  6039 net.cpp:157] Top shape: 8 3 128 512 (1572864)
I0324 20:46:01.409760  6039 net.cpp:157] Top shape: 8 3 128 512 (1572864)
I0324 20:46:01.409764  6039 net.cpp:157] Top shape: 8 3 128 512 (1572864)
I0324 20:46:01.409766  6039 net.cpp:157] Top shape: 8 3 128 512 (1572864)
I0324 20:46:01.409768  6039 net.cpp:165] Memory required for data: 37748992
I0324 20:46:01.409771  6039 layer_factory.hpp:77] Creating layer conv1_1
I0324 20:46:01.409780  6039 net.cpp:100] Creating Layer conv1_1
I0324 20:46:01.409782  6039 net.cpp:434] conv1_1 <- data_data_0_split_0
I0324 20:46:01.409786  6039 net.cpp:408] conv1_1 -> conv1_1
I0324 20:46:01.410044  6039 net.cpp:150] Setting up conv1_1
I0324 20:46:01.410050  6039 net.cpp:157] Top shape: 8 16 128 512 (8388608)
I0324 20:46:01.410053  6039 net.cpp:165] Memory required for data: 71303424
I0324 20:46:01.410060  6039 layer_factory.hpp:77] Creating layer relu1_1
I0324 20:46:01.410064  6039 net.cpp:100] Creating Layer relu1_1
I0324 20:46:01.410068  6039 net.cpp:434] relu1_1 <- conv1_1
I0324 20:46:01.410070  6039 net.cpp:395] relu1_1 -> conv1_1 (in-place)
I0324 20:46:01.410074  6039 net.cpp:150] Setting up relu1_1
I0324 20:46:01.410078  6039 net.cpp:157] Top shape: 8 16 128 512 (8388608)
I0324 20:46:01.410080  6039 net.cpp:165] Memory required for data: 104857856
I0324 20:46:01.410082  6039 layer_factory.hpp:77] Creating layer conv1_2
I0324 20:46:01.410089  6039 net.cpp:100] Creating Layer conv1_2
I0324 20:46:01.410091  6039 net.cpp:434] conv1_2 <- conv1_1
I0324 20:46:01.410094  6039 net.cpp:408] conv1_2 -> conv1_2
I0324 20:46:01.410316  6039 net.cpp:150] Setting up conv1_2
I0324 20:46:01.410322  6039 net.cpp:157] Top shape: 8 16 64 256 (2097152)
I0324 20:46:01.410325  6039 net.cpp:165] Memory required for data: 113246464
I0324 20:46:01.410329  6039 layer_factory.hpp:77] Creating layer relu1_2
I0324 20:46:01.410333  6039 net.cpp:100] Creating Layer relu1_2
I0324 20:46:01.410336  6039 net.cpp:434] relu1_2 <- conv1_2
I0324 20:46:01.410339  6039 net.cpp:395] relu1_2 -> conv1_2 (in-place)
I0324 20:46:01.410343  6039 net.cpp:150] Setting up relu1_2
I0324 20:46:01.410346  6039 net.cpp:157] Top shape: 8 16 64 256 (2097152)
I0324 20:46:01.410348  6039 net.cpp:165] Memory required for data: 121635072
I0324 20:46:01.410351  6039 layer_factory.hpp:77] Creating layer conv2_1
I0324 20:46:01.410356  6039 net.cpp:100] Creating Layer conv2_1
I0324 20:46:01.410358  6039 net.cpp:434] conv2_1 <- conv1_2
I0324 20:46:01.410362  6039 net.cpp:408] conv2_1 -> conv2_1
I0324 20:46:01.410668  6039 net.cpp:150] Setting up conv2_1
I0324 20:46:01.410679  6039 net.cpp:157] Top shape: 8 32 64 256 (4194304)
I0324 20:46:01.410686  6039 net.cpp:165] Memory required for data: 138412288
I0324 20:46:01.410693  6039 layer_factory.hpp:77] Creating layer relu2_1
I0324 20:46:01.410698  6039 net.cpp:100] Creating Layer relu2_1
I0324 20:46:01.410701  6039 net.cpp:434] relu2_1 <- conv2_1
I0324 20:46:01.410704  6039 net.cpp:395] relu2_1 -> conv2_1 (in-place)
I0324 20:46:01.410709  6039 net.cpp:150] Setting up relu2_1
I0324 20:46:01.410713  6039 net.cpp:157] Top shape: 8 32 64 256 (4194304)
I0324 20:46:01.410715  6039 net.cpp:165] Memory required for data: 155189504
I0324 20:46:01.410718  6039 layer_factory.hpp:77] Creating layer conv2_2
I0324 20:46:01.410724  6039 net.cpp:100] Creating Layer conv2_2
I0324 20:46:01.410727  6039 net.cpp:434] conv2_2 <- conv2_1
I0324 20:46:01.410732  6039 net.cpp:408] conv2_2 -> conv2_2
I0324 20:46:01.410960  6039 net.cpp:150] Setting up conv2_2
I0324 20:46:01.410966  6039 net.cpp:157] Top shape: 8 32 32 128 (1048576)
I0324 20:46:01.410969  6039 net.cpp:165] Memory required for data: 159383808
I0324 20:46:01.410972  6039 layer_factory.hpp:77] Creating layer relu2_2
I0324 20:46:01.410976  6039 net.cpp:100] Creating Layer relu2_2
I0324 20:46:01.410980  6039 net.cpp:434] relu2_2 <- conv2_2
I0324 20:46:01.410984  6039 net.cpp:395] relu2_2 -> conv2_2 (in-place)
I0324 20:46:01.410987  6039 net.cpp:150] Setting up relu2_2
I0324 20:46:01.410991  6039 net.cpp:157] Top shape: 8 32 32 128 (1048576)
I0324 20:46:01.410993  6039 net.cpp:165] Memory required for data: 163578112
I0324 20:46:01.410995  6039 layer_factory.hpp:77] Creating layer conv3_1
I0324 20:46:01.411000  6039 net.cpp:100] Creating Layer conv3_1
I0324 20:46:01.411003  6039 net.cpp:434] conv3_1 <- conv2_2
I0324 20:46:01.411006  6039 net.cpp:408] conv3_1 -> conv3_1
I0324 20:46:01.411269  6039 net.cpp:150] Setting up conv3_1
I0324 20:46:01.411274  6039 net.cpp:157] Top shape: 8 64 32 128 (2097152)
I0324 20:46:01.411276  6039 net.cpp:165] Memory required for data: 171966720
I0324 20:46:01.411281  6039 layer_factory.hpp:77] Creating layer relu3_1
I0324 20:46:01.411285  6039 net.cpp:100] Creating Layer relu3_1
I0324 20:46:01.411288  6039 net.cpp:434] relu3_1 <- conv3_1
I0324 20:46:01.411291  6039 net.cpp:395] relu3_1 -> conv3_1 (in-place)
I0324 20:46:01.411295  6039 net.cpp:150] Setting up relu3_1
I0324 20:46:01.411298  6039 net.cpp:157] Top shape: 8 64 32 128 (2097152)
I0324 20:46:01.411300  6039 net.cpp:165] Memory required for data: 180355328
I0324 20:46:01.411303  6039 layer_factory.hpp:77] Creating layer conv3_2
I0324 20:46:01.411309  6039 net.cpp:100] Creating Layer conv3_2
I0324 20:46:01.411310  6039 net.cpp:434] conv3_2 <- conv3_1
I0324 20:46:01.411314  6039 net.cpp:408] conv3_2 -> conv3_2
I0324 20:46:01.411633  6039 net.cpp:150] Setting up conv3_2
I0324 20:46:01.411638  6039 net.cpp:157] Top shape: 8 64 32 128 (2097152)
I0324 20:46:01.411639  6039 net.cpp:165] Memory required for data: 188743936
I0324 20:46:01.411643  6039 layer_factory.hpp:77] Creating layer relu3_2
I0324 20:46:01.411646  6039 net.cpp:100] Creating Layer relu3_2
I0324 20:46:01.411649  6039 net.cpp:434] relu3_2 <- conv3_2
I0324 20:46:01.411653  6039 net.cpp:395] relu3_2 -> conv3_2 (in-place)
I0324 20:46:01.411656  6039 net.cpp:150] Setting up relu3_2
I0324 20:46:01.411659  6039 net.cpp:157] Top shape: 8 64 32 128 (2097152)
I0324 20:46:01.411662  6039 net.cpp:165] Memory required for data: 197132544
I0324 20:46:01.411664  6039 layer_factory.hpp:77] Creating layer conv3_3
I0324 20:46:01.411669  6039 net.cpp:100] Creating Layer conv3_3
I0324 20:46:01.411671  6039 net.cpp:434] conv3_3 <- conv3_2
I0324 20:46:01.411675  6039 net.cpp:408] conv3_3 -> conv3_3
I0324 20:46:01.411995  6039 net.cpp:150] Setting up conv3_3
I0324 20:46:01.412000  6039 net.cpp:157] Top shape: 8 64 32 128 (2097152)
I0324 20:46:01.412003  6039 net.cpp:165] Memory required for data: 205521152
I0324 20:46:01.412006  6039 layer_factory.hpp:77] Creating layer relu3_3
I0324 20:46:01.412009  6039 net.cpp:100] Creating Layer relu3_3
I0324 20:46:01.412012  6039 net.cpp:434] relu3_3 <- conv3_3
I0324 20:46:01.412019  6039 net.cpp:395] relu3_3 -> conv3_3 (in-place)
I0324 20:46:01.412022  6039 net.cpp:150] Setting up relu3_3
I0324 20:46:01.412025  6039 net.cpp:157] Top shape: 8 64 32 128 (2097152)
I0324 20:46:01.412027  6039 net.cpp:165] Memory required for data: 213909760
I0324 20:46:01.412030  6039 layer_factory.hpp:77] Creating layer pool3
I0324 20:46:01.412034  6039 net.cpp:100] Creating Layer pool3
I0324 20:46:01.412037  6039 net.cpp:434] pool3 <- conv3_3
I0324 20:46:01.412040  6039 net.cpp:408] pool3 -> pool3
I0324 20:46:01.412071  6039 net.cpp:150] Setting up pool3
I0324 20:46:01.412076  6039 net.cpp:157] Top shape: 8 64 16 64 (524288)
I0324 20:46:01.412078  6039 net.cpp:165] Memory required for data: 216006912
I0324 20:46:01.412081  6039 layer_factory.hpp:77] Creating layer conv4_1
I0324 20:46:01.412086  6039 net.cpp:100] Creating Layer conv4_1
I0324 20:46:01.412088  6039 net.cpp:434] conv4_1 <- pool3
I0324 20:46:01.412092  6039 net.cpp:408] conv4_1 -> conv4_1
I0324 20:46:01.412530  6039 net.cpp:150] Setting up conv4_1
I0324 20:46:01.412538  6039 net.cpp:157] Top shape: 8 128 16 64 (1048576)
I0324 20:46:01.412539  6039 net.cpp:165] Memory required for data: 220201216
I0324 20:46:01.412544  6039 layer_factory.hpp:77] Creating layer relu4_1
I0324 20:46:01.412547  6039 net.cpp:100] Creating Layer relu4_1
I0324 20:46:01.412550  6039 net.cpp:434] relu4_1 <- conv4_1
I0324 20:46:01.412554  6039 net.cpp:395] relu4_1 -> conv4_1 (in-place)
I0324 20:46:01.412557  6039 net.cpp:150] Setting up relu4_1
I0324 20:46:01.412560  6039 net.cpp:157] Top shape: 8 128 16 64 (1048576)
I0324 20:46:01.412562  6039 net.cpp:165] Memory required for data: 224395520
I0324 20:46:01.412564  6039 layer_factory.hpp:77] Creating layer conv4_2
I0324 20:46:01.412569  6039 net.cpp:100] Creating Layer conv4_2
I0324 20:46:01.412571  6039 net.cpp:434] conv4_2 <- conv4_1
I0324 20:46:01.412575  6039 net.cpp:408] conv4_2 -> conv4_2
I0324 20:46:01.413239  6039 net.cpp:150] Setting up conv4_2
I0324 20:46:01.413244  6039 net.cpp:157] Top shape: 8 128 16 64 (1048576)
I0324 20:46:01.413246  6039 net.cpp:165] Memory required for data: 228589824
I0324 20:46:01.413251  6039 layer_factory.hpp:77] Creating layer relu4_2
I0324 20:46:01.413255  6039 net.cpp:100] Creating Layer relu4_2
I0324 20:46:01.413257  6039 net.cpp:434] relu4_2 <- conv4_2
I0324 20:46:01.413261  6039 net.cpp:395] relu4_2 -> conv4_2 (in-place)
I0324 20:46:01.413265  6039 net.cpp:150] Setting up relu4_2
I0324 20:46:01.413267  6039 net.cpp:157] Top shape: 8 128 16 64 (1048576)
I0324 20:46:01.413270  6039 net.cpp:165] Memory required for data: 232784128
I0324 20:46:01.413272  6039 layer_factory.hpp:77] Creating layer conv4_3
I0324 20:46:01.413276  6039 net.cpp:100] Creating Layer conv4_3
I0324 20:46:01.413280  6039 net.cpp:434] conv4_3 <- conv4_2
I0324 20:46:01.413283  6039 net.cpp:408] conv4_3 -> conv4_3
I0324 20:46:01.420644  6039 net.cpp:150] Setting up conv4_3
I0324 20:46:01.420660  6039 net.cpp:157] Top shape: 8 128 16 64 (1048576)
I0324 20:46:01.420662  6039 net.cpp:165] Memory required for data: 236978432
I0324 20:46:01.420667  6039 layer_factory.hpp:77] Creating layer relu4_3
I0324 20:46:01.420672  6039 net.cpp:100] Creating Layer relu4_3
I0324 20:46:01.420676  6039 net.cpp:434] relu4_3 <- conv4_3
I0324 20:46:01.420680  6039 net.cpp:395] relu4_3 -> conv4_3 (in-place)
I0324 20:46:01.420686  6039 net.cpp:150] Setting up relu4_3
I0324 20:46:01.420689  6039 net.cpp:157] Top shape: 8 128 16 64 (1048576)
I0324 20:46:01.420691  6039 net.cpp:165] Memory required for data: 241172736
I0324 20:46:01.420694  6039 layer_factory.hpp:77] Creating layer conv4_3_relu4_3_0_split
I0324 20:46:01.420697  6039 net.cpp:100] Creating Layer conv4_3_relu4_3_0_split
I0324 20:46:01.420701  6039 net.cpp:434] conv4_3_relu4_3_0_split <- conv4_3
I0324 20:46:01.420703  6039 net.cpp:408] conv4_3_relu4_3_0_split -> conv4_3_relu4_3_0_split_0
I0324 20:46:01.420707  6039 net.cpp:408] conv4_3_relu4_3_0_split -> conv4_3_relu4_3_0_split_1
I0324 20:46:01.420739  6039 net.cpp:150] Setting up conv4_3_relu4_3_0_split
I0324 20:46:01.420748  6039 net.cpp:157] Top shape: 8 128 16 64 (1048576)
I0324 20:46:01.420752  6039 net.cpp:157] Top shape: 8 128 16 64 (1048576)
I0324 20:46:01.420754  6039 net.cpp:165] Memory required for data: 249561344
I0324 20:46:01.420756  6039 layer_factory.hpp:77] Creating layer pool4
I0324 20:46:01.420760  6039 net.cpp:100] Creating Layer pool4
I0324 20:46:01.420763  6039 net.cpp:434] pool4 <- conv4_3_relu4_3_0_split_0
I0324 20:46:01.420768  6039 net.cpp:408] pool4 -> pool4
I0324 20:46:01.420796  6039 net.cpp:150] Setting up pool4
I0324 20:46:01.420801  6039 net.cpp:157] Top shape: 8 128 8 32 (262144)
I0324 20:46:01.420804  6039 net.cpp:165] Memory required for data: 250609920
I0324 20:46:01.420806  6039 layer_factory.hpp:77] Creating layer conv5_1
I0324 20:46:01.420811  6039 net.cpp:100] Creating Layer conv5_1
I0324 20:46:01.420814  6039 net.cpp:434] conv5_1 <- pool4
I0324 20:46:01.420819  6039 net.cpp:408] conv5_1 -> conv5_1
I0324 20:46:01.421478  6039 net.cpp:150] Setting up conv5_1
I0324 20:46:01.421483  6039 net.cpp:157] Top shape: 8 128 8 32 (262144)
I0324 20:46:01.421486  6039 net.cpp:165] Memory required for data: 251658496
I0324 20:46:01.421490  6039 layer_factory.hpp:77] Creating layer relu5_1
I0324 20:46:01.421494  6039 net.cpp:100] Creating Layer relu5_1
I0324 20:46:01.421496  6039 net.cpp:434] relu5_1 <- conv5_1
I0324 20:46:01.421500  6039 net.cpp:395] relu5_1 -> conv5_1 (in-place)
I0324 20:46:01.421504  6039 net.cpp:150] Setting up relu5_1
I0324 20:46:01.421507  6039 net.cpp:157] Top shape: 8 128 8 32 (262144)
I0324 20:46:01.421510  6039 net.cpp:165] Memory required for data: 252707072
I0324 20:46:01.421512  6039 layer_factory.hpp:77] Creating layer conv5_2
I0324 20:46:01.421517  6039 net.cpp:100] Creating Layer conv5_2
I0324 20:46:01.421520  6039 net.cpp:434] conv5_2 <- conv5_1
I0324 20:46:01.421525  6039 net.cpp:408] conv5_2 -> conv5_2
I0324 20:46:01.422175  6039 net.cpp:150] Setting up conv5_2
I0324 20:46:01.422180  6039 net.cpp:157] Top shape: 8 128 8 32 (262144)
I0324 20:46:01.422183  6039 net.cpp:165] Memory required for data: 253755648
I0324 20:46:01.422186  6039 layer_factory.hpp:77] Creating layer relu5_2
I0324 20:46:01.422190  6039 net.cpp:100] Creating Layer relu5_2
I0324 20:46:01.422194  6039 net.cpp:434] relu5_2 <- conv5_2
I0324 20:46:01.422196  6039 net.cpp:395] relu5_2 -> conv5_2 (in-place)
I0324 20:46:01.422200  6039 net.cpp:150] Setting up relu5_2
I0324 20:46:01.422204  6039 net.cpp:157] Top shape: 8 128 8 32 (262144)
I0324 20:46:01.422205  6039 net.cpp:165] Memory required for data: 254804224
I0324 20:46:01.422209  6039 layer_factory.hpp:77] Creating layer conv5_3
I0324 20:46:01.422212  6039 net.cpp:100] Creating Layer conv5_3
I0324 20:46:01.422215  6039 net.cpp:434] conv5_3 <- conv5_2
I0324 20:46:01.422219  6039 net.cpp:408] conv5_3 -> conv5_3
I0324 20:46:01.429828  6039 net.cpp:150] Setting up conv5_3
I0324 20:46:01.429847  6039 net.cpp:157] Top shape: 8 128 8 32 (262144)
I0324 20:46:01.429850  6039 net.cpp:165] Memory required for data: 255852800
I0324 20:46:01.429855  6039 layer_factory.hpp:77] Creating layer relu5_3
I0324 20:46:01.429862  6039 net.cpp:100] Creating Layer relu5_3
I0324 20:46:01.429864  6039 net.cpp:434] relu5_3 <- conv5_3
I0324 20:46:01.429868  6039 net.cpp:395] relu5_3 -> conv5_3 (in-place)
I0324 20:46:01.429874  6039 net.cpp:150] Setting up relu5_3
I0324 20:46:01.429878  6039 net.cpp:157] Top shape: 8 128 8 32 (262144)
I0324 20:46:01.429880  6039 net.cpp:165] Memory required for data: 256901376
I0324 20:46:01.429883  6039 layer_factory.hpp:77] Creating layer pool5
I0324 20:46:01.429888  6039 net.cpp:100] Creating Layer pool5
I0324 20:46:01.429889  6039 net.cpp:434] pool5 <- conv5_3
I0324 20:46:01.429893  6039 net.cpp:408] pool5 -> pool5
I0324 20:46:01.429922  6039 net.cpp:150] Setting up pool5
I0324 20:46:01.429926  6039 net.cpp:157] Top shape: 8 128 8 32 (262144)
I0324 20:46:01.429929  6039 net.cpp:165] Memory required for data: 257949952
I0324 20:46:01.429931  6039 layer_factory.hpp:77] Creating layer fc6_conv
I0324 20:46:01.429940  6039 net.cpp:100] Creating Layer fc6_conv
I0324 20:46:01.429947  6039 net.cpp:434] fc6_conv <- pool5
I0324 20:46:01.429952  6039 net.cpp:408] fc6_conv -> fc6_conv
I0324 20:46:01.431037  6039 net.cpp:150] Setting up fc6_conv
I0324 20:46:01.431043  6039 net.cpp:157] Top shape: 8 256 8 32 (524288)
I0324 20:46:01.431046  6039 net.cpp:165] Memory required for data: 260047104
I0324 20:46:01.431051  6039 layer_factory.hpp:77] Creating layer relu6
I0324 20:46:01.431053  6039 net.cpp:100] Creating Layer relu6
I0324 20:46:01.431056  6039 net.cpp:434] relu6 <- fc6_conv
I0324 20:46:01.431059  6039 net.cpp:395] relu6 -> fc6_conv (in-place)
I0324 20:46:01.431063  6039 net.cpp:150] Setting up relu6
I0324 20:46:01.431066  6039 net.cpp:157] Top shape: 8 256 8 32 (524288)
I0324 20:46:01.431069  6039 net.cpp:165] Memory required for data: 262144256
I0324 20:46:01.431071  6039 layer_factory.hpp:77] Creating layer fc7_conv
I0324 20:46:01.431077  6039 net.cpp:100] Creating Layer fc7_conv
I0324 20:46:01.431079  6039 net.cpp:434] fc7_conv <- fc6_conv
I0324 20:46:01.431082  6039 net.cpp:408] fc7_conv -> fc7_conv
I0324 20:46:01.432317  6039 net.cpp:150] Setting up fc7_conv
I0324 20:46:01.432327  6039 net.cpp:157] Top shape: 8 256 8 32 (524288)
I0324 20:46:01.432332  6039 net.cpp:165] Memory required for data: 264241408
I0324 20:46:01.432335  6039 layer_factory.hpp:77] Creating layer relu7
I0324 20:46:01.432346  6039 net.cpp:100] Creating Layer relu7
I0324 20:46:01.432350  6039 net.cpp:434] relu7 <- fc7_conv
I0324 20:46:01.432354  6039 net.cpp:395] relu7 -> fc7_conv (in-place)
I0324 20:46:01.432359  6039 net.cpp:150] Setting up relu7
I0324 20:46:01.432363  6039 net.cpp:157] Top shape: 8 256 8 32 (524288)
I0324 20:46:01.432365  6039 net.cpp:165] Memory required for data: 266338560
I0324 20:46:01.432368  6039 layer_factory.hpp:77] Creating layer fc7_conv_relu7_0_split
I0324 20:46:01.432371  6039 net.cpp:100] Creating Layer fc7_conv_relu7_0_split
I0324 20:46:01.432374  6039 net.cpp:434] fc7_conv_relu7_0_split <- fc7_conv
I0324 20:46:01.432377  6039 net.cpp:408] fc7_conv_relu7_0_split -> fc7_conv_relu7_0_split_0
I0324 20:46:01.432381  6039 net.cpp:408] fc7_conv_relu7_0_split -> fc7_conv_relu7_0_split_1
I0324 20:46:01.432385  6039 net.cpp:408] fc7_conv_relu7_0_split -> fc7_conv_relu7_0_split_2
I0324 20:46:01.432425  6039 net.cpp:150] Setting up fc7_conv_relu7_0_split
I0324 20:46:01.432428  6039 net.cpp:157] Top shape: 8 256 8 32 (524288)
I0324 20:46:01.432431  6039 net.cpp:157] Top shape: 8 256 8 32 (524288)
I0324 20:46:01.432435  6039 net.cpp:157] Top shape: 8 256 8 32 (524288)
I0324 20:46:01.432436  6039 net.cpp:165] Memory required for data: 272630016
I0324 20:46:01.432438  6039 layer_factory.hpp:77] Creating layer conv6_1
I0324 20:46:01.432445  6039 net.cpp:100] Creating Layer conv6_1
I0324 20:46:01.432447  6039 net.cpp:434] conv6_1 <- fc7_conv_relu7_0_split_0
I0324 20:46:01.432452  6039 net.cpp:408] conv6_1 -> conv6_1
I0324 20:46:01.432699  6039 net.cpp:150] Setting up conv6_1
I0324 20:46:01.432705  6039 net.cpp:157] Top shape: 8 32 8 32 (65536)
I0324 20:46:01.432708  6039 net.cpp:165] Memory required for data: 272892160
I0324 20:46:01.432713  6039 layer_factory.hpp:77] Creating layer conv6_1_relu
I0324 20:46:01.432715  6039 net.cpp:100] Creating Layer conv6_1_relu
I0324 20:46:01.432718  6039 net.cpp:434] conv6_1_relu <- conv6_1
I0324 20:46:01.432723  6039 net.cpp:395] conv6_1_relu -> conv6_1 (in-place)
I0324 20:46:01.432726  6039 net.cpp:150] Setting up conv6_1_relu
I0324 20:46:01.432729  6039 net.cpp:157] Top shape: 8 32 8 32 (65536)
I0324 20:46:01.432731  6039 net.cpp:165] Memory required for data: 273154304
I0324 20:46:01.432734  6039 layer_factory.hpp:77] Creating layer conv6_2
I0324 20:46:01.432739  6039 net.cpp:100] Creating Layer conv6_2
I0324 20:46:01.432741  6039 net.cpp:434] conv6_2 <- conv6_1
I0324 20:46:01.432745  6039 net.cpp:408] conv6_2 -> conv6_2
I0324 20:46:01.433012  6039 net.cpp:150] Setting up conv6_2
I0324 20:46:01.433017  6039 net.cpp:157] Top shape: 8 64 4 16 (32768)
I0324 20:46:01.433019  6039 net.cpp:165] Memory required for data: 273285376
I0324 20:46:01.433030  6039 layer_factory.hpp:77] Creating layer conv6_2_relu
I0324 20:46:01.433034  6039 net.cpp:100] Creating Layer conv6_2_relu
I0324 20:46:01.433037  6039 net.cpp:434] conv6_2_relu <- conv6_2
I0324 20:46:01.433042  6039 net.cpp:395] conv6_2_relu -> conv6_2 (in-place)
I0324 20:46:01.433045  6039 net.cpp:150] Setting up conv6_2_relu
I0324 20:46:01.433048  6039 net.cpp:157] Top shape: 8 64 4 16 (32768)
I0324 20:46:01.433050  6039 net.cpp:165] Memory required for data: 273416448
I0324 20:46:01.433053  6039 layer_factory.hpp:77] Creating layer conv6_2_conv6_2_relu_0_split
I0324 20:46:01.433056  6039 net.cpp:100] Creating Layer conv6_2_conv6_2_relu_0_split
I0324 20:46:01.433058  6039 net.cpp:434] conv6_2_conv6_2_relu_0_split <- conv6_2
I0324 20:46:01.433063  6039 net.cpp:408] conv6_2_conv6_2_relu_0_split -> conv6_2_conv6_2_relu_0_split_0
I0324 20:46:01.433068  6039 net.cpp:408] conv6_2_conv6_2_relu_0_split -> conv6_2_conv6_2_relu_0_split_1
I0324 20:46:01.433071  6039 net.cpp:408] conv6_2_conv6_2_relu_0_split -> conv6_2_conv6_2_relu_0_split_2
I0324 20:46:01.433113  6039 net.cpp:150] Setting up conv6_2_conv6_2_relu_0_split
I0324 20:46:01.433117  6039 net.cpp:157] Top shape: 8 64 4 16 (32768)
I0324 20:46:01.433121  6039 net.cpp:157] Top shape: 8 64 4 16 (32768)
I0324 20:46:01.433123  6039 net.cpp:157] Top shape: 8 64 4 16 (32768)
I0324 20:46:01.433126  6039 net.cpp:165] Memory required for data: 273809664
I0324 20:46:01.433128  6039 layer_factory.hpp:77] Creating layer conv7_1
I0324 20:46:01.433133  6039 net.cpp:100] Creating Layer conv7_1
I0324 20:46:01.433135  6039 net.cpp:434] conv7_1 <- conv6_2_conv6_2_relu_0_split_0
I0324 20:46:01.433140  6039 net.cpp:408] conv7_1 -> conv7_1
I0324 20:46:01.433357  6039 net.cpp:150] Setting up conv7_1
I0324 20:46:01.433362  6039 net.cpp:157] Top shape: 8 16 4 16 (8192)
I0324 20:46:01.433364  6039 net.cpp:165] Memory required for data: 273842432
I0324 20:46:01.433368  6039 layer_factory.hpp:77] Creating layer conv7_1_relu
I0324 20:46:01.433372  6039 net.cpp:100] Creating Layer conv7_1_relu
I0324 20:46:01.433375  6039 net.cpp:434] conv7_1_relu <- conv7_1
I0324 20:46:01.433378  6039 net.cpp:395] conv7_1_relu -> conv7_1 (in-place)
I0324 20:46:01.433382  6039 net.cpp:150] Setting up conv7_1_relu
I0324 20:46:01.433385  6039 net.cpp:157] Top shape: 8 16 4 16 (8192)
I0324 20:46:01.433387  6039 net.cpp:165] Memory required for data: 273875200
I0324 20:46:01.433389  6039 layer_factory.hpp:77] Creating layer conv7_2
I0324 20:46:01.433394  6039 net.cpp:100] Creating Layer conv7_2
I0324 20:46:01.433398  6039 net.cpp:434] conv7_2 <- conv7_1
I0324 20:46:01.433401  6039 net.cpp:408] conv7_2 -> conv7_2
I0324 20:46:01.433624  6039 net.cpp:150] Setting up conv7_2
I0324 20:46:01.433630  6039 net.cpp:157] Top shape: 8 32 2 8 (4096)
I0324 20:46:01.433632  6039 net.cpp:165] Memory required for data: 273891584
I0324 20:46:01.433636  6039 layer_factory.hpp:77] Creating layer conv7_2_relu
I0324 20:46:01.433640  6039 net.cpp:100] Creating Layer conv7_2_relu
I0324 20:46:01.433642  6039 net.cpp:434] conv7_2_relu <- conv7_2
I0324 20:46:01.433645  6039 net.cpp:395] conv7_2_relu -> conv7_2 (in-place)
I0324 20:46:01.433650  6039 net.cpp:150] Setting up conv7_2_relu
I0324 20:46:01.433652  6039 net.cpp:157] Top shape: 8 32 2 8 (4096)
I0324 20:46:01.433655  6039 net.cpp:165] Memory required for data: 273907968
I0324 20:46:01.433657  6039 layer_factory.hpp:77] Creating layer conv7_2_conv7_2_relu_0_split
I0324 20:46:01.433660  6039 net.cpp:100] Creating Layer conv7_2_conv7_2_relu_0_split
I0324 20:46:01.433662  6039 net.cpp:434] conv7_2_conv7_2_relu_0_split <- conv7_2
I0324 20:46:01.433665  6039 net.cpp:408] conv7_2_conv7_2_relu_0_split -> conv7_2_conv7_2_relu_0_split_0
I0324 20:46:01.433670  6039 net.cpp:408] conv7_2_conv7_2_relu_0_split -> conv7_2_conv7_2_relu_0_split_1
I0324 20:46:01.433704  6039 net.cpp:150] Setting up conv7_2_conv7_2_relu_0_split
I0324 20:46:01.433709  6039 net.cpp:157] Top shape: 8 32 2 8 (4096)
I0324 20:46:01.433712  6039 net.cpp:157] Top shape: 8 32 2 8 (4096)
I0324 20:46:01.433715  6039 net.cpp:165] Memory required for data: 273940736
I0324 20:46:01.433722  6039 layer_factory.hpp:77] Creating layer conv4_3_norm
I0324 20:46:01.433725  6039 net.cpp:100] Creating Layer conv4_3_norm
I0324 20:46:01.433729  6039 net.cpp:434] conv4_3_norm <- conv4_3_relu4_3_0_split_1
I0324 20:46:01.433732  6039 net.cpp:408] conv4_3_norm -> conv4_3_norm
I0324 20:46:01.435822  6039 net.cpp:150] Setting up conv4_3_norm
I0324 20:46:01.435832  6039 net.cpp:157] Top shape: 8 128 16 64 (1048576)
I0324 20:46:01.435835  6039 net.cpp:165] Memory required for data: 278135040
I0324 20:46:01.435839  6039 layer_factory.hpp:77] Creating layer conv4_3_norm_conv4_3_norm_0_split
I0324 20:46:01.435844  6039 net.cpp:100] Creating Layer conv4_3_norm_conv4_3_norm_0_split
I0324 20:46:01.435847  6039 net.cpp:434] conv4_3_norm_conv4_3_norm_0_split <- conv4_3_norm
I0324 20:46:01.435852  6039 net.cpp:408] conv4_3_norm_conv4_3_norm_0_split -> conv4_3_norm_conv4_3_norm_0_split_0
I0324 20:46:01.435856  6039 net.cpp:408] conv4_3_norm_conv4_3_norm_0_split -> conv4_3_norm_conv4_3_norm_0_split_1
I0324 20:46:01.435889  6039 net.cpp:150] Setting up conv4_3_norm_conv4_3_norm_0_split
I0324 20:46:01.435894  6039 net.cpp:157] Top shape: 8 128 16 64 (1048576)
I0324 20:46:01.435896  6039 net.cpp:157] Top shape: 8 128 16 64 (1048576)
I0324 20:46:01.435899  6039 net.cpp:165] Memory required for data: 286523648
I0324 20:46:01.435900  6039 layer_factory.hpp:77] Creating layer conv4_3_norm_mbox_loc_conf
I0324 20:46:01.435906  6039 net.cpp:100] Creating Layer conv4_3_norm_mbox_loc_conf
I0324 20:46:01.435910  6039 net.cpp:434] conv4_3_norm_mbox_loc_conf <- conv4_3_norm_conv4_3_norm_0_split_0
I0324 20:46:01.435914  6039 net.cpp:408] conv4_3_norm_mbox_loc_conf -> conv4_3_norm_mbox_loc_conf
I0324 20:46:01.436257  6039 net.cpp:150] Setting up conv4_3_norm_mbox_loc_conf
I0324 20:46:01.436262  6039 net.cpp:157] Top shape: 8 36 16 64 (294912)
I0324 20:46:01.436265  6039 net.cpp:165] Memory required for data: 287703296
I0324 20:46:01.436269  6039 layer_factory.hpp:77] Creating layer conv4_3_norm_mbox_loc_conf_perm
I0324 20:46:01.436274  6039 net.cpp:100] Creating Layer conv4_3_norm_mbox_loc_conf_perm
I0324 20:46:01.436276  6039 net.cpp:434] conv4_3_norm_mbox_loc_conf_perm <- conv4_3_norm_mbox_loc_conf
I0324 20:46:01.436280  6039 net.cpp:408] conv4_3_norm_mbox_loc_conf_perm -> conv4_3_norm_mbox_loc_conf_perm
I0324 20:46:01.436369  6039 net.cpp:150] Setting up conv4_3_norm_mbox_loc_conf_perm
I0324 20:46:01.436375  6039 net.cpp:157] Top shape: 8 16 64 36 (294912)
I0324 20:46:01.436378  6039 net.cpp:165] Memory required for data: 288882944
I0324 20:46:01.436380  6039 layer_factory.hpp:77] Creating layer conv4_3_norm_mbox_loc_perm
I0324 20:46:01.436384  6039 net.cpp:100] Creating Layer conv4_3_norm_mbox_loc_perm
I0324 20:46:01.436388  6039 net.cpp:434] conv4_3_norm_mbox_loc_perm <- conv4_3_norm_mbox_loc_conf_perm
I0324 20:46:01.436390  6039 net.cpp:408] conv4_3_norm_mbox_loc_perm -> conv4_3_norm_mbox_loc_perm
I0324 20:46:01.436394  6039 net.cpp:408] conv4_3_norm_mbox_loc_perm -> conv4_3_norm_mbox_conf_perm
I0324 20:46:01.436424  6039 net.cpp:150] Setting up conv4_3_norm_mbox_loc_perm
I0324 20:46:01.436429  6039 net.cpp:157] Top shape: 8 16 64 24 (196608)
I0324 20:46:01.436431  6039 net.cpp:157] Top shape: 8 16 64 12 (98304)
I0324 20:46:01.436434  6039 net.cpp:165] Memory required for data: 290062592
I0324 20:46:01.436436  6039 layer_factory.hpp:77] Creating layer conv4_3_norm_mbox_loc_flat
I0324 20:46:01.436440  6039 net.cpp:100] Creating Layer conv4_3_norm_mbox_loc_flat
I0324 20:46:01.436442  6039 net.cpp:434] conv4_3_norm_mbox_loc_flat <- conv4_3_norm_mbox_loc_perm
I0324 20:46:01.436446  6039 net.cpp:408] conv4_3_norm_mbox_loc_flat -> conv4_3_norm_mbox_loc_flat
I0324 20:46:01.436465  6039 net.cpp:150] Setting up conv4_3_norm_mbox_loc_flat
I0324 20:46:01.436468  6039 net.cpp:157] Top shape: 8 24576 (196608)
I0324 20:46:01.436471  6039 net.cpp:165] Memory required for data: 290849024
I0324 20:46:01.436473  6039 layer_factory.hpp:77] Creating layer conv4_3_norm_mbox_conf_flat
I0324 20:46:01.436480  6039 net.cpp:100] Creating Layer conv4_3_norm_mbox_conf_flat
I0324 20:46:01.436482  6039 net.cpp:434] conv4_3_norm_mbox_conf_flat <- conv4_3_norm_mbox_conf_perm
I0324 20:46:01.436486  6039 net.cpp:408] conv4_3_norm_mbox_conf_flat -> conv4_3_norm_mbox_conf_flat
I0324 20:46:01.436506  6039 net.cpp:150] Setting up conv4_3_norm_mbox_conf_flat
I0324 20:46:01.436509  6039 net.cpp:157] Top shape: 8 12288 (98304)
I0324 20:46:01.436511  6039 net.cpp:165] Memory required for data: 291242240
I0324 20:46:01.436514  6039 layer_factory.hpp:77] Creating layer conv4_3_norm_mbox_priorbox
I0324 20:46:01.436518  6039 net.cpp:100] Creating Layer conv4_3_norm_mbox_priorbox
I0324 20:46:01.436520  6039 net.cpp:434] conv4_3_norm_mbox_priorbox <- conv4_3_norm_conv4_3_norm_0_split_1
I0324 20:46:01.436524  6039 net.cpp:434] conv4_3_norm_mbox_priorbox <- data_data_0_split_1
I0324 20:46:01.436527  6039 net.cpp:408] conv4_3_norm_mbox_priorbox -> conv4_3_norm_mbox_priorbox
I0324 20:46:01.436547  6039 net.cpp:150] Setting up conv4_3_norm_mbox_priorbox
I0324 20:46:01.436552  6039 net.cpp:157] Top shape: 1 2 24576 (49152)
I0324 20:46:01.436553  6039 net.cpp:165] Memory required for data: 291438848
I0324 20:46:01.436555  6039 layer_factory.hpp:77] Creating layer fc7_conv_mbox_loc_conf
I0324 20:46:01.436560  6039 net.cpp:100] Creating Layer fc7_conv_mbox_loc_conf
I0324 20:46:01.436563  6039 net.cpp:434] fc7_conv_mbox_loc_conf <- fc7_conv_relu7_0_split_1
I0324 20:46:01.436568  6039 net.cpp:408] fc7_conv_mbox_loc_conf -> fc7_conv_mbox_loc_conf
I0324 20:46:01.437804  6039 net.cpp:150] Setting up fc7_conv_mbox_loc_conf
I0324 20:46:01.437813  6039 net.cpp:157] Top shape: 8 36 8 32 (73728)
I0324 20:46:01.437816  6039 net.cpp:165] Memory required for data: 291733760
I0324 20:46:01.437821  6039 layer_factory.hpp:77] Creating layer fc7_conv_mbox_loc_conf_perm
I0324 20:46:01.437826  6039 net.cpp:100] Creating Layer fc7_conv_mbox_loc_conf_perm
I0324 20:46:01.437829  6039 net.cpp:434] fc7_conv_mbox_loc_conf_perm <- fc7_conv_mbox_loc_conf
I0324 20:46:01.437834  6039 net.cpp:408] fc7_conv_mbox_loc_conf_perm -> fc7_conv_mbox_loc_conf_perm
I0324 20:46:01.437916  6039 net.cpp:150] Setting up fc7_conv_mbox_loc_conf_perm
I0324 20:46:01.437921  6039 net.cpp:157] Top shape: 8 8 32 36 (73728)
I0324 20:46:01.437922  6039 net.cpp:165] Memory required for data: 292028672
I0324 20:46:01.437925  6039 layer_factory.hpp:77] Creating layer fc7_conv_mbox_loc_perm
I0324 20:46:01.437929  6039 net.cpp:100] Creating Layer fc7_conv_mbox_loc_perm
I0324 20:46:01.437932  6039 net.cpp:434] fc7_conv_mbox_loc_perm <- fc7_conv_mbox_loc_conf_perm
I0324 20:46:01.437935  6039 net.cpp:408] fc7_conv_mbox_loc_perm -> fc7_conv_mbox_loc_perm
I0324 20:46:01.437939  6039 net.cpp:408] fc7_conv_mbox_loc_perm -> fc7_conv_mbox_conf_perm
I0324 20:46:01.437968  6039 net.cpp:150] Setting up fc7_conv_mbox_loc_perm
I0324 20:46:01.437973  6039 net.cpp:157] Top shape: 8 8 32 24 (49152)
I0324 20:46:01.437975  6039 net.cpp:157] Top shape: 8 8 32 12 (24576)
I0324 20:46:01.437978  6039 net.cpp:165] Memory required for data: 292323584
I0324 20:46:01.437980  6039 layer_factory.hpp:77] Creating layer fc7_conv_mbox_loc_flat
I0324 20:46:01.437983  6039 net.cpp:100] Creating Layer fc7_conv_mbox_loc_flat
I0324 20:46:01.437986  6039 net.cpp:434] fc7_conv_mbox_loc_flat <- fc7_conv_mbox_loc_perm
I0324 20:46:01.437989  6039 net.cpp:408] fc7_conv_mbox_loc_flat -> fc7_conv_mbox_loc_flat
I0324 20:46:01.438007  6039 net.cpp:150] Setting up fc7_conv_mbox_loc_flat
I0324 20:46:01.438011  6039 net.cpp:157] Top shape: 8 6144 (49152)
I0324 20:46:01.438014  6039 net.cpp:165] Memory required for data: 292520192
I0324 20:46:01.438016  6039 layer_factory.hpp:77] Creating layer fc7_conv_mbox_conf_flat
I0324 20:46:01.438019  6039 net.cpp:100] Creating Layer fc7_conv_mbox_conf_flat
I0324 20:46:01.438022  6039 net.cpp:434] fc7_conv_mbox_conf_flat <- fc7_conv_mbox_conf_perm
I0324 20:46:01.438025  6039 net.cpp:408] fc7_conv_mbox_conf_flat -> fc7_conv_mbox_conf_flat
I0324 20:46:01.438045  6039 net.cpp:150] Setting up fc7_conv_mbox_conf_flat
I0324 20:46:01.438052  6039 net.cpp:157] Top shape: 8 3072 (24576)
I0324 20:46:01.438055  6039 net.cpp:165] Memory required for data: 292618496
I0324 20:46:01.438057  6039 layer_factory.hpp:77] Creating layer fc7_conv_mbox_priorbox
I0324 20:46:01.438061  6039 net.cpp:100] Creating Layer fc7_conv_mbox_priorbox
I0324 20:46:01.438064  6039 net.cpp:434] fc7_conv_mbox_priorbox <- fc7_conv_relu7_0_split_2
I0324 20:46:01.438067  6039 net.cpp:434] fc7_conv_mbox_priorbox <- data_data_0_split_2
I0324 20:46:01.438071  6039 net.cpp:408] fc7_conv_mbox_priorbox -> fc7_conv_mbox_priorbox
I0324 20:46:01.438091  6039 net.cpp:150] Setting up fc7_conv_mbox_priorbox
I0324 20:46:01.438094  6039 net.cpp:157] Top shape: 1 2 6144 (12288)
I0324 20:46:01.438097  6039 net.cpp:165] Memory required for data: 292667648
I0324 20:46:01.438099  6039 layer_factory.hpp:77] Creating layer conv6_2_mbox_loc_conf
I0324 20:46:01.438104  6039 net.cpp:100] Creating Layer conv6_2_mbox_loc_conf
I0324 20:46:01.438107  6039 net.cpp:434] conv6_2_mbox_loc_conf <- conv6_2_conv6_2_relu_0_split_1
I0324 20:46:01.438112  6039 net.cpp:408] conv6_2_mbox_loc_conf -> conv6_2_mbox_loc_conf
I0324 20:46:01.438391  6039 net.cpp:150] Setting up conv6_2_mbox_loc_conf
I0324 20:46:01.438396  6039 net.cpp:157] Top shape: 8 36 4 16 (18432)
I0324 20:46:01.438400  6039 net.cpp:165] Memory required for data: 292741376
I0324 20:46:01.438403  6039 layer_factory.hpp:77] Creating layer conv6_2_mbox_loc_conf_perm
I0324 20:46:01.438406  6039 net.cpp:100] Creating Layer conv6_2_mbox_loc_conf_perm
I0324 20:46:01.438410  6039 net.cpp:434] conv6_2_mbox_loc_conf_perm <- conv6_2_mbox_loc_conf
I0324 20:46:01.438413  6039 net.cpp:408] conv6_2_mbox_loc_conf_perm -> conv6_2_mbox_loc_conf_perm
I0324 20:46:01.438496  6039 net.cpp:150] Setting up conv6_2_mbox_loc_conf_perm
I0324 20:46:01.438501  6039 net.cpp:157] Top shape: 8 4 16 36 (18432)
I0324 20:46:01.438503  6039 net.cpp:165] Memory required for data: 292815104
I0324 20:46:01.438506  6039 layer_factory.hpp:77] Creating layer conv6_2_mbox_loc_perm
I0324 20:46:01.438509  6039 net.cpp:100] Creating Layer conv6_2_mbox_loc_perm
I0324 20:46:01.438513  6039 net.cpp:434] conv6_2_mbox_loc_perm <- conv6_2_mbox_loc_conf_perm
I0324 20:46:01.438516  6039 net.cpp:408] conv6_2_mbox_loc_perm -> conv6_2_mbox_loc_perm
I0324 20:46:01.438520  6039 net.cpp:408] conv6_2_mbox_loc_perm -> conv6_2_mbox_conf_perm
I0324 20:46:01.438549  6039 net.cpp:150] Setting up conv6_2_mbox_loc_perm
I0324 20:46:01.438552  6039 net.cpp:157] Top shape: 8 4 16 24 (12288)
I0324 20:46:01.438555  6039 net.cpp:157] Top shape: 8 4 16 12 (6144)
I0324 20:46:01.438558  6039 net.cpp:165] Memory required for data: 292888832
I0324 20:46:01.438560  6039 layer_factory.hpp:77] Creating layer conv6_2_mbox_loc_flat
I0324 20:46:01.438567  6039 net.cpp:100] Creating Layer conv6_2_mbox_loc_flat
I0324 20:46:01.438570  6039 net.cpp:434] conv6_2_mbox_loc_flat <- conv6_2_mbox_loc_perm
I0324 20:46:01.438575  6039 net.cpp:408] conv6_2_mbox_loc_flat -> conv6_2_mbox_loc_flat
I0324 20:46:01.438592  6039 net.cpp:150] Setting up conv6_2_mbox_loc_flat
I0324 20:46:01.438596  6039 net.cpp:157] Top shape: 8 1536 (12288)
I0324 20:46:01.438599  6039 net.cpp:165] Memory required for data: 292937984
I0324 20:46:01.438601  6039 layer_factory.hpp:77] Creating layer conv6_2_mbox_conf_flat
I0324 20:46:01.438606  6039 net.cpp:100] Creating Layer conv6_2_mbox_conf_flat
I0324 20:46:01.438607  6039 net.cpp:434] conv6_2_mbox_conf_flat <- conv6_2_mbox_conf_perm
I0324 20:46:01.438611  6039 net.cpp:408] conv6_2_mbox_conf_flat -> conv6_2_mbox_conf_flat
I0324 20:46:01.438628  6039 net.cpp:150] Setting up conv6_2_mbox_conf_flat
I0324 20:46:01.438632  6039 net.cpp:157] Top shape: 8 768 (6144)
I0324 20:46:01.438635  6039 net.cpp:165] Memory required for data: 292962560
I0324 20:46:01.438637  6039 layer_factory.hpp:77] Creating layer conv6_2_mbox_priorbox
I0324 20:46:01.438640  6039 net.cpp:100] Creating Layer conv6_2_mbox_priorbox
I0324 20:46:01.438643  6039 net.cpp:434] conv6_2_mbox_priorbox <- conv6_2_conv6_2_relu_0_split_2
I0324 20:46:01.438647  6039 net.cpp:434] conv6_2_mbox_priorbox <- data_data_0_split_3
I0324 20:46:01.438652  6039 net.cpp:408] conv6_2_mbox_priorbox -> conv6_2_mbox_priorbox
I0324 20:46:01.438673  6039 net.cpp:150] Setting up conv6_2_mbox_priorbox
I0324 20:46:01.438676  6039 net.cpp:157] Top shape: 1 2 1536 (3072)
I0324 20:46:01.438678  6039 net.cpp:165] Memory required for data: 292974848
I0324 20:46:01.438680  6039 layer_factory.hpp:77] Creating layer conv7_2_mbox_loc_conf
I0324 20:46:01.438685  6039 net.cpp:100] Creating Layer conv7_2_mbox_loc_conf
I0324 20:46:01.438688  6039 net.cpp:434] conv7_2_mbox_loc_conf <- conv7_2_conv7_2_relu_0_split_0
I0324 20:46:01.438693  6039 net.cpp:408] conv7_2_mbox_loc_conf -> conv7_2_mbox_loc_conf
I0324 20:46:01.438940  6039 net.cpp:150] Setting up conv7_2_mbox_loc_conf
I0324 20:46:01.438944  6039 net.cpp:157] Top shape: 8 36 2 8 (4608)
I0324 20:46:01.438946  6039 net.cpp:165] Memory required for data: 292993280
I0324 20:46:01.438951  6039 layer_factory.hpp:77] Creating layer conv7_2_mbox_loc_conf_perm
I0324 20:46:01.438954  6039 net.cpp:100] Creating Layer conv7_2_mbox_loc_conf_perm
I0324 20:46:01.438957  6039 net.cpp:434] conv7_2_mbox_loc_conf_perm <- conv7_2_mbox_loc_conf
I0324 20:46:01.438961  6039 net.cpp:408] conv7_2_mbox_loc_conf_perm -> conv7_2_mbox_loc_conf_perm
I0324 20:46:01.439051  6039 net.cpp:150] Setting up conv7_2_mbox_loc_conf_perm
I0324 20:46:01.439055  6039 net.cpp:157] Top shape: 8 2 8 36 (4608)
I0324 20:46:01.439059  6039 net.cpp:165] Memory required for data: 293011712
I0324 20:46:01.439060  6039 layer_factory.hpp:77] Creating layer conv7_2_mbox_loc_perm
I0324 20:46:01.439064  6039 net.cpp:100] Creating Layer conv7_2_mbox_loc_perm
I0324 20:46:01.439067  6039 net.cpp:434] conv7_2_mbox_loc_perm <- conv7_2_mbox_loc_conf_perm
I0324 20:46:01.439071  6039 net.cpp:408] conv7_2_mbox_loc_perm -> conv7_2_mbox_loc_perm
I0324 20:46:01.439075  6039 net.cpp:408] conv7_2_mbox_loc_perm -> conv7_2_mbox_conf_perm
I0324 20:46:01.439105  6039 net.cpp:150] Setting up conv7_2_mbox_loc_perm
I0324 20:46:01.439108  6039 net.cpp:157] Top shape: 8 2 8 24 (3072)
I0324 20:46:01.439111  6039 net.cpp:157] Top shape: 8 2 8 12 (1536)
I0324 20:46:01.439113  6039 net.cpp:165] Memory required for data: 293030144
I0324 20:46:01.439116  6039 layer_factory.hpp:77] Creating layer conv7_2_mbox_loc_flat
I0324 20:46:01.439119  6039 net.cpp:100] Creating Layer conv7_2_mbox_loc_flat
I0324 20:46:01.439122  6039 net.cpp:434] conv7_2_mbox_loc_flat <- conv7_2_mbox_loc_perm
I0324 20:46:01.439126  6039 net.cpp:408] conv7_2_mbox_loc_flat -> conv7_2_mbox_loc_flat
I0324 20:46:01.439142  6039 net.cpp:150] Setting up conv7_2_mbox_loc_flat
I0324 20:46:01.439146  6039 net.cpp:157] Top shape: 8 384 (3072)
I0324 20:46:01.439149  6039 net.cpp:165] Memory required for data: 293042432
I0324 20:46:01.439152  6039 layer_factory.hpp:77] Creating layer conv7_2_mbox_conf_flat
I0324 20:46:01.439154  6039 net.cpp:100] Creating Layer conv7_2_mbox_conf_flat
I0324 20:46:01.439157  6039 net.cpp:434] conv7_2_mbox_conf_flat <- conv7_2_mbox_conf_perm
I0324 20:46:01.439160  6039 net.cpp:408] conv7_2_mbox_conf_flat -> conv7_2_mbox_conf_flat
I0324 20:46:01.439179  6039 net.cpp:150] Setting up conv7_2_mbox_conf_flat
I0324 20:46:01.439182  6039 net.cpp:157] Top shape: 8 192 (1536)
I0324 20:46:01.439185  6039 net.cpp:165] Memory required for data: 293048576
I0324 20:46:01.439188  6039 layer_factory.hpp:77] Creating layer conv7_2_mbox_priorbox
I0324 20:46:01.439191  6039 net.cpp:100] Creating Layer conv7_2_mbox_priorbox
I0324 20:46:01.439194  6039 net.cpp:434] conv7_2_mbox_priorbox <- conv7_2_conv7_2_relu_0_split_1
I0324 20:46:01.439198  6039 net.cpp:434] conv7_2_mbox_priorbox <- data_data_0_split_4
I0324 20:46:01.439200  6039 net.cpp:408] conv7_2_mbox_priorbox -> conv7_2_mbox_priorbox
I0324 20:46:01.439219  6039 net.cpp:150] Setting up conv7_2_mbox_priorbox
I0324 20:46:01.439224  6039 net.cpp:157] Top shape: 1 2 384 (768)
I0324 20:46:01.439225  6039 net.cpp:165] Memory required for data: 293051648
I0324 20:46:01.439227  6039 layer_factory.hpp:77] Creating layer mbox_loc
I0324 20:46:01.439234  6039 net.cpp:100] Creating Layer mbox_loc
I0324 20:46:01.439237  6039 net.cpp:434] mbox_loc <- conv4_3_norm_mbox_loc_flat
I0324 20:46:01.439240  6039 net.cpp:434] mbox_loc <- fc7_conv_mbox_loc_flat
I0324 20:46:01.439244  6039 net.cpp:434] mbox_loc <- conv6_2_mbox_loc_flat
I0324 20:46:01.439246  6039 net.cpp:434] mbox_loc <- conv7_2_mbox_loc_flat
I0324 20:46:01.439250  6039 net.cpp:408] mbox_loc -> mbox_loc
I0324 20:46:01.439270  6039 net.cpp:150] Setting up mbox_loc
I0324 20:46:01.439273  6039 net.cpp:157] Top shape: 8 32640 (261120)
I0324 20:46:01.439275  6039 net.cpp:165] Memory required for data: 294096128
I0324 20:46:01.439278  6039 layer_factory.hpp:77] Creating layer mbox_conf
I0324 20:46:01.439281  6039 net.cpp:100] Creating Layer mbox_conf
I0324 20:46:01.439285  6039 net.cpp:434] mbox_conf <- conv4_3_norm_mbox_conf_flat
I0324 20:46:01.439287  6039 net.cpp:434] mbox_conf <- fc7_conv_mbox_conf_flat
I0324 20:46:01.439291  6039 net.cpp:434] mbox_conf <- conv6_2_mbox_conf_flat
I0324 20:46:01.439293  6039 net.cpp:434] mbox_conf <- conv7_2_mbox_conf_flat
I0324 20:46:01.439296  6039 net.cpp:408] mbox_conf -> mbox_conf
I0324 20:46:01.439314  6039 net.cpp:150] Setting up mbox_conf
I0324 20:46:01.439318  6039 net.cpp:157] Top shape: 8 16320 (130560)
I0324 20:46:01.439321  6039 net.cpp:165] Memory required for data: 294618368
I0324 20:46:01.439323  6039 layer_factory.hpp:77] Creating layer mbox_priorbox
I0324 20:46:01.439327  6039 net.cpp:100] Creating Layer mbox_priorbox
I0324 20:46:01.439329  6039 net.cpp:434] mbox_priorbox <- conv4_3_norm_mbox_priorbox
I0324 20:46:01.439332  6039 net.cpp:434] mbox_priorbox <- fc7_conv_mbox_priorbox
I0324 20:46:01.439335  6039 net.cpp:434] mbox_priorbox <- conv6_2_mbox_priorbox
I0324 20:46:01.439338  6039 net.cpp:434] mbox_priorbox <- conv7_2_mbox_priorbox
I0324 20:46:01.439342  6039 net.cpp:408] mbox_priorbox -> mbox_priorbox
I0324 20:46:01.439359  6039 net.cpp:150] Setting up mbox_priorbox
I0324 20:46:01.439363  6039 net.cpp:157] Top shape: 1 2 32640 (65280)
I0324 20:46:01.439365  6039 net.cpp:165] Memory required for data: 294879488
I0324 20:46:01.439368  6039 layer_factory.hpp:77] Creating layer mbox_conf_reshape
I0324 20:46:01.439373  6039 net.cpp:100] Creating Layer mbox_conf_reshape
I0324 20:46:01.439375  6039 net.cpp:434] mbox_conf_reshape <- mbox_conf
I0324 20:46:01.439378  6039 net.cpp:408] mbox_conf_reshape -> mbox_conf_reshape
I0324 20:46:01.439399  6039 net.cpp:150] Setting up mbox_conf_reshape
I0324 20:46:01.439402  6039 net.cpp:157] Top shape: 8 8160 2 (130560)
I0324 20:46:01.439405  6039 net.cpp:165] Memory required for data: 295401728
I0324 20:46:01.439407  6039 layer_factory.hpp:77] Creating layer mbox_conf_softmax
I0324 20:46:01.439411  6039 net.cpp:100] Creating Layer mbox_conf_softmax
I0324 20:46:01.439414  6039 net.cpp:434] mbox_conf_softmax <- mbox_conf_reshape
I0324 20:46:01.439417  6039 net.cpp:408] mbox_conf_softmax -> mbox_conf_softmax
I0324 20:46:01.439469  6039 net.cpp:150] Setting up mbox_conf_softmax
I0324 20:46:01.439473  6039 net.cpp:157] Top shape: 8 8160 2 (130560)
I0324 20:46:01.439476  6039 net.cpp:165] Memory required for data: 295923968
I0324 20:46:01.439478  6039 layer_factory.hpp:77] Creating layer mbox_conf_flatten
I0324 20:46:01.439481  6039 net.cpp:100] Creating Layer mbox_conf_flatten
I0324 20:46:01.439484  6039 net.cpp:434] mbox_conf_flatten <- mbox_conf_softmax
I0324 20:46:01.439487  6039 net.cpp:408] mbox_conf_flatten -> mbox_conf_flatten
I0324 20:46:01.439504  6039 net.cpp:150] Setting up mbox_conf_flatten
I0324 20:46:01.439508  6039 net.cpp:157] Top shape: 8 16320 (130560)
I0324 20:46:01.439512  6039 net.cpp:165] Memory required for data: 296446208
I0324 20:46:01.439513  6039 layer_factory.hpp:77] Creating layer detection_out
I0324 20:46:01.439520  6039 net.cpp:100] Creating Layer detection_out
I0324 20:46:01.439523  6039 net.cpp:434] detection_out <- mbox_loc
I0324 20:46:01.439527  6039 net.cpp:434] detection_out <- mbox_conf_flatten
I0324 20:46:01.439528  6039 net.cpp:434] detection_out <- mbox_priorbox
I0324 20:46:01.439534  6039 net.cpp:408] detection_out -> detection_out
I0324 20:46:01.471941  6039 net.cpp:150] Setting up detection_out
I0324 20:46:01.471961  6039 net.cpp:157] Top shape: 1 1 1 7 (7)
I0324 20:46:01.471964  6039 net.cpp:165] Memory required for data: 296446236
I0324 20:46:01.471968  6039 layer_factory.hpp:77] Creating layer detection_eval
I0324 20:46:01.471976  6039 net.cpp:100] Creating Layer detection_eval
I0324 20:46:01.471981  6039 net.cpp:434] detection_eval <- detection_out
I0324 20:46:01.471985  6039 net.cpp:434] detection_eval <- label
I0324 20:46:01.471990  6039 net.cpp:408] detection_eval -> detection_eval
I0324 20:46:01.472235  6039 net.cpp:150] Setting up detection_eval
I0324 20:46:01.472241  6039 net.cpp:157] Top shape: 1 1 2 5 (10)
I0324 20:46:01.472244  6039 net.cpp:165] Memory required for data: 296446276
I0324 20:46:01.472246  6039 net.cpp:228] detection_eval does not need backward computation.
I0324 20:46:01.472249  6039 net.cpp:228] detection_out does not need backward computation.
I0324 20:46:01.472252  6039 net.cpp:228] mbox_conf_flatten does not need backward computation.
I0324 20:46:01.472255  6039 net.cpp:228] mbox_conf_softmax does not need backward computation.
…
