…
        min_jaccard_overlap: 0.9
      }
      max_sample: 1
      max_trials: 50
      xmin: 0.35
      ymin: 0.3
      xmax: 0.7
      ymax: 0.65
    }
    batch_sampler {
      sampler {
        min_scale: 0.3
        max_scale: 1
        min_aspect_ratio: 0.5
        max_aspect_ratio: 2
      }
      sample_constraint {
        max_jaccard_overlap: 1
      }
      max_sample: 1
      max_trials: 50
      xmin: 0.35
      ymin: 0.3
      xmax: 0.7
      ymax: 0.65
    }
    label_map_file: "/home/work/qinhuan/git/caffe-ssd/data/labelmap_all.prototxt"
  }
}
layer {
  name: "conv1_1"
  type: "Convolution"
  bottom: "data"
  top: "conv1_1"
  param {
    lr_mult: 1
    decay_mult: 1
  }
  param {
    lr_mult: 2
    decay_mult: 0
  }
  convolution_param {
    num_output: 16
    pad: 1
    kernel_size: 3
    weight_filler {
      type: "xavier"
    }
    bias_filler {
      type: "constant"
      value: 0
    }
  }
}
layer {
  name: "relu1_1"
  type: "ReLU"
  bottom: "conv1_1"
  top: "conv1_1"
}
layer {
  name: "conv1_2"
  type: "Convolution"
  bottom: "conv1_1"
  top: "conv1_2"
  param {
    lr_mult: 1
    decay_mult: 1
  }
  param {
    lr_mult: 2
    decay_mult: 0
  }
  convolution_param {
    num_output: 16
    pad: 1
    kernel_size: 3
    stride: 2
    weight_filler {
      type: "xavier"
    }
    bias_filler {
      type: "constant"
      value: 0
    }
  }
}
layer {
  name: "relu1_2"
  type: "ReLU"
  bottom: "conv1_2"
  top: "conv1_2"
}
layer {
  name: "conv2_1"
  type: "Convolution"
  bottom: "conv1_2"
  top: "conv2_1"
  param {
    lr_mult: 1
    decay_mult: 1
  }
  param {
    lr_mult: 2
    decay_mult: 0
  }
  convolution_param {
    num_output: 32
    pad: 1
    kernel_size: 3
    weight_filler {
      type: "xavier"
    }
    bias_filler {
      type: "constant"
      value: 0
    }
  }
}
layer {
  name: "relu2_1"
  type: "ReLU"
  bottom: "conv2_1"
  top: "conv2_1"
}
layer {
  name: "conv2_2"
  type: "Convolution"
  bottom: "conv2_1"
  top: "conv2_2"
  param {
    lr_mult: 1
    decay_mult: 1
  }
  param {
    lr_mult: 2
    decay_mult: 0
  }
  convolution_param {
    num_output: 32
    pad: 1
    kernel_size: 3
    stride: 2
    weight_filler {
      type: "xavier"
    }
    bias_filler {
      type: "constant"
      value: 0
    }
  }
}
layer {
  name: "relu2_2"
  type: "ReLU"
  bottom: "conv2_2"
  top: "conv2_2"
}
layer {
  name: "conv3_1"
  type: "Convolution"
  bottom: "conv2_2"
  top: "conv3_1"
  param {
    lr_mult: 1
    decay_mult: 1
  }
  param {
    lr_mult: 2
    decay_mult: 0
  }
  convolution_param {
    num_output: 64
    pad: 1
    kernel_size: 3
    weight_filler {
      type: "xavier"
    }
    bias_filler {
      type: "constant"
      value: 0
    }
  }
}
layer {
  name: "relu3_1"
  type: "ReLU"
  bottom: "conv3_1"
  top: "conv3_1"
}
layer {
  name: "conv3_2"
  type: "Convolution"
  bottom: "conv3_1"
  top: "conv3_2"
  param {
    lr_mult: 1
    decay_mult: 1
  }
  param {
    lr_mult: 2
    decay_mult: 0
  }
  convolution_param {
    num_output: 64
    pad: 1
    kernel_size: 3
    weight_filler {
      type: "xavier"
    }
    bias_filler {
      type: "constant"
      value: 0
    }
  }
}
layer {
  name: "relu3_2"
  type: "ReLU"
  bottom: "conv3_2"
  top: "conv3_2"
}
layer {
  name: "conv3_3"
  type: "Convolution"
  bottom: "conv3_2"
  top: "conv3_3"
  param {
    lr_mult: 1
    decay_mult: 1
  }
  param {
    lr_mult: 2
    decay_mult: 0
  }
  convolution_param {
    num_output: 64
    pad: 1
    kernel_size: 3
    weight_filler {
      type: "xavier"
    }
    bias_filler {
      type: "constant"
      value: 0
    }
  }
}
layer {
  name: "relu3_3"
  type: "ReLU"
  bottom: "conv3_3"
  top: "conv3_3"
}
layer {
  name: "pool3"
  type: "Pooling"
  bottom: "conv3_3"
  top: "pool3"
  pooling_param {
    pool: MAX
    kernel_size: 2
    stride: 2
  }
}
layer {
  name: "conv4_1"
  type: "Convolution"
  bottom: "pool3"
  top: "conv4_1"
  param {
    lr_mult: 1
    decay_mult: 1
  }
  param {
    lr_mult: 2
    decay_mult: 0
  }
  convolution_param {
    num_output: 128
    pad: 1
    kernel_size: 3
    weight_filler {
      type: "xavier"
    }
    bias_filler {
      type: "constant"
      value: 0
    }
  }
}
layer {
  name: "relu4_1"
  type: "ReLU"
  bottom: "conv4_1"
  top: "conv4_1"
}
layer {
  name: "conv4_2"
  type: "Convolution"
  bottom: "conv4_1"
  top: "conv4_2"
  param {
    lr_mult: 1
    decay_mult: 1
  }
  param {
    lr_mult: 2
    decay_mult: 0
  }
  convolution_param {
    num_output: 128
    pad: 1
    kernel_size: 3
    weight_filler {
      type: "xavier"
    }
    bias_filler {
      type: "constant"
      value: 0
    }
  }
}
layer {
  name: "relu4_2"
  type: "ReLU"
  bottom: "conv4_2"
  top: "conv4_2"
}
layer {
  name: "conv4_3"
  type: "Convolution"
  bottom: "conv4_2"
  top: "conv4_3"
  param {
    lr_mult: 1
    decay_mult: 1
  }
  param {
    lr_mult: 2
    decay_mult: 0
  }
  convolution_param {
    num_output: 128
    pad: 1
    kernel_size: 3
    weight_filler {
      type: "xavier"
    }
    bias_filler {
      type: "constant"
      value: 0
    }
  }
}
layer {
  name: "relu4_3"
  type: "ReLU"
  bottom: "conv4_3"
  top: "conv4_3"
}
layer {
  name: "pool4"
  type: "Pooling"
  bottom: "conv4_3"
  top: "pool4"
  pooling_param {
    pool: MAX
    kernel_size: 2
    stride: 2
  }
}
layer {
  name: "conv5_1"
  type: "Convolution"
  bottom: "pool4"
  top: "conv5_1"
  param {
    lr_mult: 1
    decay_mult: 1
  }
  param {
    lr_mult: 2
    decay_mult: 0
  }
  convolution_param {
    num_output: 128
    pad: 1
    kernel_size: 3
    weight_filler {
      type: "xavier"
    }
    bias_filler {
      type: "constant"
      value: 0
    }
    dilation: 1
  }
}
layer {
  name: "relu5_1"
  type: "ReLU"
  bottom: "conv5_1"
  top: "conv5_1"
}
layer {
  name: "conv5_2"
  type: "Convolution"
  bottom: "conv5_1"
  top: "conv5_2"
  param {
    lr_mult: 1
    decay_mult: 1
  }
  param {
    lr_mult: 2
    decay_mult: 0
  }
  convolution_param {
    num_output: 128
    pad: 1
    kernel_size: 3
    weight_filler {
      type: "xavier"
    }
    bias_filler {
      type: "constant"
      value: 0
    }
    dilation: 1
  }
}
layer {
  name: "relu5_2"
  type: "ReLU"
  bottom: "conv5_2"
  top: "conv5_2"
}
layer {
  name: "conv5_3"
  type: "Convolution"
  bottom: "conv5_2"
  top: "conv5_3"
  param {
    lr_mult: 1
    decay_mult: 1
  }
  param {
    lr_mult: 2
    decay_mult: 0
  }
  convolution_param {
    num_output: 128
    pad: 1
    kernel_size: 3
    weight_filler {
      type: "xavier"
    }
    bias_filler {
      type: "constant"
      value: 0
    }
    dilation: 1
  }
}
layer {
  name: "relu5_3"
  type: "ReLU"
  bottom: "conv5_3"
  top: "conv5_3"
}
layer {
  name: "pool5"
  type: "Pooling"
  bottom: "conv5_3"
  top: "pool5"
  pooling_param {
    pool: MAX
    kernel_size: 3
    stride: 1
    pad: 1
  }
}
layer {
  name: "fc6_conv"
  type: "Convolution"
  bottom: "pool5"
  top: "fc6_conv"
  param {
    lr_mult: 1
    decay_mult: 1
  }
  param {
    lr_mult: 2
    decay_mult: 0
  }
  convolution_param {
    num_output: 256
    pad: 6
    kernel_size: 3
    weight_filler {
      type: "xavier"
    }
    bias_filler {
      type: "constant"
      value: 0
    }
    dilation: 6
  }
}
layer {
  name: "relu6"
  type: "ReLU"
  bottom: "fc6_conv"
  top: "fc6_conv"
}
layer {
  name: "fc7_conv"
  type: "Convolution"
  bottom: "fc6_conv"
  top: "fc7_conv"
  param {
    lr_mult: 1
    decay_mult: 1
  }
  param {
    lr_mult: 2
    decay_mult: 0
  }
  convolution_param {
    num_output: 256
    kernel_size: 1
    weight_filler {
      type: "xavier"
    }
    bias_filler {
      type: "constant"
      value: 0
    }
  }
}
layer {
  name: "relu7"
  type: "ReLU"
  bottom: "fc7_conv"
  top: "fc7_conv"
}
layer {
  name: "conv6_1"
  type: "Convolution"
  bottom: "fc7_conv"
  top: "conv6_1"
  param {
    lr_mult: 1
    decay_mult: 1
  }
  param {
    lr_mult: 2
    decay_mult: 0
  }
  convolution_param {
    num_output: 32
    pad: 0
    kernel_size: 1
    stride: 1
    weight_filler {
      type: "xavier"
    }
    bias_filler {
      type: "constant"
      value: 0
    }
  }
}
layer {
  name: "conv6_1_relu"
  type: "ReLU"
  bottom: "conv6_1"
  top: "conv6_1"
}
layer {
  name: "conv6_2"
  type: "Convolution"
  bottom: "conv6_1"
  top: "conv6_2"
  param {
    lr_mult: 1
    decay_mult: 1
  }
  param {
    lr_mult: 2
    decay_mult: 0
  }
  convolution_param {
    num_output: 64
    pad: 1
    kernel_size: 3
    stride: 2
    weight_filler {
      type: "xavier"
    }
    bias_filler {
      type: "constant"
      value: 0
    }
  }
}
layer {
  name: "conv6_2_relu"
  type: "ReLU"
  bottom: "conv6_2"
  top: "conv6_2"
}
layer {
  name: "conv7_1"
  type: "Convolution"
  bottom: "conv6_2"
  top: "conv7_1"
  param {
    lr_mult: 1
    decay_mult: 1
  }
  param {
    lr_mult: 2
    decay_mult: 0
  }
  convolution_param {
    num_output: 16
    pad: 0
    kernel_size: 1
    stride: 1
    weight_filler {
      type: "xavier"
    }
    bias_filler {
      type: "constant"
      value: 0
    }
  }
}
layer {
  name: "conv7_1_relu"
  type: "ReLU"
  bottom: "conv7_1"
  top: "conv7_1"
}
layer {
  name: "conv7_2"
  type: "Convolution"
  bottom: "conv7_1"
  top: "conv7_2"
  param {
    lr_mult: 1
    decay_mult: 1
  }
  param {
    lr_mult: 2
    decay_mult: 0
  }
  convolution_param {
    num_output: 32
    pad: 1
    kernel_size: 3
    stride: 2
    weight_filler {
      type: "xavier"
    }
    bias_filler {
      type: "constant"
      value: 0
    }
  }
}
layer {
  name: "conv7_2_relu"
  type: "ReLU"
  bottom: "conv7_2"
  top: "conv7_2"
}
layer {
  name: "conv4_3_norm"
  type: "Normalize"
  bottom: "conv4_3"
  top: "conv4_3_norm"
  norm_param {
    across_spatial: false
    scale_filler {
      type: "constant"
      value: 20
    }
    channel_shared: false
  }
}
layer {
  name: "conv4_3_norm_mbox_loc_conf"
  type: "Convolution"
  bottom: "conv4_3_norm"
  top: "conv4_3_norm_mbox_loc_conf"
  param {
    lr_mult: 1
    decay_mult: 1
  }
  param {
    lr_mult: 2
    decay_mult: 0
  }
  convolution_param {
    num_output: 36
    pad: 1
    kernel_size: 3
    stride: 1
    weight_filler {
      type: "xavier"
    }
    bias_filler {
      type: "constant"
      value: 0
    }
  }
}
layer {
  name: "conv4_3_norm_mbox_loc_conf_perm"
  type: "Permute"
  bottom: "conv4_3_norm_mbox_loc_conf"
  top: "conv4_3_norm_mbox_loc_conf_perm"
  permute_param {
    order: 0
    order: 2
    order: 3
    order: 1
  }
}
layer {
  name: "conv4_3_norm_mbox_loc_perm"
  type: "Slice"
  bottom: "conv4_3_norm_mbox_loc_conf_perm"
  top: "conv4_3_norm_mbox_loc_perm"
  top: "conv4_3_norm_mbox_conf_perm"
  slice_param {
    slice_point: 24
    axis: 3
  }
}
layer {
  name: "conv4_3_norm_mbox_loc_flat"
  type: "Flatten"
  bottom: "conv4_3_norm_mbox_loc_perm"
  top: "conv4_3_norm_mbox_loc_flat"
  flatten_param {
    axis: 1
  }
}
layer {
  name: "conv4_3_norm_mbox_conf_flat"
  type: "Flatten"
  bottom: "conv4_3_norm_mbox_conf_perm"
  top: "conv4_3_norm_mbox_conf_flat"
  flatten_param {
    axis: 1
  }
}
layer {
  name: "conv4_3_norm_mbox_priorbox"
  type: "PriorBox"
  bottom: "conv4_3_norm"
  bottom: "data"
  top: "conv4_3_norm_mbox_priorbox"
  prior_box_param {
    min_size: 7.68
    max_size: 25.6
    aspect_ratio: 2
    aspect_ratio: 3
    flip: true
    clip: true
    variance: 0.1
    variance: 0.1
    variance: 0.2
    variance: 0.2
    offset: 0.5
  }
}
layer {
  name: "fc7_conv_mbox_loc_conf"
  type: "Convolution"
  bottom: "fc7_conv"
  top: "fc7_conv_mbox_loc_conf"
  param {
    lr_mult: 1
    decay_mult: 1
  }
  param {
    lr_mult: 2
    decay_mult: 0
  }
  convolution_param {
    num_output: 36
    pad: 1
    kernel_size: 3
    stride: 1
    weight_filler {
      type: "xavier"
    }
    bias_filler {
      type: "constant"
      value: 0
    }
  }
}
layer {
  name: "fc7_conv_mbox_loc_conf_perm"
  type: "Permute"
  bottom: "fc7_conv_mbox_loc_conf"
  top: "fc7_conv_mbox_loc_conf_perm"
  permute_param {
    order: 0
    order: 2
    order: 3
    order: 1
  }
}
layer {
  name: "fc7_conv_mbox_loc_perm"
  type: "Slice"
  bottom: "fc7_conv_mbox_loc_conf_perm"
  top: "fc7_conv_mbox_loc_perm"
  top: "fc7_conv_mbox_conf_perm"
  slice_param {
    slice_point: 24
    axis: 3
  }
}
layer {
  name: "fc7_conv_mbox_loc_flat"
  type: "Flatten"
  bottom: "fc7_conv_mbox_loc_perm"
  top: "fc7_conv_mbox_loc_flat"
  flatten_param {
    axis: 1
  }
}
layer {
  name: "fc7_conv_mbox_conf_flat"
  type: "Flatten"
  bottom: "fc7_conv_mbox_conf_perm"
  top: "fc7_conv_mbox_conf_flat"
  flatten_param {
    axis: 1
  }
}
layer {
  name: "fc7_conv_mbox_priorbox"
  type: "PriorBox"
  bottom: "fc7_conv"
  bottom: "data"
  top: "fc7_conv_mbox_priorbox"
  prior_box_param {
    min_size: 25.6
    max_size: 133.12
    aspect_ratio: 2
    aspect_ratio: 3
    flip: true
    clip: true
    variance: 0.1
    variance: 0.1
    variance: 0.2
    variance: 0.2
    offset: 0.5
  }
}
layer {
  name: "conv6_2_mbox_loc_conf"
  type: "Convolution"
  bottom: "conv6_2"
  top: "conv6_2_mbox_loc_conf"
  param {
    lr_mult: 1
    decay_mult: 1
  }
  param {
    lr_mult: 2
    decay_mult: 0
  }
  convolution_param {
    num_output: 36
    pad: 1
    kernel_size: 3
    stride: 1
    weight_filler {
      type: "xavier"
    }
    bias_filler {
      type: "constant"
      value: 0
    }
  }
}
layer {
  name: "conv6_2_mbox_loc_conf_perm"
  type: "Permute"
  bottom: "conv6_2_mbox_loc_conf"
  top: "conv6_2_mbox_loc_conf_perm"
  permute_param {
    order: 0
    order: 2
    order: 3
    order: 1
  }
}
layer {
  name: "conv6_2_mbox_loc_perm"
  type: "Slice"
  bottom: "conv6_2_mbox_loc_conf_perm"
  top: "conv6_2_mbox_loc_perm"
  top: "conv6_2_mbox_conf_perm"
  slice_param {
    slice_point: 24
    axis: 3
  }
}
layer {
  name: "conv6_2_mbox_loc_flat"
  type: "Flatten"
  bottom: "conv6_2_mbox_loc_perm"
  top: "conv6_2_mbox_loc_flat"
  flatten_param {
    axis: 1
  }
}
layer {
  name: "conv6_2_mbox_conf_flat"
  type: "Flatten"
  bottom: "conv6_2_mbox_conf_perm"
  top: "conv6_2_mbox_conf_flat"
  flatten_param {
    axis: 1
  }
}
layer {
  name: "conv6_2_mbox_priorbox"
  type: "PriorBox"
  bottom: "conv6_2"
  bottom: "data"
  top: "conv6_2_mbox_priorbox"
  prior_box_param {
    min_size: 133.12
    max_size: 240.64
    aspect_ratio: 2
    aspect_ratio: 3
    flip: true
    clip: true
    variance: 0.1
    variance: 0.1
    variance: 0.2
    variance: 0.2
    offset: 0.5
  }
}
layer {
  name: "conv7_2_mbox_loc_conf"
  type: "Convolution"
  bottom: "conv7_2"
  top: "conv7_2_mbox_loc_conf"
  param {
    lr_mult: 1
    decay_mult: 1
  }
  param {
    lr_mult: 2
    decay_mult: 0
  }
  convolution_param {
    num_output: 36
    pad: 1
    kernel_size: 3
    stride: 1
    weight_filler {
      type: "xavier"
    }
    bias_filler {
      type: "constant"
      value: 0
    }
  }
}
layer {
  name: "conv7_2_mbox_loc_conf_perm"
  type: "Permute"
  bottom: "conv7_2_mbox_loc_conf"
  top: "conv7_2_mbox_loc_conf_perm"
  permute_param {
    order: 0
    order: 2
    order: 3
    order: 1
  }
}
layer {
  name: "conv7_2_mbox_loc_perm"
  type: "Slice"
  bottom: "conv7_2_mbox_loc_conf_perm"
  top: "conv7_2_mbox_loc_perm"
  top: "conv7_2_mbox_conf_perm"
  slice_param {
    slice_point: 24
    axis: 3
  }
}
layer {
  name: "conv7_2_mbox_loc_flat"
  type: "Flatten"
  bottom: "conv7_2_mbox_loc_perm"
  top: "conv7_2_mbox_loc_flat"
  flatten_param {
    axis: 1
  }
}
layer {
  name: "conv7_2_mbox_conf_flat"
  type: "Flatten"
  bottom: "conv7_2_mbox_conf_perm"
  top: "conv7_2_mbox_conf_flat"
  flatten_param {
    axis: 1
  }
}
layer {
  name: "conv7_2_mbox_priorbox"
  type: "PriorBox"
  bottom: "conv7_2"
  bottom: "data"
  top: "conv7_2_mbox_priorbox"
  prior_box_param {
    min_size: 240.64
    max_size: 348.16
    aspect_ratio: 2
    aspect_ratio: 3
    flip: true
    clip: true
    variance: 0.1
    variance: 0.1
    variance: 0.2
    variance: 0.2
    offset: 0.5
  }
}
layer {
  name: "mbox_loc"
  type: "Concat"
  bottom: "conv4_3_norm_mbox_loc_flat"
  bottom: "fc7_conv_mbox_loc_flat"
  bottom: "conv6_2_mbox_loc_flat"
  bottom: "conv7_2_mbox_loc_flat"
  top: "mbox_loc"
  concat_param {
    axis: 1
  }
}
layer {
  name: "mbox_conf"
  type: "Concat"
  bottom: "conv4_3_norm_mbox_conf_flat"
  bottom: "fc7_conv_mbox_conf_flat"
  bottom: "conv6_2_mbox_conf_flat"
  bottom: "conv7_2_mbox_conf_flat"
  top: "mbox_conf"
  concat_param {
    axis: 1
  }
}
layer {
  name: "mbox_priorbox"
  type: "Concat"
  bottom: "conv4_3_norm_mbox_priorbox"
  bottom: "fc7_conv_mbox_priorbox"
  bottom: "conv6_2_mbox_priorbox"
  bottom: "conv7_2_mbox_priorbox"
  top: "mbox_priorbox"
  concat_param {
    axis: 2
  }
}
layer {
  name: "mbox_loss"
  type: "MultiBoxLoss"
  bottom: "mbox_loc"
  bottom: "mbox_conf"
  bottom: "mbox_priorbox"
  bottom: "label"
  top: "mbox_loss"
  include {
    phase: TRAIN
  }
  propagate_down: true
  propagate_down: true
  propagate_down: false
  propagate_down: false
  loss_param {
    normalization: VALID
  }
  multibox_loss_param {
    loc_loss_type: SMOOTH_L1
    conf_loss_type: SOFTMAX
    loc_weight: 1
    num_classes: 2
    share_location: true
    match_type: PER_PREDICTION
    overlap_threshold: 0.3
    use_prior_for_matching: true
    background_label_id: 0
    use_difficult_gt: true
    neg_pos_ratio: 3
    neg_overlap: 0.3
    code_type: CENTER_SIZE
    mining_type: MAX_NEGATIVE
  }
}
I0325 14:23:45.855867 32013 layer_factory.hpp:77] Creating layer data
I0325 14:23:45.856191 32013 net.cpp:100] Creating Layer data
I0325 14:23:45.856199 32013 net.cpp:408] data -> data
I0325 14:23:45.856212 32013 net.cpp:408] data -> label
I0325 14:23:45.856943 32039 db_lmdb.cpp:35] Opened lmdb /home/work/qinhuan/git/caffe-ssd/data/train_lmdb
I0325 14:23:45.879724 32013 annotated_data_layer.cpp:62] output data size: 64,3,128,512
I0325 14:23:45.964949 32013 net.cpp:150] Setting up data
I0325 14:23:45.964972 32013 net.cpp:157] Top shape: 64 3 128 512 (12582912)
I0325 14:23:45.964977 32013 net.cpp:157] Top shape: 1 1 3 8 (24)
I0325 14:23:45.964978 32013 net.cpp:165] Memory required for data: 50331744
I0325 14:23:45.964983 32013 layer_factory.hpp:77] Creating layer data_data_0_split
I0325 14:23:45.964993 32013 net.cpp:100] Creating Layer data_data_0_split
I0325 14:23:45.964995 32013 net.cpp:434] data_data_0_split <- data
I0325 14:23:45.965001 32013 net.cpp:408] data_data_0_split -> data_data_0_split_0
I0325 14:23:45.965008 32013 net.cpp:408] data_data_0_split -> data_data_0_split_1
I0325 14:23:45.965013 32013 net.cpp:408] data_data_0_split -> data_data_0_split_2
I0325 14:23:45.965018 32013 net.cpp:408] data_data_0_split -> data_data_0_split_3
I0325 14:23:45.965020 32013 net.cpp:408] data_data_0_split -> data_data_0_split_4
I0325 14:23:45.965109 32013 net.cpp:150] Setting up data_data_0_split
I0325 14:23:45.965116 32013 net.cpp:157] Top shape: 64 3 128 512 (12582912)
I0325 14:23:45.965118 32013 net.cpp:157] Top shape: 64 3 128 512 (12582912)
I0325 14:23:45.965121 32013 net.cpp:157] Top shape: 64 3 128 512 (12582912)
I0325 14:23:45.965124 32013 net.cpp:157] Top shape: 64 3 128 512 (12582912)
I0325 14:23:45.965127 32013 net.cpp:157] Top shape: 64 3 128 512 (12582912)
I0325 14:23:45.965129 32013 net.cpp:165] Memory required for data: 301989984
I0325 14:23:45.965132 32013 layer_factory.hpp:77] Creating layer conv1_1
I0325 14:23:45.965140 32013 net.cpp:100] Creating Layer conv1_1
I0325 14:23:45.965143 32013 net.cpp:434] conv1_1 <- data_data_0_split_0
I0325 14:23:45.965147 32013 net.cpp:408] conv1_1 -> conv1_1
I0325 14:23:45.966747 32013 net.cpp:150] Setting up conv1_1
I0325 14:23:45.966758 32013 net.cpp:157] Top shape: 64 16 128 512 (67108864)
I0325 14:23:45.966761 32013 net.cpp:165] Memory required for data: 570425440
I0325 14:23:45.966768 32013 layer_factory.hpp:77] Creating layer relu1_1
I0325 14:23:45.966773 32013 net.cpp:100] Creating Layer relu1_1
I0325 14:23:45.966776 32013 net.cpp:434] relu1_1 <- conv1_1
I0325 14:23:45.966780 32013 net.cpp:395] relu1_1 -> conv1_1 (in-place)
I0325 14:23:45.966785 32013 net.cpp:150] Setting up relu1_1
I0325 14:23:45.966789 32013 net.cpp:157] Top shape: 64 16 128 512 (67108864)
I0325 14:23:45.966791 32013 net.cpp:165] Memory required for data: 838860896
I0325 14:23:45.966794 32013 layer_factory.hpp:77] Creating layer conv1_2
I0325 14:23:45.966800 32013 net.cpp:100] Creating Layer conv1_2
I0325 14:23:45.966804 32013 net.cpp:434] conv1_2 <- conv1_1
I0325 14:23:45.966806 32013 net.cpp:408] conv1_2 -> conv1_2
I0325 14:23:45.968345 32013 net.cpp:150] Setting up conv1_2
I0325 14:23:45.968358 32013 net.cpp:157] Top shape: 64 16 64 256 (16777216)
I0325 14:23:45.968359 32013 net.cpp:165] Memory required for data: 905969760
I0325 14:23:45.968366 32013 layer_factory.hpp:77] Creating layer relu1_2
I0325 14:23:45.968371 32013 net.cpp:100] Creating Layer relu1_2
I0325 14:23:45.968374 32013 net.cpp:434] relu1_2 <- conv1_2
I0325 14:23:45.968377 32013 net.cpp:395] relu1_2 -> conv1_2 (in-place)
I0325 14:23:45.968382 32013 net.cpp:150] Setting up relu1_2
I0325 14:23:45.968385 32013 net.cpp:157] Top shape: 64 16 64 256 (16777216)
I0325 14:23:45.968387 32013 net.cpp:165] Memory required for data: 973078624
I0325 14:23:45.968390 32013 layer_factory.hpp:77] Creating layer conv2_1
I0325 14:23:45.968395 32013 net.cpp:100] Creating Layer conv2_1
I0325 14:23:45.968399 32013 net.cpp:434] conv2_1 <- conv1_2
I0325 14:23:45.968402 32013 net.cpp:408] conv2_1 -> conv2_1
I0325 14:23:45.968606 32013 net.cpp:150] Setting up conv2_1
I0325 14:23:45.968612 32013 net.cpp:157] Top shape: 64 32 64 256 (33554432)
I0325 14:23:45.968614 32013 net.cpp:165] Memory required for data: 1107296352
I0325 14:23:45.968623 32013 layer_factory.hpp:77] Creating layer relu2_1
I0325 14:23:45.968627 32013 net.cpp:100] Creating Layer relu2_1
I0325 14:23:45.968631 32013 net.cpp:434] relu2_1 <- conv2_1
I0325 14:23:45.968633 32013 net.cpp:395] relu2_1 -> conv2_1 (in-place)
I0325 14:23:45.968637 32013 net.cpp:150] Setting up relu2_1
I0325 14:23:45.968641 32013 net.cpp:157] Top shape: 64 32 64 256 (33554432)
I0325 14:23:45.968642 32013 net.cpp:165] Memory required for data: 1241514080
I0325 14:23:45.968646 32013 layer_factory.hpp:77] Creating layer conv2_2
I0325 14:23:45.968652 32013 net.cpp:100] Creating Layer conv2_2
I0325 14:23:45.968653 32013 net.cpp:434] conv2_2 <- conv2_1
I0325 14:23:45.968657 32013 net.cpp:408] conv2_2 -> conv2_2
I0325 14:23:45.968865 32013 net.cpp:150] Setting up conv2_2
I0325 14:23:45.968869 32013 net.cpp:157] Top shape: 64 32 32 128 (8388608)
I0325 14:23:45.968873 32013 net.cpp:165] Memory required for data: 1275068512
I0325 14:23:45.968876 32013 layer_factory.hpp:77] Creating layer relu2_2
I0325 14:23:45.968879 32013 net.cpp:100] Creating Layer relu2_2
I0325 14:23:45.968883 32013 net.cpp:434] relu2_2 <- conv2_2
I0325 14:23:45.968885 32013 net.cpp:395] relu2_2 -> conv2_2 (in-place)
I0325 14:23:45.968889 32013 net.cpp:150] Setting up relu2_2
I0325 14:23:45.968893 32013 net.cpp:157] Top shape: 64 32 32 128 (8388608)
I0325 14:23:45.968894 32013 net.cpp:165] Memory required for data: 1308622944
I0325 14:23:45.968896 32013 layer_factory.hpp:77] Creating layer conv3_1
I0325 14:23:45.968901 32013 net.cpp:100] Creating Layer conv3_1
I0325 14:23:45.968904 32013 net.cpp:434] conv3_1 <- conv2_2
I0325 14:23:45.968907 32013 net.cpp:408] conv3_1 -> conv3_1
I0325 14:23:45.969142 32013 net.cpp:150] Setting up conv3_1
I0325 14:23:45.969147 32013 net.cpp:157] Top shape: 64 64 32 128 (16777216)
I0325 14:23:45.969149 32013 net.cpp:165] Memory required for data: 1375731808
I0325 14:23:45.969154 32013 layer_factory.hpp:77] Creating layer relu3_1
I0325 14:23:45.969157 32013 net.cpp:100] Creating Layer relu3_1
I0325 14:23:45.969161 32013 net.cpp:434] relu3_1 <- conv3_1
I0325 14:23:45.969163 32013 net.cpp:395] relu3_1 -> conv3_1 (in-place)
I0325 14:23:45.969166 32013 net.cpp:150] Setting up relu3_1
I0325 14:23:45.969169 32013 net.cpp:157] Top shape: 64 64 32 128 (16777216)
I0325 14:23:45.969172 32013 net.cpp:165] Memory required for data: 1442840672
I0325 14:23:45.969174 32013 layer_factory.hpp:77] Creating layer conv3_2
I0325 14:23:45.969178 32013 net.cpp:100] Creating Layer conv3_2
I0325 14:23:45.969182 32013 net.cpp:434] conv3_2 <- conv3_1
I0325 14:23:45.969184 32013 net.cpp:408] conv3_2 -> conv3_2
I0325 14:23:45.969475 32013 net.cpp:150] Setting up conv3_2
I0325 14:23:45.969480 32013 net.cpp:157] Top shape: 64 64 32 128 (16777216)
I0325 14:23:45.969482 32013 net.cpp:165] Memory required for data: 1509949536
I0325 14:23:45.969485 32013 layer_factory.hpp:77] Creating layer relu3_2
I0325 14:23:45.969490 32013 net.cpp:100] Creating Layer relu3_2
I0325 14:23:45.969491 32013 net.cpp:434] relu3_2 <- conv3_2
I0325 14:23:45.969494 32013 net.cpp:395] relu3_2 -> conv3_2 (in-place)
I0325 14:23:45.969498 32013 net.cpp:150] Setting up relu3_2
I0325 14:23:45.969501 32013 net.cpp:157] Top shape: 64 64 32 128 (16777216)
I0325 14:23:45.969504 32013 net.cpp:165] Memory required for data: 1577058400
I0325 14:23:45.969506 32013 layer_factory.hpp:77] Creating layer conv3_3
I0325 14:23:45.969511 32013 net.cpp:100] Creating Layer conv3_3
I0325 14:23:45.969513 32013 net.cpp:434] conv3_3 <- conv3_2
I0325 14:23:45.969516 32013 net.cpp:408] conv3_3 -> conv3_3
I0325 14:23:45.969810 32013 net.cpp:150] Setting up conv3_3
I0325 14:23:45.969815 32013 net.cpp:157] Top shape: 64 64 32 128 (16777216)
I0325 14:23:45.969816 32013 net.cpp:165] Memory required for data: 1644167264
I0325 14:23:45.969820 32013 layer_factory.hpp:77] Creating layer relu3_3
I0325 14:23:45.969823 32013 net.cpp:100] Creating Layer relu3_3
I0325 14:23:45.969826 32013 net.cpp:434] relu3_3 <- conv3_3
I0325 14:23:45.969830 32013 net.cpp:395] relu3_3 -> conv3_3 (in-place)
I0325 14:23:45.969835 32013 net.cpp:150] Setting up relu3_3
I0325 14:23:45.969838 32013 net.cpp:157] Top shape: 64 64 32 128 (16777216)
I0325 14:23:45.969841 32013 net.cpp:165] Memory required for data: 1711276128
I0325 14:23:45.969843 32013 layer_factory.hpp:77] Creating layer pool3
I0325 14:23:45.969847 32013 net.cpp:100] Creating Layer pool3
I0325 14:23:45.969851 32013 net.cpp:434] pool3 <- conv3_3
I0325 14:23:45.969853 32013 net.cpp:408] pool3 -> pool3
I0325 14:23:45.969882 32013 net.cpp:150] Setting up pool3
I0325 14:23:45.969887 32013 net.cpp:157] Top shape: 64 64 16 64 (4194304)
I0325 14:23:45.969889 32013 net.cpp:165] Memory required for data: 1728053344
I0325 14:23:45.969892 32013 layer_factory.hpp:77] Creating layer conv4_1
I0325 14:23:45.969897 32013 net.cpp:100] Creating Layer conv4_1
I0325 14:23:45.969898 32013 net.cpp:434] conv4_1 <- pool3
I0325 14:23:45.969902 32013 net.cpp:408] conv4_1 -> conv4_1
I0325 14:23:45.970984 32013 net.cpp:150] Setting up conv4_1
I0325 14:23:45.970993 32013 net.cpp:157] Top shape: 64 128 16 64 (8388608)
I0325 14:23:45.970995 32013 net.cpp:165] Memory required for data: 1761607776
I0325 14:23:45.970999 32013 layer_factory.hpp:77] Creating layer relu4_1
I0325 14:23:45.971004 32013 net.cpp:100] Creating Layer relu4_1
I0325 14:23:45.971006 32013 net.cpp:434] relu4_1 <- conv4_1
I0325 14:23:45.971009 32013 net.cpp:395] relu4_1 -> conv4_1 (in-place)
I0325 14:23:45.971014 32013 net.cpp:150] Setting up relu4_1
I0325 14:23:45.971017 32013 net.cpp:157] Top shape: 64 128 16 64 (8388608)
I0325 14:23:45.971019 32013 net.cpp:165] Memory required for data: 1795162208
I0325 14:23:45.971021 32013 layer_factory.hpp:77] Creating layer conv4_2
I0325 14:23:45.971027 32013 net.cpp:100] Creating Layer conv4_2
I0325 14:23:45.971029 32013 net.cpp:434] conv4_2 <- conv4_1
I0325 14:23:45.971034 32013 net.cpp:408] conv4_2 -> conv4_2
I0325 14:23:45.971647 32013 net.cpp:150] Setting up conv4_2
I0325 14:23:45.971652 32013 net.cpp:157] Top shape: 64 128 16 64 (8388608)
I0325 14:23:45.971654 32013 net.cpp:165] Memory required for data: 1828716640
I0325 14:23:45.971660 32013 layer_factory.hpp:77] Creating layer relu4_2
I0325 14:23:45.971663 32013 net.cpp:100] Creating Layer relu4_2
I0325 14:23:45.971667 32013 net.cpp:434] relu4_2 <- conv4_2
I0325 14:23:45.971669 32013 net.cpp:395] relu4_2 -> conv4_2 (in-place)
I0325 14:23:45.971673 32013 net.cpp:150] Setting up relu4_2
I0325 14:23:45.971676 32013 net.cpp:157] Top shape: 64 128 16 64 (8388608)
I0325 14:23:45.971678 32013 net.cpp:165] Memory required for data: 1862271072
I0325 14:23:45.971680 32013 layer_factory.hpp:77] Creating layer conv4_3
I0325 14:23:45.971685 32013 net.cpp:100] Creating Layer conv4_3
I0325 14:23:45.971688 32013 net.cpp:434] conv4_3 <- conv4_2
I0325 14:23:45.971691 32013 net.cpp:408] conv4_3 -> conv4_3
I0325 14:23:45.972306 32013 net.cpp:150] Setting up conv4_3
I0325 14:23:45.972311 32013 net.cpp:157] Top shape: 64 128 16 64 (8388608)
I0325 14:23:45.972313 32013 net.cpp:165] Memory required for data: 1895825504
I0325 14:23:45.972317 32013 layer_factory.hpp:77] Creating layer relu4_3
I0325 14:23:45.972321 32013 net.cpp:100] Creating Layer relu4_3
I0325 14:23:45.972322 32013 net.cpp:434] relu4_3 <- conv4_3
I0325 14:23:45.972326 32013 net.cpp:395] relu4_3 -> conv4_3 (in-place)
I0325 14:23:45.972329 32013 net.cpp:150] Setting up relu4_3
I0325 14:23:45.972332 32013 net.cpp:157] Top shape: 64 128 16 64 (8388608)
I0325 14:23:45.972335 32013 net.cpp:165] Memory required for data: 1929379936
I0325 14:23:45.972344 32013 layer_factory.hpp:77] Creating layer conv4_3_relu4_3_0_split
I0325 14:23:45.972349 32013 net.cpp:100] Creating Layer conv4_3_relu4_3_0_split
I0325 14:23:45.972352 32013 net.cpp:434] conv4_3_relu4_3_0_split <- conv4_3
I0325 14:23:45.972354 32013 net.cpp:408] conv4_3_relu4_3_0_split -> conv4_3_relu4_3_0_split_0
I0325 14:23:45.972358 32013 net.cpp:408] conv4_3_relu4_3_0_split -> conv4_3_relu4_3_0_split_1
I0325 14:23:45.972389 32013 net.cpp:150] Setting up conv4_3_relu4_3_0_split
I0325 14:23:45.972394 32013 net.cpp:157] Top shape: 64 128 16 64 (8388608)
I0325 14:23:45.972400 32013 net.cpp:157] Top shape: 64 128 16 64 (8388608)
I0325 14:23:45.972403 32013 net.cpp:165] Memory required for data: 1996488800
I0325 14:23:45.972405 32013 layer_factory.hpp:77] Creating layer pool4
I0325 14:23:45.972409 32013 net.cpp:100] Creating Layer pool4
I0325 14:23:45.972411 32013 net.cpp:434] pool4 <- conv4_3_relu4_3_0_split_0
I0325 14:23:45.972414 32013 net.cpp:408] pool4 -> pool4
I0325 14:23:45.972440 32013 net.cpp:150] Setting up pool4
I0325 14:23:45.972445 32013 net.cpp:157] Top shape: 64 128 8 32 (2097152)
I0325 14:23:45.972446 32013 net.cpp:165] Memory required for data: 2004877408
I0325 14:23:45.972448 32013 layer_factory.hpp:77] Creating layer conv5_1
I0325 14:23:45.972453 32013 net.cpp:100] Creating Layer conv5_1
I0325 14:23:45.972455 32013 net.cpp:434] conv5_1 <- pool4
I0325 14:23:45.972460 32013 net.cpp:408] conv5_1 -> conv5_1
I0325 14:23:45.973075 32013 net.cpp:150] Setting up conv5_1
I0325 14:23:45.973079 32013 net.cpp:157] Top shape: 64 128 8 32 (2097152)
I0325 14:23:45.973083 32013 net.cpp:165] Memory required for data: 2013266016
I0325 14:23:45.973086 32013 layer_factory.hpp:77] Creating layer relu5_1
I0325 14:23:45.973089 32013 net.cpp:100] Creating Layer relu5_1
I0325 14:23:45.973093 32013 net.cpp:434] relu5_1 <- conv5_1
I0325 14:23:45.973095 32013 net.cpp:395] relu5_1 -> conv5_1 (in-place)
I0325 14:23:45.973098 32013 net.cpp:150] Setting up relu5_1
I0325 14:23:45.973103 32013 net.cpp:157] Top shape: 64 128 8 32 (2097152)
I0325 14:23:45.973104 32013 net.cpp:165] Memory required for data: 2021654624
I0325 14:23:45.973106 32013 layer_factory.hpp:77] Creating layer conv5_2
I0325 14:23:45.973110 32013 net.cpp:100] Creating Layer conv5_2
I0325 14:23:45.973114 32013 net.cpp:434] conv5_2 <- conv5_1
I0325 14:23:45.973116 32013 net.cpp:408] conv5_2 -> conv5_2
I0325 14:23:45.974416 32013 net.cpp:150] Setting up conv5_2
I0325 14:23:45.974426 32013 net.cpp:157] Top shape: 64 128 8 32 (2097152)
I0325 14:23:45.974427 32013 net.cpp:165] Memory required for data: 2030043232
I0325 14:23:45.974432 32013 layer_factory.hpp:77] Creating layer relu5_2
I0325 14:23:45.974436 32013 net.cpp:100] Creating Layer relu5_2
I0325 14:23:45.974438 32013 net.cpp:434] relu5_2 <- conv5_2
I0325 14:23:45.974442 32013 net.cpp:395] relu5_2 -> conv5_2 (in-place)
I0325 14:23:45.974447 32013 net.cpp:150] Setting up relu5_2
I0325 14:23:45.974449 32013 net.cpp:157] Top shape: 64 128 8 32 (2097152)
I0325 14:23:45.974452 32013 net.cpp:165] Memory required for data: 2038431840
I0325 14:23:45.974454 32013 layer_factory.hpp:77] Creating layer conv5_3
I0325 14:23:45.974458 32013 net.cpp:100] Creating Layer conv5_3
I0325 14:23:45.974462 32013 net.cpp:434] conv5_3 <- conv5_2
I0325 14:23:45.974465 32013 net.cpp:408] conv5_3 -> conv5_3
I0325 14:23:45.975076 32013 net.cpp:150] Setting up conv5_3
I0325 14:23:45.975081 32013 net.cpp:157] Top shape: 64 128 8 32 (2097152)
I0325 14:23:45.975083 32013 net.cpp:165] Memory required for data: 2046820448
I0325 14:23:45.975087 32013 layer_factory.hpp:77] Creating layer relu5_3
I0325 14:23:45.975090 32013 net.cpp:100] Creating Layer relu5_3
I0325 14:23:45.975093 32013 net.cpp:434] relu5_3 <- conv5_3
I0325 14:23:45.975096 32013 net.cpp:395] relu5_3 -> conv5_3 (in-place)
I0325 14:23:45.975100 32013 net.cpp:150] Setting up relu5_3
I0325 14:23:45.975103 32013 net.cpp:157] Top shape: 64 128 8 32 (2097152)
I0325 14:23:45.975106 32013 net.cpp:165] Memory required for data: 2055209056
I0325 14:23:45.975107 32013 layer_factory.hpp:77] Creating layer pool5
I0325 14:23:45.975111 32013 net.cpp:100] Creating Layer pool5
I0325 14:23:45.975113 32013 net.cpp:434] pool5 <- conv5_3
I0325 14:23:45.975116 32013 net.cpp:408] pool5 -> pool5
I0325 14:23:45.975141 32013 net.cpp:150] Setting up pool5
I0325 14:23:45.975143 32013 net.cpp:157] Top shape: 64 128 8 32 (2097152)
I0325 14:23:45.975147 32013 net.cpp:165] Memory required for data: 2063597664
I0325 14:23:45.975148 32013 layer_factory.hpp:77] Creating layer fc6_conv
I0325 14:23:45.975154 32013 net.cpp:100] Creating Layer fc6_conv
I0325 14:23:45.975157 32013 net.cpp:434] fc6_conv <- pool5
I0325 14:23:45.975164 32013 net.cpp:408] fc6_conv -> fc6_conv
I0325 14:23:45.976913 32013 net.cpp:150] Setting up fc6_conv
I0325 14:23:45.976922 32013 net.cpp:157] Top shape: 64 256 8 32 (4194304)
I0325 14:23:45.976924 32013 net.cpp:165] Memory required for data: 2080374880
I0325 14:23:45.976929 32013 layer_factory.hpp:77] Creating layer relu6
I0325 14:23:45.976933 32013 net.cpp:100] Creating Layer relu6
I0325 14:23:45.976936 32013 net.cpp:434] relu6 <- fc6_conv
I0325 14:23:45.976939 32013 net.cpp:395] relu6 -> fc6_conv (in-place)
I0325 14:23:45.976943 32013 net.cpp:150] Setting up relu6
I0325 14:23:45.976946 32013 net.cpp:157] Top shape: 64 256 8 32 (4194304)
I0325 14:23:45.976949 32013 net.cpp:165] Memory required for data: 2097152096
I0325 14:23:45.976951 32013 layer_factory.hpp:77] Creating layer fc7_conv
I0325 14:23:45.976956 32013 net.cpp:100] Creating Layer fc7_conv
I0325 14:23:45.976958 32013 net.cpp:434] fc7_conv <- fc6_conv
I0325 14:23:45.976963 32013 net.cpp:408] fc7_conv -> fc7_conv
I0325 14:23:45.992555 32013 net.cpp:150] Setting up fc7_conv
I0325 14:23:45.992561 32013 net.cpp:157] Top shape: 64 256 8 32 (4194304)
I0325 14:23:45.992564 32013 net.cpp:165] Memory required for data: 2113929312
I0325 14:23:45.992568 32013 layer_factory.hpp:77] Creating layer relu7
I0325 14:23:45.992571 32013 net.cpp:100] Creating Layer relu7
I0325 14:23:45.992574 32013 net.cpp:434] relu7 <- fc7_conv
I0325 14:23:45.992578 32013 net.cpp:395] relu7 -> fc7_conv (in-place)
I0325 14:23:45.992583 32013 net.cpp:150] Setting up relu7
I0325 14:23:45.992585 32013 net.cpp:157] Top shape: 64 256 8 32 (4194304)
I0325 14:23:45.992588 32013 net.cpp:165] Memory required for data: 2130706528
I0325 14:23:45.992589 32013 layer_factory.hpp:77] Creating layer fc7_conv_relu7_0_split
I0325 14:23:45.992594 32013 net.cpp:100] Creating Layer fc7_conv_relu7_0_split
I0325 14:23:45.992595 32013 net.cpp:434] fc7_conv_relu7_0_split <- fc7_conv
I0325 14:23:45.992599 32013 net.cpp:408] fc7_conv_relu7_0_split -> fc7_conv_relu7_0_split_0
I0325 14:23:45.992602 32013 net.cpp:408] fc7_conv_relu7_0_split -> fc7_conv_relu7_0_split_1
I0325 14:23:45.992606 32013 net.cpp:408] fc7_conv_relu7_0_split -> fc7_conv_relu7_0_split_2
I0325 14:23:45.992640 32013 net.cpp:150] Setting up fc7_conv_relu7_0_split
I0325 14:23:45.992643 32013 net.cpp:157] Top shape: 64 256 8 32 (4194304)
I0325 14:23:45.992646 32013 net.cpp:157] Top shape: 64 256 8 32 (4194304)
I0325 14:23:45.992650 32013 net.cpp:157] Top shape: 64 256 8 32 (4194304)
I0325 14:23:45.992651 32013 net.cpp:165] Memory required for data: 2181038176
I0325 14:23:45.992653 32013 layer_factory.hpp:77] Creating layer conv6_1
I0325 14:23:45.992658 32013 net.cpp:100] Creating Layer conv6_1
I0325 14:23:45.992661 32013 net.cpp:434] conv6_1 <- fc7_conv_relu7_0_split_0
I0325 14:23:45.992666 32013 net.cpp:408] conv6_1 -> conv6_1
I0325 14:23:45.992879 32013 net.cpp:150] Setting up conv6_1
I0325 14:23:45.992884 32013 net.cpp:157] Top shape: 64 32 8 32 (524288)
I0325 14:23:45.992887 32013 net.cpp:165] Memory required for data: 2183135328
I0325 14:23:45.992890 32013 layer_factory.hpp:77] Creating layer conv6_1_relu
I0325 14:23:45.992894 32013 net.cpp:100] Creating Layer conv6_1_relu
I0325 14:23:45.992897 32013 net.cpp:434] conv6_1_relu <- conv6_1
I0325 14:23:45.992900 32013 net.cpp:395] conv6_1_relu -> conv6_1 (in-place)
I0325 14:23:45.992903 32013 net.cpp:150] Setting up conv6_1_relu
I0325 14:23:45.992907 32013 net.cpp:157] Top shape: 64 32 8 32 (524288)
I0325 14:23:45.992909 32013 net.cpp:165] Memory required for data: 2185232480
I0325 14:23:45.992911 32013 layer_factory.hpp:77] Creating layer conv6_2
I0325 14:23:45.992916 32013 net.cpp:100] Creating Layer conv6_2
I0325 14:23:45.992918 32013 net.cpp:434] conv6_2 <- conv6_1
I0325 14:23:45.992923 32013 net.cpp:408] conv6_2 -> conv6_2
I0325 14:23:45.993158 32013 net.cpp:150] Setting up conv6_2
I0325 14:23:45.993162 32013 net.cpp:157] Top shape: 64 64 4 16 (262144)
I0325 14:23:45.993165 32013 net.cpp:165] Memory required for data: 2186281056
I0325 14:23:45.993171 32013 layer_factory.hpp:77] Creating layer conv6_2_relu
I0325 14:23:45.993177 32013 net.cpp:100] Creating Layer conv6_2_relu
I0325 14:23:45.993180 32013 net.cpp:434] conv6_2_relu <- conv6_2
I0325 14:23:45.993185 32013 net.cpp:395] conv6_2_relu -> conv6_2 (in-place)
I0325 14:23:45.993188 32013 net.cpp:150] Setting up conv6_2_relu
I0325 14:23:45.993191 32013 net.cpp:157] Top shape: 64 64 4 16 (262144)
I0325 14:23:45.993193 32013 net.cpp:165] Memory required for data: 2187329632
I0325 14:23:45.993196 32013 layer_factory.hpp:77] Creating layer conv6_2_conv6_2_relu_0_split
I0325 14:23:45.993198 32013 net.cpp:100] Creating Layer conv6_2_conv6_2_relu_0_split
I0325 14:23:45.993201 32013 net.cpp:434] conv6_2_conv6_2_relu_0_split <- conv6_2
I0325 14:23:45.993204 32013 net.cpp:408] conv6_2_conv6_2_relu_0_split -> conv6_2_conv6_2_relu_0_split_0
I0325 14:23:45.993209 32013 net.cpp:408] conv6_2_conv6_2_relu_0_split -> conv6_2_conv6_2_relu_0_split_1
I0325 14:23:45.993213 32013 net.cpp:408] conv6_2_conv6_2_relu_0_split -> conv6_2_conv6_2_relu_0_split_2
I0325 14:23:45.993249 32013 net.cpp:150] Setting up conv6_2_conv6_2_relu_0_split
I0325 14:23:45.993253 32013 net.cpp:157] Top shape: 64 64 4 16 (262144)
I0325 14:23:45.993257 32013 net.cpp:157] Top shape: 64 64 4 16 (262144)
I0325 14:23:45.993259 32013 net.cpp:157] Top shape: 64 64 4 16 (262144)
I0325 14:23:45.993261 32013 net.cpp:165] Memory required for data: 2190475360
I0325 14:23:45.993263 32013 layer_factory.hpp:77] Creating layer conv7_1
I0325 14:23:45.993268 32013 net.cpp:100] Creating Layer conv7_1
I0325 14:23:45.993271 32013 net.cpp:434] conv7_1 <- conv6_2_conv6_2_relu_0_split_0
I0325 14:23:45.993275 32013 net.cpp:408] conv7_1 -> conv7_1
I0325 14:23:45.993460 32013 net.cpp:150] Setting up conv7_1
I0325 14:23:45.993465 32013 net.cpp:157] Top shape: 64 16 4 16 (65536)
I0325 14:23:45.993468 32013 net.cpp:165] Memory required for data: 2190737504
I0325 14:23:45.993471 32013 layer_factory.hpp:77] Creating layer conv7_1_relu
I0325 14:23:45.993474 32013 net.cpp:100] Creating Layer conv7_1_relu
I0325 14:23:45.993477 32013 net.cpp:434] conv7_1_relu <- conv7_1
I0325 14:23:45.993480 32013 net.cpp:395] conv7_1_relu -> conv7_1 (in-place)
I0325 14:23:45.993484 32013 net.cpp:150] Setting up conv7_1_relu
I0325 14:23:45.993487 32013 net.cpp:157] Top shape: 64 16 4 16 (65536)
I0325 14:23:45.993489 32013 net.cpp:165] Memory required for data: 2190999648
I0325 14:23:45.993492 32013 layer_factory.hpp:77] Creating layer conv7_2
I0325 14:23:45.993496 32013 net.cpp:100] Creating Layer conv7_2
I0325 14:23:45.993499 32013 net.cpp:434] conv7_2 <- conv7_1
I0325 14:23:45.993502 32013 net.cpp:408] conv7_2 -> conv7_2
I0325 14:23:45.993700 32013 net.cpp:150] Setting up conv7_2
I0325 14:23:45.993703 32013 net.cpp:157] Top shape: 64 32 2 8 (32768)
I0325 14:23:45.993706 32013 net.cpp:165] Memory required for data: 2191130720
I0325 14:23:45.993710 32013 layer_factory.hpp:77] Creating layer conv7_2_relu
I0325 14:23:45.993713 32013 net.cpp:100] Creating Layer conv7_2_relu
I0325 14:23:45.993716 32013 net.cpp:434] conv7_2_relu <- conv7_2
I0325 14:23:45.993718 32013 net.cpp:395] conv7_2_relu -> conv7_2 (in-place)
I0325 14:23:45.993722 32013 net.cpp:150] Setting up conv7_2_relu
I0325 14:23:45.993726 32013 net.cpp:157] Top shape: 64 32 2 8 (32768)
I0325 14:23:45.993727 32013 net.cpp:165] Memory required for data: 2191261792
I0325 14:23:45.993729 32013 layer_factory.hpp:77] Creating layer conv7_2_conv7_2_relu_0_split
I0325 14:23:45.993732 32013 net.cpp:100] Creating Layer conv7_2_conv7_2_relu_0_split
I0325 14:23:45.993736 32013 net.cpp:434] conv7_2_conv7_2_relu_0_split <- conv7_2
I0325 14:23:45.993738 32013 net.cpp:408] conv7_2_conv7_2_relu_0_split -> conv7_2_conv7_2_relu_0_split_0
I0325 14:23:45.993742 32013 net.cpp:408] conv7_2_conv7_2_relu_0_split -> conv7_2_conv7_2_relu_0_split_1
I0325 14:23:45.993769 32013 net.cpp:150] Setting up conv7_2_conv7_2_relu_0_split
I0325 14:23:45.993773 32013 net.cpp:157] Top shape: 64 32 2 8 (32768)
I0325 14:23:45.993777 32013 net.cpp:157] Top shape: 64 32 2 8 (32768)
I0325 14:23:45.993778 32013 net.cpp:165] Memory required for data: 2191523936
I0325 14:23:45.993782 32013 layer_factory.hpp:77] Creating layer conv4_3_norm
I0325 14:23:45.993787 32013 net.cpp:100] Creating Layer conv4_3_norm
I0325 14:23:45.993789 32013 net.cpp:434] conv4_3_norm <- conv4_3_relu4_3_0_split_1
I0325 14:23:45.993793 32013 net.cpp:408] conv4_3_norm -> conv4_3_norm
I0325 14:23:45.993901 32013 net.cpp:150] Setting up conv4_3_norm
I0325 14:23:45.993906 32013 net.cpp:157] Top shape: 64 128 16 64 (8388608)
I0325 14:23:45.993907 32013 net.cpp:165] Memory required for data: 2225078368
I0325 14:23:45.993911 32013 layer_factory.hpp:77] Creating layer conv4_3_norm_conv4_3_norm_0_split
I0325 14:23:45.993914 32013 net.cpp:100] Creating Layer conv4_3_norm_conv4_3_norm_0_split
I0325 14:23:45.993916 32013 net.cpp:434] conv4_3_norm_conv4_3_norm_0_split <- conv4_3_norm
I0325 14:23:45.993921 32013 net.cpp:408] conv4_3_norm_conv4_3_norm_0_split -> conv4_3_norm_conv4_3_norm_0_split_0
I0325 14:23:45.993924 32013 net.cpp:408] conv4_3_norm_conv4_3_norm_0_split -> conv4_3_norm_conv4_3_norm_0_split_1
I0325 14:23:45.993950 32013 net.cpp:150] Setting up conv4_3_norm_conv4_3_norm_0_split
I0325 14:23:45.993953 32013 net.cpp:157] Top shape: 64 128 16 64 (8388608)
I0325 14:23:45.993957 32013 net.cpp:157] Top shape: 64 128 16 64 (8388608)
I0325 14:23:45.993959 32013 net.cpp:165] Memory required for data: 2292187232
I0325 14:23:45.993962 32013 layer_factory.hpp:77] Creating layer conv4_3_norm_mbox_loc_conf
I0325 14:23:45.993965 32013 net.cpp:100] Creating Layer conv4_3_norm_mbox_loc_conf
I0325 14:23:45.993968 32013 net.cpp:434] conv4_3_norm_mbox_loc_conf <- conv4_3_norm_conv4_3_norm_0_split_0
I0325 14:23:45.993973 32013 net.cpp:408] conv4_3_norm_mbox_loc_conf -> conv4_3_norm_mbox_loc_conf
I0325 14:23:45.994292 32013 net.cpp:150] Setting up conv4_3_norm_mbox_loc_conf
I0325 14:23:45.994297 32013 net.cpp:157] Top shape: 64 36 16 64 (2359296)
I0325 14:23:45.994299 32013 net.cpp:165] Memory required for data: 2301624416
I0325 14:23:45.994303 32013 layer_factory.hpp:77] Creating layer conv4_3_norm_mbox_loc_conf_perm
I0325 14:23:45.994307 32013 net.cpp:100] Creating Layer conv4_3_norm_mbox_loc_conf_perm
I0325 14:23:45.994310 32013 net.cpp:434] conv4_3_norm_mbox_loc_conf_perm <- conv4_3_norm_mbox_loc_conf
I0325 14:23:45.994313 32013 net.cpp:408] conv4_3_norm_mbox_loc_conf_perm -> conv4_3_norm_mbox_loc_conf_perm
I0325 14:23:45.994396 32013 net.cpp:150] Setting up conv4_3_norm_mbox_loc_conf_perm
I0325 14:23:45.994400 32013 net.cpp:157] Top shape: 64 16 64 36 (2359296)
I0325 14:23:45.994403 32013 net.cpp:165] Memory required for data: 2311061600
I0325 14:23:45.994405 32013 layer_factory.hpp:77] Creating layer conv4_3_norm_mbox_loc_perm
I0325 14:23:45.994410 32013 net.cpp:100] Creating Layer conv4_3_norm_mbox_loc_perm
I0325 14:23:45.994412 32013 net.cpp:434] conv4_3_norm_mbox_loc_perm <- conv4_3_norm_mbox_loc_conf_perm
I0325 14:23:45.994417 32013 net.cpp:408] conv4_3_norm_mbox_loc_perm -> conv4_3_norm_mbox_loc_perm
I0325 14:23:45.994421 32013 net.cpp:408] conv4_3_norm_mbox_loc_perm -> conv4_3_norm_mbox_conf_perm
I0325 14:23:45.994448 32013 net.cpp:150] Setting up conv4_3_norm_mbox_loc_perm
I0325 14:23:45.994452 32013 net.cpp:157] Top shape: 64 16 64 24 (1572864)
I0325 14:23:45.994455 32013 net.cpp:157] Top shape: 64 16 64 12 (786432)
I0325 14:23:45.994457 32013 net.cpp:165] Memory required for data: 2320498784
I0325 14:23:45.994460 32013 layer_factory.hpp:77] Creating layer conv4_3_norm_mbox_loc_flat
I0325 14:23:45.994464 32013 net.cpp:100] Creating Layer conv4_3_norm_mbox_loc_flat
I0325 14:23:45.994467 32013 net.cpp:434] conv4_3_norm_mbox_loc_flat <- conv4_3_norm_mbox_loc_perm
I0325 14:23:45.994472 32013 net.cpp:408] conv4_3_norm_mbox_loc_flat -> conv4_3_norm_mbox_loc_flat
I0325 14:23:45.994489 32013 net.cpp:150] Setting up conv4_3_norm_mbox_loc_flat
I0325 14:23:45.994493 32013 net.cpp:157] Top shape: 64 24576 (1572864)
I0325 14:23:45.994495 32013 net.cpp:165] Memory required for data: 2326790240
I0325 14:23:45.994498 32013 layer_factory.hpp:77] Creating layer conv4_3_norm_mbox_conf_flat
I0325 14:23:45.994503 32013 net.cpp:100] Creating Layer conv4_3_norm_mbox_conf_flat
I0325 14:23:45.994505 32013 net.cpp:434] conv4_3_norm_mbox_conf_flat <- conv4_3_norm_mbox_conf_perm
I0325 14:23:45.994509 32013 net.cpp:408] conv4_3_norm_mbox_conf_flat -> conv4_3_norm_mbox_conf_flat
I0325 14:23:45.994527 32013 net.cpp:150] Setting up conv4_3_norm_mbox_conf_flat
I0325 14:23:45.994531 32013 net.cpp:157] Top shape: 64 12288 (786432)
I0325 14:23:45.994534 32013 net.cpp:165] Memory required for data: 2329935968
I0325 14:23:45.994535 32013 layer_factory.hpp:77] Creating layer conv4_3_norm_mbox_priorbox
I0325 14:23:45.994540 32013 net.cpp:100] Creating Layer conv4_3_norm_mbox_priorbox
I0325 14:23:45.994544 32013 net.cpp:434] conv4_3_norm_mbox_priorbox <- conv4_3_norm_conv4_3_norm_0_split_1
I0325 14:23:45.994546 32013 net.cpp:434] conv4_3_norm_mbox_priorbox <- data_data_0_split_1
I0325 14:23:45.994549 32013 net.cpp:408] conv4_3_norm_mbox_priorbox -> conv4_3_norm_mbox_priorbox
I0325 14:23:45.994570 32013 net.cpp:150] Setting up conv4_3_norm_mbox_priorbox
I0325 14:23:45.994573 32013 net.cpp:157] Top shape: 1 2 24576 (49152)
I0325 14:23:45.994575 32013 net.cpp:165] Memory required for data: 2330132576
I0325 14:23:45.994577 32013 layer_factory.hpp:77] Creating layer fc7_conv_mbox_loc_conf
I0325 14:23:45.994585 32013 net.cpp:100] Creating Layer fc7_conv_mbox_loc_conf
I0325 14:23:45.994587 32013 net.cpp:434] fc7_conv_mbox_loc_conf <- fc7_conv_relu7_0_split_1
I0325 14:23:45.994590 32013 net.cpp:408] fc7_conv_mbox_loc_conf -> fc7_conv_mbox_loc_conf
I0325 14:23:45.995034 32013 net.cpp:150] Setting up fc7_conv_mbox_loc_conf
I0325 14:23:45.995038 32013 net.cpp:157] Top shape: 64 36 8 32 (589824)
I0325 14:23:45.995041 32013 net.cpp:165] Memory required for data: 2332491872
I0325 14:23:45.995045 32013 layer_factory.hpp:77] Creating layer fc7_conv_mbox_loc_conf_perm
I0325 14:23:45.995049 32013 net.cpp:100] Creating Layer fc7_conv_mbox_loc_conf_perm
I0325 14:23:45.995052 32013 net.cpp:434] fc7_conv_mbox_loc_conf_perm <- fc7_conv_mbox_loc_conf
I0325 14:23:45.995055 32013 net.cpp:408] fc7_conv_mbox_loc_conf_perm -> fc7_conv_mbox_loc_conf_perm
I0325 14:23:45.995133 32013 net.cpp:150] Setting up fc7_conv_mbox_loc_conf_perm
I0325 14:23:45.995137 32013 net.cpp:157] Top shape: 64 8 32 36 (589824)
I0325 14:23:45.995139 32013 net.cpp:165] Memory required for data: 2334851168
I0325 14:23:45.995142 32013 layer_factory.hpp:77] Creating layer fc7_conv_mbox_loc_perm
I0325 14:23:45.995146 32013 net.cpp:100] Creating Layer fc7_conv_mbox_loc_perm
I0325 14:23:45.995147 32013 net.cpp:434] fc7_conv_mbox_loc_perm <- fc7_conv_mbox_loc_conf_perm
I0325 14:23:45.995151 32013 net.cpp:408] fc7_conv_mbox_loc_perm -> fc7_conv_mbox_loc_perm
I0325 14:23:45.995156 32013 net.cpp:408] fc7_conv_mbox_loc_perm -> fc7_conv_mbox_conf_perm
I0325 14:23:45.995182 32013 net.cpp:150] Setting up fc7_conv_mbox_loc_perm
I0325 14:23:45.995187 32013 net.cpp:157] Top shape: 64 8 32 24 (393216)
I0325 14:23:45.995189 32013 net.cpp:157] Top shape: 64 8 32 12 (196608)
I0325 14:23:45.995192 32013 net.cpp:165] Memory required for data: 2337210464
I0325 14:23:45.995194 32013 layer_factory.hpp:77] Creating layer fc7_conv_mbox_loc_flat
I0325 14:23:45.995198 32013 net.cpp:100] Creating Layer fc7_conv_mbox_loc_flat
I0325 14:23:45.995200 32013 net.cpp:434] fc7_conv_mbox_loc_flat <- fc7_conv_mbox_loc_perm
I0325 14:23:45.995205 32013 net.cpp:408] fc7_conv_mbox_loc_flat -> fc7_conv_mbox_loc_flat
I0325 14:23:45.995223 32013 net.cpp:150] Setting up fc7_conv_mbox_loc_flat
I0325 14:23:45.995227 32013 net.cpp:157] Top shape: 64 6144 (393216)
I0325 14:23:45.995229 32013 net.cpp:165] Memory required for data: 2338783328
I0325 14:23:45.995231 32013 layer_factory.hpp:77] Creating layer fc7_conv_mbox_conf_flat
I0325 14:23:45.995234 32013 net.cpp:100] Creating Layer fc7_conv_mbox_conf_flat
I0325 14:23:45.995237 32013 net.cpp:434] fc7_conv_mbox_conf_flat <- fc7_conv_mbox_conf_perm
I0325 14:23:45.995241 32013 net.cpp:408] fc7_conv_mbox_conf_flat -> fc7_conv_mbox_conf_flat
I0325 14:23:45.995259 32013 net.cpp:150] Setting up fc7_conv_mbox_conf_flat
I0325 14:23:45.995265 32013 net.cpp:157] Top shape: 64 3072 (196608)
I0325 14:23:45.995267 32013 net.cpp:165] Memory required for data: 2339569760
I0325 14:23:45.995270 32013 layer_factory.hpp:77] Creating layer fc7_conv_mbox_priorbox
I0325 14:23:45.995275 32013 net.cpp:100] Creating Layer fc7_conv_mbox_priorbox
I0325 14:23:45.995277 32013 net.cpp:434] fc7_conv_mbox_priorbox <- fc7_conv_relu7_0_split_2
I0325 14:23:45.995280 32013 net.cpp:434] fc7_conv_mbox_priorbox <- data_data_0_split_2
I0325 14:23:45.995285 32013 net.cpp:408] fc7_conv_mbox_priorbox -> fc7_conv_mbox_priorbox
I0325 14:23:45.995302 32013 net.cpp:150] Setting up fc7_conv_mbox_priorbox
I0325 14:23:45.995306 32013 net.cpp:157] Top shape: 1 2 6144 (12288)
I0325 14:23:45.995308 32013 net.cpp:165] Memory required for data: 2339618912
I0325 14:23:45.995311 32013 layer_factory.hpp:77] Creating layer conv6_2_mbox_loc_conf
I0325 14:23:45.995316 32013 net.cpp:100] Creating Layer conv6_2_mbox_loc_conf
I0325 14:23:45.995319 32013 net.cpp:434] conv6_2_mbox_loc_conf <- conv6_2_conv6_2_relu_0_split_1
I0325 14:23:45.995324 32013 net.cpp:408] conv6_2_mbox_loc_conf -> conv6_2_mbox_loc_conf
I0325 14:23:45.995579 32013 net.cpp:150] Setting up conv6_2_mbox_loc_conf
I0325 14:23:45.995584 32013 net.cpp:157] Top shape: 64 36 4 16 (147456)
I0325 14:23:45.995586 32013 net.cpp:165] Memory required for data: 2340208736
I0325 14:23:45.995590 32013 layer_factory.hpp:77] Creating layer conv6_2_mbox_loc_conf_perm
I0325 14:23:45.995594 32013 net.cpp:100] Creating Layer conv6_2_mbox_loc_conf_perm
I0325 14:23:45.995597 32013 net.cpp:434] conv6_2_mbox_loc_conf_perm <- conv6_2_mbox_loc_conf
I0325 14:23:45.995602 32013 net.cpp:408] conv6_2_mbox_loc_conf_perm -> conv6_2_mbox_loc_conf_perm
I0325 14:23:45.995682 32013 net.cpp:150] Setting up conv6_2_mbox_loc_conf_perm
I0325 14:23:45.995687 32013 net.cpp:157] Top shape: 64 4 16 36 (147456)
I0325 14:23:45.995689 32013 net.cpp:165] Memory required for data: 2340798560
I0325 14:23:45.995692 32013 layer_factory.hpp:77] Creating layer conv6_2_mbox_loc_perm
I0325 14:23:45.995695 32013 net.cpp:100] Creating Layer conv6_2_mbox_loc_perm
I0325 14:23:45.995697 32013 net.cpp:434] conv6_2_mbox_loc_perm <- conv6_2_mbox_loc_conf_perm
I0325 14:23:45.995700 32013 net.cpp:408] conv6_2_mbox_loc_perm -> conv6_2_mbox_loc_perm
I0325 14:23:45.995705 32013 net.cpp:408] conv6_2_mbox_loc_perm -> conv6_2_mbox_conf_perm
I0325 14:23:45.995733 32013 net.cpp:150] Setting up conv6_2_mbox_loc_perm
I0325 14:23:45.995736 32013 net.cpp:157] Top shape: 64 4 16 24 (98304)
I0325 14:23:45.995738 32013 net.cpp:157] Top shape: 64 4 16 12 (49152)
I0325 14:23:45.995740 32013 net.cpp:165] Memory required for data: 2341388384
I0325 14:23:45.995743 32013 layer_factory.hpp:77] Creating layer conv6_2_mbox_loc_flat
I0325 14:23:45.995749 32013 net.cpp:100] Creating Layer conv6_2_mbox_loc_flat
I0325 14:23:45.995753 32013 net.cpp:434] conv6_2_mbox_loc_flat <- conv6_2_mbox_loc_perm
I0325 14:23:45.995756 32013 net.cpp:408] conv6_2_mbox_loc_flat -> conv6_2_mbox_loc_flat
I0325 14:23:45.995774 32013 net.cpp:150] Setting up conv6_2_mbox_loc_flat
I0325 14:23:45.995777 32013 net.cpp:157] Top shape: 64 1536 (98304)
I0325 14:23:45.995780 32013 net.cpp:165] Memory required for data: 2341781600
I0325 14:23:45.995782 32013 layer_factory.hpp:77] Creating layer conv6_2_mbox_conf_flat
I0325 14:23:45.995786 32013 net.cpp:100] Creating Layer conv6_2_mbox_conf_flat
I0325 14:23:45.995790 32013 net.cpp:434] conv6_2_mbox_conf_flat <- conv6_2_mbox_conf_perm
I0325 14:23:45.995793 32013 net.cpp:408] conv6_2_mbox_conf_flat -> conv6_2_mbox_conf_flat
I0325 14:23:45.995810 32013 net.cpp:150] Setting up conv6_2_mbox_conf_flat
I0325 14:23:45.995813 32013 net.cpp:157] Top shape: 64 768 (49152)
I0325 14:23:45.995816 32013 net.cpp:165] Memory required for data: 2341978208
I0325 14:23:45.995818 32013 layer_factory.hpp:77] Creating layer conv6_2_mbox_priorbox
I0325 14:23:45.995822 32013 net.cpp:100] Creating Layer conv6_2_mbox_priorbox
I0325 14:23:45.995826 32013 net.cpp:434] conv6_2_mbox_priorbox <- conv6_2_conv6_2_relu_0_split_2
I0325 14:23:45.995831 32013 net.cpp:434] conv6_2_mbox_priorbox <- data_data_0_split_3
I0325 14:23:45.995834 32013 net.cpp:408] conv6_2_mbox_priorbox -> conv6_2_mbox_priorbox
I0325 14:23:45.995852 32013 net.cpp:150] Setting up conv6_2_mbox_priorbox
I0325 14:23:45.995857 32013 net.cpp:157] Top shape: 1 2 1536 (3072)
I0325 14:23:45.995859 32013 net.cpp:165] Memory required for data: 2341990496
I0325 14:23:45.995862 32013 layer_factory.hpp:77] Creating layer conv7_2_mbox_loc_conf
I0325 14:23:45.995867 32013 net.cpp:100] Creating Layer conv7_2_mbox_loc_conf
I0325 14:23:45.995869 32013 net.cpp:434] conv7_2_mbox_loc_conf <- conv7_2_conv7_2_relu_0_split_0
I0325 14:23:45.995873 32013 net.cpp:408] conv7_2_mbox_loc_conf -> conv7_2_mbox_loc_conf
I0325 14:23:45.996099 32013 net.cpp:150] Setting up conv7_2_mbox_loc_conf
I0325 14:23:45.996105 32013 net.cpp:157] Top shape: 64 36 2 8 (36864)
I0325 14:23:45.996107 32013 net.cpp:165] Memory required for data: 2342137952
I0325 14:23:45.996111 32013 layer_factory.hpp:77] Creating layer conv7_2_mbox_loc_conf_perm
I0325 14:23:45.996115 32013 net.cpp:100] Creating Layer conv7_2_mbox_loc_conf_perm
I0325 14:23:45.996119 32013 net.cpp:434] conv7_2_mbox_loc_conf_perm <- conv7_2_mbox_loc_conf
I0325 14:23:45.996122 32013 net.cpp:408] conv7_2_mbox_loc_conf_perm -> conv7_2_mbox_loc_conf_perm
I0325 14:23:45.996206 32013 net.cpp:150] Setting up conv7_2_mbox_loc_conf_perm
I0325 14:23:45.996212 32013 net.cpp:157] Top shape: 64 2 8 36 (36864)
I0325 14:23:45.996213 32013 net.cpp:165] Memory required for data: 2342285408
I0325 14:23:45.996217 32013 layer_factory.hpp:77] Creating layer conv7_2_mbox_loc_perm
I0325 14:23:45.996219 32013 net.cpp:100] Creating Layer conv7_2_mbox_loc_perm
I0325 14:23:45.996222 32013 net.cpp:434] conv7_2_mbox_loc_perm <- conv7_2_mbox_loc_conf_perm
I0325 14:23:45.996225 32013 net.cpp:408] conv7_2_mbox_loc_perm -> conv7_2_mbox_loc_perm
I0325 14:23:45.996229 32013 net.cpp:408] conv7_2_mbox_loc_perm -> conv7_2_mbox_conf_perm
I0325 14:23:45.996256 32013 net.cpp:150] Setting up conv7_2_mbox_loc_perm
I0325 14:23:45.996260 32013 net.cpp:157] Top shape: 64 2 8 24 (24576)
I0325 14:23:45.996263 32013 net.cpp:157] Top shape: 64 2 8 12 (12288)
I0325 14:23:45.996265 32013 net.cpp:165] Memory required for data: 2342432864
I0325 14:23:45.996268 32013 layer_factory.hpp:77] Creating layer conv7_2_mbox_loc_flat
I0325 14:23:45.996270 32013 net.cpp:100] Creating Layer conv7_2_mbox_loc_flat
I0325 14:23:45.996273 32013 net.cpp:434] conv7_2_mbox_loc_flat <- conv7_2_mbox_loc_perm
I0325 14:23:45.996278 32013 net.cpp:408] conv7_2_mbox_loc_flat -> conv7_2_mbox_loc_flat
I0325 14:23:45.996294 32013 net.cpp:150] Setting up conv7_2_mbox_loc_flat
I0325 14:23:45.996299 32013 net.cpp:157] Top shape: 64 384 (24576)
I0325 14:23:45.996300 32013 net.cpp:165] Memory required for data: 2342531168
I0325 14:23:45.996304 32013 layer_factory.hpp:77] Creating layer conv7_2_mbox_conf_flat
I0325 14:23:45.996307 32013 net.cpp:100] Creating Layer conv7_2_mbox_conf_flat
I0325 14:23:45.996309 32013 net.cpp:434] conv7_2_mbox_conf_flat <- conv7_2_mbox_conf_perm
I0325 14:23:45.996314 32013 net.cpp:408] conv7_2_mbox_conf_flat -> conv7_2_mbox_conf_flat
I0325 14:23:45.996330 32013 net.cpp:150] Setting up conv7_2_mbox_conf_flat
I0325 14:23:45.996335 32013 net.cpp:157] Top shape: 64 192 (12288)
I0325 14:23:45.996341 32013 net.cpp:165] Memory required for data: 2342580320
I0325 14:23:45.996345 32013 layer_factory.hpp:77] Creating layer conv7_2_mbox_priorbox
I0325 14:23:45.996348 32013 net.cpp:100] Creating Layer conv7_2_mbox_priorbox
I0325 14:23:45.996351 32013 net.cpp:434] conv7_2_mbox_priorbox <- conv7_2_conv7_2_relu_0_split_1
I0325 14:23:45.996353 32013 net.cpp:434] conv7_2_mbox_priorbox <- data_data_0_split_4
I0325 14:23:45.996357 32013 net.cpp:408] conv7_2_mbox_priorbox -> conv7_2_mbox_priorbox
I0325 14:23:45.996376 32013 net.cpp:150] Setting up conv7_2_mbox_priorbox
I0325 14:23:45.996381 32013 net.cpp:157] Top shape: 1 2 384 (768)
I0325 14:23:45.996382 32013 net.cpp:165] Memory required for data: 2342583392
I0325 14:23:45.996387 32013 layer_factory.hpp:77] Creating layer mbox_loc
I0325 14:23:45.996392 32013 net.cpp:100] Creating Layer mbox_loc
I0325 14:23:45.996394 32013 net.cpp:434] mbox_loc <- conv4_3_norm_mbox_loc_flat
I0325 14:23:45.996397 32013 net.cpp:434] mbox_loc <- fc7_conv_mbox_loc_flat
I0325 14:23:45.996400 32013 net.cpp:434] mbox_loc <- conv6_2_mbox_loc_flat
I0325 14:23:45.996403 32013 net.cpp:434] mbox_loc <- conv7_2_mbox_loc_flat
I0325 14:23:45.996407 32013 net.cpp:408] mbox_loc -> mbox_loc
I0325 14:23:45.996425 32013 net.cpp:150] Setting up mbox_loc
I0325 14:23:45.996428 32013 net.cpp:157] Top shape: 64 32640 (2088960)
I0325 14:23:45.996431 32013 net.cpp:165] Memory required for data: 2350939232
I0325 14:23:45.996433 32013 layer_factory.hpp:77] Creating layer mbox_conf
I0325 14:23:45.996438 32013 net.cpp:100] Creating Layer mbox_conf
I0325 14:23:45.996440 32013 net.cpp:434] mbox_conf <- conv4_3_norm_mbox_conf_flat
I0325 14:23:45.996443 32013 net.cpp:434] mbox_conf <- fc7_conv_mbox_conf_flat
I0325 14:23:45.996446 32013 net.cpp:434] mbox_conf <- conv6_2_mbox_conf_flat
I0325 14:23:45.996449 32013 net.cpp:434] mbox_conf <- conv7_2_mbox_conf_flat
I0325 14:23:45.996453 32013 net.cpp:408] mbox_conf -> mbox_conf
I0325 14:23:45.996469 32013 net.cpp:150] Setting up mbox_conf
I0325 14:23:45.996472 32013 net.cpp:157] Top shape: 64 16320 (1044480)
I0325 14:23:45.996474 32013 net.cpp:165] Memory required for data: 2355117152
I0325 14:23:45.996477 32013 layer_factory.hpp:77] Creating layer mbox_priorbox
I0325 14:23:45.996481 32013 net.cpp:100] Creating Layer mbox_priorbox
I0325 14:23:45.996484 32013 net.cpp:434] mbox_priorbox <- conv4_3_norm_mbox_priorbox
I0325 14:23:45.996486 32013 net.cpp:434] mbox_priorbox <- fc7_conv_mbox_priorbox
I0325 14:23:45.996490 32013 net.cpp:434] mbox_priorbox <- conv6_2_mbox_priorbox
I0325 14:23:45.996492 32013 net.cpp:434] mbox_priorbox <- conv7_2_mbox_priorbox
I0325 14:23:45.996496 32013 net.cpp:408] mbox_priorbox -> mbox_priorbox
I0325 14:23:45.996513 32013 net.cpp:150] Setting up mbox_priorbox
I0325 14:23:45.996517 32013 net.cpp:157] Top shape: 1 2 32640 (65280)
I0325 14:23:45.996520 32013 net.cpp:165] Memory required for data: 2355378272
I0325 14:23:45.996521 32013 layer_factory.hpp:77] Creating layer mbox_loss
I0325 14:23:45.996526 32013 net.cpp:100] Creating Layer mbox_loss
I0325 14:23:45.996529 32013 net.cpp:434] mbox_loss <- mbox_loc
I0325 14:23:45.996532 32013 net.cpp:434] mbox_loss <- mbox_conf
I0325 14:23:45.996536 32013 net.cpp:434] mbox_loss <- mbox_priorbox
…
  name: "data"
  type: "AnnotatedData"
  top: "data"
  top: "label"
  include {
    phase: TEST
  }
  transform_param {
    mean_value: 114
    mean_value: 115
    mean_value: 108
    resize_param {
      prob: 1
      resize_mode: WARP
      height: 128
      width: 512
      interp_mode: LINEAR
    }
  }
  data_param {
    source: "/home/work/qinhuan/git/caffe-ssd/data/test_lmdb"
    batch_size: 8
    backend: LMDB
  }
  annotated_data_param {
    batch_sampler {
    }
    label_map_file: "/home/work/qinhuan/git/caffe-ssd/data/labelmap_all.prototxt"
  }
}
layer {
  name: "conv1_1"
  type: "Convolution"
  bottom: "data"
  top: "conv1_1"
  param {
    lr_mult: 1
    decay_mult: 1
  }
  param {
    lr_mult: 2
    decay_mult: 0
  }
  convolution_param {
    num_output: 16
    pad: 1
    kernel_size: 3
    weight_filler {
      type: "xavier"
    }
    bias_filler {
      type: "constant"
      value: 0
    }
  }
}
layer {
  name: "relu1_1"
  type: "ReLU"
  bottom: "conv1_1"
  top: "conv1_1"
}
layer {
  name: "conv1_2"
  type: "Convolution"
  bottom: "conv1_1"
  top: "conv1_2"
  param {
    lr_mult: 1
    decay_mult: 1
  }
  param {
    lr_mult: 2
    decay_mult: 0
  }
  convolution_param {
    num_output: 16
    pad: 1
    kernel_size: 3
    stride: 2
    weight_filler {
      type: "xavier"
    }
    bias_filler {
      type: "constant"
      value: 0
    }
  }
}
layer {
  name: "relu1_2"
  type: "ReLU"
  bottom: "conv1_2"
  top: "conv1_2"
}
layer {
  name: "conv2_1"
  type: "Convolution"
  bottom: "conv1_2"
  top: "conv2_1"
  param {
    lr_mult: 1
    decay_mult: 1
  }
  param {
    lr_mult: 2
    decay_mult: 0
  }
  convolution_param {
    num_output: 32
    pad: 1
    kernel_size: 3
    weight_filler {
      type: "xavier"
    }
    bias_filler {
      type: "constant"
      value: 0
    }
  }
}
layer {
  name: "relu2_1"
  type: "ReLU"
  bottom: "conv2_1"
  top: "conv2_1"
}
layer {
  name: "conv2_2"
  type: "Convolution"
  bottom: "conv2_1"
  top: "conv2_2"
  param {
    lr_mult: 1
    decay_mult: 1
  }
  param {
    lr_mult: 2
    decay_mult: 0
  }
  convolution_param {
    num_output: 32
    pad: 1
    kernel_size: 3
    stride: 2
    weight_filler {
      type: "xavier"
    }
    bias_filler {
      type: "constant"
      value: 0
    }
  }
}
layer {
  name: "relu2_2"
  type: "ReLU"
  bottom: "conv2_2"
  top: "conv2_2"
}
layer {
  name: "conv3_1"
  type: "Convolution"
  bottom: "conv2_2"
  top: "conv3_1"
  param {
    lr_mult: 1
    decay_mult: 1
  }
  param {
    lr_mult: 2
    decay_mult: 0
  }
  convolution_param {
    num_output: 64
    pad: 1
    kernel_size: 3
    weight_filler {
      type: "xavier"
    }
    bias_filler {
      type: "constant"
      value: 0
    }
  }
}
layer {
  name: "relu3_1"
  type: "ReLU"
  bottom: "conv3_1"
  top: "conv3_1"
}
layer {
  name: "conv3_2"
  type: "Convolution"
  bottom: "conv3_1"
  top: "conv3_2"
  param {
    lr_mult: 1
    decay_mult: 1
  }
  param {
    lr_mult: 2
    decay_mult: 0
  }
  convolution_param {
    num_output: 64
    pad: 1
    kernel_size: 3
    weight_filler {
      type: "xavier"
    }
    bias_filler {
      type: "constant"
      value: 0
    }
  }
}
layer {
  name: "relu3_2"
  type: "ReLU"
  bottom: "conv3_2"
  top: "conv3_2"
}
layer {
  name: "conv3_3"
  type: "Convolution"
  bottom: "conv3_2"
  top: "conv3_3"
  param {
    lr_mult: 1
    decay_mult: 1
  }
  param {
    lr_mult: 2
    decay_mult: 0
  }
  convolution_param {
    num_output: 64
    pad: 1
    kernel_size: 3
    weight_filler {
      type: "xavier"
    }
    bias_filler {
      type: "constant"
      value: 0
    }
  }
}
layer {
  name: "relu3_3"
  type: "ReLU"
  bottom: "conv3_3"
  top: "conv3_3"
}
layer {
  name: "pool3"
  type: "Pooling"
  bottom: "conv3_3"
  top: "pool3"
  pooling_param {
    pool: MAX
    kernel_size: 2
    stride: 2
  }
}
layer {
  name: "conv4_1"
  type: "Convolution"
  bottom: "pool3"
  top: "conv4_1"
  param {
    lr_mult: 1
    decay_mult: 1
  }
  param {
    lr_mult: 2
    decay_mult: 0
  }
  convolution_param {
    num_output: 128
    pad: 1
    kernel_size: 3
    weight_filler {
      type: "xavier"
    }
    bias_filler {
      type: "constant"
      value: 0
    }
  }
}
layer {
  name: "relu4_1"
  type: "ReLU"
  bottom: "conv4_1"
  top: "conv4_1"
}
layer {
  name: "conv4_2"
  type: "Convolution"
  bottom: "conv4_1"
  top: "conv4_2"
  param {
    lr_mult: 1
    decay_mult: 1
  }
  param {
    lr_mult: 2
    decay_mult: 0
  }
  convolution_param {
    num_output: 128
    pad: 1
    kernel_size: 3
    weight_filler {
      type: "xavier"
    }
    bias_filler {
      type: "constant"
      value: 0
    }
  }
}
layer {
  name: "relu4_2"
  type: "ReLU"
  bottom: "conv4_2"
  top: "conv4_2"
}
layer {
  name: "conv4_3"
  type: "Convolution"
  bottom: "conv4_2"
  top: "conv4_3"
  param {
    lr_mult: 1
    decay_mult: 1
  }
  param {
    lr_mult: 2
    decay_mult: 0
  }
  convolution_param {
    num_output: 128
    pad: 1
    kernel_size: 3
    weight_filler {
      type: "xavier"
    }
    bias_filler {
      type: "constant"
      value: 0
    }
  }
}
layer {
  name: "relu4_3"
  type: "ReLU"
  bottom: "conv4_3"
  top: "conv4_3"
}
layer {
  name: "pool4"
  type: "Pooling"
  bottom: "conv4_3"
  top: "pool4"
  pooling_param {
    pool: MAX
    kernel_size: 2
    stride: 2
  }
}
layer {
  name: "conv5_1"
  type: "Convolution"
  bottom: "pool4"
  top: "conv5_1"
  param {
    lr_mult: 1
    decay_mult: 1
  }
  param {
    lr_mult: 2
    decay_mult: 0
  }
  convolution_param {
    num_output: 128
    pad: 1
    kernel_size: 3
    weight_filler {
      type: "xavier"
    }
    bias_filler {
      type: "constant"
      value: 0
    }
    dilation: 1
  }
}
layer {
  name: "relu5_1"
  type: "ReLU"
  bottom: "conv5_1"
  top: "conv5_1"
}
layer {
  name: "conv5_2"
  type: "Convolution"
  bottom: "conv5_1"
  top: "conv5_2"
  param {
    lr_mult: 1
    decay_mult: 1
  }
  param {
    lr_mult: 2
    decay_mult: 0
  }
  convolution_param {
    num_output: 128
    pad: 1
    kernel_size: 3
    weight_filler {
      type: "xavier"
    }
    bias_filler {
      type: "constant"
      value: 0
    }
    dilation: 1
  }
}
layer {
  name: "relu5_2"
  type: "ReLU"
  bottom: "conv5_2"
  top: "conv5_2"
}
layer {
  name: "conv5_3"
  type: "Convolution"
  bottom: "conv5_2"
  top: "conv5_3"
  param {
    lr_mult: 1
    decay_mult: 1
  }
  param {
    lr_mult: 2
    decay_mult: 0
  }
  convolution_param {
    num_output: 128
    pad: 1
    kernel_size: 3
    weight_filler {
      type: "xavier"
    }
    bias_filler {
      type: "constant"
      value: 0
    }
    dilation: 1
  }
}
layer {
  name: "relu5_3"
  type: "ReLU"
  bottom: "conv5_3"
  top: "conv5_3"
}
layer {
  name: "pool5"
  type: "Pooling"
  bottom: "conv5_3"
  top: "pool5"
  pooling_param {
    pool: MAX
    kernel_size: 3
    stride: 1
    pad: 1
  }
}
layer {
  name: "fc6_conv"
  type: "Convolution"
  bottom: "pool5"
  top: "fc6_conv"
  param {
    lr_mult: 1
    decay_mult: 1
  }
  param {
    lr_mult: 2
    decay_mult: 0
  }
  convolution_param {
    num_output: 256
    pad: 6
    kernel_size: 3
    weight_filler {
      type: "xavier"
    }
    bias_filler {
      type: "constant"
      value: 0
    }
    dilation: 6
  }
}
layer {
  name: "relu6"
  type: "ReLU"
  bottom: "fc6_conv"
  top: "fc6_conv"
}
layer {
  name: "fc7_conv"
  type: "Convolution"
  bottom: "fc6_conv"
  top: "fc7_conv"
  param {
    lr_mult: 1
    decay_mult: 1
  }
  param {
    lr_mult: 2
    decay_mult: 0
  }
  convolution_param {
    num_output: 256
    kernel_size: 1
    weight_filler {
      type: "xavier"
    }
    bias_filler {
      type: "constant"
      value: 0
    }
  }
}
layer {
  name: "relu7"
  type: "ReLU"
  bottom: "fc7_conv"
  top: "fc7_conv"
}
layer {
  name: "conv6_1"
  type: "Convolution"
  bottom: "fc7_conv"
  top: "conv6_1"
  param {
    lr_mult: 1
    decay_mult: 1
  }
  param {
    lr_mult: 2
    decay_mult: 0
  }
  convolution_param {
    num_output: 32
    pad: 0
    kernel_size: 1
    stride: 1
    weight_filler {
      type: "xavier"
    }
    bias_filler {
      type: "constant"
      value: 0
    }
  }
}
layer {
  name: "conv6_1_relu"
  type: "ReLU"
  bottom: "conv6_1"
  top: "conv6_1"
}
layer {
  name: "conv6_2"
  type: "Convolution"
  bottom: "conv6_1"
  top: "conv6_2"
  param {
    lr_mult: 1
    decay_mult: 1
  }
  param {
    lr_mult: 2
    decay_mult: 0
  }
  convolution_param {
    num_output: 64
    pad: 1
    kernel_size: 3
    stride: 2
    weight_filler {
      type: "xavier"
    }
    bias_filler {
      type: "constant"
      value: 0
    }
  }
}
layer {
  name: "conv6_2_relu"
  type: "ReLU"
  bottom: "conv6_2"
  top: "conv6_2"
}
layer {
  name: "conv7_1"
  type: "Convolution"
  bottom: "conv6_2"
  top: "conv7_1"
  param {
    lr_mult: 1
    decay_mult: 1
  }
  param {
    lr_mult: 2
    decay_mult: 0
  }
  convolution_param {
    num_output: 16
    pad: 0
    kernel_size: 1
    stride: 1
    weight_filler {
      type: "xavier"
    }
    bias_filler {
      type: "constant"
      value: 0
    }
  }
}
layer {
  name: "conv7_1_relu"
  type: "ReLU"
  bottom: "conv7_1"
  top: "conv7_1"
}
layer {
  name: "conv7_2"
  type: "Convolution"
  bottom: "conv7_1"
  top: "conv7_2"
  param {
    lr_mult: 1
    decay_mult: 1
  }
  param {
    lr_mult: 2
    decay_mult: 0
  }
  convolution_param {
    num_output: 32
    pad: 1
    kernel_size: 3
    stride: 2
    weight_filler {
      type: "xavier"
    }
    bias_filler {
      type: "constant"
      value: 0
    }
  }
}
layer {
  name: "conv7_2_relu"
  type: "ReLU"
  bottom: "conv7_2"
  top: "conv7_2"
}
layer {
  name: "conv4_3_norm"
  type: "Normalize"
  bottom: "conv4_3"
  top: "conv4_3_norm"
  norm_param {
    across_spatial: false
    scale_filler {
      type: "constant"
      value: 20
    }
    channel_shared: false
  }
}
layer {
  name: "conv4_3_norm_mbox_loc_conf"
  type: "Convolution"
  bottom: "conv4_3_norm"
  top: "conv4_3_norm_mbox_loc_conf"
  param {
    lr_mult: 1
    decay_mult: 1
  }
  param {
    lr_mult: 2
    decay_mult: 0
  }
  convolution_param {
    num_output: 36
    pad: 1
    kernel_size: 3
    stride: 1
    weight_filler {
      type: "xavier"
    }
    bias_filler {
      type: "constant"
      value: 0
    }
  }
}
layer {
  name: "conv4_3_norm_mbox_loc_conf_perm"
  type: "Permute"
  bottom: "conv4_3_norm_mbox_loc_conf"
  top: "conv4_3_norm_mbox_loc_conf_perm"
  permute_param {
    order: 0
    order: 2
    order: 3
    order: 1
  }
}
layer {
  name: "conv4_3_norm_mbox_loc_perm"
  type: "Slice"
  bottom: "conv4_3_norm_mbox_loc_conf_perm"
  top: "conv4_3_norm_mbox_loc_perm"
  top: "conv4_3_norm_mbox_conf_perm"
  slice_param {
    slice_point: 24
    axis: 3
  }
}
layer {
  name: "conv4_3_norm_mbox_loc_flat"
  type: "Flatten"
  bottom: "conv4_3_norm_mbox_loc_perm"
  top: "conv4_3_norm_mbox_loc_flat"
  flatten_param {
    axis: 1
  }
}
layer {
  name: "conv4_3_norm_mbox_conf_flat"
  type: "Flatten"
  bottom: "conv4_3_norm_mbox_conf_perm"
  top: "conv4_3_norm_mbox_conf_flat"
  flatten_param {
    axis: 1
  }
}
layer {
  name: "conv4_3_norm_mbox_priorbox"
  type: "PriorBox"
  bottom: "conv4_3_norm"
  bottom: "data"
  top: "conv4_3_norm_mbox_priorbox"
  prior_box_param {
    min_size: 7.68
    max_size: 25.6
    aspect_ratio: 2
    aspect_ratio: 3
    flip: true
    clip: true
    variance: 0.1
    variance: 0.1
    variance: 0.2
    variance: 0.2
    offset: 0.5
  }
}
layer {
  name: "fc7_conv_mbox_loc_conf"
  type: "Convolution"
  bottom: "fc7_conv"
  top: "fc7_conv_mbox_loc_conf"
  param {
    lr_mult: 1
    decay_mult: 1
  }
  param {
    lr_mult: 2
    decay_mult: 0
  }
  convolution_param {
    num_output: 36
    pad: 1
    kernel_size: 3
    stride: 1
    weight_filler {
      type: "xavier"
    }
    bias_filler {
      type: "constant"
      value: 0
    }
  }
}
layer {
  name: "fc7_conv_mbox_loc_conf_perm"
  type: "Permute"
  bottom: "fc7_conv_mbox_loc_conf"
  top: "fc7_conv_mbox_loc_conf_perm"
  permute_param {
    order: 0
    order: 2
    order: 3
    order: 1
  }
}
layer {
  name: "fc7_conv_mbox_loc_perm"
  type: "Slice"
  bottom: "fc7_conv_mbox_loc_conf_perm"
  top: "fc7_conv_mbox_loc_perm"
  top: "fc7_conv_mbox_conf_perm"
  slice_param {
    slice_point: 24
    axis: 3
  }
}
layer {
  name: "fc7_conv_mbox_loc_flat"
  type: "Flatten"
  bottom: "fc7_conv_mbox_loc_perm"
  top: "fc7_conv_mbox_loc_flat"
  flatten_param {
    axis: 1
  }
}
layer {
  name: "fc7_conv_mbox_conf_flat"
  type: "Flatten"
  bottom: "fc7_conv_mbox_conf_perm"
  top: "fc7_conv_mbox_conf_flat"
  flatten_param {
    axis: 1
  }
}
layer {
  name: "fc7_conv_mbox_priorbox"
  type: "PriorBox"
  bottom: "fc7_conv"
  bottom: "data"
  top: "fc7_conv_mbox_priorbox"
  prior_box_param {
    min_size: 25.6
    max_size: 133.12
    aspect_ratio: 2
    aspect_ratio: 3
    flip: true
    clip: true
    variance: 0.1
    variance: 0.1
    variance: 0.2
    variance: 0.2
    offset: 0.5
  }
}
layer {
  name: "conv6_2_mbox_loc_conf"
  type: "Convolution"
  bottom: "conv6_2"
  top: "conv6_2_mbox_loc_conf"
  param {
    lr_mult: 1
    decay_mult: 1
  }
  param {
    lr_mult: 2
    decay_mult: 0
  }
  convolution_param {
    num_output: 36
    pad: 1
    kernel_size: 3
    stride: 1
    weight_filler {
      type: "xavier"
    }
    bias_filler {
      type: "constant"
      value: 0
    }
  }
}
layer {
  name: "conv6_2_mbox_loc_conf_perm"
  type: "Permute"
  bottom: "conv6_2_mbox_loc_conf"
  top: "conv6_2_mbox_loc_conf_perm"
  permute_param {
    order: 0
    order: 2
    order: 3
    order: 1
  }
}
layer {
  name: "conv6_2_mbox_loc_perm"
  type: "Slice"
  bottom: "conv6_2_mbox_loc_conf_perm"
  top: "conv6_2_mbox_loc_perm"
  top: "conv6_2_mbox_conf_perm"
  slice_param {
    slice_point: 24
    axis: 3
  }
}
layer {
  name: "conv6_2_mbox_loc_flat"
  type: "Flatten"
  bottom: "conv6_2_mbox_loc_perm"
  top: "conv6_2_mbox_loc_flat"
  flatten_param {
    axis: 1
  }
}
layer {
  name: "conv6_2_mbox_conf_flat"
  type: "Flatten"
  bottom: "conv6_2_mbox_conf_perm"
  top: "conv6_2_mbox_conf_flat"
  flatten_param {
    axis: 1
  }
}
layer {
  name: "conv6_2_mbox_priorbox"
  type: "PriorBox"
  bottom: "conv6_2"
  bottom: "data"
  top: "conv6_2_mbox_priorbox"
  prior_box_param {
    min_size: 133.12
    max_size: 240.64
    aspect_ratio: 2
    aspect_ratio: 3
    flip: true
    clip: true
    variance: 0.1
    variance: 0.1
    variance: 0.2
    variance: 0.2
    offset: 0.5
  }
}
layer {
  name: "conv7_2_mbox_loc_conf"
  type: "Convolution"
  bottom: "conv7_2"
  top: "conv7_2_mbox_loc_conf"
  param {
    lr_mult: 1
    decay_mult: 1
  }
  param {
    lr_mult: 2
    decay_mult: 0
  }
  convolution_param {
    num_output: 36
    pad: 1
    kernel_size: 3
    stride: 1
    weight_filler {
      type: "xavier"
    }
    bias_filler {
      type: "constant"
      value: 0
    }
  }
}
layer {
  name: "conv7_2_mbox_loc_conf_perm"
  type: "Permute"
  bottom: "conv7_2_mbox_loc_conf"
  top: "conv7_2_mbox_loc_conf_perm"
  permute_param {
    order: 0
    order: 2
    order: 3
    order: 1
  }
}
layer {
  name: "conv7_2_mbox_loc_perm"
  type: "Slice"
  bottom: "conv7_2_mbox_loc_conf_perm"
  top: "conv7_2_mbox_loc_perm"
  top: "conv7_2_mbox_conf_perm"
  slice_param {
    slice_point: 24
    axis: 3
  }
}
layer {
  name: "conv7_2_mbox_loc_flat"
  type: "Flatten"
  bottom: "conv7_2_mbox_loc_perm"
  top: "conv7_2_mbox_loc_flat"
  flatten_param {
    axis: 1
  }
}
layer {
  name: "conv7_2_mbox_conf_flat"
  type: "Flatten"
  bottom: "conv7_2_mbox_conf_perm"
  top: "conv7_2_mbox_conf_flat"
  flatten_param {
    axis: 1
  }
}
layer {
  name: "conv7_2_mbox_priorbox"
  type: "PriorBox"
  bottom: "conv7_2"
  bottom: "data"
  top: "conv7_2_mbox_priorbox"
  prior_box_param {
    min_size: 240.64
    max_size: 348.16
    aspect_ratio: 2
    aspect_ratio: 3
    flip: true
    clip: true
    variance: 0.1
    variance: 0.1
    variance: 0.2
    variance: 0.2
    offset: 0.5
  }
}
layer {
  name: "mbox_loc"
  type: "Concat"
  bottom: "conv4_3_norm_mbox_loc_flat"
  bottom: "fc7_conv_mbox_loc_flat"
  bottom: "conv6_2_mbox_loc_flat"
  bottom: "conv7_2_mbox_loc_flat"
  top: "mbox_loc"
  concat_param {
    axis: 1
  }
}
layer {
  name: "mbox_conf"
  type: "Concat"
  bottom: "conv4_3_norm_mbox_conf_flat"
  bottom: "fc7_conv_mbox_conf_flat"
  bottom: "conv6_2_mbox_conf_flat"
  bottom: "conv7_2_mbox_conf_flat"
  top: "mbox_conf"
  concat_param {
    axis: 1
  }
}
layer {
  name: "mbox_priorbox"
  type: "Concat"
  bottom: "conv4_3_norm_mbox_priorbox"
  bottom: "fc7_conv_mbox_priorbox"
  bottom: "conv6_2_mbox_priorbox"
  bottom: "conv7_2_mbox_priorbox"
  top: "mbox_priorbox"
  concat_param {
    axis: 2
  }
}
layer {
  name: "mbox_conf_reshape"
  type: "Reshape"
  bottom: "mbox_conf"
  top: "mbox_conf_reshape"
  reshape_param {
    shape {
      dim: 0
      dim: -1
      dim: 2
    }
  }
}
layer {
  name: "mbox_conf_softmax"
  type: "Softmax"
  bottom: "mbox_conf_reshape"
  top: "mbox_conf_softmax"
  softmax_param {
    axis: 2
  }
}
layer {
  name: "mbox_conf_flatten"
  type: "Flatten"
  bottom: "mbox_conf_softmax"
  top: "mbox_conf_flatten"
  flatten_param {
    axis: 1
  }
}
layer {
  name: "detection_out"
  type: "DetectionOutput"
  bottom: "mbox_loc"
  bottom: "mbox_conf_flatten"
  bottom: "mbox_priorbox"
  top: "detection_out"
  include {
    phase: TEST
  }
  detection_output_param {
    num_classes: 2
    share_location: true
    background_label_id: 0
    nms_param {
      nms_threshold: 0.3
      top_k: 200
    }
    save_output_param {
      output_directory: "jobs/ssd/TrafficLight_128x512_vgg16-channel16-nopooling12_baseline__cutoff_sample/output"
      output_name_prefix: "det_test_"
      output_format: "VOC"
      label_map_file: "/home/work/qinhuan/git/caffe-ssd/data/labelmap_all.prototxt"
      name_size_file: "/home/work/qinhuan/git/caffe-ssd/data/test_name_size.txt"
      num_test_image: 1442
    }
    code_type: CENTER_SIZE
    keep_top_k: 100
    confidence_threshold: 0.01
  }
}
layer {
  name: "detection_eval"
  type: "DetectionEvaluate"
  bottom: "detection_out"
  bottom: "label"
  top: "detection_eval"
  include {
    phase: TEST
  }
  detection_evaluate_param {
    num_classes: 2
    background_label_id: 0
    overlap_threshold: 0.5
    evaluate_difficult_gt: false
    name_size_file: "/home/work/qinhuan/git/caffe-ssd/data/test_name_size.txt"
  }
}
I0325 14:23:45.998472 32013 layer_factory.hpp:77] Creating layer data
I0325 14:23:45.998513 32013 net.cpp:100] Creating Layer data
I0325 14:23:45.998519 32013 net.cpp:408] data -> data
I0325 14:23:45.998527 32013 net.cpp:408] data -> label
I0325 14:23:45.999303 32041 db_lmdb.cpp:35] Opened lmdb /home/work/qinhuan/git/caffe-ssd/data/test_lmdb
I0325 14:23:46.009853 32013 annotated_data_layer.cpp:62] output data size: 8,3,128,512
I0325 14:23:46.022151 32013 net.cpp:150] Setting up data
I0325 14:23:46.022173 32013 net.cpp:157] Top shape: 8 3 128 512 (1572864)
I0325 14:23:46.022178 32013 net.cpp:157] Top shape: 1 1 8 8 (64)
I0325 14:23:46.022181 32013 net.cpp:165] Memory required for data: 6291712
I0325 14:23:46.022186 32013 layer_factory.hpp:77] Creating layer data_data_0_split
I0325 14:23:46.022193 32013 net.cpp:100] Creating Layer data_data_0_split
I0325 14:23:46.022197 32013 net.cpp:434] data_data_0_split <- data
I0325 14:23:46.022202 32013 net.cpp:408] data_data_0_split -> data_data_0_split_0
I0325 14:23:46.022208 32013 net.cpp:408] data_data_0_split -> data_data_0_split_1
I0325 14:23:46.022212 32013 net.cpp:408] data_data_0_split -> data_data_0_split_2
I0325 14:23:46.022217 32013 net.cpp:408] data_data_0_split -> data_data_0_split_3
I0325 14:23:46.022220 32013 net.cpp:408] data_data_0_split -> data_data_0_split_4
I0325 14:23:46.022320 32013 net.cpp:150] Setting up data_data_0_split
I0325 14:23:46.022326 32013 net.cpp:157] Top shape: 8 3 128 512 (1572864)
I0325 14:23:46.022330 32013 net.cpp:157] Top shape: 8 3 128 512 (1572864)
I0325 14:23:46.022333 32013 net.cpp:157] Top shape: 8 3 128 512 (1572864)
I0325 14:23:46.022336 32013 net.cpp:157] Top shape: 8 3 128 512 (1572864)
I0325 14:23:46.022338 32013 net.cpp:157] Top shape: 8 3 128 512 (1572864)
I0325 14:23:46.022341 32013 net.cpp:165] Memory required for data: 37748992
I0325 14:23:46.022343 32013 layer_factory.hpp:77] Creating layer conv1_1
I0325 14:23:46.022351 32013 net.cpp:100] Creating Layer conv1_1
I0325 14:23:46.022354 32013 net.cpp:434] conv1_1 <- data_data_0_split_0
I0325 14:23:46.022358 32013 net.cpp:408] conv1_1 -> conv1_1
I0325 14:23:46.022608 32013 net.cpp:150] Setting up conv1_1
I0325 14:23:46.022614 32013 net.cpp:157] Top shape: 8 16 128 512 (8388608)
I0325 14:23:46.022615 32013 net.cpp:165] Memory required for data: 71303424
I0325 14:23:46.022622 32013 layer_factory.hpp:77] Creating layer relu1_1
I0325 14:23:46.022626 32013 net.cpp:100] Creating Layer relu1_1
I0325 14:23:46.022629 32013 net.cpp:434] relu1_1 <- conv1_1
I0325 14:23:46.022632 32013 net.cpp:395] relu1_1 -> conv1_1 (in-place)
I0325 14:23:46.022636 32013 net.cpp:150] Setting up relu1_1
I0325 14:23:46.022639 32013 net.cpp:157] Top shape: 8 16 128 512 (8388608)
I0325 14:23:46.022642 32013 net.cpp:165] Memory required for data: 104857856
I0325 14:23:46.022644 32013 layer_factory.hpp:77] Creating layer conv1_2
I0325 14:23:46.022650 32013 net.cpp:100] Creating Layer conv1_2
I0325 14:23:46.022652 32013 net.cpp:434] conv1_2 <- conv1_1
I0325 14:23:46.022656 32013 net.cpp:408] conv1_2 -> conv1_2
I0325 14:23:46.022873 32013 net.cpp:150] Setting up conv1_2
I0325 14:23:46.022878 32013 net.cpp:157] Top shape: 8 16 64 256 (2097152)
I0325 14:23:46.022881 32013 net.cpp:165] Memory required for data: 113246464
I0325 14:23:46.022886 32013 layer_factory.hpp:77] Creating layer relu1_2
I0325 14:23:46.022889 32013 net.cpp:100] Creating Layer relu1_2
I0325 14:23:46.022892 32013 net.cpp:434] relu1_2 <- conv1_2
I0325 14:23:46.022896 32013 net.cpp:395] relu1_2 -> conv1_2 (in-place)
I0325 14:23:46.022899 32013 net.cpp:150] Setting up relu1_2
I0325 14:23:46.022902 32013 net.cpp:157] Top shape: 8 16 64 256 (2097152)
I0325 14:23:46.022904 32013 net.cpp:165] Memory required for data: 121635072
I0325 14:23:46.022907 32013 layer_factory.hpp:77] Creating layer conv2_1
I0325 14:23:46.022912 32013 net.cpp:100] Creating Layer conv2_1
I0325 14:23:46.022914 32013 net.cpp:434] conv2_1 <- conv1_2
I0325 14:23:46.022918 32013 net.cpp:408] conv2_1 -> conv2_1
I0325 14:23:46.023180 32013 net.cpp:150] Setting up conv2_1
I0325 14:23:46.023185 32013 net.cpp:157] Top shape: 8 32 64 256 (4194304)
I0325 14:23:46.023193 32013 net.cpp:165] Memory required for data: 138412288
I0325 14:23:46.023198 32013 layer_factory.hpp:77] Creating layer relu2_1
I0325 14:23:46.023202 32013 net.cpp:100] Creating Layer relu2_1
I0325 14:23:46.023205 32013 net.cpp:434] relu2_1 <- conv2_1
I0325 14:23:46.023207 32013 net.cpp:395] relu2_1 -> conv2_1 (in-place)
I0325 14:23:46.023211 32013 net.cpp:150] Setting up relu2_1
I0325 14:23:46.023214 32013 net.cpp:157] Top shape: 8 32 64 256 (4194304)
I0325 14:23:46.023216 32013 net.cpp:165] Memory required for data: 155189504
I0325 14:23:46.023219 32013 layer_factory.hpp:77] Creating layer conv2_2
I0325 14:23:46.023224 32013 net.cpp:100] Creating Layer conv2_2
I0325 14:23:46.023227 32013 net.cpp:434] conv2_2 <- conv2_1
I0325 14:23:46.023231 32013 net.cpp:408] conv2_2 -> conv2_2
I0325 14:23:46.023452 32013 net.cpp:150] Setting up conv2_2
I0325 14:23:46.023455 32013 net.cpp:157] Top shape: 8 32 32 128 (1048576)
I0325 14:23:46.023458 32013 net.cpp:165] Memory required for data: 159383808
I0325 14:23:46.023463 32013 layer_factory.hpp:77] Creating layer relu2_2
I0325 14:23:46.023465 32013 net.cpp:100] Creating Layer relu2_2
I0325 14:23:46.023468 32013 net.cpp:434] relu2_2 <- conv2_2
I0325 14:23:46.023471 32013 net.cpp:395] relu2_2 -> conv2_2 (in-place)
I0325 14:23:46.023474 32013 net.cpp:150] Setting up relu2_2
I0325 14:23:46.023478 32013 net.cpp:157] Top shape: 8 32 32 128 (1048576)
I0325 14:23:46.023480 32013 net.cpp:165] Memory required for data: 163578112
I0325 14:23:46.023483 32013 layer_factory.hpp:77] Creating layer conv3_1
I0325 14:23:46.023488 32013 net.cpp:100] Creating Layer conv3_1
I0325 14:23:46.023489 32013 net.cpp:434] conv3_1 <- conv2_2
I0325 14:23:46.023493 32013 net.cpp:408] conv3_1 -> conv3_1
I0325 14:23:46.023742 32013 net.cpp:150] Setting up conv3_1
I0325 14:23:46.023747 32013 net.cpp:157] Top shape: 8 64 32 128 (2097152)
I0325 14:23:46.023749 32013 net.cpp:165] Memory required for data: 171966720
I0325 14:23:46.023754 32013 layer_factory.hpp:77] Creating layer relu3_1
I0325 14:23:46.023757 32013 net.cpp:100] Creating Layer relu3_1
I0325 14:23:46.023761 32013 net.cpp:434] relu3_1 <- conv3_1
I0325 14:23:46.023763 32013 net.cpp:395] relu3_1 -> conv3_1 (in-place)
I0325 14:23:46.023767 32013 net.cpp:150] Setting up relu3_1
I0325 14:23:46.023771 32013 net.cpp:157] Top shape: 8 64 32 128 (2097152)
I0325 14:23:46.023772 32013 net.cpp:165] Memory required for data: 180355328
I0325 14:23:46.023774 32013 layer_factory.hpp:77] Creating layer conv3_2
I0325 14:23:46.023779 32013 net.cpp:100] Creating Layer conv3_2
I0325 14:23:46.023782 32013 net.cpp:434] conv3_2 <- conv3_1
I0325 14:23:46.023785 32013 net.cpp:408] conv3_2 -> conv3_2
I0325 14:23:46.024096 32013 net.cpp:150] Setting up conv3_2
I0325 14:23:46.024101 32013 net.cpp:157] Top shape: 8 64 32 128 (2097152)
I0325 14:23:46.024102 32013 net.cpp:165] Memory required for data: 188743936
I0325 14:23:46.024106 32013 layer_factory.hpp:77] Creating layer relu3_2
I0325 14:23:46.024109 32013 net.cpp:100] Creating Layer relu3_2
I0325 14:23:46.024112 32013 net.cpp:434] relu3_2 <- conv3_2
I0325 14:23:46.024116 32013 net.cpp:395] relu3_2 -> conv3_2 (in-place)
I0325 14:23:46.024118 32013 net.cpp:150] Setting up relu3_2
I0325 14:23:46.024121 32013 net.cpp:157] Top shape: 8 64 32 128 (2097152)
I0325 14:23:46.024124 32013 net.cpp:165] Memory required for data: 197132544
I0325 14:23:46.024127 32013 layer_factory.hpp:77] Creating layer conv3_3
I0325 14:23:46.024132 32013 net.cpp:100] Creating Layer conv3_3
I0325 14:23:46.024133 32013 net.cpp:434] conv3_3 <- conv3_2
I0325 14:23:46.024137 32013 net.cpp:408] conv3_3 -> conv3_3
I0325 14:23:46.024454 32013 net.cpp:150] Setting up conv3_3
I0325 14:23:46.024461 32013 net.cpp:157] Top shape: 8 64 32 128 (2097152)
I0325 14:23:46.024462 32013 net.cpp:165] Memory required for data: 205521152
I0325 14:23:46.024466 32013 layer_factory.hpp:77] Creating layer relu3_3
I0325 14:23:46.024469 32013 net.cpp:100] Creating Layer relu3_3
I0325 14:23:46.024472 32013 net.cpp:434] relu3_3 <- conv3_3
I0325 14:23:46.024478 32013 net.cpp:395] relu3_3 -> conv3_3 (in-place)
I0325 14:23:46.024482 32013 net.cpp:150] Setting up relu3_3
I0325 14:23:46.024485 32013 net.cpp:157] Top shape: 8 64 32 128 (2097152)
I0325 14:23:46.024487 32013 net.cpp:165] Memory required for data: 213909760
I0325 14:23:46.024490 32013 layer_factory.hpp:77] Creating layer pool3
I0325 14:23:46.024495 32013 net.cpp:100] Creating Layer pool3
I0325 14:23:46.024497 32013 net.cpp:434] pool3 <- conv3_3
I0325 14:23:46.024500 32013 net.cpp:408] pool3 -> pool3
I0325 14:23:46.024531 32013 net.cpp:150] Setting up pool3
I0325 14:23:46.024535 32013 net.cpp:157] Top shape: 8 64 16 64 (524288)
I0325 14:23:46.024538 32013 net.cpp:165] Memory required for data: 216006912
I0325 14:23:46.024539 32013 layer_factory.hpp:77] Creating layer conv4_1
I0325 14:23:46.024544 32013 net.cpp:100] Creating Layer conv4_1
I0325 14:23:46.024546 32013 net.cpp:434] conv4_1 <- pool3
I0325 14:23:46.024550 32013 net.cpp:408] conv4_1 -> conv4_1
I0325 14:23:46.024976 32013 net.cpp:150] Setting up conv4_1
I0325 14:23:46.024981 32013 net.cpp:157] Top shape: 8 128 16 64 (1048576)
I0325 14:23:46.024983 32013 net.cpp:165] Memory required for data: 220201216
I0325 14:23:46.024986 32013 layer_factory.hpp:77] Creating layer relu4_1
I0325 14:23:46.024989 32013 net.cpp:100] Creating Layer relu4_1
I0325 14:23:46.024992 32013 net.cpp:434] relu4_1 <- conv4_1
I0325 14:23:46.024996 32013 net.cpp:395] relu4_1 -> conv4_1 (in-place)
I0325 14:23:46.024999 32013 net.cpp:150] Setting up relu4_1
I0325 14:23:46.025002 32013 net.cpp:157] Top shape: 8 128 16 64 (1048576)
I0325 14:23:46.025004 32013 net.cpp:165] Memory required for data: 224395520
I0325 14:23:46.025007 32013 layer_factory.hpp:77] Creating layer conv4_2
I0325 14:23:46.025010 32013 net.cpp:100] Creating Layer conv4_2
I0325 14:23:46.025013 32013 net.cpp:434] conv4_2 <- conv4_1
I0325 14:23:46.025017 32013 net.cpp:408] conv4_2 -> conv4_2
I0325 14:23:46.025671 32013 net.cpp:150] Setting up conv4_2
I0325 14:23:46.025676 32013 net.cpp:157] Top shape: 8 128 16 64 (1048576)
I0325 14:23:46.025678 32013 net.cpp:165] Memory required for data: 228589824
I0325 14:23:46.025683 32013 layer_factory.hpp:77] Creating layer relu4_2
I0325 14:23:46.025687 32013 net.cpp:100] Creating Layer relu4_2
I0325 14:23:46.025689 32013 net.cpp:434] relu4_2 <- conv4_2
I0325 14:23:46.025692 32013 net.cpp:395] relu4_2 -> conv4_2 (in-place)
I0325 14:23:46.025696 32013 net.cpp:150] Setting up relu4_2
I0325 14:23:46.025699 32013 net.cpp:157] Top shape: 8 128 16 64 (1048576)
I0325 14:23:46.025701 32013 net.cpp:165] Memory required for data: 232784128
I0325 14:23:46.025703 32013 layer_factory.hpp:77] Creating layer conv4_3
I0325 14:23:46.025708 32013 net.cpp:100] Creating Layer conv4_3
I0325 14:23:46.025710 32013 net.cpp:434] conv4_3 <- conv4_2
I0325 14:23:46.025714 32013 net.cpp:408] conv4_3 -> conv4_3
I0325 14:23:46.027103 32013 net.cpp:150] Setting up conv4_3
I0325 14:23:46.027113 32013 net.cpp:157] Top shape: 8 128 16 64 (1048576)
I0325 14:23:46.027117 32013 net.cpp:165] Memory required for data: 236978432
I0325 14:23:46.027120 32013 layer_factory.hpp:77] Creating layer relu4_3
I0325 14:23:46.027124 32013 net.cpp:100] Creating Layer relu4_3
I0325 14:23:46.027127 32013 net.cpp:434] relu4_3 <- conv4_3
I0325 14:23:46.027130 32013 net.cpp:395] relu4_3 -> conv4_3 (in-place)
I0325 14:23:46.027135 32013 net.cpp:150] Setting up relu4_3
I0325 14:23:46.027138 32013 net.cpp:157] Top shape: 8 128 16 64 (1048576)
I0325 14:23:46.027140 32013 net.cpp:165] Memory required for data: 241172736
I0325 14:23:46.027143 32013 layer_factory.hpp:77] Creating layer conv4_3_relu4_3_0_split
I0325 14:23:46.027146 32013 net.cpp:100] Creating Layer conv4_3_relu4_3_0_split
I0325 14:23:46.027148 32013 net.cpp:434] conv4_3_relu4_3_0_split <- conv4_3
I0325 14:23:46.027153 32013 net.cpp:408] conv4_3_relu4_3_0_split -> conv4_3_relu4_3_0_split_0
I0325 14:23:46.027156 32013 net.cpp:408] conv4_3_relu4_3_0_split -> conv4_3_relu4_3_0_split_1
I0325 14:23:46.027185 32013 net.cpp:150] Setting up conv4_3_relu4_3_0_split
I0325 14:23:46.027194 32013 net.cpp:157] Top shape: 8 128 16 64 (1048576)
I0325 14:23:46.027196 32013 net.cpp:157] Top shape: 8 128 16 64 (1048576)
I0325 14:23:46.027199 32013 net.cpp:165] Memory required for data: 249561344
I0325 14:23:46.027201 32013 layer_factory.hpp:77] Creating layer pool4
I0325 14:23:46.027205 32013 net.cpp:100] Creating Layer pool4
I0325 14:23:46.027207 32013 net.cpp:434] pool4 <- conv4_3_relu4_3_0_split_0
I0325 14:23:46.027211 32013 net.cpp:408] pool4 -> pool4
I0325 14:23:46.027240 32013 net.cpp:150] Setting up pool4
I0325 14:23:46.027243 32013 net.cpp:157] Top shape: 8 128 8 32 (262144)
I0325 14:23:46.027246 32013 net.cpp:165] Memory required for data: 250609920
I0325 14:23:46.027248 32013 layer_factory.hpp:77] Creating layer conv5_1
I0325 14:23:46.027253 32013 net.cpp:100] Creating Layer conv5_1
I0325 14:23:46.027256 32013 net.cpp:434] conv5_1 <- pool4
I0325 14:23:46.027261 32013 net.cpp:408] conv5_1 -> conv5_1
I0325 14:23:46.027894 32013 net.cpp:150] Setting up conv5_1
I0325 14:23:46.027899 32013 net.cpp:157] Top shape: 8 128 8 32 (262144)
I0325 14:23:46.027902 32013 net.cpp:165] Memory required for data: 251658496
I0325 14:23:46.027905 32013 layer_factory.hpp:77] Creating layer relu5_1
I0325 14:23:46.027909 32013 net.cpp:100] Creating Layer relu5_1
I0325 14:23:46.027911 32013 net.cpp:434] relu5_1 <- conv5_1
I0325 14:23:46.027915 32013 net.cpp:395] relu5_1 -> conv5_1 (in-place)
I0325 14:23:46.027918 32013 net.cpp:150] Setting up relu5_1
I0325 14:23:46.027921 32013 net.cpp:157] Top shape: 8 128 8 32 (262144)
I0325 14:23:46.027925 32013 net.cpp:165] Memory required for data: 252707072
I0325 14:23:46.027926 32013 layer_factory.hpp:77] Creating layer conv5_2
I0325 14:23:46.027931 32013 net.cpp:100] Creating Layer conv5_2
I0325 14:23:46.027933 32013 net.cpp:434] conv5_2 <- conv5_1
I0325 14:23:46.027937 32013 net.cpp:408] conv5_2 -> conv5_2
I0325 14:23:46.028581 32013 net.cpp:150] Setting up conv5_2
I0325 14:23:46.028587 32013 net.cpp:157] Top shape: 8 128 8 32 (262144)
I0325 14:23:46.028590 32013 net.cpp:165] Memory required for data: 253755648
I0325 14:23:46.028594 32013 layer_factory.hpp:77] Creating layer relu5_2
I0325 14:23:46.028599 32013 net.cpp:100] Creating Layer relu5_2
I0325 14:23:46.028601 32013 net.cpp:434] relu5_2 <- conv5_2
I0325 14:23:46.028604 32013 net.cpp:395] relu5_2 -> conv5_2 (in-place)
I0325 14:23:46.028609 32013 net.cpp:150] Setting up relu5_2
I0325 14:23:46.028611 32013 net.cpp:157] Top shape: 8 128 8 32 (262144)
I0325 14:23:46.028614 32013 net.cpp:165] Memory required for data: 254804224
I0325 14:23:46.028616 32013 layer_factory.hpp:77] Creating layer conv5_3
I0325 14:23:46.028621 32013 net.cpp:100] Creating Layer conv5_3
I0325 14:23:46.028623 32013 net.cpp:434] conv5_3 <- conv5_2
I0325 14:23:46.028627 32013 net.cpp:408] conv5_3 -> conv5_3
I0325 14:23:46.030027 32013 net.cpp:150] Setting up conv5_3
I0325 14:23:46.030038 32013 net.cpp:157] Top shape: 8 128 8 32 (262144)
I0325 14:23:46.030041 32013 net.cpp:165] Memory required for data: 255852800
I0325 14:23:46.030046 32013 layer_factory.hpp:77] Creating layer relu5_3
I0325 14:23:46.030051 32013 net.cpp:100] Creating Layer relu5_3
I0325 14:23:46.030055 32013 net.cpp:434] relu5_3 <- conv5_3
I0325 14:23:46.030057 32013 net.cpp:395] relu5_3 -> conv5_3 (in-place)
I0325 14:23:46.030062 32013 net.cpp:150] Setting up relu5_3
I0325 14:23:46.030066 32013 net.cpp:157] Top shape: 8 128 8 32 (262144)
I0325 14:23:46.030067 32013 net.cpp:165] Memory required for data: 256901376
I0325 14:23:46.030069 32013 layer_factory.hpp:77] Creating layer pool5
I0325 14:23:46.030074 32013 net.cpp:100] Creating Layer pool5
I0325 14:23:46.030076 32013 net.cpp:434] pool5 <- conv5_3
I0325 14:23:46.030079 32013 net.cpp:408] pool5 -> pool5
I0325 14:23:46.030107 32013 net.cpp:150] Setting up pool5
I0325 14:23:46.030110 32013 net.cpp:157] Top shape: 8 128 8 32 (262144)
I0325 14:23:46.030112 32013 net.cpp:165] Memory required for data: 257949952
I0325 14:23:46.030115 32013 layer_factory.hpp:77] Creating layer fc6_conv
I0325 14:23:46.030123 32013 net.cpp:100] Creating Layer fc6_conv
I0325 14:23:46.030129 32013 net.cpp:434] fc6_conv <- pool5
I0325 14:23:46.030133 32013 net.cpp:408] fc6_conv -> fc6_conv
I0325 14:23:46.031220 32013 net.cpp:150] Setting up fc6_conv
I0325 14:23:46.031226 32013 net.cpp:157] Top shape: 8 256 8 32 (524288)
I0325 14:23:46.031229 32013 net.cpp:165] Memory required for data: 260047104
I0325 14:23:46.031232 32013 layer_factory.hpp:77] Creating layer relu6
I0325 14:23:46.031235 32013 net.cpp:100] Creating Layer relu6
I0325 14:23:46.031239 32013 net.cpp:434] relu6 <- fc6_conv
I0325 14:23:46.031241 32013 net.cpp:395] relu6 -> fc6_conv (in-place)
I0325 14:23:46.031245 32013 net.cpp:150] Setting up relu6
I0325 14:23:46.031249 32013 net.cpp:157] Top shape: 8 256 8 32 (524288)
I0325 14:23:46.031250 32013 net.cpp:165] Memory required for data: 262144256
I0325 14:23:46.031252 32013 layer_factory.hpp:77] Creating layer fc7_conv
I0325 14:23:46.031257 32013 net.cpp:100] Creating Layer fc7_conv
I0325 14:23:46.031260 32013 net.cpp:434] fc7_conv <- fc6_conv
I0325 14:23:46.031263 32013 net.cpp:408] fc7_conv -> fc7_conv
I0325 14:23:46.032403 32013 net.cpp:150] Setting up fc7_conv
I0325 14:23:46.032413 32013 net.cpp:157] Top shape: 8 256 8 32 (524288)
I0325 14:23:46.032415 32013 net.cpp:165] Memory required for data: 264241408
I0325 14:23:46.032420 32013 layer_factory.hpp:77] Creating layer relu7
I0325 14:23:46.032424 32013 net.cpp:100] Creating Layer relu7
I0325 14:23:46.032426 32013 net.cpp:434] relu7 <- fc7_conv
I0325 14:23:46.032430 32013 net.cpp:395] relu7 -> fc7_conv (in-place)
I0325 14:23:46.032434 32013 net.cpp:150] Setting up relu7
I0325 14:23:46.032438 32013 net.cpp:157] Top shape: 8 256 8 32 (524288)
I0325 14:23:46.032440 32013 net.cpp:165] Memory required for data: 266338560
I0325 14:23:46.032443 32013 layer_factory.hpp:77] Creating layer fc7_conv_relu7_0_split
I0325 14:23:46.032446 32013 net.cpp:100] Creating Layer fc7_conv_relu7_0_split
I0325 14:23:46.032449 32013 net.cpp:434] fc7_conv_relu7_0_split <- fc7_conv
I0325 14:23:46.032451 32013 net.cpp:408] fc7_conv_relu7_0_split -> fc7_conv_relu7_0_split_0
I0325 14:23:46.032455 32013 net.cpp:408] fc7_conv_relu7_0_split -> fc7_conv_relu7_0_split_1
I0325 14:23:46.032459 32013 net.cpp:408] fc7_conv_relu7_0_split -> fc7_conv_relu7_0_split_2
I0325 14:23:46.032495 32013 net.cpp:150] Setting up fc7_conv_relu7_0_split
I0325 14:23:46.032500 32013 net.cpp:157] Top shape: 8 256 8 32 (524288)
I0325 14:23:46.032502 32013 net.cpp:157] Top shape: 8 256 8 32 (524288)
I0325 14:23:46.032505 32013 net.cpp:157] Top shape: 8 256 8 32 (524288)
I0325 14:23:46.032507 32013 net.cpp:165] Memory required for data: 272630016
I0325 14:23:46.032510 32013 layer_factory.hpp:77] Creating layer conv6_1
I0325 14:23:46.032515 32013 net.cpp:100] Creating Layer conv6_1
I0325 14:23:46.032517 32013 net.cpp:434] conv6_1 <- fc7_conv_relu7_0_split_0
I0325 14:23:46.032521 32013 net.cpp:408] conv6_1 -> conv6_1
I0325 14:23:46.032760 32013 net.cpp:150] Setting up conv6_1
I0325 14:23:46.032765 32013 net.cpp:157] Top shape: 8 32 8 32 (65536)
I0325 14:23:46.032768 32013 net.cpp:165] Memory required for data: 272892160
I0325 14:23:46.032771 32013 layer_factory.hpp:77] Creating layer conv6_1_relu
I0325 14:23:46.032774 32013 net.cpp:100] Creating Layer conv6_1_relu
I0325 14:23:46.032778 32013 net.cpp:434] conv6_1_relu <- conv6_1
I0325 14:23:46.032780 32013 net.cpp:395] conv6_1_relu -> conv6_1 (in-place)
I0325 14:23:46.032784 32013 net.cpp:150] Setting up conv6_1_relu
I0325 14:23:46.032788 32013 net.cpp:157] Top shape: 8 32 8 32 (65536)
I0325 14:23:46.032789 32013 net.cpp:165] Memory required for data: 273154304
I0325 14:23:46.032793 32013 layer_factory.hpp:77] Creating layer conv6_2
I0325 14:23:46.032796 32013 net.cpp:100] Creating Layer conv6_2
I0325 14:23:46.032799 32013 net.cpp:434] conv6_2 <- conv6_1
I0325 14:23:46.032804 32013 net.cpp:408] conv6_2 -> conv6_2
I0325 14:23:46.033061 32013 net.cpp:150] Setting up conv6_2
I0325 14:23:46.033066 32013 net.cpp:157] Top shape: 8 64 4 16 (32768)
I0325 14:23:46.033067 32013 net.cpp:165] Memory required for data: 273285376
I0325 14:23:46.033077 32013 layer_factory.hpp:77] Creating layer conv6_2_relu
I0325 14:23:46.033082 32013 net.cpp:100] Creating Layer conv6_2_relu
I0325 14:23:46.033084 32013 net.cpp:434] conv6_2_relu <- conv6_2
I0325 14:23:46.033087 32013 net.cpp:395] conv6_2_relu -> conv6_2 (in-place)
I0325 14:23:46.033092 32013 net.cpp:150] Setting up conv6_2_relu
I0325 14:23:46.033094 32013 net.cpp:157] Top shape: 8 64 4 16 (32768)
I0325 14:23:46.033097 32013 net.cpp:165] Memory required for data: 273416448
I0325 14:23:46.033098 32013 layer_factory.hpp:77] Creating layer conv6_2_conv6_2_relu_0_split
I0325 14:23:46.033102 32013 net.cpp:100] Creating Layer conv6_2_conv6_2_relu_0_split
I0325 14:23:46.033104 32013 net.cpp:434] conv6_2_conv6_2_relu_0_split <- conv6_2
I0325 14:23:46.033107 32013 net.cpp:408] conv6_2_conv6_2_relu_0_split -> conv6_2_conv6_2_relu_0_split_0
I0325 14:23:46.033113 32013 net.cpp:408] conv6_2_conv6_2_relu_0_split -> conv6_2_conv6_2_relu_0_split_1
I0325 14:23:46.033118 32013 net.cpp:408] conv6_2_conv6_2_relu_0_split -> conv6_2_conv6_2_relu_0_split_2
I0325 14:23:46.033156 32013 net.cpp:150] Setting up conv6_2_conv6_2_relu_0_split
I0325 14:23:46.033160 32013 net.cpp:157] Top shape: 8 64 4 16 (32768)
I0325 14:23:46.033164 32013 net.cpp:157] Top shape: 8 64 4 16 (32768)
I0325 14:23:46.033166 32013 net.cpp:157] Top shape: 8 64 4 16 (32768)
I0325 14:23:46.033169 32013 net.cpp:165] Memory required for data: 273809664
I0325 14:23:46.033170 32013 layer_factory.hpp:77] Creating layer conv7_1
I0325 14:23:46.033176 32013 net.cpp:100] Creating Layer conv7_1
I0325 14:23:46.033179 32013 net.cpp:434] conv7_1 <- conv6_2_conv6_2_relu_0_split_0
I0325 14:23:46.033182 32013 net.cpp:408] conv7_1 -> conv7_1
I0325 14:23:46.033402 32013 net.cpp:150] Setting up conv7_1
I0325 14:23:46.033408 32013 net.cpp:157] Top shape: 8 16 4 16 (8192)
I0325 14:23:46.033411 32013 net.cpp:165] Memory required for data: 273842432
I0325 14:23:46.033414 32013 layer_factory.hpp:77] Creating layer conv7_1_relu
I0325 14:23:46.033417 32013 net.cpp:100] Creating Layer conv7_1_relu
I0325 14:23:46.033421 32013 net.cpp:434] conv7_1_relu <- conv7_1
I0325 14:23:46.033423 32013 net.cpp:395] conv7_1_relu -> conv7_1 (in-place)
I0325 14:23:46.033427 32013 net.cpp:150] Setting up conv7_1_relu
I0325 14:23:46.033430 32013 net.cpp:157] Top shape: 8 16 4 16 (8192)
I0325 14:23:46.033432 32013 net.cpp:165] Memory required for data: 273875200
I0325 14:23:46.033435 32013 layer_factory.hpp:77] Creating layer conv7_2
I0325 14:23:46.033440 32013 net.cpp:100] Creating Layer conv7_2
I0325 14:23:46.033442 32013 net.cpp:434] conv7_2 <- conv7_1
I0325 14:23:46.033447 32013 net.cpp:408] conv7_2 -> conv7_2
I0325 14:23:46.035543 32013 net.cpp:150] Setting up conv7_2
I0325 14:23:46.035548 32013 net.cpp:157] Top shape: 8 32 2 8 (4096)
I0325 14:23:46.035552 32013 net.cpp:165] Memory required for data: 273891584
I0325 14:23:46.035554 32013 layer_factory.hpp:77] Creating layer conv7_2_relu
I0325 14:23:46.035558 32013 net.cpp:100] Creating Layer conv7_2_relu
I0325 14:23:46.035560 32013 net.cpp:434] conv7_2_relu <- conv7_2
I0325 14:23:46.035563 32013 net.cpp:395] conv7_2_relu -> conv7_2 (in-place)
I0325 14:23:46.035567 32013 net.cpp:150] Setting up conv7_2_relu
I0325 14:23:46.035570 32013 net.cpp:157] Top shape: 8 32 2 8 (4096)
I0325 14:23:46.035573 32013 net.cpp:165] Memory required for data: 273907968
I0325 14:23:46.035575 32013 layer_factory.hpp:77] Creating layer conv7_2_conv7_2_relu_0_split
I0325 14:23:46.035578 32013 net.cpp:100] Creating Layer conv7_2_conv7_2_relu_0_split
I0325 14:23:46.035580 32013 net.cpp:434] conv7_2_conv7_2_relu_0_split <- conv7_2
I0325 14:23:46.035583 32013 net.cpp:408] conv7_2_conv7_2_relu_0_split -> conv7_2_conv7_2_relu_0_split_0
I0325 14:23:46.035588 32013 net.cpp:408] conv7_2_conv7_2_relu_0_split -> conv7_2_conv7_2_relu_0_split_1
I0325 14:23:46.035616 32013 net.cpp:150] Setting up conv7_2_conv7_2_relu_0_split
I0325 14:23:46.035620 32013 net.cpp:157] Top shape: 8 32 2 8 (4096)
I0325 14:23:46.035624 32013 net.cpp:157] Top shape: 8 32 2 8 (4096)
I0325 14:23:46.035625 32013 net.cpp:165] Memory required for data: 273940736
I0325 14:23:46.035630 32013 layer_factory.hpp:77] Creating layer conv4_3_norm
I0325 14:23:46.035634 32013 net.cpp:100] Creating Layer conv4_3_norm
I0325 14:23:46.035637 32013 net.cpp:434] conv4_3_norm <- conv4_3_relu4_3_0_split_1
I0325 14:23:46.035641 32013 net.cpp:408] conv4_3_norm -> conv4_3_norm
I0325 14:23:46.035756 32013 net.cpp:150] Setting up conv4_3_norm
I0325 14:23:46.035760 32013 net.cpp:157] Top shape: 8 128 16 64 (1048576)
I0325 14:23:46.035763 32013 net.cpp:165] Memory required for data: 278135040
I0325 14:23:46.035765 32013 layer_factory.hpp:77] Creating layer conv4_3_norm_conv4_3_norm_0_split
I0325 14:23:46.035769 32013 net.cpp:100] Creating Layer conv4_3_norm_conv4_3_norm_0_split
I0325 14:23:46.035771 32013 net.cpp:434] conv4_3_norm_conv4_3_norm_0_split <- conv4_3_norm
I0325 14:23:46.035775 32013 net.cpp:408] conv4_3_norm_conv4_3_norm_0_split -> conv4_3_norm_conv4_3_norm_0_split_0
I0325 14:23:46.035778 32013 net.cpp:408] conv4_3_norm_conv4_3_norm_0_split -> conv4_3_norm_conv4_3_norm_0_split_1
I0325 14:23:46.035806 32013 net.cpp:150] Setting up conv4_3_norm_conv4_3_norm_0_split
I0325 14:23:46.035810 32013 net.cpp:157] Top shape: 8 128 16 64 (1048576)
I0325 14:23:46.035814 32013 net.cpp:157] Top shape: 8 128 16 64 (1048576)
I0325 14:23:46.035815 32013 net.cpp:165] Memory required for data: 286523648
I0325 14:23:46.035817 32013 layer_factory.hpp:77] Creating layer conv4_3_norm_mbox_loc_conf
I0325 14:23:46.035822 32013 net.cpp:100] Creating Layer conv4_3_norm_mbox_loc_conf
I0325 14:23:46.035825 32013 net.cpp:434] conv4_3_norm_mbox_loc_conf <- conv4_3_norm_conv4_3_norm_0_split_0
I0325 14:23:46.035828 32013 net.cpp:408] conv4_3_norm_mbox_loc_conf -> conv4_3_norm_mbox_loc_conf
I0325 14:23:46.036154 32013 net.cpp:150] Setting up conv4_3_norm_mbox_loc_conf
I0325 14:23:46.036159 32013 net.cpp:157] Top shape: 8 36 16 64 (294912)
I0325 14:23:46.036161 32013 net.cpp:165] Memory required for data: 287703296
I0325 14:23:46.036165 32013 layer_factory.hpp:77] Creating layer conv4_3_norm_mbox_loc_conf_perm
I0325 14:23:46.036170 32013 net.cpp:100] Creating Layer conv4_3_norm_mbox_loc_conf_perm
I0325 14:23:46.036172 32013 net.cpp:434] conv4_3_norm_mbox_loc_conf_perm <- conv4_3_norm_mbox_loc_conf
I0325 14:23:46.036175 32013 net.cpp:408] conv4_3_norm_mbox_loc_conf_perm -> conv4_3_norm_mbox_loc_conf_perm
I0325 14:23:46.036257 32013 net.cpp:150] Setting up conv4_3_norm_mbox_loc_conf_perm
I0325 14:23:46.036262 32013 net.cpp:157] Top shape: 8 16 64 36 (294912)
I0325 14:23:46.036264 32013 net.cpp:165] Memory required for data: 288882944
I0325 14:23:46.036267 32013 layer_factory.hpp:77] Creating layer conv4_3_norm_mbox_loc_perm
I0325 14:23:46.036270 32013 net.cpp:100] Creating Layer conv4_3_norm_mbox_loc_perm
I0325 14:23:46.036273 32013 net.cpp:434] conv4_3_norm_mbox_loc_perm <- conv4_3_norm_mbox_loc_conf_perm
I0325 14:23:46.036276 32013 net.cpp:408] conv4_3_norm_mbox_loc_perm -> conv4_3_norm_mbox_loc_perm
I0325 14:23:46.036281 32013 net.cpp:408] conv4_3_norm_mbox_loc_perm -> conv4_3_norm_mbox_conf_perm
I0325 14:23:46.036309 32013 net.cpp:150] Setting up conv4_3_norm_mbox_loc_perm
I0325 14:23:46.036314 32013 net.cpp:157] Top shape: 8 16 64 24 (196608)
I0325 14:23:46.036316 32013 net.cpp:157] Top shape: 8 16 64 12 (98304)
I0325 14:23:46.036319 32013 net.cpp:165] Memory required for data: 290062592
I0325 14:23:46.036320 32013 layer_factory.hpp:77] Creating layer conv4_3_norm_mbox_loc_flat
I0325 14:23:46.036324 32013 net.cpp:100] Creating Layer conv4_3_norm_mbox_loc_flat
I0325 14:23:46.036327 32013 net.cpp:434] conv4_3_norm_mbox_loc_flat <- conv4_3_norm_mbox_loc_perm
I0325 14:23:46.036330 32013 net.cpp:408] conv4_3_norm_mbox_loc_flat -> conv4_3_norm_mbox_loc_flat
I0325 14:23:46.036352 32013 net.cpp:150] Setting up conv4_3_norm_mbox_loc_flat
I0325 14:23:46.036357 32013 net.cpp:157] Top shape: 8 24576 (196608)
I0325 14:23:46.036360 32013 net.cpp:165] Memory required for data: 290849024
I0325 14:23:46.036361 32013 layer_factory.hpp:77] Creating layer conv4_3_norm_mbox_conf_flat
I0325 14:23:46.036367 32013 net.cpp:100] Creating Layer conv4_3_norm_mbox_conf_flat
I0325 14:23:46.036370 32013 net.cpp:434] conv4_3_norm_mbox_conf_flat <- conv4_3_norm_mbox_conf_perm
I0325 14:23:46.036375 32013 net.cpp:408] conv4_3_norm_mbox_conf_flat -> conv4_3_norm_mbox_conf_flat
I0325 14:23:46.036392 32013 net.cpp:150] Setting up conv4_3_norm_mbox_conf_flat
I0325 14:23:46.036396 32013 net.cpp:157] Top shape: 8 12288 (98304)
I0325 14:23:46.036398 32013 net.cpp:165] Memory required for data: 291242240
I0325 14:23:46.036401 32013 layer_factory.hpp:77] Creating layer conv4_3_norm_mbox_priorbox
I0325 14:23:46.036406 32013 net.cpp:100] Creating Layer conv4_3_norm_mbox_priorbox
I0325 14:23:46.036407 32013 net.cpp:434] conv4_3_norm_mbox_priorbox <- conv4_3_norm_conv4_3_norm_0_split_1
I0325 14:23:46.036412 32013 net.cpp:434] conv4_3_norm_mbox_priorbox <- data_data_0_split_1
I0325 14:23:46.036414 32013 net.cpp:408] conv4_3_norm_mbox_priorbox -> conv4_3_norm_mbox_priorbox
I0325 14:23:46.036432 32013 net.cpp:150] Setting up conv4_3_norm_mbox_priorbox
I0325 14:23:46.036437 32013 net.cpp:157] Top shape: 1 2 24576 (49152)
I0325 14:23:46.036438 32013 net.cpp:165] Memory required for data: 291438848
I0325 14:23:46.036442 32013 layer_factory.hpp:77] Creating layer fc7_conv_mbox_loc_conf
I0325 14:23:46.036445 32013 net.cpp:100] Creating Layer fc7_conv_mbox_loc_conf
I0325 14:23:46.036448 32013 net.cpp:434] fc7_conv_mbox_loc_conf <- fc7_conv_relu7_0_split_1
I0325 14:23:46.036453 32013 net.cpp:408] fc7_conv_mbox_loc_conf -> fc7_conv_mbox_loc_conf
I0325 14:23:46.037653 32013 net.cpp:150] Setting up fc7_conv_mbox_loc_conf
I0325 14:23:46.037663 32013 net.cpp:157] Top shape: 8 36 8 32 (73728)
I0325 14:23:46.037665 32013 net.cpp:165] Memory required for data: 291733760
I0325 14:23:46.037670 32013 layer_factory.hpp:77] Creating layer fc7_conv_mbox_loc_conf_perm
I0325 14:23:46.037674 32013 net.cpp:100] Creating Layer fc7_conv_mbox_loc_conf_perm
I0325 14:23:46.037678 32013 net.cpp:434] fc7_conv_mbox_loc_conf_perm <- fc7_conv_mbox_loc_conf
I0325 14:23:46.037681 32013 net.cpp:408] fc7_conv_mbox_loc_conf_perm -> fc7_conv_mbox_loc_conf_perm
I0325 14:23:46.037761 32013 net.cpp:150] Setting up fc7_conv_mbox_loc_conf_perm
I0325 14:23:46.037765 32013 net.cpp:157] Top shape: 8 8 32 36 (73728)
I0325 14:23:46.037767 32013 net.cpp:165] Memory required for data: 292028672
I0325 14:23:46.037770 32013 layer_factory.hpp:77] Creating layer fc7_conv_mbox_loc_perm
I0325 14:23:46.037775 32013 net.cpp:100] Creating Layer fc7_conv_mbox_loc_perm
I0325 14:23:46.037776 32013 net.cpp:434] fc7_conv_mbox_loc_perm <- fc7_conv_mbox_loc_conf_perm
I0325 14:23:46.037781 32013 net.cpp:408] fc7_conv_mbox_loc_perm -> fc7_conv_mbox_loc_perm
I0325 14:23:46.037784 32013 net.cpp:408] fc7_conv_mbox_loc_perm -> fc7_conv_mbox_conf_perm
I0325 14:23:46.037812 32013 net.cpp:150] Setting up fc7_conv_mbox_loc_perm
I0325 14:23:46.037817 32013 net.cpp:157] Top shape: 8 8 32 24 (49152)
I0325 14:23:46.037819 32013 net.cpp:157] Top shape: 8 8 32 12 (24576)
I0325 14:23:46.037822 32013 net.cpp:165] Memory required for data: 292323584
I0325 14:23:46.037824 32013 layer_factory.hpp:77] Creating layer fc7_conv_mbox_loc_flat
I0325 14:23:46.037827 32013 net.cpp:100] Creating Layer fc7_conv_mbox_loc_flat
I0325 14:23:46.037830 32013 net.cpp:434] fc7_conv_mbox_loc_flat <- fc7_conv_mbox_loc_perm
I0325 14:23:46.037833 32013 net.cpp:408] fc7_conv_mbox_loc_flat -> fc7_conv_mbox_loc_flat
I0325 14:23:46.037852 32013 net.cpp:150] Setting up fc7_conv_mbox_loc_flat
I0325 14:23:46.037855 32013 net.cpp:157] Top shape: 8 6144 (49152)
I0325 14:23:46.037858 32013 net.cpp:165] Memory required for data: 292520192
I0325 14:23:46.037860 32013 layer_factory.hpp:77] Creating layer fc7_conv_mbox_conf_flat
I0325 14:23:46.037863 32013 net.cpp:100] Creating Layer fc7_conv_mbox_conf_flat
I0325 14:23:46.037866 32013 net.cpp:434] fc7_conv_mbox_conf_flat <- fc7_conv_mbox_conf_perm
I0325 14:23:46.037869 32013 net.cpp:408] fc7_conv_mbox_conf_flat -> fc7_conv_mbox_conf_flat
I0325 14:23:46.037889 32013 net.cpp:150] Setting up fc7_conv_mbox_conf_flat
I0325 14:23:46.037897 32013 net.cpp:157] Top shape: 8 3072 (24576)
I0325 14:23:46.037900 32013 net.cpp:165] Memory required for data: 292618496
I0325 14:23:46.037902 32013 layer_factory.hpp:77] Creating layer fc7_conv_mbox_priorbox
I0325 14:23:46.037906 32013 net.cpp:100] Creating Layer fc7_conv_mbox_priorbox
I0325 14:23:46.037909 32013 net.cpp:434] fc7_conv_mbox_priorbox <- fc7_conv_relu7_0_split_2
I0325 14:23:46.037912 32013 net.cpp:434] fc7_conv_mbox_priorbox <- data_data_0_split_2
I0325 14:23:46.037916 32013 net.cpp:408] fc7_conv_mbox_priorbox -> fc7_conv_mbox_priorbox
I0325 14:23:46.037935 32013 net.cpp:150] Setting up fc7_conv_mbox_priorbox
I0325 14:23:46.037938 32013 net.cpp:157] Top shape: 1 2 6144 (12288)
I0325 14:23:46.037941 32013 net.cpp:165] Memory required for data: 292667648
I0325 14:23:46.037943 32013 layer_factory.hpp:77] Creating layer conv6_2_mbox_loc_conf
I0325 14:23:46.037948 32013 net.cpp:100] Creating Layer conv6_2_mbox_loc_conf
I0325 14:23:46.037951 32013 net.cpp:434] conv6_2_mbox_loc_conf <- conv6_2_conv6_2_relu_0_split_1
I0325 14:23:46.037955 32013 net.cpp:408] conv6_2_mbox_loc_conf -> conv6_2_mbox_loc_conf
I0325 14:23:46.038228 32013 net.cpp:150] Setting up conv6_2_mbox_loc_conf
I0325 14:23:46.038233 32013 net.cpp:157] Top shape: 8 36 4 16 (18432)
I0325 14:23:46.038235 32013 net.cpp:165] Memory required for data: 292741376
I0325 14:23:46.038239 32013 layer_factory.hpp:77] Creating layer conv6_2_mbox_loc_conf_perm
I0325 14:23:46.038244 32013 net.cpp:100] Creating Layer conv6_2_mbox_loc_conf_perm
I0325 14:23:46.038245 32013 net.cpp:434] conv6_2_mbox_loc_conf_perm <- conv6_2_mbox_loc_conf
I0325 14:23:46.038249 32013 net.cpp:408] conv6_2_mbox_loc_conf_perm -> conv6_2_mbox_loc_conf_perm
I0325 14:23:46.038332 32013 net.cpp:150] Setting up conv6_2_mbox_loc_conf_perm
I0325 14:23:46.038336 32013 net.cpp:157] Top shape: 8 4 16 36 (18432)
I0325 14:23:46.038338 32013 net.cpp:165] Memory required for data: 292815104
I0325 14:23:46.038341 32013 layer_factory.hpp:77] Creating layer conv6_2_mbox_loc_perm
I0325 14:23:46.038344 32013 net.cpp:100] Creating Layer conv6_2_mbox_loc_perm
I0325 14:23:46.038347 32013 net.cpp:434] conv6_2_mbox_loc_perm <- conv6_2_mbox_loc_conf_perm
I0325 14:23:46.038350 32013 net.cpp:408] conv6_2_mbox_loc_perm -> conv6_2_mbox_loc_perm
I0325 14:23:46.038354 32013 net.cpp:408] conv6_2_mbox_loc_perm -> conv6_2_mbox_conf_perm
I0325 14:23:46.038383 32013 net.cpp:150] Setting up conv6_2_mbox_loc_perm
I0325 14:23:46.038386 32013 net.cpp:157] Top shape: 8 4 16 24 (12288)
I0325 14:23:46.038389 32013 net.cpp:157] Top shape: 8 4 16 12 (6144)
I0325 14:23:46.038391 32013 net.cpp:165] Memory required for data: 292888832
I0325 14:23:46.038393 32013 layer_factory.hpp:77] Creating layer conv6_2_mbox_loc_flat
I0325 14:23:46.038401 32013 net.cpp:100] Creating Layer conv6_2_mbox_loc_flat
I0325 14:23:46.038403 32013 net.cpp:434] conv6_2_mbox_loc_flat <- conv6_2_mbox_loc_perm
I0325 14:23:46.038408 32013 net.cpp:408] conv6_2_mbox_loc_flat -> conv6_2_mbox_loc_flat
I0325 14:23:46.038425 32013 net.cpp:150] Setting up conv6_2_mbox_loc_flat
I0325 14:23:46.038429 32013 net.cpp:157] Top shape: 8 1536 (12288)
I0325 14:23:46.038431 32013 net.cpp:165] Memory required for data: 292937984
I0325 14:23:46.038434 32013 layer_factory.hpp:77] Creating layer conv6_2_mbox_conf_flat
I0325 14:23:46.038437 32013 net.cpp:100] Creating Layer conv6_2_mbox_conf_flat
I0325 14:23:46.038439 32013 net.cpp:434] conv6_2_mbox_conf_flat <- conv6_2_mbox_conf_perm
I0325 14:23:46.038442 32013 net.cpp:408] conv6_2_mbox_conf_flat -> conv6_2_mbox_conf_flat
I0325 14:23:46.038460 32013 net.cpp:150] Setting up conv6_2_mbox_conf_flat
I0325 14:23:46.038463 32013 net.cpp:157] Top shape: 8 768 (6144)
I0325 14:23:46.038465 32013 net.cpp:165] Memory required for data: 292962560
I0325 14:23:46.038467 32013 layer_factory.hpp:77] Creating layer conv6_2_mbox_priorbox
I0325 14:23:46.038471 32013 net.cpp:100] Creating Layer conv6_2_mbox_priorbox
I0325 14:23:46.038475 32013 net.cpp:434] conv6_2_mbox_priorbox <- conv6_2_conv6_2_relu_0_split_2
I0325 14:23:46.038477 32013 net.cpp:434] conv6_2_mbox_priorbox <- data_data_0_split_3
I0325 14:23:46.038483 32013 net.cpp:408] conv6_2_mbox_priorbox -> conv6_2_mbox_priorbox
I0325 14:23:46.038502 32013 net.cpp:150] Setting up conv6_2_mbox_priorbox
I0325 14:23:46.038506 32013 net.cpp:157] Top shape: 1 2 1536 (3072)
I0325 14:23:46.038508 32013 net.cpp:165] Memory required for data: 292974848
I0325 14:23:46.038511 32013 layer_factory.hpp:77] Creating layer conv7_2_mbox_loc_conf
I0325 14:23:46.038516 32013 net.cpp:100] Creating Layer conv7_2_mbox_loc_conf
I0325 14:23:46.038518 32013 net.cpp:434] conv7_2_mbox_loc_conf <- conv7_2_conv7_2_relu_0_split_0
I0325 14:23:46.038522 32013 net.cpp:408] conv7_2_mbox_loc_conf -> conv7_2_mbox_loc_conf
I0325 14:23:46.038758 32013 net.cpp:150] Setting up conv7_2_mbox_loc_conf
I0325 14:23:46.038763 32013 net.cpp:157] Top shape: 8 36 2 8 (4608)
I0325 14:23:46.038764 32013 net.cpp:165] Memory required for data: 292993280
I0325 14:23:46.038769 32013 layer_factory.hpp:77] Creating layer conv7_2_mbox_loc_conf_perm
I0325 14:23:46.038771 32013 net.cpp:100] Creating Layer conv7_2_mbox_loc_conf_perm
I0325 14:23:46.038774 32013 net.cpp:434] conv7_2_mbox_loc_conf_perm <- conv7_2_mbox_loc_conf
I0325 14:23:46.038779 32013 net.cpp:408] conv7_2_mbox_loc_conf_perm -> conv7_2_mbox_loc_conf_perm
I0325 14:23:46.038864 32013 net.cpp:150] Setting up conv7_2_mbox_loc_conf_perm
I0325 14:23:46.038869 32013 net.cpp:157] Top shape: 8 2 8 36 (4608)
I0325 14:23:46.038872 32013 net.cpp:165] Memory required for data: 293011712
I0325 14:23:46.038874 32013 layer_factory.hpp:77] Creating layer conv7_2_mbox_loc_perm
I0325 14:23:46.038877 32013 net.cpp:100] Creating Layer conv7_2_mbox_loc_perm
I0325 14:23:46.038880 32013 net.cpp:434] conv7_2_mbox_loc_perm <- conv7_2_mbox_loc_conf_perm
I0325 14:23:46.038883 32013 net.cpp:408] conv7_2_mbox_loc_perm -> conv7_2_mbox_loc_perm
I0325 14:23:46.038887 32013 net.cpp:408] conv7_2_mbox_loc_perm -> conv7_2_mbox_conf_perm
I0325 14:23:46.038915 32013 net.cpp:150] Setting up conv7_2_mbox_loc_perm
I0325 14:23:46.038919 32013 net.cpp:157] Top shape: 8 2 8 24 (3072)
I0325 14:23:46.038923 32013 net.cpp:157] Top shape: 8 2 8 12 (1536)
I0325 14:23:46.038924 32013 net.cpp:165] Memory required for data: 293030144
I0325 14:23:46.038926 32013 layer_factory.hpp:77] Creating layer conv7_2_mbox_loc_flat
I0325 14:23:46.038930 32013 net.cpp:100] Creating Layer conv7_2_mbox_loc_flat
I0325 14:23:46.038933 32013 net.cpp:434] conv7_2_mbox_loc_flat <- conv7_2_mbox_loc_perm
I0325 14:23:46.038935 32013 net.cpp:408] conv7_2_mbox_loc_flat -> conv7_2_mbox_loc_flat
I0325 14:23:46.038952 32013 net.cpp:150] Setting up conv7_2_mbox_loc_flat
I0325 14:23:46.038956 32013 net.cpp:157] Top shape: 8 384 (3072)
I0325 14:23:46.038959 32013 net.cpp:165] Memory required for data: 293042432
I0325 14:23:46.038960 32013 layer_factory.hpp:77] Creating layer conv7_2_mbox_conf_flat
I0325 14:23:46.038964 32013 net.cpp:100] Creating Layer conv7_2_mbox_conf_flat
I0325 14:23:46.038966 32013 net.cpp:434] conv7_2_mbox_conf_flat <- conv7_2_mbox_conf_perm
I0325 14:23:46.038969 32013 net.cpp:408] conv7_2_mbox_conf_flat -> conv7_2_mbox_conf_flat
I0325 14:23:46.038986 32013 net.cpp:150] Setting up conv7_2_mbox_conf_flat
I0325 14:23:46.038990 32013 net.cpp:157] Top shape: 8 192 (1536)
I0325 14:23:46.038992 32013 net.cpp:165] Memory required for data: 293048576
I0325 14:23:46.038995 32013 layer_factory.hpp:77] Creating layer conv7_2_mbox_priorbox
I0325 14:23:46.038998 32013 net.cpp:100] Creating Layer conv7_2_mbox_priorbox
I0325 14:23:46.039001 32013 net.cpp:434] conv7_2_mbox_priorbox <- conv7_2_conv7_2_relu_0_split_1
I0325 14:23:46.039005 32013 net.cpp:434] conv7_2_mbox_priorbox <- data_data_0_split_4
I0325 14:23:46.039007 32013 net.cpp:408] conv7_2_mbox_priorbox -> conv7_2_mbox_priorbox
I0325 14:23:46.039026 32013 net.cpp:150] Setting up conv7_2_mbox_priorbox
I0325 14:23:46.039029 32013 net.cpp:157] Top shape: 1 2 384 (768)
I0325 14:23:46.039031 32013 net.cpp:165] Memory required for data: 293051648
I0325 14:23:46.039033 32013 layer_factory.hpp:77] Creating layer mbox_loc
I0325 14:23:46.039041 32013 net.cpp:100] Creating Layer mbox_loc
I0325 14:23:46.039043 32013 net.cpp:434] mbox_loc <- conv4_3_norm_mbox_loc_flat
I0325 14:23:46.039047 32013 net.cpp:434] mbox_loc <- fc7_conv_mbox_loc_flat
I0325 14:23:46.039049 32013 net.cpp:434] mbox_loc <- conv6_2_mbox_loc_flat
I0325 14:23:46.039052 32013 net.cpp:434] mbox_loc <- conv7_2_mbox_loc_flat
I0325 14:23:46.039055 32013 net.cpp:408] mbox_loc -> mbox_loc
I0325 14:23:46.039074 32013 net.cpp:150] Setting up mbox_loc
I0325 14:23:46.039078 32013 net.cpp:157] Top shape: 8 32640 (261120)
I0325 14:23:46.039080 32013 net.cpp:165] Memory required for data: 294096128
I0325 14:23:46.039083 32013 layer_factory.hpp:77] Creating layer mbox_conf
I0325 14:23:46.039086 32013 net.cpp:100] Creating Layer mbox_conf
I0325 14:23:46.039088 32013 net.cpp:434] mbox_conf <- conv4_3_norm_mbox_conf_flat
I0325 14:23:46.039093 32013 net.cpp:434] mbox_conf <- fc7_conv_mbox_conf_flat
I0325 14:23:46.039095 32013 net.cpp:434] mbox_conf <- conv6_2_mbox_conf_flat
I0325 14:23:46.039098 32013 net.cpp:434] mbox_conf <- conv7_2_mbox_conf_flat
I0325 14:23:46.039100 32013 net.cpp:408] mbox_conf -> mbox_conf
I0325 14:23:46.039118 32013 net.cpp:150] Setting up mbox_conf
I0325 14:23:46.039121 32013 net.cpp:157] Top shape: 8 16320 (130560)
I0325 14:23:46.039124 32013 net.cpp:165] Memory required for data: 294618368
I0325 14:23:46.039125 32013 layer_factory.hpp:77] Creating layer mbox_priorbox
I0325 14:23:46.039129 32013 net.cpp:100] Creating Layer mbox_priorbox
I0325 14:23:46.039131 32013 net.cpp:434] mbox_priorbox <- conv4_3_norm_mbox_priorbox
I0325 14:23:46.039134 32013 net.cpp:434] mbox_priorbox <- fc7_conv_mbox_priorbox
I0325 14:23:46.039137 32013 net.cpp:434] mbox_priorbox <- conv6_2_mbox_priorbox
I0325 14:23:46.039140 32013 net.cpp:434] mbox_priorbox <- conv7_2_mbox_priorbox
I0325 14:23:46.039144 32013 net.cpp:408] mbox_priorbox -> mbox_priorbox
I0325 14:23:46.039160 32013 net.cpp:150] Setting up mbox_priorbox
I0325 14:23:46.039165 32013 net.cpp:157] Top shape: 1 2 32640 (65280)
I0325 14:23:46.039166 32013 net.cpp:165] Memory required for data: 294879488
I0325 14:23:46.039168 32013 layer_factory.hpp:77] Creating layer mbox_conf_reshape
I0325 14:23:46.039173 32013 net.cpp:100] Creating Layer mbox_conf_reshape
I0325 14:23:46.039175 32013 net.cpp:434] mbox_conf_reshape <- mbox_conf
I0325 14:23:46.039180 32013 net.cpp:408] mbox_conf_reshape -> mbox_conf_reshape
I0325 14:23:46.039198 32013 net.cpp:150] Setting up mbox_conf_reshape
I0325 14:23:46.039202 32013 net.cpp:157] Top shape: 8 8160 2 (130560)
I0325 14:23:46.039204 32013 net.cpp:165] Memory required for data: 295401728
I0325 14:23:46.039206 32013 layer_factory.hpp:77] Creating layer mbox_conf_softmax
I0325 14:23:46.039211 32013 net.cpp:100] Creating Layer mbox_conf_softmax
I0325 14:23:46.039212 32013 net.cpp:434] mbox_conf_softmax <- mbox_conf_reshape
I0325 14:23:46.039216 32013 net.cpp:408] mbox_conf_softmax -> mbox_conf_softmax
I0325 14:23:46.039265 32013 net.cpp:150] Setting up mbox_conf_softmax
I0325 14:23:46.039269 32013 net.cpp:157] Top shape: 8 8160 2 (130560)
I0325 14:23:46.039271 32013 net.cpp:165] Memory required for data: 295923968
I0325 14:23:46.039274 32013 layer_factory.hpp:77] Creating layer mbox_conf_flatten
I0325 14:23:46.039278 32013 net.cpp:100] Creating Layer mbox_conf_flatten
I0325 14:23:46.039279 32013 net.cpp:434] mbox_conf_flatten <- mbox_conf_softmax
I0325 14:23:46.039283 32013 net.cpp:408] mbox_conf_flatten -> mbox_conf_flatten
I0325 14:23:46.039299 32013 net.cpp:150] Setting up mbox_conf_flatten
I0325 14:23:46.039304 32013 net.cpp:157] Top shape: 8 16320 (130560)
I0325 14:23:46.039305 32013 net.cpp:165] Memory required for data: 296446208
I0325 14:23:46.039309 32013 layer_factory.hpp:77] Creating layer detection_out
I0325 14:23:46.039314 32013 net.cpp:100] Creating Layer detection_out
I0325 14:23:46.039316 32013 net.cpp:434] detection_out <- mbox_loc
I0325 14:23:46.039319 32013 net.cpp:434] detection_out <- mbox_conf_flatten
I0325 14:23:46.039321 32013 net.cpp:434] detection_out <- mbox_priorbox
I0325 14:23:46.039327 32013 net.cpp:408] detection_out -> detection_out
I0325 14:23:46.039875 32013 net.cpp:150] Setting up detection_out
I0325 14:23:46.039881 32013 net.cpp:157] Top shape: 1 1 1 7 (7)
I0325 14:23:46.039885 32013 net.cpp:165] Memory required for data: 296446236
I0325 14:23:46.039886 32013 layer_factory.hpp:77] Creating layer detection_eval
I0325 14:23:46.039891 32013 net.cpp:100] Creating Layer detection_eval
I0325 14:23:46.039894 32013 net.cpp:434] detection_eval <- detection_out
I0325 14:23:46.039897 32013 net.cpp:434] detection_eval <- label
I0325 14:23:46.039901 32013 net.cpp:408] detection_eval -> detection_eval
I0325 14:23:46.040123 32013 net.cpp:150] Setting up detection_eval
I0325 14:23:46.040128 32013 net.cpp:157] Top shape: 1 1 2 5 (10)
I0325 14:23:46.040130 32013 net.cpp:165] Memory required for data: 296446276
I0325 14:23:46.040133 32013 net.cpp:228] detection_eval does not need backward computation.
I0325 14:23:46.040136 32013 net.cpp:228] detection_out does not need backward computation.
I0325 14:23:46.040139 32013 net.cpp:228] mbox_conf_flatten does not need backward computation.
I0325 14:23:46.040141 32013 net.cpp:228] mbox_conf_softmax does not need backward computation.
…
